trained/jvrc_step/actor_10499.pt (torch, 322033 bytes, 9 tensors)

weight f4 [256, 39]
00000000: 81a9 f5bd 6d57 0cbe b718 b1bd 9780 47be
00000010: 2aa4 0bbd d81a bbbe b0b9 14be 618b 6abe
00000020: 19f3 2dbf 7077 40be 75fa cfbe 1cea af3e
00000030: 2de3 7bbd 13b2 d03c 7482 993d cad5 413d
00000040: f21d 7fbe dfb0 a1be c2d7 ef3b 6e86 aabd
00000050: dead 983d de5d 7ebd bd9a 8cbe d1c4 1b3f
00000060: 8ee2 d2be b583 6d3d c7ad 343e 32fd 8c3d
00000070: 6310 8c3c e9db 21be c620 b53c f05a 2dbe
00000080: 5ec5 88bd edde 60be b449 d53d 8e61 5ebd
00000090: 1447 833e c1eb 75bc b3a9 b1bd 1fd1 753e
000000a0: 70f8 4cbe 475d 033e fa12 123f 6575 cabd
000000b0: fd2b 073e fd5b 0fbe 3939 073e b4ad 3d3e
000000c0: f9b0 853d 7004 27be 4c3d cd3d af58 c43e
000000d0: 762f 853d ec59 c6bd c239 513e 2ec4 24be
000000e0: 2cae 423e d14b 42bd 0bbe d83e 70cd 7e3c
000000f0: 7fd3 c83c d8b9 3abe 5203 7cbe 3526 953d
00000100: 2fef 243d 247c 80be 080f a8bc a32a 99be
00000110: c807 23bd 3bf5 82bd f883 1d3e 606a acbd
00000120: f6b4 43be fa41 c7be bb81 2f3e a217 c93e
00000130: 4668 13be ef91 a73e 9cd9 8e3e 687b c9be
00000140: 1774 0b3d 4b44 2fbf 19e5 dc3c 9095 ccbe
00000150: 3d3c e2bd d67d 1fbe b9b9 b4bd 46b6 df3d
00000160: a2b1 343e 8d04 50be 289b 56be 92c3 45be
00000170: 62c0 b93d 3c3e d63d 812c 893e 30c1 453e
00000180: 7539 acbd 7adb de3e 7088 ea3d e2b1 1b3e
00000190: 875f 1fbc acf1 18be 6927 ecbc d5e6 48be
000001a0: ec00 3f3e 9a43 b23e 673d 063f 6cf0 56be
000001b0: 3e90 d5bc dc8d e0bd 88c7 19be 7ff6 4fbd
000001c0: f0ca 6f3d 1ffb ac3c 2869 533e c507 b33d
000001d0: 6169 293e 8c8d a23e cdc5 aabe 3870 8a3e
000001e0: e05f febe c99b 8b3c b726 33be ffa9 c83d
000001f0: 61bd aabe d7fa 9c3e fda1 ccbe 84af 033f
00000200: 5eec 003e 30c0 1ebe d9bd a73e 5f94 353e
00000210: 8869 13be fed9 5a3e a4cf 92be b20a 243f
00000220: ef97 15be 0ba3 8d3e b48e 84be 67e1 cb3e
00000230: 52b8 223e 3928 e2be 69ff 923d ac5f ce3b
00000240: 05d6 1abb 8427 48be c3f9 963d cc3e 24be
00000250: a24e 523e 59f4 153d 1ba2 49bd 5b3f 613d
00000260: 79bf 97be 7e90 303c 3d15 343e 3e40 c3bc
00000270: ecb4 55bb 1f81 303e b9e7 8d3e 3594 7a3e
00000280: b852 003e 6bc2 9dbe 2bd6 203e 5b61 113d
00000290: 120c f3bd e396 22be 167e b83c 5915 3e3e
000002a0: 5231 c63c f965 08be 5eec 92be 2339 f93d
000002b0: 6cee f6bd b9b4 1d3f 8eab f13e 2565 a63e
000002c0: 0179 803e 9224 af3e 517d acbe 41cd 1cbe
000002d0: 6db6 253e 5c16 77be 912a 97bd 8982 d03d
000002e0: a213 cd3d 677b 1b3e 0c95 5abe 440e 5ebd
000002f0: 9b27 bcbc bca0 dcbd 52ae 02be 23cf ad3d
00000300: d324 723e 3230 7abe 599b f7bc 5fd5 22be
00000310: 1f36 793e 0389 c03d 8e2b cf3e e3a2 e63d
00000320: 1533 073e 600d bdbc 4a8b c93d eec7 bb3c
00000330: c9e8 e0be 4be3 b2be b85f b4bd 9af6 96bd
00000340: a779 eebd d88d a2bc 914a 033e 0f1f e33e
00000350: e331 f5be 97f5 db3d 3df2 9bbe e7cb 203f
00000360: d2da 21bf f017 88be 66c5 88be a6da 963d
00000370: 4268 323e df43 2b3e d9dd 85bb 106d ee3c
00000380: acc5 90bd 0455 80be de34 49bd eca3 2e3e
00000390: 23e8 89bd 4904 a23d 07db c53e 3463 a33e
000003a0: 8bea 743d 9277 383e 2150 bcbb b611 f93e
000003b0: 0c7c 78bd c3bd 0a3f 3ea8 293e 691d 4e3d
000003c0: 9e9a 5aba 253c 34bc 90ae f83c 1a42 833a
000003d0: 9b27 a9be af95 633c 4886 493e 3f3b 55be
000003e0: e3e2 9dbe 39e7 ba3e 02a4 0bbf b94a 4abe
000003f0: b39c 7fbe 03a4 07be 78c1 143d b6fc 2b3e
-0.11995221 -0.13705225 -0.08647292 -0.19482647 -0.034092106 -0.36543918 -0.14523959 -0.22904731
-0.6794906 -0.18795562 -0.4062077 0.343583 -0.06149595 0.025475537 0.07495585 0.047323026
-0.24913767 -0.31580254 0.0073194215 -0.08326422 0.074550375 -0.062101237 -0.27461806 0.60847193
-0.41188473 0.057986934 0.17644416 0.06884231 0.017097658 -0.15806545 0.022110354 -0.16929221
-0.0667827 -0.2196004 0.104144484 -0.054292254 0.25640166 -0.015009821 -0.08674946 0.24005555
-0.20016646 0.12828551 0.57060206 -0.098856725 0.13200374 -0.13999934 0.13205422 0.18523294
0.065278955 -0.16310287 0.10021457 0.3834891 0.06503193 -0.0968512 0.20432189 -0.16090462
0.19011754 -0.047435585 0.4233249 0.01555191 0.024514912 -0.18234956 -0.24610642 0.07282678
0.040267166 -0.25094712 -0.02051498 -0.29915342 -0.039802343 -0.0639443 0.15382373 -0.08418727
-0.19112 -0.38917524 0.17139332 0.39275843 -0.14395246 0.32728526 0.27900398 -0.39351964
0.03404626 -0.6846358 0.026964711 -0.39957857 -0.11046646 -0.15575346 -0.08824486 0.10923438
0.17645887 -0.20314236 -0.20957625 -0.19312885 0.09069897 0.10461089 0.26791766 0.19311976
-0.084093966 0.43526822 0.11451805 0.15204576 -0.009727365 -0.1493594 -0.028827386 -0.19619305
0.18652695 0.348172 0.5243744 -0.20990151 -0.026069757 -0.109645575 -0.15017521 -0.050772186
0.058543146 0.021115838 0.20645583 0.08741716 0.16544105 0.31748617 -0.33354035 0.2703874
-0.49682522 0.017042058 -0.17495237 0.09798049 -0.3334761 0.30660126 -0.39967337 0.5143969
0.12590167 -0.15503001 0.3276203 0.1773238 -0.14395726 0.2137222 -0.28674042 0.6407882
-0.1460874 0.27663454 -0.25890124 0.39820406 0.15890625 -0.44171312 0.07177622 0.006298026
-0.00236261 -0.19546324 0.07371857 -0.1603958 0.20537809 0.03660998 -0.04922686 0.05499206
-0.2963827 0.010776637 0.17586227 -0.023834344 -0.0032609059 0.17236756 0.27715853 0.24470599
0.12531555 -0.30812392 0.15706699 0.035493236 -0.118675366 -0.15877871 0.02252106 0.18562831
0.02419344 -0.1332015 -0.2869596 0.12169101 -0.12057194 0.61603886 0.47201198 0.32499042
0.2509232 0.34207588 -0.3368936 -0.15312673 0.16182871 -0.24129623 -0.07381166 0.101811476
0.1001351 0.15183793 -0.2134592 -0.054212824 -0.022968104 -0.10772845 -0.1276181 0.08486774
0.2364686 -0.24432448 -0.030225443 -0.15901707 0.24337052 0.09401133 0.40462917 0.11261537
0.1320308 -0.023077667 0.098410204 0.022922482 -0.439276 -0.34939036 -0.088073194 -0.07371254
-0.11644297 -0.019843027 0.12821414 0.44359633 -0.47889623 0.10740202 -0.3045825 0.6281113
-0.6322452 -0.26580763 -0.26713103 0.07365923 0.17422584 0.1672511 -0.004085284 0.02910474
-0.07068953 -0.25064862 -0.049122684 0.17054719 -0.0673373 0.079109736 0.38643667 0.31911623
0.05979399 0.18014362 -0.005746857 0.48646325 -0.060665175 0.54195803 0.16568086 0.050321016
-0.000833908 -0.011000668 0.030356675 0.0010014207 -0.3303803 0.013890668 0.1968013 -0.20823382
-0.30837163 0.36504534 -0.5454713 -0.19755067 -0.2496212 -0.1324616 0.03631732 0.1679562

bias f4 [256]
00000000: bf5b 4ebe e52e 36bb 4c86 3cbc 736a fabd
00000010: e94e a3be 319f 54bc 56a7 54be 9255 843c
00000020: 103d 47be 0e56 18bd cf67 e8bd a3de 4ebd
00000030: c9fc 35be 5ea8 1bbe eb3b 27bc 6394 71bd
00000040: 2c9f f4bd 2edd c1bd de72 38bc 1666 2ebe
00000050: 757e 52be 4a8f cbbd 4883 27be 6afe 17bd
00000060: 3e5f 9dbe 0352 34bd 9a50 95bd f062 08bd
00000070: 77d2 f3bd 6396 20be 8118 6dbd 995f b0bd
00000080: ff59 85be 76c0 58be d6f9 50bd b8d7 abbc
00000090: eba7 1bbe e19f cebd ad53 1bbe 77dd 71be
000000a0: 49be ebbd 497a f4bd f952 6d3c 864c 81be
000000b0: adaa 0cbe 5254 d9bb bc90 75be 82d7 41bd
000000c0: 50ec 22be 69d7 54be 3169 5abe 16ff 3f3d
000000d0: 4c8a d3bd c244 e9bd 5376 fbbd 6c3d 3bbe
000000e0: 7845 28be d746 26be 30a2 95be 2884 f3bc
000000f0: cf80 9ebd 4c1a 25be 9ff4 b2bd 397c fbbd
00000100: a10e 1abe 9313 b5be 45e5 9dbe f46b edbd
00000110: aa6e a03c 9220 f7bd 7c64 28be e392 7fbd
00000120: a96f 71be 2914 acbd 9af2 c6bd b1d4 69bd
00000130: 2fe1 23be 61d2 2dbd 4e59 a4bd b119 c5bd
00000140: 70ec d4bd 156e b1bd 6ba0 25be 12ed cabd
00000150: 59de 5dbe 4315 26bc 3e1d a2bd e007 a8bd
00000160: 6845 20be 64af 30bd 6b94 04be ed71 dcbd
00000170: a11b 8bbd 982b 10be 3751 dbbb 528f 67be
00000180: e9ee 11bd 43ed 0cbe 7e7c 24be d93c acbe
00000190: 8dec 06bd ebb0 17be 7f60 d9bd 0c6c 72bd
000001a0: f6d4 0ebe e1e6 55be 9336 06be 3a46 2dbe
000001b0: f5c3 83be d4e7 6cbd fcd5 ebbd d535 21bd
000001c0: 2590 41be 2705 9d3c c298 24be 497c 09be
000001d0: 3a76 7bbe 14a9 5abe 15a6 0cbe 6597 65bd
000001e0: 86d3 b5be 4cbc 18be 07f2 92bd b5b6 43be
000001f0: b29f 25bd 1ee9 27bd 12d9 7cbe d85b 4e3d
00000200: 7a61 22be 0808 03be c8f9 f5bd 2671 ebbd
00000210: 079f 22bd a38e 4fbe 3868 0cbe 9e32 1bbe
00000220: 0af8 68bd ba42 36be a455 3ebe dfb8 4bbe
00000230: 7b42 cdbd eec8 50be 9961 13be eecd 15bd
00000240: 6885 1fbe b872 f2bd f010 78be 83c4 80bc
00000250: 62f0 bebd 5131 26bd 642c 5dbd 2075 79be
00000260: 732e d7bd 0860 aebd b58f 12be 2cee a03c
00000270: 2ba0 4dbe ad17 6bbe 2e20 2fbe b631 02be
00000280: e04b 1cbd dbbf c1bc a055 00be 65c4 03be
00000290: 77a4 9dbd 7ec5 303d 5382 5fbe 6a72 04be
000002a0: 5693 0fbe 8806 02be 4574 80bd 9e97 42bd
000002b0: e3f4 63be 39b4 12be 2f5c 3abe 9a54 43bd
000002c0: 5f26 60be cf86 d2bd 74df e8bd 0a08 b2bd
000002d0: 61bd 8cbd c2aa 87bd 4c82 08be 22df 37be
000002e0: b5ba 96be 9b1c 79be 712b 0fbe bacf 6ebe
000002f0: ce32 4bbe 4227 dcbd 1351 55be 4010 4dbe
00000300: c132 25bd d693 96bd fac0 1dbe 9553 39be
00000310: 6b84 cabb 4d73 983d b6d0 3abe 1435 febd
00000320: 190b d6bc 77b5 b9bc 7776 a7be 2b11 fb3b
00000330: 8063 1f3d 254c e2bd 3063 16be 1093 b9bd
00000340: 8c17 a3bb 150f d7bd 94ce 83be f14a c2bd
00000350: 60ed 19be d3b7 49be 097d 9bbc 2951 2e3c
00000360: 3726 acbd 3acd aabd 7ec6 4ebe 2c6d 18be
00000370: 7316 50bd 0f75 6bbe 06bc 1ebe c9f9 0bbe
00000380: 0179 5abe a9be 7abd 686d 43be 0e54 18be
00000390: d3b5 80be 8bc7 88be fe84 61bd 74e1 083d
000003a0: ecac 20be 4567 9ebc 9cf1 3abe 8d4a 8fbc
000003b0: 220a 65bd c72b e5bd 01f3 3cbe ce03 3bbe
000003c0: 4490 46be be98 18be 608c 0fbe a0ac 433c
000003d0: b74c 3bbe f97a 1dbe 1c9b 05be c14c d8bd
000003e0: 695e 84be b755 47bb bf4d 6a3b 2399 6abd
000003f0: 8a10 87bd caad b9bd 1ee6 60bd 11f6 38be
-0.20152186 -0.0027798947 -0.011506628 -0.12227335 -0.3189614 -0.012977407 -0.20766959 0.016154084
-0.19456887 -0.037191443 -0.11347925 -0.05050529 -0.17772211 -0.15200946 -0.010207157 -0.058979403
-0.11944422 -0.09466015 -0.011257855 -0.1703113 -0.20556052 -0.099394396 -0.16358674 -0.037107863
-0.30736727 -0.044023525 -0.07290764 -0.03329748 -0.11905377 -0.15682368 -0.057884697 -0.08611984
-0.26045224 -0.21167168 -0.051019512 -0.020976886 -0.15200774 -0.10089088 -0.15168639 -0.23619638
-0.115109034 -0.119373865 0.014485114 -0.25253695 -0.13736983 -0.006632366 -0.23980993 -0.047324665
-0.15910459 -0.20785297 -0.2132919 0.04687413 -0.103291124 -0.11390068 -0.12278428 -0.1828515
-0.1643275 -0.16237961 -0.29225302 -0.029726103 -0.07739412 -0.16123313 -0.08738064 -0.12279553
-0.15044643 -0.35366496 -0.3083898 -0.11592856 0.019584019 -0.12066759 -0.16444582 -0.06239594
-0.23577751 -0.08402283 -0.09714241 -0.057087604 -0.1600387 -0.04243696 -0.08024846 -0.09624041
-0.103966594 -0.086635746 -0.16174476 -0.09908499 -0.2166685 -0.010136905 -0.07915734 -0.08204627
-0.15651476 -0.043136016 -0.12947242 -0.10763917 -0.06792379 -0.1407913 -0.006693031 -0.22613266
-0.035628233 -0.13762383 -0.16063115 -0.33640173 -0.032940436 -0.14813583 -0.10614108 -0.059185073
-0.13948426 -0.20888855 -0.13106756 -0.1692132 -0.2573544 -0.057838276 -0.11515424 -0.03935798
-0.18902643 0.019167496 -0.16073897 -0.13426317 -0.24556819 -0.2135356 -0.1373523 -0.056052584
-0.35512942 -0.1491558 -0.07175069 -0.19112666 -0.0404355 -0.040993802 -0.24692181 0.050380558
-0.15857497 -0.12796032 -0.120105326 -0.11496191 -0.03970244 -0.20269255 -0.13711631 -0.15156028
-0.056877173 -0.17798892 -0.18587357 -0.19894741 -0.10022446 -0.20389149 -0.143927 -0.036573343
-0.15578234 -0.11838287 -0.24225211 -0.015718704 -0.09323193 -0.040574376 -0.053997412 -0.24361086
-0.10506906 -0.0851441 -0.14312632 0.01964482 -0.2008063 -0.2295825 -0.1710212 -0.12714276
-0.038158298 -0.023651054 -0.12532663 -0.12867887 -0.07697385 0.043157093 -0.21827058 -0.1293427
-0.14021048 -0.12697804 -0.06272177 -0.047507875 -0.22261386 -0.14326562 -0.18199228 -0.047688104
-0.21889637 -0.10279619 -0.11370745 -0.086929396 -0.06872059 -0.06624366 -0.13330954 -0.17956212
-0.2943932 -0.24327318 -0.13981415 -0.23321429 -0.19843599 -0.10749675 -0.20831709 -0.2002573
-0.040331606 -0.07352416 -0.15405646 -0.1809829 -0.0061803362 0.07443867 -0.1824368 -0.124124676
-0.026128339 -0.022669537 -0.3270757 0.0076619587 0.03891325 -0.1104968 -0.14686275 -0.09061253
-0.0049771722 -0.105009235 -0.25743544 -0.0948695 -0.15031958 -0.1969903 -0.01898052 0.010639467
-0.084057264 -0.08339925 -0.20192906 -0.14885396 -0.05080266 -0.22993873 -0.15501413 -0.13669504
-0.21335222 -0.061216984 -0.19084704 -0.14875814 -0.2513872 -0.2671474 -0.05505847 0.033418134
-0.15690964 -0.019336352 -0.18256229 -0.017491603 -0.055917867 -0.111899905 -0.18452074 -0.1826317
-0.1939097 -0.14902017 -0.14018393 0.0119430125 -0.18290983 -0.15378942 -0.13047451 -0.10561515
-0.2585328 -0.003041608 0.0035751907 -0.05727495 -0.065949515 -0.09066351 -0.054906957 -0.18062617

weight f4 [256, 256]
00000000: dd4a 9bbe e277 e2bd a323 163d 7c9f 1b3d
00000010: 9cc0 c5bd b5f4 cebc 0afc 5fbd e64a b13d
00000020: a7ca 8abe 30c5 89bd 9897 67be ddd4 633e
00000030: ffeb 91bd 15bd 37be 05c9 153d 0aba 7ebe
00000040: f1cf 4dbc 21aa e53d 31f5 8cbc b71d 063e
00000050: 5571 8fbe 0c72 a03c 7bbd b0bd 9362 733d
00000060: eeaf babe 14c5 ff3d ae88 323e 4584 e4bc
00000070: 1079 d53c 398f 933d 17f3 f33d eec7 2dbd
00000080: 9c8a 9a3d 8e06 11be 5d51 1a3e 10a7 e63d
00000090: f55d 66bd 7d04 bbbd 1bc6 ed3d e711 3f3e
000000a0: b653 6e3c 0ead 68be adf6 1cbb f970 8e3e
000000b0: 38e2 08be 6842 9cbc 5b58 263e 6dac 583d
000000c0: 8472 41bd 90a5 ab3d 71ef 34bd 110c 39bd
000000d0: 20b2 26be 3c40 7cbe 8003 f3bb f409 98be
000000e0: 310a 583e e676 22be f0d1 30bd a3c0 2abe
000000f0: adc7 96be bd27 29be 4bf4 93bd 4366 2f3d
00000100: 9825 703d c1ff 2c3e c413 9e3d d1a2 6c3e
00000110: aca5 95be 789a 18be 69ff 963b 4bbc 203e
00000120: c10c 0a3e 1ba8 9fbc 886b c7bd 748c efbd
00000130: 9219 bc3b 4748 a33d cb0d 2ebd 8c20 113e
00000140: 8e90 9bbd aae3 3bbe 8334 29bc d9ef 973d
00000150: db1f 05be ee70 263e 596a a6be 801e aabd
00000160: 892a a53d 583c 52bd fea2 83be 2ce1 083d
00000170: 1efd f3bd ac92 d2bc d764 7cbd f221 07be
00000180: 027e 2bbe 3bf9 65be 5688 40bc c0a9 783e
00000190: d613 b0bc 6541 28bd 452e d93d 005e 223d
000001a0: 66f9 21be 783d b03d 5a42 343c 4b11 b63c
000001b0: 18ba a33d ee2c d83d 24d9 4b3e ade5 033d
000001c0: ac53 3fbe c8af cd3d f8d2 80be c0ef 8d3d
000001d0: 6ead d3bc 899b 47be cc42 16be acbf 5d3e
000001e0: ddd9 163e 308a e93d 9030 353e cfb5 0abb
000001f0: e956 83be f643 5d3e 2995 79be 38e6 173e
00000200: 72d7 9abd 4961 933c 654f b6be 259b 81bd
00000210: 27e6 eabd 8ddd 0b3e 2c65 f4bd 3dd5 d3bb
00000220: 5c55 adbe 7e50 3ebe 93f6 f1bd cc64 d43a
00000230: b060 a4bd ad04 43be 0283 f63d 7afa 44be
00000240: c131 b8be 53d3 c63b 41a9 bdbc cd91 55be
00000250: d4cf 1abe b492 063e f30a 65be 3235 0bbe
00000260: 1a9f 9a3d 15fa abbe d444 393d 5a80 a6be
00000270: 5bc6 bbbd ef1c 26be 47b4 64be 0a5e ed3b
00000280: 3486 a0bd 2197 96bd 087b a83d 4544 583d
00000290: b548 8ebd 82e2 0fbe 2081 1dbc 05b1 65be
000002a0: f3bd e43d 7a8d 4a3e 3241 e83d 87d8 1d3e
000002b0: 8437 42bd 65d3 153d 4249 dbbd 2c71 f63c
000002c0: 80eb 5c3d f8be d4bd 11ee bb3c 48ac 833c
000002d0: 1b2b 123c 10d7 b5bd 1c95 3ebd 29df 153e
000002e0: fd6b 733d 6683 b33d 782e 02be 0f0c 0ebd
000002f0: 93cb 5dbe 9ed6 c73d 34bd 33be c088 043e
00000300: 74bd 6d3e 1b94 ec3d 3315 60bd 3774 cf3d
00000310: 99b6 263e 7fc6 683e 2e7b d63d e18e 58be
00000320: b7a5 2d3e 292a b0be 5e2b d03d 4bf4 23be
00000330: a4b3 2dbd 830b 86be a067 583d f223 36be
00000340: 2b1e 6dbd 6c42 c0bd f15b 27be 1728 9a3c
00000350: 7aac b3bc e831 25bd f898 9cbe 4cad 2fbc
00000360: 2bff 29be 05db dabd b0b2 d9be b274 55bd
00000370: 78e5 ef3d 8338 5a3b c976 cabc 2c4e edbd
00000380: e75f 523d 3a29 47be 147b 32bd c51f 993e
00000390: bdc9 eb3d d8d6 e53d ee50 073e f929 48bd
000003a0: f4ad 813d df09 29bd 01df 93be 0090 803d
000003b0: 50af 81bd da7d f5b7 e211 4cbe f0a9 04bd
000003c0: 5684 d23c d7a0 e7be c848 193e 67dc e33d
000003d0: 8db0 c2bd 9a15 85bd db28 c83d 717a cebe
000003e0: a5ec 163d 1b1d 93bd 2d3a c43d 8e50 85bd
000003f0: ff3a 17bc b6c9 7ebe 7fe4 a3bd e6c1 0abc
-0.30330554 -0.11058022 0.03665508 0.037993893 -0.09655878 -0.02526317 -0.054683723 0.08656864
-0.27107736 -0.06727064 -0.22616422 0.2224917 -0.07125091 -0.17943223 0.03656866 -0.24875656
-0.012561784 0.1121409 -0.01720676 0.13097273 -0.28016153 0.019585632 -0.086298905 0.05942018
-0.3646235 0.124887615 0.17434952 -0.027895102 0.026058704 0.07205052 0.119116 -0.042426996
0.07545969 -0.14162657 0.150701 0.112623334 -0.05624195 -0.091317154 0.11610051 0.18659173
0.014546325 -0.22722265 -0.002395074 0.27820566 -0.13367546 -0.019074634 0.16244642 0.052898813
-0.04722835 0.08381188 -0.04417366 -0.045177523 -0.16278887 -0.24633878 -0.0074161887 -0.29695094
0.21097638 -0.15865669 -0.043168962 -0.16675048 -0.29449216 -0.16519065 -0.072243296 0.042822134
0.058629602 0.16894437 0.07718614 0.23108985 -0.2922796 -0.14902675 0.004608084 0.15696828
0.13481428 -0.019489339 -0.09737307 -0.11696711 0.005740353 0.0797277 -0.042493623 0.14172572
-0.07595931 -0.18348566 -0.010327461 0.07418794 -0.13000433 0.16254017 -0.32503012 -0.08306599
0.080647536 -0.05132708 -0.2571029 0.033417866 -0.11913513 -0.025704704 -0.061619606 -0.13196543
-0.16747287 -0.22458355 -0.011751255 0.24283504 -0.021493834 -0.04107799 0.10604528 0.039640427
-0.15817794 0.08605474 0.011002148 0.022225043 0.07994479 0.10555445 0.19907051 0.032201458
-0.18684262 0.10043293 -0.25160956 0.06930494 -0.025839534 -0.19492926 -0.14673918 0.21655148
0.14731546 0.1140331 0.17694306 -0.0021165495 -0.25652245 0.21607956 -0.24373306 0.14833915
-0.07560624 0.017990725 -0.35607448 -0.063284196 -0.11469679 0.13658734 -0.119333595 -0.006464629
-0.33854187 -0.18585393 -0.118146084 0.0016204356 -0.08026254 -0.19044752 0.120367065 -0.19236174
-0.3597546 0.0060676723 -0.023151996 -0.208564 -0.15118343 0.131419 -0.22367458 -0.13594511
0.075498775 -0.33589235 0.045231655 -0.325198 -0.09168693 -0.16221975 -0.22334395 0.0072438763
-0.07838097 -0.07353044 0.08226591 0.052799482 -0.069474615 -0.1405125 -0.009613305 -0.22430809
0.111690424 0.19780532 0.1134056 0.1541463 -0.047416225 0.036578555 -0.10707332 0.030083261
0.053935528 -0.10387987 0.022940667 0.016073361 0.00892141 -0.088789105 -0.04652892 0.1463591
0.059429158 0.08765297 -0.12713039 -0.03467947 -0.21659689 0.09757732 -0.17552644 0.12942791
0.23216802 0.115516864 -0.054707717 0.10129588 0.16280593 0.2273197 0.104727134 -0.21148254
0.16957746 -0.34407166 0.10164522 -0.16011159 -0.042407647 -0.26180658 0.0528332 -0.1778715
-0.0578901 -0.09387669 -0.16343667 0.018817944 -0.02193283 -0.040330797 -0.30585456 -0.01072247
-0.16601245 -0.10686306 -0.4251914 -0.052113242 0.117136896 0.0033297844 -0.024714844 -0.11587176
0.05136099 -0.1944932 -0.043574408 0.2990705 0.11513088 0.11222619 0.13214466 -0.048868153
0.06332007 -0.04126918 -0.28881076 0.06277466 -0.06332266 -2.926488e-05 -0.19928697 -0.032388628
0.025697868 -0.452399 0.1496917 0.11126023 -0.09506331 -0.06498261 0.097734176 -0.4032779
0.036846776 -0.07183286 0.09581409 -0.06509505 -0.009230374 -0.24881634 -0.080025665 -0.008469081

bias f4 [256]
00000000: 2ef2 2abc d5cf 92bc f3ce 063d 77f8 483d
00000010: 5079 a9bb 16d1 36bd 9eeb dc3d c697 e9bc
00000020: b1fc c03c 66d6 27bd 3b0b 903d 686c a23d
00000030: 9415 293c 1dc3 1a3c c858 453b 73a1 a7bd
00000040: c5f0 6f3d 80eb 63bd 3ed4 9fbd 2f75 8abc
00000050: df60 0f3e fc29 1b3d b8e9 5dbd 142d 08bc
00000060: e9bd f9bc 45d6 04bd 52b7 a03a f767 d13d
00000070: 25a6 1abd cd3c d7bc 0d06 7ebd 4c57 813d
00000080: 3ace 973d 878c 73bd e714 8c3c a55e 0f3b
00000090: cb8e e43d 2a44 e23d e79e 27be 0b13 9abd
000000a0: 7a38 f63b be07 d33d 8d48 23bd 1fce 9cbd
000000b0: 1b91 34bd 0835 2f3d c977 183e f9fc e0bd
000000c0: 840a 803d 7af6 a7bb e79b 993d af91 f23d
000000d0: ae32 02bc bf57 9e3c 0b83 9d3d 9e4e 64bd
000000e0: 6b02 ac3d 107e c33d 3c48 813d 1f83 a8bc
000000f0: 7014 22bd 9ad7 e4bc fc0e 263d 99ab 543d
00000100: f179 103d 3439 ba3d 68d9 603e 7501 ddbb
00000110: 234b 69bd 4ebc 823d 3de0 e9bd 55f4 283d
00000120: 4392 54bd 5618 14bc 57d8 f13d 1152 e73d
00000130: 3354 803d 9a61 243d b0c2 603d ec07 96bd
00000140: 187a 283d e242 36bd 6e9e 943d e32d 28be
00000150: 5f38 8ebd 28c0 c43c 9743 19bc d8be b1bd
00000160: c0e2 c13c 7fc5 c63b d50d 553c 1382 9d3d
00000170: 2970 97ba 9edd 13bd 3ff7 59bc 5e59 603d
00000180: f8eb 693b 35d3 d3bb d6bf 843c b232 2c3b
00000190: 7f23 0bbe 2552 f83c beb2 0a3e 695c 51bd
000001a0: d10d 91bc 4643 343e 5b03 8bbc c6a3 fdbc
000001b0: bcdf 34bd 4c0f a9bd cd1b ad3c 581b 803d
000001c0: 2a95 993b c94e 6c3d 70ca a8bc 7b0f 30bd
000001d0: 0532 573d 402a 093e dff7 e43d 1948 98bd
000001e0: ac85 19be 75ca 913c 4173 09bd 2791 6b3d
000001f0: b01a 56bd 9f72 d3bc 9190 e13d 03b7 543d
00000200: 590e 73bd 5c5c 74bd 0648 1dbd 4193 c63d
00000210: 85a4 1d3e 9d9e 5a3d 7954 07bc 5b07 b23d
00000220: 2445 91bc 6e3d b63c 1bad 1f3d 8803 14bd
00000230: 5e35 683d df52 433d 7d4a d43c 17a5 0ebb
00000240: da4c 8cbd 9e94 8a3d 0bdb 3d3d a779 4cbc
00000250: ccbd 313d 7ab9 353d 1cf9 873d 1ee2 4e3d
00000260: fb36 eb3d cb22 7bbd d1dc 173e 9774 0ebd
00000270: 163f 353d 7b69 c9bb 5ae7 2e3c 8c7f cebc
00000280: 97ad 1abd 83aa bc3c 9cb2 313d fed3 f7bd
00000290: 5e1b 6dbd 9626 b9bd 3627 08bd eebc 2cbd
000002a0: 5f39 f83c 3451 a8bc 4eb3 c23d c3e9 623d
000002b0: 34b6 9f3c 7f4c 6b3c 5601 c53d 2d2c 8cbd
000002c0: bb0d adbd b312 1b3d 60bb 59bd 45d4 913d
000002d0: afda 3338 44a0 9fbd 6451 ab3c 14e0 063e
000002e0: 673e 193c 93c2 83bb d7c4 cfbc 8cde b23c
000002f0: e65a b73d af8a a9bd ea55 333c 5c28 bfbc
00000300: 7f36 82bc 74a2 de3c 695b 063d 0736 aebc
00000310: 7294 babc 4210 803c 829e c83a 5453 d7bb
00000320: 25cf 82bc 79dd 0f3d 1da0 81bc 5d97 c2bd
00000330: 7abb 67bd e1b7 f2bd 50f9 23bd cd70 babc
00000340: 2598 0fbe a16b de3d 8d46 723c 2d4b ef3d
00000350: 2dff be3d b44f 6fbc 069b 94bc e29d 483d
00000360: 5b40 5e3d 2705 aa3d a2af bd3c 32c2 a4bc
00000370: 372f e13d dffe 683d f594 323d 34e3 f43d
00000380: af30 153d 68a7 79bb 695c 11bb 964a 19bd
00000390: cd9e 1cbe e019 333d bd5f 293d 1b03 adbd
000003a0: 900a a5bd 6a81 05be 0f5e fc3b 49ea 5a3d
000003b0: 9e7d 053c 48a7 79bd bc81 35bd 8919 883c
000003c0: d5e8 7a3c 51be 88bd 1e6f 73bd 3ddb 2d3d
000003d0: 3e1b 6b3d ab2b 5ebd 9668 233c 0692 5d3d
000003e0: 9bc4 ff3d 1f96 43bb 8cd5 e5bd 5b30 1b3d
000003f0: 7ac7 2e3e 4dfb 6fbc 16f3 1d3d 74c6 adbd
-0.010433717 -0.017921368 0.032912206 0.04906508 -0.0051719323 -0.044632994 0.10787128 -0.028514754
0.023557993 -0.04097595 0.07033392 0.07930833 0.010320086 0.009445933 0.0030112732 -0.08185091
0.058579225 -0.055644512 -0.07804154 -0.01690158 0.14001797 0.037881836 -0.05417797 -0.008311529
-0.030486064 -0.032430906 0.0012261665 0.10224908 -0.037756104 -0.02627411 -0.06201749 0.06315479
0.074123815 -0.05946019 0.01709981 0.002187648 0.11160048 0.110481575 -0.1636921 -0.075231634
0.0075140567 0.10304211 -0.03986411 -0.07656502 -0.044083696 0.042775184 0.14889444 -0.10985751
0.06252006 -0.005125818 0.07500439 0.11844193 -0.007946653 0.01932895 0.0769101 -0.055739038
0.08398899 0.09545529 0.06312606 -0.020570336 -0.039570272 -0.027934838 0.040541634 0.05192146
0.035272542 0.09092942 0.21957934 -0.0067445585 -0.05695642 0.063835725 -0.11419723 0.04124864
-0.0518973 -0.009039005 0.11808842 0.1129495 0.0626606 0.040132143 0.05487317 -0.0732573
0.041132063 -0.04449738 0.072567806 -0.16423754 -0.06944346 0.024017408 -0.009354494 -0.08678979
0.023667693 0.006066024 0.013003786 0.07690825 -0.0011553812 -0.036100022 -0.013303577 0.054772727
0.0035693627 -0.006464387 0.016204756 0.0026275334 -0.1358776 0.030312607 0.13544747 -0.05111352
-0.017706783 0.17603788 -0.016969373 -0.030961882 -0.044158682 -0.08254871 0.02113142 0.062552154
0.004686971 0.057692323 -0.020604342 -0.042983513 0.052537937 0.13395023 0.1118009 -0.074356265
-0.14992398 0.017796734 -0.03355718 0.057511475 -0.052271545 -0.025811492 0.11013902 0.051932346
-0.059339855 -0.059658393 -0.038398765 0.09696055 0.1539479 0.05337392 -0.008259886 0.08692809
-0.017733164 0.022246089 0.038983446 -0.03613618 0.05669152 0.047686454 0.025914425 -0.0021765882
-0.06850596 0.06766628 0.046351474 -0.012480176 0.043393895 0.044366337 0.06639311 0.05050861
0.11485096 -0.061312478 0.14830329 -0.034779157 0.044249617 -0.0061466075 0.010675276 -0.025207303
-0.037763204 0.023030525 0.043383226 -0.12100981 -0.057887428 -0.09040563 -0.03324052 -0.042172365
0.030300794 -0.020546533 0.09506856 0.055398714 0.01949606 0.0143615 0.096193954 -0.06844363
-0.084498845 0.03785963 -0.05315721 0.07120565 4.288059e-05 -0.0779424 0.020912834 0.13171417
0.009353257 -0.004020998 -0.025362415 0.021834634 0.089528844 -0.08278405 0.0109457765 -0.023334675
-0.015895126 0.027177073 0.03280202 -0.021265997 -0.022775862 0.015632752 0.0015306028 -0.006571213
-0.015967915 0.035123322 -0.015823418 -0.095015265 -0.056575276 -0.11851478 -0.040032685 -0.022758866
-0.14022882 0.10860372 0.014787328 0.116842605 0.09326015 -0.014606405 -0.018140327 0.048978694
0.054260593 0.08301764 0.023155037 -0.02011213 0.10995334 0.05688369 0.043599088 0.11957398
0.03642338 -0.0038094167 -0.0022180325 -0.037424646 -0.15294953 0.04372585 0.04135107 -0.08447858
-0.08058655 -0.13037649 0.0077016423 0.053446088 0.008147625 -0.060950547 -0.044313177 0.016613739
0.015314301 -0.06676925 -0.05943214 0.04244541 0.057399027 -0.054240864 0.009973666 0.054094337
0.124886714 -0.0029844118 -0.112223715 0.037887912 0.17068282 -0.014647317 0.038561903 -0.084851176

weight f4 [12, 256]
00000000: 3798 88bb 7033 18bd 1d2e 8abe d7e5 593d
00000010: 4396 ca3c 079d 66be 30ef 13bd cb93 53bc
00000020: f148 e73d d621 043e 686b d8bc b87d 94bd
00000030: 2f9b 9fbd e7ce 7c3e 916a 993e d08d 23be
00000040: 2c16 ebbb 05f7 7abd 70bd 833c ef27 b73e
00000050: 05d2 573e bd58 353c cca7 a03e 7de4 95be
00000060: 81de a7bd 0ca1 f6bc 3dbd fe3d 6fa0 3ebd
00000070: 1d6c e5bc e4b4 e6bc a58f 76be 2bbc 813d
00000080: 62d5 923e 314a ac3d b04f ce3d 9ef9 6bbd
00000090: a754 b53d 46a1 eebd 8994 0cbe 1388 35bd
000000a0: b286 4ebd 579b 283e 26c0 c13c 948c 3bbd
000000b0: 337e db3c 83fa 623d d133 77bd 7d25 eabd
000000c0: b4c9 053e ee8a 343e 2857 56be b6df 04bd
000000d0: 889a fabe 850d f93d 6c8c 62bc 9d18 e6bd
000000e0: 147a b23d 06a6 743e 01bd 263e 8ab9 dabd
000000f0: 0364 a6bd f9f5 2abe 6ac5 adbe 488e 11bd
00000100: 5f2e 073e 38fa 8b3d ac15 a1be 4c2d b83d
00000110: 4c09 363e 3e01 803e e546 053e f07d a23e
00000120: bf29 c7bd 85ce c5bd daae c0bc a7bb f6bd
00000130: ce35 8b3d 4621 58bd 4041 06bd 691f 1a3e
00000140: 5393 8bbe 4778 4dbe ce71 483e d504 02be
00000150: 3267 3e3e 9358 b03d 18f5 08be ea8c c73e
00000160: d98e bdbc 3ddd 173e 6ace c23d 6dc5 fabd
00000170: ada3 ca3d 85c1 b6bd f51d 2b3d 344f 6cbe
00000180: 3338 9dbe d5d3 86b9 b0b4 323e d63e 63bd
00000190: 987c 1e3e c3fa 22be ff1b 3bbd e3fe 6b3e
000001a0: b2ce 093e e2bb b7bd d180 773e b314 1dbd
000001b0: 5373 3f3e 2b98 07bd e124 cbbe 33bf 163c
000001c0: 855c 21be 35c8 5cbe 779f 1f3e 09ca 313e
000001d0: 609f 603e 8908 d6bd 0663 bf3d 7bab 5a3e
000001e0: 49de f13d fa29 16be 9c4d 58be 5c5b bd3d
000001f0: 7a6e cbbd 3333 2d3e 185e c7be b275 a43c
00000200: 9ce9 80bb 641e e73c 69c2 34be 91c2 3a3e
00000210: a569 29bd 22c3 2dbd 2976 9d3d 87d3 5cbe
00000220: 3421 40be 4231 83bd af88 c53d f771 553e
00000230: 400b 0b3d e9d5 02be 490f 80bb 1cf9 1a3d
00000240: c22c babd db3c 8f3c 71c3 823d 99c8 5f3e
00000250: 16d1 373e bbf3 19bd 0eea 943e c2eb 18be
00000260: 6fa6 e73d 7711 a53d 3b79 823d c30c 32be
00000270: cc26 3dbe 174d 0f3b 64b7 163e 3c62 903d
00000280: 2cf2 0bbb 0d42 0cbc 249b 04be 7a6d 393d
00000290: 5f1c cf3d 5134 433e 18f6 5b3e d4f6 cebd
000002a0: 294e f6bd eb9a e9bd 2f9f da3d fc58 0d3d
000002b0: 99de 853c c07a 9c3d 7fad 74be 5d78 d8bd
000002c0: 7b8e 11be c7b0 9f3d d6df 9e3d eaa6 fa3d
000002d0: 024f 6abe 52d8 993c 9ab6 ee3d 0ddc 34bd
000002e0: 3939 72bd e8aa cf3d 7cf8 473d 50ff 123d
000002f0: 0664 433d ab05 273d 7b3b cf3a 29b0 bfbd
00000300: e7f2 403d b850 073e 8a77 7ebd 66cf 423e
00000310: 9cca 6abe ab62 74be 1491 953e 9a7c e7bd
00000320: 4b4a 38bb a339 9d3d 4453 13be aed2 06be
00000330: 4d21 853e 3d73 64be 4aad 883d 579e cbbd
00000340: f03d fe3c 0ccd b0bd eade 8d3d 65eb 353e
00000350: 66b8 37bd cc03 af3d f607 33bc d23f 1a3d
00000360: f13c 8c3e 3cf5 03bd a495 3d3e 8351 ce3d
00000370: 338a 303b 4763 603d 5e12 6a3e e5ce 7cbe
00000380: 6e8b a1be b3bd fe3d b57f 55be dac6 eb3c
00000390: c692 7b3e 3894 84be 4a39 0bbe b012 0abe
000003a0: db83 85be 8987 c9bd 6c96 4b3d 1266 d0bd
000003b0: f39a 5e3d 5a00 6d3e 4dbf bbbd 7b71 11be
000003c0: b60b 23bd 2c4f dc3c b698 3abe 7144 f6bc
000003d0: f79a 80be 3911 41be c333 0d3e 0647 2b3c
000003e0: b515 0d3e b8b3 183d 088c 993d 0a97 c03c
000003f0: 2e03 77be 502e 65bd f0b8 063e 2d6b 57be
-0.004168536 -0.03715843 -0.26988307 0.053197708 0.024729853 -0.22520839 -0.03611678 -0.012913655
0.11293209 0.12903532 -0.026418403 -0.072505414 -0.07793271 0.24688302 0.29964116 -0.15972066
-0.007174274 -0.061270732 0.016081542 0.35772654 0.2107621 0.01106852 0.3137802 -0.29275885
-0.08196736 -0.03010609 0.12438438 -0.04653972 -0.028005654 -0.028162427 -0.24078234 0.06334718
0.28678423 0.084125884 0.10073793 -0.0576111 0.08854037 -0.11651854 -0.13728537 -0.044319224
-0.050421424 0.16465507 0.023651194 -0.045788363 0.026793575 0.055414688 -0.06035215 -0.114329316
0.13065225 0.17631122 -0.20931685 -0.03243991 -0.48946023 0.12160782 -0.0138274245 -0.11235163
0.08714691 0.23891458 0.16283037 -0.1067992 -0.081245445 -0.16695394 -0.33939677 -0.03553608
0.13201283 0.06834835 -0.31461847 0.08993015 0.17776984 0.25000948 0.13015325 0.31736708
-0.09724759 -0.09658531 -0.023520876 -0.120475106 0.06797372 -0.052766107 -0.03277707 0.15051045
-0.27260837 -0.20065413 0.19574663 -0.12697156 0.18594053 0.08610644 -0.13374746 0.38974696
-0.023139404 0.1483049 0.095120266 -0.12244687 0.098945 -0.0892363 0.041776616 -0.23077089
-0.3070694 -0.000257163 0.1745174 -0.055479847 0.15477216 -0.1591597 -0.045680996 0.2304645
0.13457754 -0.08971383 0.24170233 -0.03834982 0.18696336 -0.033104103 -0.39676574 0.009200859
-0.1575795 -0.21560748 0.15588175 0.17362227 0.21935797 -0.10450847 0.09345059 0.21354477
0.11809976 -0.1466445 -0.21123356 0.09245941 -0.09933181 0.16914062 -0.38938975 0.020075653
-0.0039340984 0.028212734 -0.17652287 0.18238284 -0.041360516 -0.04242242 0.07688553 -0.21565066
-0.18762666 -0.064058796 0.09645211 0.20844255 0.033946276 -0.12776913 -0.003908072 0.037835225
-0.09090568 0.017485073 0.06384934 0.21853866 0.17950854 -0.037585955 0.2908482 -0.14933684
0.113110416 0.08059972 0.06370779 -0.1738768 -0.18471831 0.0021866017 0.14718395 0.07049987
-0.0021354062 -0.00856067 -0.12949806 0.04527042 0.10112833 0.19062926 0.21480596 -0.101056725
-0.120266266 -0.114065014 0.10674893 0.03450869 0.016341494 0.076406 -0.23894309 -0.105698325
-0.14214508 0.077973895 0.07757537 0.122388676 -0.22881702 0.018779907 0.11655922 -0.04415517
-0.059136603 0.1014002 0.048820958 0.035888016 0.04770281 0.04077689 0.0015810573 -0.09359772
0.04710665 0.13214386 -0.06212572 0.19024429 -0.22928852 -0.23865764 0.29212248 -0.11303063
-0.0028120454 0.07677009 -0.14387232 -0.13166305 0.2600197 -0.22309585 0.06673677 -0.0994231
0.031035393 -0.086328596 0.06927283 0.17765577 -0.04485359 0.08545646 -0.010927191 0.03765852
0.27390245 -0.032216296 0.18514115 0.10074141 0.0026937842 0.05478218 0.22858569 -0.24688299
-0.3155169 0.12438526 -0.20849498 0.028781343 0.24567708 -0.25894332 -0.13596073 -0.13483691
-0.2607716 -0.098403044 0.049704 -0.10175718 0.05434699 0.23144665 -0.09167347 -0.14203446
-0.03980609 0.02689322 -0.18222317 -0.030061932 -0.2511823 -0.18854226 0.13789277 0.010453945
0.13777812 0.03728077 0.07497412 0.023509521 -0.24122307 -0.05595237 0.13156486 -0.21036978

bias f4 [12]
00000000: 1af3 acbc dd81 8c3c cc79 c03c bed4 a03d
00000010: dd44 8e3b ed7f 90bd cfb3 11bd 9ab7 80bc
00000020: f485 05bd d6d2 a53d 846c 05bd dfc1 88bd
-0.021112014 0.017151767 0.023495577 0.07853077 0.0043417052 -0.0705565 -0.03557187 -0.015712548
-0.03259845 0.080968544 -0.03257419 -0.06677603

stds f4 [12]
00000000: 1d5a 643e 1d5a 643e 1d5a 643e 1d5a 643e
00000010: 1d5a 643e 1d5a 643e 1d5a 643e 1d5a 643e
00000020: 1d5a 643e 1d5a 643e 1d5a 643e 1d5a 643e
0.223 0.223 0.223 0.223 0.223 0.223 0.223 0.223
0.223 0.223 0.223 0.223

obs_std f4 [39]
00000000: 4f08 603e fd54 803e 62d3 bb3f cf86 e43f
00000010: 2ee2 c73f bc8d 8f3e e6f0 663e ed96 8a3e
00000020: ccad 8e3e 1670 893e bc55 8b3e aca7 8f3e
00000030: e52c 673e c613 893e a734 8d3e d09f 8a3e
00000040: 09c9 893e 77c3 5b40 b60a 5240 79bb a440
00000050: 3d6b 9740 05f3 a940 9ef4 9b40 0603 5b40
00000060: 408a 5040 655b a440 cd84 9740 764c aa40
00000070: 402d 9b40 76d0 243f 8ee2 433f d747 653e
00000080: 8555 893e 65fe 883e 8887 5d3e 6ab1 843e
00000090: 6198 883e 1fdb be3e da11 d53e
0.2187817 0.2506484 1.4673884 1.785364 1.56159 0.28037822 0.22552833 0.27068272
0.27866971 0.26843327 0.27213848 0.2805761 0.2257572 0.26772898 0.27579233 0.27075052
0.2691119 3.4338052 3.2819037 5.147885 4.7318406 5.3109155 4.8736105 3.4220595
3.258438 5.1361566 4.734961 5.3218336 4.8492737 0.64380586 0.7651757 0.22390686
0.2682306 0.26756588 0.21633732 0.25916606 0.26678756 0.3727655 0.41615182

obs_mean f4 [39]
00000000: b779 da3b 327a b63c 2854 923c c21e 4cbc
00000010: 549b 28bd 96e8 12bf a64d 81bd 12d7 bb3b
00000020: b67f 733f 7844 1a3c 1a3c ddbe 2476 0fbf
00000030: dd90 6b3d 0398 adbb ca37 713f 252d 89bc
00000040: f633 d7be c660 c5bd 0367 933d 9547 653c
00000050: 1ad9 793e fc37 2a3c 2896 9ebc 14da 68bd
00000060: 27e5 a1bd ba0a 21bd bb9b 603e 461a fabc
00000070: b24d 9a3c da88 923b ec75 c4b9 b149 f33d
00000080: af9f 4c3e 1be4 01bc 09c8 84bb 96d1 26bf
00000090: 3101 27bf 13b4 133c ad6e 9e3b
0.0066673416 0.022275064 0.017862394 -0.012458505 -0.041163757 -0.5738615 -0.063136384 0.0057324255
0.95116746 0.009415738 -0.43209916 -0.56039643 0.0575112 -0.005297662 0.9422575 -0.01674516
-0.4203183 -0.09637599 0.07197382 0.013994117 0.24399224 0.010389324 -0.01935871 -0.0568486
-0.079050355 -0.03931687 0.21934406 -0.030530106 0.018835876 0.0044718804 -0.00037471892 0.1187929
0.1998279 -0.00792792 -0.0040521664 -0.6516355 -0.6523619 0.009015101 0.004834971
