trained/jvrc_step/actor_5299.pt (torch, 322018 bytes, 9 tensors)

weight f4 [256, 39]
-0.06918655 0.03129628 -0.06548369 0.0019262015 -0.07187644 -0.3655131 -0.2158498 -0.24494492
-0.6012737 -0.05566161 -0.34307823 0.31272683 0.0058330963 0.04099685 0.07358232 -0.035530977
-0.26775953 -0.34691375 -0.01610393 -0.18205628 -0.082524434 -0.022448314 -0.24997164 0.48518473
-0.39784235 -0.12185615 0.06658171 0.0009770636 0.002884237 -0.037151657 -0.028851526 -0.19039233
-0.086802304 -0.13136749 0.16101666 -0.06325917 0.1348636 0.04344221 -0.06066113 0.113228835
-0.08823689 0.1597193 0.38713178 -0.05031283 0.1251591 -0.20853475 0.017900392 0.10436251
-0.06015224 -0.16140409 -0.06914028 0.31692263 0.021748694 -0.08959798 0.23635069 -0.100744106
0.28656453 -0.18982157 0.48341078 -0.10369941 0.09392015 0.03705108 0.024524322 -0.28934902
0.027093006 -0.32887965 -0.02084168 -0.29370466 -0.059597813 0.009643044 0.23633249 -0.13788764
-0.1345186 -0.18410525 0.19455293 0.39093792 -0.20513612 0.2756166 0.21450718 -0.46790275
0.12776029 -0.58587086 -0.00070648827 -0.32768273 0.041076913 -0.16445279 -0.050846748 0.1047118
0.13330635 -0.2068546 -0.21413225 -0.2161498 0.17119148 0.1510004 0.16428114 0.051691663
-0.112738214 0.2792413 0.28195277 0.1854656 0.03141568 -0.17466915 0.06726509 0.11304389
0.31967613 0.4486084 0.21118096 -0.064145096 -0.118357085 -0.0816403 -0.114129245 0.01324611
0.2620865 0.03757417 0.25166252 0.2061788 0.1612126 0.30838585 -0.25758794 0.07839926
-0.47936568 0.037701894 -0.04922518 0.039543662 -0.24097964 0.25718784 -0.17327406 0.3725941
-0.1151963 -0.07572989 0.2738509 0.20619307 -0.028010797 0.29213136 -0.20136009 0.47339356
-0.14884818 0.22516046 -0.11671299 0.3988618 0.027103575 -0.3634665 0.107064374 0.08156449
0.10579785 -0.33729786 0.07040729 -0.14764027 0.19618623 -0.06273973 0.029720366 0.08160735
-0.34598896 0.0026510728 0.1312924 -0.17851834 0.023411328 0.16650936 0.018469041 0.017533146
0.10493425 -0.38250113 0.094211854 0.13544549 -0.026816085 -0.09641138 -0.08489458 0.16627838
-0.28841245 -0.19080514 -0.24782799 0.1450817 -0.11680971 0.65210354 0.49314824 0.2879139
0.1973583 0.25878277 -0.15198493 -0.19351645 0.34025657 -0.040666655 -0.015864514 0.09328102
0.057552144 0.19350362 -0.2209471 -0.24976127 -0.050887406 -0.102898374 -0.12349953 0.039714742
0.15169716 -0.15793508 0.06675559 -0.08928822 0.3726984 0.063807346 0.12834072 0.17099886
0.11301866 0.079208314 0.1389423 0.058851443 -0.4787402 -0.31113786 -0.137776 -0.121254295
-0.07629479 -0.03543976 0.022267051 0.4401297 -0.3123627 0.008722548 -0.33590606 0.57187843
-0.4776052 -0.19893368 -0.12358283 0.075171456 0.24766791 0.2146908 0.042114437 0.1830733
-0.07958538 -0.3083077 0.038683254 0.19992895 -0.1711703 0.11324003 0.3404702 0.20790815
0.14637585 0.19797026 0.0600388 0.40180105 -0.08679547 0.47447976 0.18309085 0.20866448
0.1048434 -0.0451382 -0.042108364 -0.15481998 -0.3189052 0.03946543 0.22713065 -0.21589807
-0.2701162 0.20018564 -0.46579292 -0.24310373 -0.11986792 -0.0259679 -0.0076154103 0.09361432
00000000: aeb1 8dbd 8730 003d 501c 86bd 9978 fc3a
00000010: f433 93bd 8824 bbbe bb07 5dbe d7d2 7abe
00000020: 13ed 19bf 6efd 63bd f3a7 afbe bb1d a03e
00000030: 8f23 bf3b 50ec 273d 54b2 963d ee88 11bd
00000040: c717 89be ae9e b1be 64ec 83bc f66c 3abe
00000050: 9202 a9bd 87e5 b7bc 91f8 7fbe 226a f83e
00000060: feb1 cbbe b88f f9bd fe5b 883d d010 803a
00000070: 7805 3d3b 562c 18bd 095a ecbc 35f6 42be
00000080: 68c5 b1bd 3385 06be 8de1 243e 068e 81bd
00000090: af19 0a3e 75f0 313d ce77 78bd 85e4 e73d
000000a0: 8bb5 b4bd 758d 233e 2336 c63e d314 4ebd
000000b0: b529 003e 228a 55be d8a3 923c 03bc d53d
000000c0: 3262 76bd 1d47 25be 6b99 8dbd af43 a23e
000000d0: 512a b23c 257f b7bd ea05 723e ed52 cebd
000000e0: 96b8 923e 9660 42be 9e81 f73e 5b60 d4bd
000000f0: 3559 c03d e0c2 173d 3be7 c83c 8e25 94be
00000100: 27f2 dd3c ea62 a8be 2cbc aabc 7560 96be
00000110: d61c 74bd dcfd 1d3c 2501 723e 6b32 0dbe
00000120: 3ebf 09be 1686 3cbe e238 473e 0429 c83e
00000130: 340f 52be 9e1d 8d3e c5a7 5b3e f390 efbe
00000140: 98d3 023e a2fb 15bf a033 39ba 08c6 a7be
00000150: 4440 283d 5066 28be ae44 50bd 2473 d63d
00000160: 7681 083e b1d1 53be 7c45 5bbe 6056 5dbe
00000170: d24c 2f3e d99f 1a3e 5139 283e a3ba 533d
00000180: 4be3 e6bd b7f8 8e3e 1d5c 903e b2ea 3d3e
00000190: baad 003d 78dc 32be 48c2 893d 8e83 e73d
000001a0: 97ac a33e 00b0 e53e d23f 583e 815e 83bd
000001b0: 3365 f2bd 0833 a7bd 98bc e9bd 3606 593c
000001c0: 3430 863e 5fe7 193d e9d9 803e 8920 533e
000001d0: ea14 253e c0e4 9d3e 91e2 83be cb8f a03d
000001e0: 6b6f f5be 4d6d 1a3d 58a0 49bd 89f8 213d
000001f0: 5ec3 76be 20ae 833e c16e 31be a7c4 be3e
00000200: 0aec ebbd 4618 9bbd 2f36 8c3e 4724 533e
00000210: e676 e5bc 3e92 953e 5731 4ebe a460 f23e
00000220: a86b 18be 7790 663e 3807 efbd 9d37 cc3e
00000230: 5108 de3c 4818 babe 9144 db3d 490b a73d
00000240: 8bac d83d 4eb2 acbe b231 903d 032f 17be
00000250: 0be5 483e b07d 80bd 2078 f33c c121 a73d
00000260: 7725 b1be 9fbd 2d3b 8471 063e 83cd 36be
00000270: 1dc9 bf3c 6e81 2a3e 634c 973c aca1 8f3c
00000280: c5e7 d63d 30d7 c3be 25f2 c03d 39b2 0a3e
00000290: 68ad dbbc 5473 c5bd 36dd adbd e144 2a3e
000002a0: ccaa 93be 6c62 43be 9fc6 7dbe 4c90 143e
000002b0: ee39 efbd 42f0 263f ed7d fc3e 7369 933e
000002c0: 4b18 4a3e 2d7f 843e f0a1 1bbe 2d29 46be
000002d0: 1c36 ae3e 1492 26bd 4cf6 81bc 1f0a bf3d
000002e0: ccbb 6b3d d025 463e f53f 62be 6bc1 7fbe
000002f0: 506f 50bd 62bc d2bd 52ed fcbd edab 223d
00000300: 8056 1b3e bcb9 21be 28b7 883d bedc b6bd
00000310: 53d2 be3e 6dad 823d c06b 033e 531a 2f3e
00000320: 5476 e73d f837 a23d e446 0e3e 360e 713d
00000330: 6f1d f5be 764d 9fbe 2715 0dbe 2c54 f8bd
00000340: 7140 9cbd 4829 11bd 6469 b63c ae58 e13e
00000350: 01ee 9fbe 05e9 0e3c e1fb abbe a066 123f
00000360: ab88 f4be 45b5 4bbe ff18 fdbd 7ef3 993d
00000370: a89c 7d3e e8d7 5b3e 3080 2c3d 9177 3b3e
00000380: a9fd a2bd 82da 9dbe 5572 1e3d 2dba 4c3e
00000390: 4447 2fbe 64ea e73d 1c52 ae3e e0e5 543e
000003a0: 8de3 153e b7b8 4a3e 3feb 753d deb8 cd3e
000003b0: d3c1 b1bd 03ef f23e 2b7c 3b3e 24ac 553e
000003c0: 23b8 d63d d5e2 38bd d279 2cbd 2189 1ebe
000003d0: 8b47 a3be 81a6 213d f094 683e 6214 5dbe
000003e0: ac4c 8abe 77fd 4c3e 697c eebe 2ff0 78be
000003f0: 507d f5bd a2ba d4bc b18a f9bb ddb8 bf3d

bias f4 [256]
-0.14455834 -0.023818597 0.025607487 -0.11228202 -0.1850621 0.018461132 -0.10737 -0.024519674
-0.18167245 -0.008069407 -0.024683885 -0.0869342 -0.13584052 -0.13556047 -0.022570454 -0.021263143
-0.12456243 -0.02692295 -0.0632813 -0.06578201 -0.11026645 -0.079077415 -0.122398615 0.020941326
-0.1657557 -0.037851356 -0.0706418 -0.05080126 -0.103919834 -0.15890022 -0.03310262 -0.030418547
-0.12092741 -0.17596088 -0.038094554 -0.082645185 -0.10892598 0.02560532 -0.030728031 -0.14981847
-0.04772259 -0.0748766 0.046665974 -0.12509957 -0.04565181 -0.0052221874 -0.17083079 0.0111055365
-0.14063004 -0.1888076 -0.16077499 0.03717178 -0.09071373 -0.08803816 -0.01559826 -0.13638327
-0.16805564 -0.14735703 -0.18613568 -0.11672856 0.004605854 -0.19420381 0.02093887 -0.0837073
-0.16918646 -0.23531617 -0.15335438 -0.17371306 -0.0069057276 -0.13169062 -0.0534043 -0.00016853359
-0.1527929 -0.056115102 -0.047900572 0.0015569221 -0.14437935 -0.058665257 -0.080674216 -0.089588106
-0.08621438 -0.0759578 -0.058507513 -0.15940677 -0.17861025 0.016721966 -0.13502556 -0.11880774
-0.0776936 -0.012741548 -0.095915675 -0.05220311 -0.108948335 -0.11153159 -0.053617924 -0.12849544
-0.015760994 -0.036519557 -0.17095917 -0.09961248 -0.029899796 -0.102437705 -0.116989866 -0.12502939
-0.10227089 -0.17693992 -0.0611051 -0.07393559 -0.09014839 -0.097169384 -0.057062294 -0.04141672
-0.13276048 -0.09720889 -0.1345247 -0.08260486 -0.16485868 -0.081621334 -0.1074986 -0.048860665
-0.15174077 -0.11557379 -0.04037005 -0.108500876 -0.0371493 0.0046864343 -0.21276107 0.055736117
-0.018931866 -0.11082813 -0.13452479 -0.1028974 -0.018081738 -0.10324074 -0.10313757 -0.11697936
0.0064819315 -0.15894619 -0.1672757 -0.08841916 -0.096989065 -0.2135237 -0.060741987 -0.021321112
-0.072682925 -0.090537466 -0.16722016 -0.032452174 -0.060608692 0.046835724 -0.10514352 -0.14780001
-0.14845832 -0.088742934 -0.16297588 -0.007994658 -0.19532616 -0.11935976 -0.17903203 -0.12984215
-0.006290662 0.0055860146 -0.1219698 0.0123153925 -0.04374942 0.024031334 -0.14091015 -0.11203984
-0.07301872 -0.17066596 -0.137592 -0.016114099 -0.18201095 -0.07041136 -0.19019806 -0.057011724
-0.11308271 -0.09079054 -0.059163187 -0.058168605 -0.036358196 -0.100224234 -0.06915598 -0.11414091
-0.20491023 -0.21639203 -0.08575873 -0.17743813 -0.062135357 -0.07733632 -0.14775844 -0.19102423
-0.044151522 -0.09468175 -0.11421573 -0.19105127 -0.053982913 0.025797406 -0.09954751 -0.012778417
0.008016899 0.013121721 -0.24533895 0.051094018 0.03561779 -0.095525116 -0.19567317 -0.025275372
0.06510557 -0.047662586 -0.033685017 -0.10725516 -0.12608188 -0.15998389 0.040736694 -0.017715821
-0.043025296 -0.0667228 -0.043350704 -0.13148895 -0.10843053 -0.12525864 -0.11189306 -0.12941542
-0.21231288 -0.050359998 -0.10830515 -0.12767148 -0.14773606 -0.21984631 -0.10579342 -0.017039074
-0.05335333 -0.10359419 -0.18710351 -0.07234517 -0.10261044 -0.13595968 -0.136809 -0.11710675
-0.12621337 -0.08910369 -0.10019028 0.024052704 -0.21450134 -0.1328565 -0.023181794 -0.1394997
-0.22230084 -0.08205224 0.021663193 -0.061797503 -0.15954213 -0.06261836 -0.11836033 -0.18218619
00000000: 1a07 14be 381f c3bc cbc6 d13c 1ef4 e5bd
00000010: eb80 3dbe cd3b 973c cde4 dbbd 7cdd c8bc
00000020: 5808 3abe 8c35 04bc dc35 cabc 8f0a b2bd
00000030: c719 0bbe 5dd0 0abe ace5 b8bc 0b30 aebc
00000040: 961a ffbd 858d dcbc a099 81bd b8b8 86bd
00000050: 60d3 e1bd 57f3 a1bd 20ac fabd 258d ab3c
00000060: ddbb 29be 060a 1bbd a6ac 90bd fb14 50bd
00000070: ecd3 d4bd bdb6 22be 9d96 07bd 5130 f9bc
00000080: caa8 f7bd 172f 34be 0909 1cbd e141 a9bd
00000090: 9614 dfbd 40c2 d13c 5ab9 fbbc 036a 19be
000000a0: c378 43bd e758 99bd d224 3f3d 1a1a 00be
000000b0: 64fd 3abd e21e abbb 44ee 2ebe fff3 353c
000000c0: 5201 10be c856 41be 33a2 24be 7041 183d
000000d0: 1fc8 b9bd 5a4d b4bd d88f 7fbc 0ea8 0bbe
000000e0: c716 2cbe c3e4 16be 5a9a 3ebe 620f efbd
000000f0: b4ec 963b 5ddd 46be fe87 ab3c bc6e abbd
00000100: 373f 2dbe b9f6 70be ee08 1dbe d6e1 31be
00000110: 7149 e2bb e8d9 06be 78be 5abd 64b8 30b9
00000120: be75 1cbe f3d8 65bd 6433 44bd a311 cc3a
00000130: 2ed8 13be fb4a 70bd 8638 a5bd f879 b7bd
00000140: 2a91 b0bd c38f 9bbd 93a5 6fbd 873b 23be
00000150: 9be5 36be 81fc 883c 2444 0abe 7951 f3bd
00000160: d21d 9fbd edc1 50bc 706f c4bd eed2 55bd
00000170: 4e20 dfbd ad6a e4bd 789e 5bbd 4f94 03be
00000180: 331d 81bc 8895 15bd ec0f 2fbe a101 ccbd
00000190: 6bf0 f4bc dcca d1bd 6298 efbd b407 00be
000001a0: 6673 d1bd bd2f 35be 5749 7abd 8b6b 97bd
000001b0: b89f b8bd be00 c7bd 27ba 69bd 94a4 29bd
000001c0: 5df2 07be 7415 c7bd d8c0 09be bd2c a9bd
000001d0: b7d0 28be 1629 a7bd 3a28 dcbd 1f22 48bd
000001e0: ef61 1bbe f4b1 ecbd 115b 25bd b535 debd
000001f0: dd29 18bd a990 993b 0ade 59be 8e4b 643d
00000200: 0017 9bbc dcf9 e2bd dec0 09be dfbb d2bd
00000210: 2720 94bc e26f d3bd ca39 d3bd e092 efbd
00000220: 6266 d43b cac2 22be 524a 2bbe 1b15 b5bd
00000230: 34a2 c6bd f5a5 5abe 97cc 78bd 9da9 aebc
00000240: c9da 94bd b56b b9bd c33b 2bbe 92ec 04bd
00000250: d240 78bd d1d6 3f3d 7c55 d7bd e358 17be
00000260: 7505 18be dbbe b5bd 26e3 26be 07fc 02bc
00000270: 9503 48be e472 f4bd 2c54 37be 57f5 04be
00000280: e621 cebb e30a b73b 4dcb f9bd 80c6 493c
00000290: 9832 33bd 5cdd c43c c04a 10be 2575 e5bd
000002a0: d78a 95bd 0fc3 2ebe ebe4 0cbe b701 84bc
000002b0: 1461 3abe d533 90bd 48c3 42be 2085 69bd
000002c0: e897 e7bd 64f0 b9bd 1955 72bd 3442 6ebd
000002d0: 55ec 14bd 5d42 cdbd a7a1 8dbd b6c2 e9bd
000002e0: fdd3 51be df95 5dbe 46a2 afbd 57b2 35be
000002f0: a581 7ebd 8162 9ebd fd4d 17be db9b 43be
00000300: 3ad8 34bd 81e8 c1bd f0e9 e9bd f2a2 43be
00000310: 301d 5dbd 1555 d33c 91df cbbd 915c 51bc
00000320: 5059 033c 7dfc 563c 223a 7bbe f647 513d
00000330: f6e3 113d aca2 c3bd 8c5e 48be 4c0e cfbc
00000340: 1256 853d d839 43bd 4df9 09bd 98a8 dbbd
00000350: 9c1b 01be d1d2 23be 85db 263d c520 91bc
00000360: 4b3b 30bd f7a5 88bd 8290 31bd 0aa5 06be
00000370: d310 debd cd43 00be 3028 e5bd 7a85 04be
00000380: 8c68 59be 4946 4ebd 17cf ddbd 50bc 02be
00000390: 1f48 17be 641f 61be 38aa d8bd 8795 8bbc
000003a0: 0589 5abd 3129 d4bd 1098 3fbe b429 94bd
000003b0: 6c25 d2bd 0439 0bbe a917 0cbe aad5 efbd
000003c0: 143e 01be ff7b b6bd 9030 cdbd 2d0a c53c
000003d0: 3da6 5bbe 890b 08be bfe7 bdbc 02d9 0ebe
000003e0: d5a2 63be 010b a8bd 0277 b13c 611f 7dbd
000003f0: 035f 23be 0e3e 80bd e766 f2bd 048f 3abe

weight f4 [256, 256]
-0.19024992 -0.14563778 -0.053923916 -0.020959906 -0.08952828 0.017683247 -0.073763624 0.037986923
-0.10311141 -0.072815046 -0.09446519 0.028409528 -0.11669263 -0.11672698 -0.06083698 -0.10988562
-0.10523935 0.12765703 0.0968347 0.012467751 -0.18342933 -0.07810966 -0.039549172 0.05570986
-0.21903878 0.04257849 0.21990107 0.11351825 -0.08750258 0.0864295 0.061018422 -0.030802637
0.08721105 -0.10819529 0.091840774 0.08071288 -0.045239445 -0.15342031 0.09258745 0.03634691
-0.08880487 -0.079784036 0.099339694 0.12094161 -0.19463645 -0.09744028 -0.0692526 -0.025807124
-0.06099625 0.064040475 -0.08065828 -0.18882287 -0.12704194 -0.10613347 -0.09815954 -0.3001972
0.055776525 -0.099796236 -0.020823084 -0.043720257 -0.08421115 0.04177809 0.010498613 -0.1153069
0.103912555 0.15485857 0.008084898 0.17211583 -0.07381532 0.0057328083 0.11761957 0.039048754
0.20990632 -0.033606134 -0.132079 0.0104528675 0.03152681 0.08688343 -0.15748315 -0.03022719
-0.07983451 0.023562599 -0.058787685 0.059086036 -0.08554636 0.0768135 -0.33001152 0.059155133
0.19872963 -0.015745956 -0.09907226 0.086252294 -0.21623527 0.1377139 0.08710751 -0.057817392
-0.14052552 -0.22143146 -0.056051157 0.18769412 0.009813418 -0.09780485 0.012498949 -0.05515185
-0.021391127 -0.012420281 -0.09703668 0.10889031 -0.03759388 0.067967914 0.18108286 -0.17908254
-0.14095983 0.08907752 -0.18286806 -0.04985592 -0.060154278 -0.19051175 -0.059827656 0.14517213
0.01284004 0.085277736 -0.007873758 -0.08644872 -0.15666468 0.121583134 -0.1542807 0.10267281
-0.03410882 -0.045630787 -0.20548736 0.024996256 0.01615983 0.050927732 -0.052232634 -0.034542132
-0.36978924 -0.20950007 -0.062748194 -0.04636574 -0.06928502 -0.29165244 0.11211487 -0.1429092
-0.05260825 -0.08886106 -0.12153322 -0.13631599 -0.17142974 0.00697965 -0.08532069 -0.022179805
-0.1527038 -0.20367633 -0.12410439 -0.26574862 -0.05663494 -0.19300592 -0.09477801 0.04606825
-0.061751373 0.06483915 0.16965885 0.07670635 -0.08227562 -0.095534876 -0.13750838 -0.07415771
0.049316708 0.07590397 0.14895542 0.11020711 0.057968907 0.061525557 -0.17819025 -0.005381266
-0.0698527 0.01630451 -0.1606492 0.14413147 0.11369826 -0.2273286 -0.055289913 0.06063586
0.056226537 0.05506518 -0.08702769 0.0540317 -0.033043064 0.051923897 -0.12356706 -0.06186424
-0.053221185 0.13271059 -0.07600207 0.039573744 0.11153218 0.043816503 -0.026429772 -0.18196724
0.17304958 -0.2303515 0.013935736 -0.26384965 -0.05438977 -0.12737586 0.05338744 -0.17626125
0.118531756 -0.028059397 -0.077571295 -0.035700373 -0.145731 0.022541208 -0.3752809 -0.010231307
-0.27464953 0.048485655 -0.33175936 -0.08631786 0.11151276 0.08841443 0.07465779 0.022537982
0.12679133 -0.13874759 -0.079506285 0.17796403 0.12508817 0.1095849 0.06287979 -0.10877314
0.20756258 -0.08104727 -0.22066987 0.13657591 -0.059830908 0.12828949 -0.070168294 -0.018141493
-0.06872004 -0.23766482 0.0114118215 0.083514504 -0.041475 -0.14908552 -0.109333046 -0.25300288
0.08453725 -0.0641967 0.021744894 -0.14647092 -0.0025236653 -0.14844486 0.026705788 0.0427901
00000000: e0d0 42be 1222 15be 53df 5cbd 1cb4 abbc
00000010: 9a5a b7bd 75dc 903c 6211 97bd 2d98 1b3d
00000020: 132c d3bd 0e20 95bd f776 c1bd 19bb e83c
00000030: 8cfc eebd 8e0e efbd 3230 79bd b60b e1bd
00000040: ba87 d7bd 86b8 023e 4551 c63d 8a45 4c3c
00000050: e6d4 3bbe f5f7 9fbd 50fe 21bd 0630 643d
00000060: b44b 60be c866 2e3d bf2d 613e 427c e83d
00000070: 8d34 b3bd f301 b13d 74ee 793d d055 fcbc
00000080: b59b b23d 7e95 ddbd 0417 bc3d cb4c a53d
00000090: ff4c 39bd 371a 1dbe 7d9e bd3d 7fe0 143d
000000a0: 54df b5bd d065 a3bd 9c72 cb3d 3cb0 f73d
000000b0: c74e 47be c58e c7bd 4fd4 8dbd 7669 d3bc
000000c0: 34d7 79bd a727 833d 2b30 a5bd c85a 41be
000000d0: 4817 02be 815c d9bd de07 c9bd 73b3 99be
000000e0: ed75 643d f861 ccbd 2c95 aabc 0314 33bd
000000f0: e576 acbd 811f 2b3d 6002 2c3c 0626 ecbd
00000100: 1bd0 d43d 3f93 1e3e 8576 043c 223f 303e
00000110: 7d2c 97bd 48da bb3b 87e2 f03d 96f1 1f3d
00000120: aff1 563e 96a6 09bd b83f 07be 8142 2b3c
00000130: 4222 013d f1ef b13d 4343 21be 039f f7bc
00000140: 4780 a3bd 5a06 c13c 5bcb 70bd 3304 723d
00000150: ee32 afbd 6550 9d3d 45f7 a8be a74c 723d
00000160: c87f 4b3e aafd 80bc 66e6 cabd 0ba5 b03d
00000170: c76c 5dbe df04 0d3e 6c65 b23d eed1 6cbd
00000180: ece5 0fbe eebe 62be e695 65bd e332 403e
00000190: 75c8 203c e94d c8bd 64c8 4c3c e8e6 61bd
000001a0: 723c afbc 6f7e 4bbc 2bbb c6bd e201 df3d
000001b0: 0afc 19bd c332 8b3d c96d 393e 6a61 37be
000001c0: c657 10be 466e b63d c441 3bbe b935 4cbd
000001d0: 5564 76bd 8315 43be d80d 75bd 01a8 143e
000001e0: 085f 523c 18a6 ae3d ef00 01bc 070c b1bd
000001f0: b56c 20be 9400 f93d c3fb 1dbe 1f46 d23d
00000200: b1b5 0bbd 59e7 3abd 476b 52be f3c4 cc3c
00000210: 9f61 843c 9999 503d e3f1 55bd 0d7c 0dbd
00000220: 0455 bdbe 3087 56be 2082 80bd 01ea 3dbd
00000230: 4ee5 8dbd 7853 95be 7b9c e53d ca56 12be
00000240: c07b 57bd cafc b5bd 69e6 f8bd 6b96 0bbe
00000250: 478b 2fbe 8cb5 e43b 9dbc aebd 6cb2 b5bc
00000260: 635e 1cbe 8790 50be 712a febd 3410 88be
00000270: 0afa 67bd 58a3 45be f91a c2bd 10b2 3c3d
00000280: 02ef 7cbd 63ca 843d 0dbb 2d3e 3818 9d3d
00000290: 1f80 a8bd caa7 c3bd ffce 0cbe ffdf 97bd
000002a0: 5100 4a3d 8a73 9b3d c587 183e 44b4 e13d
000002b0: ce70 6d3d 3902 7c3d 8177 36be 5555 b0bb
000002c0: ef0e 8fbd 0991 853c 3981 24be 3397 133e
000002d0: a2da e83d d4c8 68be ad77 62bd 4f5d 783d
000002e0: cc4d 663d 078c 613d 933b b2bd 5850 5d3d
000002f0: 2a58 07bd 27ae 543d ba10 fdbd 5b65 7dbd
00000300: 75fe 59bd 49e5 073e f9a6 9bbd 1418 223d
00000310: fc6a e43d ef78 333d 4083 d8bc 9f55 3abe
00000320: e933 313e 43e1 6bbe b752 643c 4d17 87be
00000330: cfc7 5ebd d16e 02be caac 5a3d d47d 34be
00000340: c7c0 f23d d2dc e5bc b3dd 9ebd 8e3a 12bd
00000350: 823a 15be 57a8 b83c d124 c0be 36a1 27bc
00000360: dd9e 8cbe e598 463d 5ddc a9be 6bc7 b0bd
00000370: cd60 e43d a012 b53d 2fe6 983d 93a1 b83c
00000380: 96d5 013e d913 0ebe 31d4 a2bd 343c 363e
00000390: 1d17 003e 0c6e e03d 1fc7 803d 74c4 debd
000003a0: 498b 543e 1cfc a5bd 48f7 61be 8eda 0b3e
000003b0: 4111 75bd 525e 033e 65b4 8fbd 789d 94bc
000003c0: 18bd 8cbd 685e 73be a6f8 3a3c a709 ab3d
000003d0: b1e1 29bd e0a9 18be 01ea dfbd 9889 81be
000003e0: de21 ad3d 8f79 83bd 5922 b23c 79fc 15be
000003f0: 1464 25bb ee01 18be 19c6 da3c ac44 2f3d

bias f4 [256]
-0.0058958074 -0.03831968 -0.014064712 0.021662872 -0.034353483 0.0035575598 0.06433577 -0.036667988
-0.035961144 -0.016189652 0.02139711 0.037605096 -0.017308896 0.043128826 -0.026795233 -0.025410477
0.025059046 -0.06364379 0.043087166 -0.0011774531 0.03983086 0.020908097 -0.03743275 -0.010576597
0.025646526 -0.07548606 -0.0741468 0.03709931 -0.028887482 0.031418916 -0.09114745 -0.0037411072
-0.017435642 -0.031420417 -0.012100126 0.065425515 0.10683482 -0.01788027 -0.06788148 -0.016422538
-0.008709218 0.00861307 -0.027304742 -0.0063103125 -0.01800911 -0.011243107 0.09625257 -0.081282794
-0.040151116 -0.017568022 -0.046649348 0.04056656 -0.011325926 0.034262665 0.059745714 0.042646185
-0.028475758 0.0070802527 -0.00985582 -0.0019463649 0.0108483145 -0.072157815 0.063321255 0.059128433
-0.09500585 0.04911531 0.03189813 -0.029529098 -0.02687597 -0.066659145 -0.033711124 -0.049893036
-0.041094415 -0.060434043 0.03643959 0.060868166 0.051968835 0.031597868 0.036804743 0.018179001
-0.0620728 -0.07827943 0.062536836 -0.058286812 -0.008612074 -0.018536428 -0.01040249 -0.0457734
-0.0010312597 0.01978195 -0.056328222 0.0106437 0.006354546 -0.004189818 -0.0053337244 0.039047413
0.010744685 0.0027928147 -0.024418022 -0.043856274 -0.085030474 -0.020953711 0.055485673 0.0018501471
-0.078201674 0.058344405 -0.010234202 -0.01074339 0.009916793 -0.010370418 -0.014877537 0.017711882
-0.0069619482 0.042097975 -0.04329441 -0.024730146 0.015945021 0.033077028 0.054547086 -0.058573335
-0.039442655 0.0035419127 -0.05713565 -0.0025927022 -0.04697764 -0.0021158282 0.0019601835 0.0061295466
-0.024431692 -0.04038085 -0.07702905 0.036587257 -0.021282423 0.0700917 -0.031495463 -0.019791069
-0.055942137 0.025125196 0.0008818131 -0.07507635 0.009799134 -0.07000273 0.046779644 -0.03719024
-0.029256467 0.02041862 -0.031740166 -0.0054177283 0.030450769 0.039696857 -0.02059508 0.015227872
0.059215408 -0.007066753 0.020646151 -0.037032545 0.02360357 -0.07530106 -0.048134133 -0.00644719
-0.007862123 -0.03932003 0.0054907845 -0.10789277 -0.052370038 -0.029915223 -0.027290026 -0.027120877
-0.0040635127 -0.010951381 0.09990858 0.035467945 -0.06570082 -0.033607636 0.03041108 -0.07975158
-0.057088867 -0.022034574 -0.056035247 0.009956599 -0.032297224 -0.07834527 0.018155752 0.08777238
0.0150482785 -0.026947936 0.024129074 0.012657457 -0.025487341 -0.06406745 0.061125297 -0.087785006
-0.007980446 -0.03336873 -0.008916126 -0.045234457 -0.080866046 -0.027458737 -0.021119317 0.017677594
0.050064966 0.014992254 -0.06423885 -0.06345743 -0.0010483057 -0.021049684 -0.0026580305 -0.045573883
-0.03230478 0.08041536 0.036047816 -0.006092494 0.07951328 0.01654495 -0.027602756 0.08397702
0.025775619 -0.016839812 0.03517778 -0.0052041765 0.08993583 -0.0072274026 0.043101292 0.0029834998
0.021681828 0.019838393 0.02386989 -0.10030882 -0.041549627 0.054644626 -0.029541122 -0.04988939
0.007555893 0.011507721 0.02639529 -0.020270811 0.022994088 -0.053134635 -0.00074259535 0.009411696
0.012052234 0.01271297 -0.038561925 -0.031898197 -0.013412488 -0.047227673 0.020667082 0.038064368
0.03714531 -0.0058460534 -0.09909837 -0.030672614 0.062179107 -0.02861309 -0.0032101192 -0.06036408
00000000: 9e31 c1bb 19f5 1cbd ae6f 66bc 5676 b13c
00000010: 3db6 0cbd f325 693b 79c2 833d 2c31 16bd
00000020: fe4b 13bd 29a0 84bc fe48 af3c cd07 1a3d
00000030: 63cb 8dbc daa7 303d ad81 dbbc a229 d0bc
00000040: a148 cd3c ad57 82bd 2b7c 303d c554 9aba
00000050: af25 233d 7547 ab3c 1553 19bd 7749 2dbc
00000060: aa18 d23c 6f98 9abd 47da 97bd 72f5 173d
00000070: 71a5 ecbc 1fb1 003d 84ab babd 5d2d 75bb
00000080: 31d5 8ebc b2b2 00bd 9b3f 46bc d0fd 853d
00000090: 37cc da3d a579 92bc 7205 8bbd 8f88 86bc
000000a0: 1cb1 0ebc d51d 0d3c 32ae dfbc bdc6 cebb
000000b0: d787 93bc 0235 38bc 1120 c53d 9877 a6bd
000000c0: 7f75 24bd d0ea 8fbc 6313 3fbd 1f29 263d
000000d0: 6090 39bc 0257 0c3d ecb7 743d c4ad 2e3d
000000e0: fe45 e9bc 7701 e83b 4e7a 21bc 2b1d ffba
000000f0: 21bd 313c 7ac7 93bd 93ae 813d a830 723d
00000100: 6d92 c2bd 232d 493d 9da7 023d 02e7 f1bc
00000110: ff2a dcbc 9784 88bd ad14 0abd a45c 4cbd
00000120: 9e52 28bd b089 77bd ae41 153d e650 793d
00000130: 46dd 543d c46c 013d 92c0 163d 21ec 943c
00000140: 0c40 7ebd f750 a0bd 5013 803d 27be 6ebd
00000150: a819 0dbc b5d9 97bc 356f 2abc e47c 3bbd
00000160: 552b 87ba c20d a23c 6cb8 66bd ea62 2e3c
00000170: cc39 d03b be4a 89bb 86c6 aebb 2ef0 1f3d
00000180: 7a0a 303c a807 373b 4e08 c8bc a3a2 33bd
00000190: 7524 aebd 1ea7 abbc f244 633d a380 f23a
000001a0: 3328 a0bd 8bfa 6e3d 5bad 27bc 0b05 30bc
000001b0: 0b7a 223c b0e8 29bc eac0 73bc 8218 913c
000001c0: 0e21 e4bb ed6e 2c3d 7b55 31bd e096 cabc
000001d0: 229f 823c c77b 073d c46c 5f3d 98ea 6fbd
000001e0: 9f8e 21bd 6f1f 683b 1207 6abd 53ea 29bb
000001f0: a06b 40bd b5a9 0abb 6c76 003b 5dda c83b
00000200: f924 c8bc 6466 25bd 68c1 9dbd 85dc 153d
00000210: 7a58 aebc 3d8c 8f3d 6301 01bd e120 a2bc
00000220: 9523 65bd 5bd3 cd3c 7a29 673a a1c1 99bd
00000230: 8c8c 203c 975d 8fbd 039c 3f3d cb54 18bd
00000240: 42ab efbc f344 a73c fa01 02bd 3387 b1bb
00000250: e473 f93c 2c99 223d 03b7 a8bc 537e 793c
00000260: db8b 723d 3990 e7bb 1e22 a93c 70af 17bd
00000270: 465c c13c 7137 9abd 4c28 45bd f342 d3bb
00000280: 22d0 00bc 0a0e 21bd 0aec b33b e2f6 dcbd
00000290: f781 56bd c510 f5bc 558f dfbc 9a2c debc
000002a0: 3727 85bb 6c6d 33bc df9c cc3d d646 113d
000002b0: 278e 86bd 29a8 09bd a820 f93c cc54 a3bd
000002c0: 04d6 69bd da81 b4bc 3785 65bd 0121 233c
000002d0: 184a 04bd 7c73 a0bd 5fbb 943c 01c2 b33d
000002e0: 0e8d 763c ebc1 dcbc 56aa c53c 3961 4f3c
000002f0: d4ca d0bc cc35 83bd 855e 7a3d a0c8 b3bd
00000300: 6bc0 02bc a6ad 08bd f114 12bc c447 39bd
00000310: 199d a5bd 25f1 e0bc 6b02 adbc 9ad0 903c
00000320: ec10 4d3d 12a2 753c a88f 83bd f8f5 81bd
00000330: 4d67 89ba 6370 acbc 5a32 2ebb aeab 3abd
00000340: 0452 04bd cfb0 a43d e0a6 133d 8ba3 c7bb
00000350: dcd7 a23d 4689 873c 2d1f e2bc 25fc ab3d
00000360: 6427 d33c a5f3 89bc 9316 103d cc87 aabb
00000370: 4730 b83d d9d3 ecbb fb8a 303d d286 433b
00000380: 179e b13c 2084 a23c ca8a c33c b66e cdbd
00000390: f12f 2abd 0bd3 5f3d 3900 f2bc d158 4cbd
000003a0: 6d97 f73b e18a 3c3c ef3a d83c f90e a6bc
000003b0: 195e bc3c b4a3 59bd bbaa 42ba 8433 1a3c
000003c0: bc76 453c 104a 503c 1cf3 1dbd afa7 02bd
000003d0: 0dc0 5bbc ce71 41bd 034e a93c 62e9 1b3d
000003e0: ae25 183d 4090 bfbb 16f4 cabd 2245 fbbc
000003f0: 85af 7e3d 0066 eabc dd60 52bb 5340 77bd

weight f4 [12, 256]
-0.05047167 -0.076100685 -0.12530716 0.00068679685 -0.08377202 -0.15266214 -0.0453232 0.036599193
-0.00412972 0.13600038 0.14243667 -0.12076619 -0.094473876 0.06018474 0.31012544 -0.16058393
0.04947803 -0.10688446 0.053467955 0.30801842 0.019174328 -0.0152459135 0.166895 -0.15553077
0.08731179 -0.011084291 0.09029447 0.051120993 0.10486232 -0.066496514 -0.10864144 0.25840923
0.12213778 0.016859287 -0.017395599 -0.0076595843 0.07847916 0.15169215 -0.101261735 -0.041872535
-0.05129617 0.12952125 0.04698219 -0.027332388 0.14167595 0.038840476 -0.06731849 -0.02095267
0.048642494 0.0021828115 -0.18890484 0.014973834 -0.26238763 -0.09759637 -0.054125115 -0.06869475
0.08544554 0.1518091 0.24071193 -0.03793887 -0.139714 -0.18414979 -0.17130838 -0.092990674
0.2489716 0.03485142 -0.21989788 0.14961304 0.024626477 0.1315804 -0.013261664 0.111138746
-0.018047925 -0.15480429 -0.024431847 -0.10768219 0.054377627 -0.09192295 -0.020736719 0.05271349
-0.11754832 -0.14433888 0.08816798 -0.18061723 0.00817115 -0.14758007 -0.19294707 0.2817752
0.048510786 0.11482426 0.06988803 0.096564226 0.04313592 -0.016594833 0.10947108 -0.16347142
-0.16242175 0.0108115105 0.038744416 -0.00898644 0.03834593 0.061557457 -0.01625408 0.14333193
0.12579569 -0.02412891 0.08516757 -0.018372225 0.067664646 0.04636128 -0.30654535 -0.011756639
-0.12768115 -0.34744987 0.20244475 0.08791679 0.19151828 -0.09936679 0.113849856 0.31018302
0.093735136 0.0074720294 -0.14196561 0.17450109 0.008205102 0.15927579 -0.20900324 -0.05272736
0.1326248 -0.110713296 -0.20573471 0.16621019 0.030193327 -0.036814284 0.020987326 -0.1322997
0.05969734 0.03413529 0.04372335 0.19715357 0.02564214 0.026366666 0.0568518 0.020513542
0.01342823 0.061416924 0.048785802 0.0871605 -0.041770115 -0.010203986 0.17706689 0.0126542635
0.074614026 0.043945286 0.0066440427 -0.10170133 0.0022576677 0.09835796 0.08352807 0.14334056
-0.026094722 0.14214359 -0.13235058 0.04506054 0.16711265 0.04652634 -0.011422877 0.02961455
0.012740569 -0.02281916 0.20410605 0.13171855 -0.015508943 0.040848073 -0.23004366 -0.032438006
-0.047915593 0.1349329 0.20883001 0.09612265 -0.16911173 0.047361568 0.0067570354 0.01084853
0.0056510186 0.12159322 0.05114774 0.086576566 -0.0070798397 0.040441416 -0.06462632 -0.11636523
0.093781754 0.15034212 0.08464375 0.17258766 -0.2007251 -0.034989465 0.10048372 0.0024449641
0.02636842 0.014489571 -0.03327279 -0.05969023 0.07438836 -0.032796662 -0.008484323 -0.07552791
-0.0133725405 -0.03763307 0.24741824 0.14293468 -0.1172933 0.022808814 -0.04262122 -0.15370518
0.1464632 -0.07517564 0.0033098154 0.13629602 -0.12311774 0.17325886 0.21423222 -0.25306648
-0.3041191 0.10026814 -0.010226925 -0.08144014 0.11760245 -0.032576457 0.010562007 -0.32241604
-0.13635716 -0.06923153 0.06230256 -0.04541645 0.19095157 0.07023772 -0.022575095 -0.10845361
0.042926595 0.0008753643 -0.17012507 0.079615995 -0.08403236 -0.09494098 0.038415216 -0.0013616412
0.15686011 0.11244214 0.10213272 0.05086397 -0.2196449 -0.10806516 0.04771785 -0.17889293
00000000: 62bb 4ebd adda 9bbd 8550 00be 280a 343a
00000010: aa90 abbd 7753 1cbe d2a4 39bd 09e9 153d
00000020: 9a52 87bb af43 0b3e ebda 113e 4454 f7bd
00000030: 857b c1bd 4684 763d c3c8 9e3e 1d70 24be
00000040: 7aa9 4a3d 3de6 dabd 3701 5b3d 97b4 9d3e
00000050: 7b13 9d3c ffc9 79bc 86e6 2a3e 7543 1fbe
00000060: 86d0 b23d e39a 35bc 4fec b83d 3f64 513d
00000070: 0ec2 d63d 532f 88bd 677f debd 374e 843e
00000080: 5f23 fa3d 7d1c 8a3c 3781 8ebc 40fd fabb
00000090: afb9 a03d 3055 1b3e 5062 cfbd 8982 2bbd
000000a0: ef1b 52bd 38a1 043e 6670 403d 2ce8 dfbc
000000b0: 8013 113e 3117 1f3d 47de 89bd efa4 abbc
000000c0: 5a3d 473d 800d 0f3b 4570 41be d054 753c
000000d0: ac57 86be 9be0 c7bd 4cb2 5dbd d5af 8cbd
000000e0: 12fe ae3d d873 1b3e 307d 763e ca65 1bbd
000000f0: 3011 0fbe c391 3cbe 776b 2fbe e571 bebd
00000100: 69f2 7e3e 5dc0 0e3d e92c 61be 2934 193e
00000110: 77bd c93c 03bd 063e 7347 59bc b69c e33d
00000120: 3ed9 93bc 0485 1ebe 4c25 c8bc 7b88 dcbd
00000130: 13bb 5e3d 1a42 bcbd 0de0 a9bc 1aea 573d
00000140: 2cbd f0bd 92cd 13be 6a91 b43d b9f3 38be
00000150: 4ae0 053c 3b1f 17be eb93 45be d744 903e
00000160: 3fb3 463d fb28 eb3d 7521 8f3d 77c3 c53d
00000170: 4aaf 303d e3f1 87bc 6032 e03d 0d65 27be
00000180: e351 26be c322 313c 77b2 1e3d dc3b 13bc
00000190: 9f10 1d3d ac23 7c3d 4727 85bc 9bc5 123e
000001a0: 96d0 003e fea9 c5bc 566c ae3d 5981 96bc
000001b0: c393 8a3d 53e5 3d3d 83f3 9cbe eb9e 40bc
000001c0: d9be 02be f3e4 b1be ad4d 4f3e b80d b43d
000001d0: 5e1d 443e d180 cbbd 1d2a e93d 4fd0 9e3e
000001e0: 35f8 bf3d edd7 f43b 6f5f 11be 6ab0 323e
000001f0: b16e 063c 3119 233e f204 56be a5f8 57bd
00000200: ccce 073e a7bd e2bd 1fac 52be 0133 2a3e
00000210: ff57 f73c 93ca 16bd 9ded ab3c 9379 07be
00000220: 3385 743d 72d1 0b3d 4117 333d a0e2 493e
00000230: 770f d23c e8fe d73c 6fdd 683d 040c a83c
00000240: 1402 5c3c 5090 7b3d 9fd3 473d 3481 b23d
00000250: 2417 2bbd 9f2e 27bc 0651 353e d453 4f3c
00000260: 3dcf 983d f9ff 333d 45b6 d93b c948 d0bd
00000270: 61f5 133b e66f c93d c410 ab3d dec7 123e
00000280: 99c4 d5bc 178e 113e e986 07be 6791 383d
00000290: 941f 2b3e 6792 3e3d 0527 3bbc 369a f23c
000002a0: d2bd 503c 3fef babc 2d01 513e 3ae1 063e
000002b0: 3919 7ebc 4f50 273d 9190 6bbe b7dd 04bd
000002c0: 2443 44bd da2b 0a3e 89d7 553e f4db c43d
000002d0: a02b 2dbe 34fe 413d 1f6a dd3b 08be 313c
000002e0: 2e2c b93b de05 f93d 4b80 513d 0e4f b13d
000002f0: 00fe e7bb e6a5 253d ce5a 84bd e550 eebd
00000300: a610 c03d 49f3 193e b459 ad3d d2ba 303e
00000310: e18a 4dbe 1d51 0fbd 69ca cd3d b13b 203b
00000320: 9602 d83c aa65 6d3c 0d49 08bd be7d 74bd
00000330: ed58 983d cb55 06bd d401 0bbc 60ae 9abd
00000340: 8018 5bbc 2225 1abd 355b 7d3e 785d 123e
00000350: 7837 f0bd 8dd9 ba3c 9793 2ebd e464 1dbe
00000360: 73fa 153e b0f5 99bd 7de9 583b 2f91 0b3e
00000370: 2725 fcbd c56a 313e b15f 5b3e ee91 81be
00000380: 80b5 9bbe 6259 cd3d d58e 27bc 17ca a6bd
00000390: 8ed9 f03d e46e 05bd 450c 2d3c b713 a5be
000003a0: 36a1 0bbe 43c9 8dbd f830 7f3d 9906 3abd
000003b0: cf88 433e cbd8 8f3d 68ef b8bc ed1c debd
000003c0: ccd3 2f3d b478 653a 4435 2ebe b60d a33d
000003d0: 2819 acbd 6b70 c2bd 4659 1d3d 1979 b2ba
000003e0: f09f 203e 1148 e63d f62a d13d bd56 503d
000003f0: 98ea 60be 4451 ddbd cb73 433d b52f 37be

bias f4 [12]
0.018397495 0.00052062474 0.036495186 0.053939324 0.041682217 -0.022693936 0.020742865 -0.018550398
-0.019625444 0.036757592 -0.1041266 -0.084115505
00000000: 58b6 963c 897a 083a fa7b 153d 7bef 5c3d
00000010: f9ba 2a3d a2e8 b9bc f1ec a93c 01f7 97bc
00000020: 8ac5 a0bc 218f 163d 5440 d5bd c044 acbd

stds f4 [12]
0.223 0.223 0.223 0.223 0.223 0.223 0.223 0.223
0.223 0.223 0.223 0.223
00000000: 1d5a 643e 1d5a 643e 1d5a 643e 1d5a 643e
00000010: 1d5a 643e 1d5a 643e 1d5a 643e 1d5a 643e
00000020: 1d5a 643e 1d5a 643e 1d5a 643e 1d5a 643e

obs_std f4 [39]
0.2187817 0.2506484 1.4673884 1.785364 1.56159 0.28037822 0.22552833 0.27068272
0.27866971 0.26843327 0.27213848 0.2805761 0.2257572 0.26772898 0.27579233 0.27075052
0.2691119 3.4338052 3.2819037 5.147885 4.7318406 5.3109155 4.8736105 3.4220595
3.258438 5.1361566 4.734961 5.3218336 4.8492737 0.64380586 0.7651757 0.22390686
0.2682306 0.26756588 0.21633732 0.25916606 0.26678756 0.3727655 0.41615182
00000000: 4f08 603e fd54 803e 62d3 bb3f cf86 e43f
00000010: 2ee2 c73f bc8d 8f3e e6f0 663e ed96 8a3e
00000020: ccad 8e3e 1670 893e bc55 8b3e aca7 8f3e
00000030: e52c 673e c613 893e a734 8d3e d09f 8a3e
00000040: 09c9 893e 77c3 5b40 b60a 5240 79bb a440
00000050: 3d6b 9740 05f3 a940 9ef4 9b40 0603 5b40
00000060: 408a 5040 655b a440 cd84 9740 764c aa40
00000070: 402d 9b40 76d0 243f 8ee2 433f d747 653e
00000080: 8555 893e 65fe 883e 8887 5d3e 6ab1 843e
00000090: 6198 883e 1fdb be3e da11 d53e

obs_mean f4 [39]
0.0066673416 0.022275064 0.017862394 -0.012458505 -0.041163757 -0.5738615 -0.063136384 0.0057324255
0.95116746 0.009415738 -0.43209916 -0.56039643 0.0575112 -0.005297662 0.9422575 -0.01674516
-0.4203183 -0.09637599 0.07197382 0.013994117 0.24399224 0.010389324 -0.01935871 -0.0568486
-0.079050355 -0.03931687 0.21934406 -0.030530106 0.018835876 0.0044718804 -0.00037471892 0.1187929
0.1998279 -0.00792792 -0.0040521664 -0.6516355 -0.6523619 0.009015101 0.004834971
00000000: b779 da3b 327a b63c 2854 923c c21e 4cbc
00000010: 549b 28bd 96e8 12bf a64d 81bd 12d7 bb3b
00000020: b67f 733f 7844 1a3c 1a3c ddbe 2476 0fbf
00000030: dd90 6b3d 0398 adbb ca37 713f 252d 89bc
00000040: f633 d7be c660 c5bd 0367 933d 9547 653c
00000050: 1ad9 793e fc37 2a3c 2896 9ebc 14da 68bd
00000060: 27e5 a1bd ba0a 21bd bb9b 603e 461a fabc
00000070: b24d 9a3c da88 923b ec75 c4b9 b149 f33d
00000080: af9f 4c3e 1be4 01bc 09c8 84bb 96d1 26bf
00000090: 3101 27bf 13b4 133c ad6e 9e3b
