trained/jvrc_step/actor_13399.pt (torch, 322033 bytes, 9 tensors)

weight f4 [256, 39]
000000 17 8b 5a be 3f bc 01 be 6f 92 7c 3c af 2b 78 be
       -0.21342121 -0.12669466 0.015415772 -0.24235414
000010 02 81 fc bd d1 5d bc be 97 69 78 be ef 4c 86 be
       -0.12329294 -0.36790326 -0.2425903 -0.2623057
000020 fb ef 3f bf 69 6c 89 bc c6 43 c1 be ba 9f aa 3e
       -0.74975556 -0.016775327 -0.3774702 0.33324987
000030 cb d7 bc bd d2 eb 29 be ca 79 8d 3d 16 8a 78 3d
       -0.09220847 -0.16593865 0.06907995 0.060678564
000040 46 b4 59 be 15 e5 89 be 50 42 9d bd e0 0c 03 be
       -0.21260175 -0.26932588 -0.07678664 -0.1279788
000050 ec 78 47 bd d3 79 e3 3b 68 64 9b be 7f 4d 3d 3f
       -0.048699304 0.006942013 -0.3035004 0.73946375
000060 06 96 dc be 07 42 3b 3d c3 3e 59 3e 53 9f f8 3c
       -0.4308321 0.045717265 0.21215348 0.03034941
000070 24 56 dd 3c 29 98 11 be 05 c4 46 bd 50 35 7f be
       0.027018614 -0.142182 -0.048526783 -0.24922681
000080 79 93 b8 bc 0e 15 c9 bd 4d 51 bb 3d ee 4c 74 bd
       -0.022531258 -0.09818469 0.09146366 -0.05964368
000090 43 7c a6 3e 64 78 b3 bc fa 49 96 bd 2a aa 37 3e
       0.3251668 -0.021907993 -0.07338329 0.17936006
0000a0 21 8e c9 bd 91 ad 96 3d c0 fb 00 3f 1d bf 2f be
       -0.09841562 0.07357324 0.5038414 -0.17162748
0000b0 e9 06 1e 3e 73 c6 a2 3b 0d 28 b3 3d 5b 2f 24 3e
       0.15432324 0.0049675046 0.087478735 0.1603369
0000c0 c6 06 b5 3d 60 cf 1a be c2 0c 02 3d 1d 1b f8 3e
       0.088391826 -0.1511817 0.031750448 0.48458186
0000d0 97 8f 91 bc ab 1b 19 be 6c 46 9e 3e af 31 a7 bd
       -0.017768664 -0.1495196 0.30913103 -0.08163773
0000e0 69 53 82 3e bb 52 da 3d da ee 25 3f 4f 1d 08 bd
       0.25454262 0.10660311 0.64817584 -0.033231076
0000f0 8d ba b8 3d e7 00 0b be 7c 8b 97 bd 60 fb 0d 3e
       0.09019957 -0.13574563 -0.073996514 0.13865423
000100 f0 25 c6 bc 18 74 70 be 5a 65 aa 3d a9 9f 9f be
       -0.024188012 -0.23481786 0.083201125 -0.311765
000110 fa 6e ee 3c d3 02 53 3d 08 b7 74 3e d4 a0 a0 bd
       0.029105652 0.051516365 0.23897946 -0.078431755
000120 b4 0e 4d be 8b f4 e5 be 59 71 83 3e 78 85 01 3f
       -0.2002514 -0.44913134 0.25672415 0.5059428
000130 fa cf 8f bd 98 b5 21 3e 6f aa 97 3e 60 23 e4 be
       -0.0702209 0.15791929 0.29622218 -0.4455824
000140 ea 84 73 3d 67 ab 24 bf dc 06 e7 3d e6 f5 98 be
       0.05945293 -0.6432404 0.11280605 -0.29875106
000150 74 e5 d4 bd 40 3a 47 bd 70 a4 a5 bd 9a 06 15 3d
       -0.10395327 -0.048639536 -0.080880046 0.03638325
000160 b1 4c 22 3e 91 25 94 be d1 14 49 be cc 92 95 bd
       0.15849568 -0.2893491 -0.19636847 -0.0730339
000170 f5 d6 23 3e 5c f7 ea bb fb 7c 7a 3e 08 26 46 3e
       0.15999968 -0.007170601 0.24461739 0.19350445
000180 6a 6c ea bd 73 b9 f3 3e 2f 05 99 3d 6e 36 13 3e
       -0.114464596 0.47602424 0.07471692 0.14376232
000190 68 e4 a6 3b 5d 6f 89 be e4 a7 f5 bd 92 36 83 be
       0.005093146 -0.26842776 -0.11994913 -0.2562757
0001a0 25 f9 e5 3d 99 55 a6 3e 77 17 d7 3e fb 6f 96 be
       0.11229161 0.3248718 0.4201009 -0.2938231
0001b0 53 fc 1b bc 9c 91 39 be 3a 1a 1f be 5f 37 d0 bd
       -0.009520608 -0.18121952 -0.15537348 -0.10166811
0001c0 bc e5 da 3d 99 11 90 3d fc 06 64 3e 3c db 18 3e
       0.106883496 0.070346065 0.2226829 0.14927381
0001d0 e0 d7 5f 3e bf 77 ce 3e 2f f0 b1 be ef b7 5a 3e
       0.21859694 0.40325734 -0.34753558 0.21359228
0001e0 5d b6 05 bf a6 6d 4d 3e c3 d5 64 be 88 b1 03 bd
       -0.5223139 0.20061359 -0.22347169 -0.03215173
0001f0 2e 7d 9a be 74 b5 b9 3e f4 b0 b5 be bc 16 ee 3e
       -0.3017363 0.3627125 -0.35486567 0.4650172
000200 cd b4 54 3e 7f 5c d1 bd 0c e9 78 3e 35 d5 04 3e
       0.20772095 -0.1022272 0.2430765 0.12971957
000210 af e1 21 be 83 74 6d 3e 0c d6 d6 be d7 f8 23 3f
       -0.15808748 0.23188977 -0.4196018 0.64051574
000220 2d 0d b1 be 71 aa c4 3e 72 f2 84 be 42 69 87 3e
       -0.34580365 0.38411286 -0.2596622 0.26447493
000230 bf 4b 15 3e f0 10 d5 be 6d 43 d2 3d cf 0e 18 3c
       0.14579676 -0.41614485 0.10266767 0.009280874
000240 78 05 55 3e 42 57 51 be 11 6c a3 3c 53 a9 21 be
       0.20802867 -0.20443442 0.019948991 -0.15787248
000250 c2 ec 04 3e 95 0b bc 39 d8 b7 22 bd 16 79 42 bc
       0.12980941 0.00035866784 -0.03972611 -0.011869689
000260 39 d1 82 be 8d c8 d9 3d 89 5e 48 3d 4a fd f9 bd
       -0.2555025 0.10633955 0.04891828 -0.12206514
000270 7c 7e 37 bd c4 0a d8 3d 15 a0 c4 3e f4 f6 7b 3e
       -0.04479836 0.105489284 0.38403383 0.24605924
000280 d8 93 bf 3b bb 42 98 be 29 c5 3f 3e a9 40 fd 3c
       0.005846482 -0.2973841 0.18727554 0.030914621
000290 67 16 27 be a0 b3 a4 be f1 e5 d5 3c 09 8d 72 3e
       -0.1631714 -0.32168293 0.026110621 0.23686613
0002a0 ca b0 1e 3e 18 29 ec bd 71 6a 8e be 9c b6 1a bc
       0.15497127 -0.115312755 -0.27815583 -0.0094429515
0002b0 6f d9 12 be e4 95 2a 3f a9 72 00 3f d3 13 b1 3e
       -0.14340757 0.66634965 0.5017496 0.34585437
0002c0 24 af a1 3e c5 35 57 3e 78 f0 8a be a1 49 29 bb
       0.31578934 0.21016605 -0.27136588 -0.002583124
0002d0 26 5d a5 3d b6 e7 3e be 03 0e ba ba e2 fd f2 3d
       0.08074407 -0.18643078 -0.001419485 0.118648306
0002e0 61 8e 48 bd 49 f7 22 3e 15 51 6c be 94 3b 64 be
       -0.048963908 0.15914644 -0.23077805 -0.22288352
0002f0 75 f1 21 be fe fd fe bd 77 1a 4a 3d 05 0b 98 3d
       -0.15814765 -0.12450789 0.049341645 0.07423977
000300 6c 4c 4e 3e 56 b1 54 be 0f 33 4a bd 57 0f 04 be
       0.2014634 -0.20770773 -0.0493651 -0.12896477
000310 15 87 97 3e f9 e1 9d 3d 85 22 d6 3e 2e 3d 00 3e
       0.29595247 0.077091165 0.4182321 0.12523338
000320 06 71 2c 3e 18 9a ac 3b cb 4e 50 3e da 79 4c bd
       0.1683999 0.005267393 0.20342557 -0.049920894
000330 8d 9f dc be 20 56 a8 be 90 4f aa bd 09 cd 01 be
       -0.43090478 -0.32878208 -0.083159566 -0.12675871
000340 84 0f 97 3c f4 47 2e bd b9 1b 4f 3e 69 fe 07 3f
       0.018440016 -0.04254909 0.20225419 0.53122574
000350 98 4f 24 bf a7 71 e3 3d 02 b7 78 be 09 e9 23 3f
       -0.6418395 0.11105662 -0.24288562 0.6402746
000360 ee b6 dc be da 5b 52 be 8b 12 79 be 6a 10 fa 3c
       -0.43108314 -0.20542851 -0.2432348 0.030525405
000370 13 5e c2 3d 48 d9 ff 3d ad 3c 81 3d b9 b3 92 3d
       0.094905995 0.12492615 0.06310401 0.071631856
000380 bc 98 eb bd ae 08 29 be af 34 0f be a5 6f 1e 3e
       -0.11503741 -0.16507217 -0.13984941 0.15472277
000390 a6 74 e7 3d 1f 59 d1 bd a2 64 bd 3e ce e9 a8 3e
       0.11301546 -0.102220766 0.3699084 0.3299088
0003a0 71 75 08 3e fe 39 8a 3d 82 50 50 3d cf a9 12 3f
       0.1332605 0.067493424 0.05085803 0.5729036
0003b0 cf 83 52 bd 26 06 1f 3f 05 1b 5e 3e de be 94 bc
       -0.051395234 0.62118757 0.21689995 -0.018157419
0003c0 48 d3 e3 3d f0 7e c6 3d 14 c1 a3 3d c6 8f 3f 3d
       0.11124283 0.0969218 0.07995811 0.046767972
0003d0 81 f7 b3 be de 52 df bc 93 72 c5 3d bc 97 7d be
       -0.35149768 -0.027261194 0.09640994 -0.24764913
0003e0 d9 ea a3 be 69 99 81 3e de 3e 19 bf 29 fa 9d be
       -0.32015112 0.25312355 -0.5986155 -0.3085492
0003f0 46 f5 91 be 82 6d 77 bd 61 ba 80 3d 84 f9 6c 3e
       -0.2850744 -0.06040717 0.06285549 0.23142058

bias f4 [256]
000000 f6 b6 5f be fa 89 1a bd a5 58 5f bd 8b ef 22 be
       -0.21847138 -0.03772924 -0.054527897 -0.15911691
000010 d6 3c a7 be 6f c4 12 bd ca 88 35 be 34 4b 8f bc
       -0.32663602 -0.035831865 -0.17727962 -0.017491914
000020 78 bf 7c be 9e e9 dc 3c ac 84 2b be a7 5f 57 bd
       -0.24682415 0.026966866 -0.16749829 -0.052581456
000030 6e 0e 1c be 0c 3f 52 be c3 a4 b4 3c 3f 03 9e bd
       -0.1523988 -0.20531863 0.02205122 -0.07715463
000040 25 ac 97 bd 67 5a 2d be 62 5a 32 bd 8a fb 0f be
       -0.07405881 -0.16929017 -0.043543227 -0.14060798
000050 83 06 02 be 75 1d de bd 31 df 1b be cd 03 e3 bd
       -0.12697797 -0.10845462 -0.1522186 -0.11084709
000060 b6 fa 96 be a2 e4 ae bc 0f 24 db bd af 3d 46 bd
       -0.29488152 -0.021349255 -0.10700237 -0.04839867
000070 2f 6b 36 be cf 25 73 be 91 17 ab bd 81 c9 d5 bd
       -0.17814325 -0.23744892 -0.08354104 -0.104388244
000080 9e e7 86 be be 08 09 be 4c 1d 74 bd 05 f5 3d bd
       -0.26348585 -0.13382241 -0.059598252 -0.046376247
000090 5f ac 36 be ae b9 7b bd 1b 09 24 be 49 e6 9f be
       -0.17839192 -0.061456375 -0.16019098 -0.3123038
0000a0 d7 99 3f be 1d a0 d8 bd bc 78 f0 3c 47 c7 8d be
       -0.18711029 -0.10577414 0.029354446 -0.276911
0000b0 16 3d 0f be 4e 13 c3 3c 3c 98 8e be 95 19 9d bc
       -0.13988146 0.023812916 -0.2785052 -0.019177238
0000c0 cb 8f 41 be 68 29 a1 be 77 55 91 be 93 4e 50 3b
       -0.18902509 -0.31476903 -0.28385517 0.0031785115
0000d0 96 be a5 bd ba 5b bd bd 44 35 f1 bd 08 84 63 be
       -0.08092992 -0.09246011 -0.11777738 -0.22218335
0000e0 63 8c 55 be 77 cd 31 be e0 74 99 be 62 72 16 bd
       -0.20854335 -0.17363535 -0.2997198 -0.036730178
0000f0 45 7e 8a bd c9 b7 1b be 9e d9 37 be ca 40 c1 bd
       -0.06762365 -0.15206827 -0.17954108 -0.09436186
000100 be 39 a5 bd a2 4d 99 be ed 25 95 be b1 ce 07 be
       -0.08067654 -0.29942042 -0.29130498 -0.1326244
000110 60 d5 fb 3c 9d d3 50 be 1c 60 ed bd 83 5c e1 bd
       0.030741394 -0.20393224 -0.11590597 -0.11003973
000120 75 89 a4 be f0 ee b7 bd c0 dc 0a be 08 89 05 be
       -0.3213612 -0.089811206 -0.13560772 -0.13040555
000130 4a 13 49 be e1 44 da bd 2e 82 0c be 54 8e f7 bd
       -0.19636264 -0.10657669 -0.13721535 -0.12087694
000140 5c b4 1c be fe a8 0a be b9 70 d1 bd 62 6d 1c be
       -0.15303177 -0.13541028 -0.10226578 -0.15276101
000150 02 ff 76 be 40 b7 6b bd ef c8 b2 bd 47 6e c8 bd
       -0.24120715 -0.057547808 -0.08729731 -0.09786659
000160 71 1f 3d be 9b 94 ae bd cb 3f ec bd 7c ef b3 bd
       -0.18469025 -0.08524438 -0.11535605 -0.087859124
000170 13 81 cc bd 7c 1e 06 be 69 08 9f bc f5 6c 90 be
       -0.099855565 -0.13097566 -0.01941319 -0.28208128
000180 31 72 88 bd b4 62 26 be b9 03 26 be d4 cd 8f be
       -0.06662405 -0.1624859 -0.16212358 -0.28086722
000190 db 67 e7 bd 88 94 d9 bd ab 37 53 bd 6b 68 86 bd
       -0.11299106 -0.10624033 -0.05156676 -0.06562885
0001a0 64 11 87 be b7 cb 46 be 83 57 ee bd ee e3 ef bd
       -0.26380455 -0.19413649 -0.11637785 -0.11713396
0001b0 a6 73 5f be fd 70 81 bd 41 67 89 be 8c 47 0a bd
       -0.2182146 -0.06320379 -0.2683659 -0.03375964
0001c0 7f 8b 7a be f9 48 5e bc d6 87 4a be 66 67 14 be
       -0.24467276 -0.013567203 -0.1977838 -0.14492568
0001d0 1e a1 56 be fc 5e 84 be d1 87 33 be 3b ff 41 bd
       -0.20959899 -0.25853717 -0.17532279 -0.047362547
0001e0 da 5a 8f be 4b d7 34 be 13 81 ba bd 96 4e 8e be
       -0.27999002 -0.17660253 -0.0910665 -0.2779433
0001f0 a1 dd df bd b4 d1 6f be 75 d8 9b be 64 17 89 3c
       -0.10930944 -0.23419839 -0.3043858 0.016734786
000200 10 ee c9 bd 72 5f 0b be 1e 4b 3d be 76 c4 f7 bd
       -0.0985986 -0.13610628 -0.18485686 -0.12098019
000210 a5 6d e0 bd 0f 54 24 be cf e3 71 be 82 56 26 be
       -0.10958413 -0.16047691 -0.23622058 -0.16243938
000220 42 0b 80 bd b1 f9 07 be a1 36 3d be 65 2d 69 be
       -0.06252147 -0.13278843 -0.1847787 -0.22771223
000230 8c 31 18 be 6e 2b aa be ce fc 23 be d7 4f 31 bd
       -0.1486265 -0.3323626 -0.16014406 -0.04328903
000240 5a bc 06 be a4 5e e5 bd a9 13 5b be fa 37 a5 bd
       -0.13157788 -0.11199692 -0.21394219 -0.08067317
000250 cd f6 f4 bc c3 33 08 bd d9 80 28 bd 22 8c ac be
       -0.02990284 -0.03325249 -0.041138504 -0.33700663
000260 b4 41 c3 bd 7a 7f 76 bd 99 3d 6e be 54 43 3f bc
       -0.09534016 -0.060180165 -0.23265685 -0.011673767
000270 e7 af 7d be 1f d5 76 be c3 b8 3f be 1b 75 5f be
       -0.24774133 -0.24104737 -0.18722825 -0.21822016
000280 5c c1 25 bc d9 c3 aa bc 00 35 13 be 6b 54 38 be
       -0.010116901 -0.02084534 -0.14375687 -0.18000953
000290 33 b4 f0 bd d5 31 d3 3c 86 93 45 be d6 65 af bd
       -0.1175312 0.025780598 -0.19294557 -0.085643455
0002a0 fa 5d 0a be 44 ae 6a be d0 73 3f be 3f 1e 96 3c
       -0.13512412 -0.2291804 -0.18696523 0.01832497
0002b0 44 95 1c be 71 29 23 be 10 f4 5b be 69 d4 64 bd
       -0.15291315 -0.15933777 -0.21479821 -0.055866633
0002c0 9c 2b 5b be ff 6e cc bd 2c 90 58 bd c2 df f5 bd
       -0.21403354 -0.09982108 -0.052871868 -0.12005569
0002d0 2f 4b 29 be 48 f1 1a ba 46 40 52 be 9f cf 43 be
       -0.16532587 -0.00059105875 -0.20532331 -0.1912217
0002e0 f6 23 b1 be 45 a9 93 be d1 94 fa bd 07 f8 46 be
       -0.3459775 -0.2884008 -0.12235416 -0.19430552
0002f0 5e 1e 77 be a6 2c dc bd 89 99 81 be ee 8b 6b be
       -0.24132678 -0.107507035 -0.2531245 -0.23002598
000300 7d c7 20 bd af d6 95 bd cb 1a ee bd 34 f2 60 be
       -0.039252747 -0.07316338 -0.11626204 -0.21967393
000310 92 00 54 3c 4f c7 b6 3d 91 ff 3f be 2c 95 a1 bd
       0.012939589 0.08924734 -0.18749835 -0.078897804
000320 99 75 0a bd 21 9b fb bc 48 6e b6 be 53 8c 0f bd
       -0.033803556 -0.03071362 -0.35631013 -0.035045933
000330 cb 34 2b 3d ff 4c 1c be 2b f1 de bd 68 76 b6 bd
       0.041798394 -0.15263747 -0.10885843 -0.08909303
000340 e2 f8 a7 3c 6b 99 ce bd 23 4d 8e be 33 db 31 be
       0.020504419 -0.10087856 -0.27793226 -0.17368774
000350 c1 fb 08 be ec 7a 7b be 9c 52 64 bd ff ab 98 bc
       -0.13377286 -0.2455861 -0.055742845 -0.018636702
000360 b3 5b 04 bd 07 ac 8f bd 21 3f 1a be d7 d7 0a be
       -0.032314014 -0.070152335 -0.15063144 -0.13558899
000370 e0 68 95 bd e9 45 55 be 2f 63 58 be 10 97 d2 bd
       -0.07295394 -0.2082745 -0.21131586 -0.10282719
000380 4a 6e e5 bd 23 28 ac bd 82 00 36 be a5 86 13 be
       -0.112026766 -0.08406093 -0.17773631 -0.14406832
000390 d3 fc 89 be e7 ef 9e be 96 f5 16 be 58 6e b5 3d
       -0.26950702 -0.31042406 -0.14742121 0.08858937
0003a0 0c 17 49 be d6 b2 a1 bb cc 4a 55 be 5f 61 36 bc
       -0.19637698 -0.004934649 -0.20829314 -0.0111316135
0003b0 85 66 d9 bd 71 9a c9 bd b2 e3 56 be 91 54 c7 bd
       -0.10615257 -0.098439105 -0.20985296 -0.09732927
0003c0 10 bc 67 be 69 e8 38 be 99 7c 21 be 1d 35 fd bc
       -0.22630334 -0.18057407 -0.15770186 -0.030909115
0003d0 fe d5 46 be 6f 34 69 be ac 89 01 be 0c a8 0d be
       -0.19417569 -0.22773908 -0.12650174 -0.13833636
0003e0 a0 6d 26 be 07 43 88 3d b2 6b 4c bd f5 5a b9 3c
       -0.16252756 0.066534095 -0.049907394 0.02262638
0003f0 98 ec 1a be 84 9c 33 3c 2e d1 79 bd 28 af 4d be
       -0.15129316 0.010962609 -0.060990505 -0.20086348

weight f4 [256, 256]
000000 aa 46 6e be ed 7b 91 bd 96 b6 70 3d cf a9 1d 3e
       -0.23269144 -0.07103715 0.058767878 0.15396808
000010 ca 2c 0b be 9b e1 68 bc 25 7c 79 3d 25 db 86 3d
       -0.13591304 -0.014213945 0.06090941 0.06584767
000020 19 7b 58 be bf c1 a6 bd bf a0 74 be 85 2f 3a 3e
       -0.21140708 -0.08142423 -0.23889445 0.1818219
000030 d8 b5 d1 bd 85 c5 43 be aa 1b 1e 3b 43 a7 4a be
       -0.10239762 -0.19118316 0.0024125376 -0.19790368
000040 46 db 58 bd ff 7c 04 3e 13 c7 d8 3d 38 7b ee 3d
       -0.05294349 0.12938307 0.105848454 0.11644596
000050 3b a7 a8 be e9 e9 d2 bd 9f e1 18 be dc 45 2d bc
       -0.32940087 -0.10298521 -0.14929818 -0.010575738
000060 77 9c f6 be 27 95 a9 3d 54 28 81 3e d9 bc bd 3d
       -0.48166248 0.08280402 0.2522608 0.092645355
000070 b1 85 e0 3c 15 cb a3 3d 0f b0 d8 3d 66 4f 84 bd
       0.027407499 0.07997719 0.105804555 -0.064604566
000080 38 7e 8f 3d ea 9a 8e be 21 df 36 3e c6 af cc 3d
       0.07006496 -0.27852565 0.17858554 0.099944636
000090 4b 3a d6 3d 73 99 9a bd 9c 56 ae 3d 74 1c ad 3d
       0.10460337 -0.07548799 0.08512613 0.08452693
0000a0 de 3d 9d 3d 55 18 61 be d4 cc 90 bb 29 d6 86 3e
       0.07677816 -0.21981938 -0.0044189487 0.26335266
0000b0 6a a2 3d be aa 4d 97 3c 55 e7 ba 3e 6a 4a e2 3c
       -0.18518987 0.01846965 0.36504617 0.027623374
0000c0 65 04 19 bd 96 84 b9 3d 6a 63 c9 bd ee 74 fd 3a
       -0.037357707 0.09058492 -0.09833415 0.0019337216
0000d0 f1 26 c5 bd d6 b6 81 be 95 70 74 3d ce 92 5e be
       -0.09626568 -0.25334805 0.05967768 -0.21735689
0000e0 76 0f b7 3e 85 1a 14 be 6c 67 8d 3c 2c 3d 62 be
       0.35753983 -0.14463241 0.01726123 -0.22093648
0000f0 e6 ab 95 be e5 d7 3f be 03 85 ad bd 78 a0 a5 bd
       -0.2923271 -0.18734701 -0.084726356 -0.080872476
000100 83 70 8d 3d a4 3d 4b 3e 59 e4 54 3d 95 e2 9d 3e
       0.069062255 0.19847733 0.05197558 0.3083693
000110 83 11 74 be d1 8a aa bd 55 97 2e bd 9c cf f2 3c
       -0.23834805 -0.083272584 -0.04262479 0.029640011
000120 5e aa 7b 3e b2 eb c4 3b 91 d4 1f be e5 17 3c be
       0.24576709 0.0060095424 -0.15608431 -0.1836849
000130 c5 f4 e5 3d 26 e1 b6 3d 6a 76 50 3d bd df 6b 3e
       0.11228327 0.089296624 0.05089418 0.23034568
000140 62 5c 87 be 2f 07 e9 bd 9f a5 f3 3c 4c d7 53 3d
       -0.2643767 -0.11378323 0.02974206 0.051718995
000150 35 28 cc bd 2a 7e 7b 3e 91 a5 a6 be c0 31 6f bd
       -0.099686064 0.24559847 -0.32548192 -0.058397055
000160 6e 93 ab 3d e9 3f 48 bc 59 74 97 be a2 fa f0 3d
       0.08377729 -0.012222269 -0.29580954 0.117665544
000170 30 c9 eb bd 32 d2 20 bd 9f 44 7b bc ea 6a bb bd
       -0.11512983 -0.039262958 -0.015336185 -0.091512516
000180 60 78 4c be 9d 92 11 be 13 5c 19 bd f6 91 9e 3e
       -0.19967794 -0.14216085 -0.037441324 0.30970734
000190 cc b0 64 bd d2 fa 0a be af dc 7f 3d 84 12 d4 bd
       -0.05583267 -0.13572243 0.06246632 -0.10355094
0001a0 11 cd 9f bd 36 2e f6 ba a6 e4 5e bd 2d 6c c1 3d
       -0.07802785 -0.0018782082 -0.054417275 0.09444461
0001b0 aa 43 9b 3b 44 27 a0 3e 47 be 1c 3e 6e 18 6a bc
       0.004738291 0.31279957 0.1530696 -0.014288051
0001c0 8b 21 e8 bd 61 3f ad 3d ad 12 c8 be 72 ff e2 3b
       -0.11334523 0.08459354 -0.39076748 0.006927424
0001d0 37 41 85 bd 9f a0 c8 bd bd 69 25 be de 72 97 3e
       -0.06506579 -0.09796261 -0.16153617 0.29579824
0001e0 e8 fd 05 3e 27 ee 00 3e 97 d5 37 3e cb be 2a bb
       0.13085139 0.12590848 0.17952572 -0.0026053663
0001f0 4a 8e 7a be ce 83 29 3e 4d fa 8a be 10 07 f6 3d
       -0.24468341 0.16554186 -0.2714409 0.12013066
000200 c5 50 d2 bd 4d 1d 05 3e 47 c0 81 be 35 6a d4 bd
       -0.10269312 0.12999459 -0.25342008 -0.1037182
000210 c4 89 a5 bc 01 3d d6 3d 0f b5 31 be d9 53 b1 3b
       -0.020207293 0.10460854 -0.17354225 0.0054116067
000220 18 1b a7 be 3a 29 89 be bc 2b 4b be f0 04 89 bd
       -0.32637858 -0.26789266 -0.19840902 -0.06690395
000230 b2 91 23 bd 2f 47 11 be fd b8 bc 3b 9b 3c c1 be
       -0.039933868 -0.1418731 0.005759357 -0.3774155
000240 be 95 ab be 00 eb 49 3d 31 ac 65 3d e9 96 d6 bd
       -0.33512682 0.04929638 0.056072418 -0.104780026
000250 9b 38 f9 bd 6c 3e ce 3d e9 73 49 be e4 b4 09 be
       -0.12169 0.100705 -0.19673122 -0.1344791
000260 db 36 51 bc 16 70 1d be 5f 12 65 3d cb 63 80 be
       -0.012769426 -0.15374789 0.055925723 -0.25076136
000270 d1 4b ab 3c 8a 1e 04 be ca 3c 8c be 28 d2 78 3d
       0.020910176 -0.12902275 -0.27390128 0.060747296
000280 29 4e a9 3c 43 6a ac bc 7c 1b bf 3b ef 27 b3 bc
       0.020667152 -0.021046763 0.005832134 -0.021869628
000290 4e 31 49 bd 10 55 6b be 61 5c ee bd fb 4a 30 be
       -0.049119286 -0.22981668 -0.11638714 -0.17216103
0002a0 80 78 9c 3d ab b6 8d 3e ac 59 39 3e a1 6b b8 3d
       0.07640171 0.27678427 0.18100613 0.090049036
0002b0 b5 fb 54 bd 0c 2b be 3c a1 ae 22 be ea 17 c3 bc
       -0.05199786 0.023213886 -0.15886928 -0.023815114
0002c0 b1 ee 08 3c 6a 6c 9e bd 51 e5 af bc bf 0f 3b bd
       0.00835769 -0.07735522 -0.021471651 -0.045669314
0002d0 be 65 7c 3c 31 87 8f 3c 06 8a 94 bd fb e3 db 3d
       0.015405117 0.017520519 -0.072528884 0.10736843
0002e0 a9 f3 8d 3b 05 f7 46 bc d5 b3 e5 bd 32 d8 1e 3e
       0.004332025 -0.012143855 -0.11215941 0.1551216
0002f0 9c b7 45 be c8 a8 a1 3d 4c e8 0d be c9 95 f8 3d
       -0.19308323 0.078935206 -0.13858145 0.12137944
000300 a7 ab 5f 3e 9a 8c dc 3c a2 88 0f bd 67 19 26 3e
       0.21842824 0.026922513 -0.035042413 0.16220628
000310 74 86 32 3e 47 32 93 3e 9f 26 b9 3d c1 e0 8c be
       0.17434102 0.28749296 0.090405695 -0.27515224
000320 3d 8b 30 3e 21 84 cf be d1 10 f2 3d 3c e8 60 be
       0.17240615 -0.40530494 0.11819614 -0.2196359
000330 31 50 3e bd 2e fb 91 be 27 1d dd 3d 14 d9 b6 be
       -0.046463195 -0.28511947 0.10796576 -0.35712492
000340 b2 70 c0 bd e7 79 d9 bd f9 36 24 be ba 9d db bb
       -0.09396495 -0.10618954 -0.16036595 -0.006702152
000350 c5 ce 4e bb a5 66 9d 3d 41 d3 55 be 2e 10 b4 3c
       -0.003155635 0.076855935 -0.20881368 0.021980371
000360 ae f1 7d be 73 64 4e bd aa 88 03 bf f4 3e b0 bb
       -0.24799225 -0.050388765 -0.5138041 -0.0053785983
000370 6a d3 4d 3e f1 2c 83 3d 88 f7 34 3c 89 78 0f be
       0.2010018 0.06405056 0.011045344 -0.14010824
000380 b0 41 19 3e b9 34 a6 bd 50 5a db bd 71 23 da 3e
       0.14966464 -0.08115525 -0.10710585 0.42605165
000390 13 b1 2c 3e bd c9 2c 3d 00 0d 56 3d 61 7c 96 bd
       0.16864423 0.04218458 0.05225849 -0.07347942
0003a0 f0 c3 a0 3d 6c 37 fb bd ba 6f b9 be 10 62 8f 3d
       0.07849872 -0.1226643 -0.36218053 0.07001126
0003b0 5e 7e 5c 3d 2a b1 b6 bd da 08 05 be b2 bf 8f bd
       0.05383145 -0.0892051 -0.12991658 -0.07018985
0003c0 62 db 77 3d af 87 0c bf 53 22 fb 3d 05 65 46 3d
       0.060511954 -0.54894537 0.12262406 0.048436183
0003d0 6b bb 11 bd f4 e4 fd 3c c3 8e 4e 3e 39 ab c8 be
       -0.035579126 0.030992962 0.20171647 -0.39193133
0003e0 ef 25 21 3e 50 82 ba bd e7 b2 68 3e 48 a3 0f bd
       0.15737127 -0.091068864 0.22724496 -0.035067827
0003f0 f7 e3 68 bc 53 bc 29 be 6e 11 e0 3b 83 8a d6 3d
       -0.014214507 -0.16575746 0.0068380153 0.10475638

bias f4 [256]
000000 7d b2 1f 3d 33 01 85 3a 05 04 61 3d be 24 9a 3d
       0.03898858 0.0010147452 0.054935474 0.07526539
000010 19 42 28 3d 6e 7a ac bc 91 11 01 3e 3c ef 03 bd
       0.04107866 -0.021054473 0.12604357 -0.032210574
000020 43 7a ee bc a8 d5 e8 3c ee 0e 0a 3e f0 9a 0e 3e
       -0.029111033 0.028422192 0.13482258 0.13926291
000030 c3 c4 93 3c 6a a4 e5 ba 35 73 ac 3d 8b 8d 87 bc
       0.01803816 -0.0017520313 0.084204115 -0.016546985
000040 24 4e 48 3d a4 e9 a0 bd d1 01 0e bd 7c 42 38 bc
       0.048902646 -0.078570634 -0.0346697 -0.01124632
000050 76 c5 04 3e 3c e4 0c 3d 35 b6 30 3d 84 28 6d 3d
       0.1296595 0.03439735 0.043142516 0.057899967
000060 37 66 1d be 8f 61 45 3d 07 2d 29 bc 32 4d 33 3e
       -0.15371023 0.048188742 -0.010325677 0.17509916
000070 f0 bd c0 bc 4c 09 99 bc 48 24 0c be ee 0e d2 3c
       -0.02352807 -0.01868119 -0.13685715 0.025641885
000080 97 0b c3 3d c3 88 58 bd 71 75 04 bc 46 6d 68 bd
       0.09523695 -0.0528648 -0.008084641 -0.056744836
000090 bd 18 1b 3e 1d 62 19 3e 4c c5 3f be 8d 63 9c bd
       0.15146156 0.14978833 -0.18727607 -0.07636175
0000a0 2d 5f 24 3d bc 31 d5 3d b1 53 9a bd d9 81 a8 bd
       0.04012983 0.10409877 -0.07535494 -0.082278915
0000b0 c0 48 f7 bc 68 4b 1e 3d 03 9f 4b 3e a2 51 22 3d
       -0.030186057 0.03864613 0.19884877 0.039628632
0000c0 27 fa aa 3d 69 a3 a9 3c 6e b6 05 3e f1 f3 40 3e
       0.08348494 0.020707803 0.13057873 0.18843056
0000d0 81 a5 d2 3b be 13 82 3d 23 66 f1 3c fb 5d 82 bd
       0.006428421 0.06351422 0.029467648 -0.063655816
0000e0 3e c6 db 3d d7 f1 9c 3d 0b 86 ec 3c 96 ff 06 3d
       0.10731171 0.07663315 0.02887251 0.03295859
0000f0 d8 4d 89 bd 98 07 0d bd 1b 9e 40 3d fd 43 37 3e
       -0.06704301 -0.03443107 0.04702578 0.17897029
000100 0a aa 94 bc 03 88 b2 3d cc d9 3b 3e 57 23 d9 bc
       -0.018147487 0.087173484 0.18344802 -0.02650611
000110 8f 55 4f bd c8 97 8a 3d 0d e8 31 be 56 c2 ab 3d
       -0.050618704 0.06767231 -0.17373677 0.08386676
000120 a3 30 0c 3d fe 5f eb bd cf c9 f9 3d 35 74 f6 3d
       0.03422607 -0.114929184 0.12196695 0.120338835
000130 85 8a 0f 3e 8b 6c 05 3d f9 9f c5 3d 7e a3 bc bd
       0.14017685 0.032574218 0.09649653 -0.09210871
000140 36 60 2b 3d 34 26 4f bd 9a 53 b9 3d a2 4b df bd
       0.0418398 -0.050573543 0.09049149 -0.10903098
000150 16 40 8c bd 8a 26 b0 3a 40 8b 2e bd 59 c3 be bd
       -0.06848161 0.001343922 -0.042613268 -0.09314603
000160 bb 7f b2 bc 31 d9 3e bc 70 97 89 3d c7 5e 84 3d
       -0.021789422 -0.011648462 0.067183375 0.0646339
000170 be 1f 5f bc c8 de a9 bd d5 df 87 3c c6 78 e2 3d
       -0.013618408 -0.08294445 0.016586224 0.11058192
000180 19 8a e3 3b c5 bb db bc 12 11 11 3d 46 4e 1c 3c
       0.0069439528 -0.026822934 0.03541667 0.009540146
000190 97 ce 3e be fe 9b 26 3e f3 0e 02 3e 59 5c 18 3d
       -0.18633495 0.16270444 0.12701015 0.037197445
0001a0 c3 fe db bc a9 c6 61 3e fd 87 fc bd 05 e7 b5 3c
       -0.026854878 0.22048439 -0.12330625 0.022204885
0001b0 db 49 52 bd 2d c0 2d bd 36 c9 58 3c 06 ce 8e 3d
       -0.051339965 -0.0424196 0.013231566 0.069728896
0001c0 bd 84 45 ba 51 15 20 3d ec b3 cd bd 5f e5 b7 bd
       -0.0007534733 0.03908283 -0.10044083 -0.08979296
0001d0 40 00 06 3c ab 94 2f 3e e7 ce ca 3d ec 53 95 bd
       0.008178771 0.17146556 0.09902745 -0.072913975
0001e0 e5 17 b3 bd fc 3e e1 bb e3 91 db bc c1 02 0b 3e
       -0.08744792 -0.0068739634 -0.026802963 0.1357527
0001f0 bc 33 0c bd 51 8a 38 bd 99 61 e8 3d d8 ad df 3d
       -0.034229025 -0.045053784 0.1134674 0.1092183
000200 8c 52 0a be c2 82 b2 bd 91 ab 44 be 43 8c c0 3d
       -0.13508052 -0.08716346 -0.19206072 0.09401753
000210 fd 84 27 3e 45 17 b5 3d 95 29 1a be 45 a3 c9 3d
       0.16359325 0.08842329 -0.15054925 0.09845594
000220 bf 8c 8a bd 82 50 03 bd 74 62 b0 3d 17 f3 78 bd
       -0.067651264 -0.0320592 0.086125284 -0.060778704
000230 87 2f ec 3d 61 9e 4a 3d e5 57 16 3d 4d f2 5f 3d
       0.115325026 0.04946745 0.036704917 0.054674435
000240 17 18 74 bd 02 9f 95 3d 65 85 df 3d 37 3a 4a bc
       -0.059593286 0.07305719 0.10914115 -0.012342981
000250 81 23 1a 3d 56 72 39 3d 45 fd f2 bc a6 26 06 3c
       0.037631515 0.045275055 -0.029661784 0.008187925
000260 a9 b1 30 3e d3 89 a8 bd af 89 d5 3d fd aa ca bd
       0.17255272 -0.08229413 0.10426652 -0.09895895
000270 9f fc 1d 3d b9 4d 9c 3c 5b 40 1d 3d 5b b2 cc bc
       0.038570996 0.01908003 0.038391452 -0.02498739
000280 a6 85 6c 3d 22 85 a9 3c 93 65 e5 3d 7c 7b 5b bd
       0.057744645 0.020693365 0.11201014 -0.05358456
000290 40 0a 4f bc ed 8e db bd e9 e1 a8 bd 23 e5 ec bc
       -0.012636721 -0.1072062 -0.08246214 -0.028917855
0002a0 21 27 b7 3d 86 20 08 bd c9 ba c7 3d 85 83 b8 3d
       0.0894301 -0.03323414 0.09752423 0.0900946
0002b0 86 01 bd bc 92 da d8 3d 08 7e e3 3d 11 ee fe bd
       -0.023072015 0.10588564 0.11108023 -0.12447751
0002c0 70 b5 d6 bc 91 70 42 3d fc 61 cb bc b2 fe de 3d
       -0.026209563 0.047470633 -0.024826996 0.10888423
0002d0 56 74 62 3c c1 9d 65 bd 29 35 b5 3d 70 c8 1f 3e
       0.013821682 -0.05605865 0.0884803 0.15603805
0002e0 2c af 35 3d ba c4 fb bc 34 45 96 bd 32 e0 56 3d
       0.04435651 -0.030733455 -0.07337418 0.052459903
0002f0 ba d0 e9 3d 4e 27 2d be 0e d1 23 3d 86 62 88 bd
       0.114167646 -0.16909525 0.039994292 -0.06659417
000300 5c 77 df 3c af ac 41 bd e5 21 82 3c 79 1e 19 bd
       0.027278595 -0.047283825 0.015885303 -0.037382577
000310 a1 f7 8d bc 08 66 b7 3c 73 bd 1c bd 1c ce 17 3c
       -0.017329993 0.02238752 -0.03826661 0.009265449
000320 1b 0e b8 bd 21 2e 48 3c 2a 7b a1 3c 8c 4c 86 bc
       -0.089870654 0.012218029 0.01971205 -0.016393922
000330 56 26 95 bc 7e f3 3c bd 8b f2 0f bd 68 46 87 bc
       -0.018206757 -0.04613065 -0.035143416 -0.016513065
000340 99 f9 1f be 33 86 fb 3d 73 16 13 3d 31 eb e1 3d
       -0.15622558 0.12281456 0.03591008 0.11031187
000350 8f 43 d3 3d bb 39 60 3d 92 05 ec bd 13 b9 09 3d
       0.1031562 0.054742556 -0.115245 0.033623766
000360 44 96 17 3e d3 64 fb 3d a8 d3 7b 3d 09 3a 23 bd
       0.14803416 0.1227509 0.061481148 -0.03985027
000370 81 45 b1 3d e3 67 99 3d ba 98 e4 3c 8b 37 aa 3d
       0.08655835 0.07490518 0.027904857 0.08311375
000380 2e df 9e 3d f3 6b 92 3d d3 85 75 bd 9b 12 04 3c
       0.07757412 0.07149496 -0.059942078 0.0080610765
000390 4e 0e 2e be 1c ee 21 3c b6 5f 3f 3d ac 09 be bd
       -0.16997644 0.00988343 0.046722136 -0.092791885
0003a0 0d 90 65 bd f9 d4 5a be e7 72 04 3d 49 df 63 bd
       -0.05604558 -0.21370305 0.032336142 -0.055632863
0003b0 fd 87 87 3c 6d 3a 04 3d fd 1a b6 3c 1a 56 2f 3d
       0.016544336 0.03228228 0.022229666 0.042806722
0003c0 82 88 f8 bc d0 f9 23 bd c6 b0 b8 bd 1b 2b 83 3c
       -0.03033853 -0.04003316 -0.09018092 0.016011765
0003d0 81 e8 c8 3d 88 d7 ec bd 9b aa 92 3d 51 58 52 bc
       0.098099716 -0.11564547 0.07161447 -0.012838439
0003e0 b4 8d 10 3e f3 2a 80 bd d5 6e d6 3c 87 78 21 3d
       0.14116555 -0.06258192 0.026175896 0.039421584
0003f0 af b5 0c 3e 8f bc 62 bd a0 c3 cb bc e6 29 e2 bc
       0.13741182 -0.055355605 -0.024873555 -0.02760787

weight f4 [12, 256]
000000 85 07 59 bc 0e d4 99 3d 7e 2e 6d be 07 12 b9 3d
       -0.013246422 0.07511149 -0.23162267 0.090366416
000010 9c 47 2d 3e aa cf 6a be 62 53 9b 3d de ff 0f 3d
       0.16921848 -0.2293078 0.075842634 0.035156123
000020 0f b2 11 3e ba 70 94 3d 36 5f ad 3d a4 95 0b be
       0.1422808 0.072480634 0.08465426 -0.13631302
000030 16 6e 18 bd 36 01 91 3d 1a 20 ad 3e e7 0e 99 be
       -0.03721436 0.07080309 0.33813554 -0.29894182
000040 ac 3d f6 bd 88 93 23 be 2a f6 d0 bd 0b 85 af 3e
       -0.12023482 -0.15974247 -0.10203202 0.3428119
000050 51 43 49 3e 34 d7 88 3d 57 3e cb 3e dc 61 ce be
       0.19654585 0.06681672 0.39696 -0.40309036
000060 18 02 44 3d c5 9f 49 3c 9f 7f 25 b8 8a bf 9c bd
       0.04785356 0.012306158 -3.9457922e-05 -0.07653721
000070 c9 d6 1a 3d 12 ba 2c be 97 cb 78 be db 59 41 bd
       0.03780249 -0.16867855 -0.24296413 -0.047204833
000080 67 d4 1b 3e ea 81 8d 3d 65 bd 99 3e 65 04 ca 3d
       0.15217744 0.06909545 0.3002731 0.098641194
000090 f6 c3 36 3d 43 af d8 3c 4d 5d 0e be 35 6f 35 bd
       0.044620477 0.026450759 -0.13902779 -0.04429551
0000a0 45 a8 af bd 0d 49 30 3e f5 39 7b 3d 4b c5 3b bd
       -0.08577017 0.17215367 0.06133457 -0.04584245
0000b0 6c 0c f5 bc fd aa 50 3d 25 6b 15 3e b8 f7 5b be
       -0.02991315 0.050944317 0.14591654 -0.21481216
0000c0 04 7e 53 bd 5a 02 85 3d 32 cd 3c be 4e ab 40 bc
       -0.05163385 0.06494589 -0.18437651 -0.011759592
0000d0 e9 54 f4 be 0d 9d b3 3d e6 eb f4 bc d5 4c f1 bd
       -0.4772103 0.087701894 -0.029897641 -0.11782233
0000e0 0b bd 12 3e c1 94 a1 3e 62 92 20 3e 6b 08 fa bd
       0.14329927 0.31558803 0.1568084 -0.12208637
0000f0 7f ac 47 be 18 bf 86 be 97 2b a6 be d2 9d 14 3d
       -0.19499396 -0.26317668 -0.3245513 0.03628332
000100 6e de 2c 3e 4d 96 6a bd b8 89 a0 be 92 30 69 3d
       0.16881725 -0.057272244 -0.3135507 0.056931086
000110 2a 54 18 3e 0e a4 0d 3e 36 51 2f 3e a6 94 70 3e
       0.14875856 0.13832113 0.17120823 0.23494205
000120 3e 79 40 be 22 51 8d bd 55 92 37 3b c3 c5 33 be
       -0.1879625 -0.069002405 0.0028010805 -0.17555909
000130 18 16 3b 3e a9 69 79 3d 2b 21 8b 3d 08 4f 2c 3e
       0.18270147 0.06089178 0.06793436 0.16827023
000140 83 67 09 be 37 f8 89 be 23 00 1d 3e 0f d1 31 be
       -0.13418393 -0.26947185 0.15332083 -0.17364906
000150 12 80 24 3e a4 cf 60 3c 15 75 0b be 6d 0f 99 3e
       0.1606448 0.01372138 -0.13618882 0.2989458
000160 32 37 87 bd 90 81 50 3e cd 42 ba 3d 58 af 18 3c
       -0.066023245 0.20361924 0.090947725 0.009319149
000170 a5 ba c7 3d 10 b2 22 be de a3 b0 3d fe 85 74 be
       0.097523965 -0.15888238 0.08625005 -0.23879239
000180 b6 30 8d be 06 04 87 bd 23 a2 6a 3e 22 9c a2 bc
       -0.27576226 -0.06592564 0.22913413 -0.01984984
000190 24 ad 04 3e 19 26 9b be 3d 8e 9d bc 30 cb 6f 3e
       0.12956673 -0.30302504 -0.019232864 0.23417354
0001a0 b4 f0 70 3e 59 3a b6 bd 96 1b 7c 3e fe df bc bd
       0.23529321 -0.08897848 0.24619898 -0.092224106
0001b0 4d 55 79 3e 96 8b 1b 3d 03 5d a2 be 5b 76 5c 3c
       0.24348946 0.037974916 -0.31711587 0.0134559525
0001c0 8c c4 48 be b2 6f 58 be 3b 85 42 3e 89 8f 4d 3e
       -0.19606227 -0.21136358 0.18996136 0.20074286
0001d0 c4 cf e0 3e 28 66 a5 bd b8 1b 5e 3d 7a 2e 3b 3e
       0.43908513 -0.080761254 0.054225653 0.18279448
0001e0 1d c3 ee 3d f1 eb 3f be 04 c8 8a be 01 df 01 3a
       0.11658309 -0.18742348 -0.27105725 0.00049541896
0001f0 79 a9 48 bb 71 ef c0 3d 5f 8e 05 be dd a3 84 3d
       -0.0030618592 0.0942067 -0.13042592 0.06476567
000200 5f c0 15 be 30 45 d0 3d e5 8f f1 bd 70 d2 3d 3e
       -0.14624165 0.101694465 -0.11795024 0.18537307
000210 2a d0 bb bc 51 19 be bc 7b 41 5d 3d e2 28 33 be
       -0.022926409 -0.023205431 0.054017525 -0.17496064
000220 9e 43 5e be 00 68 11 be 66 97 b6 3d 51 6c 84 3e
       -0.21705481 -0.14199829 0.08915596 0.2586389
000230 20 fd f8 3b 3d 5c 5f be d4 88 dc 3d 33 66 a5 3d
       0.007598534 -0.2181253 0.107682854 0.080761336
000240 10 d8 be bd 49 d3 ce bc c6 ed 25 3e 32 1c a3 3e
       -0.093185544 -0.025247233 0.16203985 0.3185745
000250 7a 9b c9 3d a7 86 07 3e e8 e2 37 3e 24 fa 84 bd
       0.09844108 0.1323496 0.17957652 -0.06493023
000260 60 1f f5 3d 52 9c 76 3e a3 8e b3 3c a8 4b 9f be
       0.11968875 0.24083069 0.0219186 -0.3111241
000270 cb ab 27 be c9 11 3b 3d da ae 93 3d a8 dc 06 3e
       -0.16374128 0.045671258 0.07211085 0.13170111
000280 8b 01 5f bd 9f a5 d0 3d 64 88 87 bd ff ea 0c 3d
       -0.05444483 0.1018784 -0.06617811 0.034403797
000290 6b b1 43 3e aa 53 a4 3e 8f 79 d1 3d ac bb 27 be
       0.19110648 0.3209508 0.102282636 -0.16380185
0002a0 a7 e8 b2 bd e2 34 a2 3b f2 3e 47 3e 8d c8 aa bd
       -0.08735781 0.004950152 0.19457605 -0.08339033
0002b0 e9 8a 84 bb 26 7a 7a bc 7b 33 84 be 8e 2d 69 bd
       -0.0040448797 -0.0152879115 -0.25820526 -0.05692821
0002c0 57 3f b4 bd 4e ef a5 3d 8c 78 bf 3d 33 10 0a 3e
       -0.088011436 0.08102284 0.09349164 0.13482742
0002d0 18 da 25 be 10 bf eb 3d 92 ca e2 3b e7 f3 d0 3c
       -0.16196477 0.11511052 0.006921121 0.025506927
0002e0 12 fa fa 3d 97 15 fe 3d 46 eb 63 3d 33 9f 8b bd
       0.122547284 0.12406462 0.055644296 -0.06817474
0002f0 ab 9a d5 3d b5 29 5b 3d 33 e4 c9 bd 7d f2 a4 bd
       0.10429891 0.05350657 -0.09857979 -0.080540635
000300 48 75 95 3d 49 a1 0b 3e 87 85 48 be 80 04 c1 3d
       0.0729776 0.13635744 -0.19582187 0.094246864
000310 6d 6f 90 be d9 ad 16 be 59 08 4f 3e d8 63 1e be
       -0.2821001 -0.14714755 0.20218028 -0.15467775
000320 5e 72 0b be 1a 92 68 3e 59 8b ab be 82 f3 fb bc
       -0.13617846 0.22711983 -0.3350475 -0.030755762
000330 ff b2 5f 3e f1 a5 31 be 27 18 95 bc 13 77 01 be
       0.21845625 -0.17348458 -0.018199993 -0.1264308
000340 7e 5b 56 3d eb 06 dc bd 95 0a 53 3d b4 27 85 3e
       0.052333347 -0.10743507 0.051523764 0.26006854
000350 8e f4 c2 bc 5f af fd ba ee eb 51 bd 7a 92 24 3b
       -0.023798253 -0.0019354633 -0.05125039 0.002511172
000360 7a 6e 47 3e 5f 3d 98 bc 33 26 19 3e d2 ab b5 3d
       0.19475737 -0.018583952 0.14955978 0.08870663
000370 db 98 9a bd 2b f3 6a bd 2b 2b 8a 3e 99 b6 8a be
       -0.07548686 -0.05736081 0.2698606 -0.27092436
000380 5f 5e 35 be 5c 7d 72 3d 20 b0 28 be b6 a6 4e 3d
       -0.17711781 0.059201583 -0.16473436 0.050451957
000390 ff 1c 7b 3e 2d 76 b1 be fa c5 3b be a7 31 0b be
       0.2452278 -0.34660473 -0.18337241 -0.1359316
0003a0 da 67 ac be 3f e2 c6 bc 34 ad b3 bc 27 4b 03 be
       -0.33672982 -0.024277804 -0.021933176 -0.12821637
0003b0 61 b0 25 3e 12 65 7c 3e 7a f9 0e be a5 80 03 be
       0.16180564 0.2464793 -0.13962355 -0.12842043
0003c0 fc 76 fd bb 13 8b 2d 3c b3 09 8a bd ef 11 aa 3b
       -0.0077351313 0.01059224 -0.06740131 0.005190126
0003d0 bc 53 b7 be da aa a8 be 43 8d 96 3d 48 17 c0 bd
       -0.35806072 -0.3294285 0.07351162 -0.093794405
0003e0 11 91 11 3e 5e 91 83 bc bf 50 5c be a0 01 37 3e
       0.14215495 -0.016060527 -0.21515177 0.17871714
0003f0 21 29 64 be 58 61 c8 bc cd 6b 48 bd 46 d6 66 be
       -0.22281314 -0.02446048 -0.04893093 -0.22542676

bias f4 [12]
000000 b6 1c 3e bc e5 e6 27 bd fc 41 7a 3c 7b bb cc 3d
       -0.011603525 -0.040991683 0.015274521 0.099966966
000010 14 dc c3 bc ba 4c 41 be 1b 17 ec 37 fd 70 18 3c
       -0.023908652 -0.18876925 2.8144152e-05 0.009304282
000020 17 ce ac bc 01 d5 ca 3d de fb 97 3c 14 ec 38 be
       -0.021094365 0.099039085 0.018552717 -0.18058807

stds f4 [12]
000000 1d 5a 64 3e 1d 5a 64 3e 1d 5a 64 3e 1d 5a 64 3e
       0.223 0.223 0.223 0.223
000010 1d 5a 64 3e 1d 5a 64 3e 1d 5a 64 3e 1d 5a 64 3e
       0.223 0.223 0.223 0.223
000020 1d 5a 64 3e 1d 5a 64 3e 1d 5a 64 3e 1d 5a 64 3e
       0.223 0.223 0.223 0.223

obs_std f4 [39]
000000 4f 08 60 3e fd 54 80 3e 62 d3 bb 3f cf 86 e4 3f
       0.2187817 0.2506484 1.4673884 1.785364
000010 2e e2 c7 3f bc 8d 8f 3e e6 f0 66 3e ed 96 8a 3e
       1.56159 0.28037822 0.22552833 0.27068272
000020 cc ad 8e 3e 16 70 89 3e bc 55 8b 3e ac a7 8f 3e
       0.27866971 0.26843327 0.27213848 0.2805761
000030 e5 2c 67 3e c6 13 89 3e a7 34 8d 3e d0 9f 8a 3e
       0.2257572 0.26772898 0.27579233 0.27075052
000040 09 c9 89 3e 77 c3 5b 40 b6 0a 52 40 79 bb a4 40
       0.2691119 3.4338052 3.2819037 5.147885
000050 3d 6b 97 40 05 f3 a9 40 9e f4 9b 40 06 03 5b 40
       4.7318406 5.3109155 4.8736105 3.4220595
000060 40 8a 50 40 65 5b a4 40 cd 84 97 40 76 4c aa 40
       3.258438 5.1361566 4.734961 5.3218336
000070 40 2d 9b 40 76 d0 24 3f 8e e2 43 3f d7 47 65 3e
       4.8492737 0.64380586 0.7651757 0.22390686
000080 85 55 89 3e 65 fe 88 3e 88 87 5d 3e 6a b1 84 3e
       0.2682306 0.26756588 0.21633732 0.25916606
000090 61 98 88 3e 1f db be 3e da 11 d5 3e
       0.26678756 0.3727655 0.41615182

obs_mean f4 [39]
000000 b7 79 da 3b 32 7a b6 3c 28 54 92 3c c2 1e 4c bc
       0.0066673416 0.022275064 0.017862394 -0.012458505
000010 54 9b 28 bd 96 e8 12 bf a6 4d 81 bd 12 d7 bb 3b
       -0.041163757 -0.5738615 -0.063136384 0.0057324255
000020 b6 7f 73 3f 78 44 1a 3c 1a 3c dd be 24 76 0f bf
       0.95116746 0.009415738 -0.43209916 -0.56039643
000030 dd 90 6b 3d 03 98 ad bb ca 37 71 3f 25 2d 89 bc
       0.0575112 -0.005297662 0.9422575 -0.01674516
000040 f6 33 d7 be c6 60 c5 bd 03 67 93 3d 95 47 65 3c
       -0.4203183 -0.09637599 0.07197382 0.013994117
000050 1a d9 79 3e fc 37 2a 3c 28 96 9e bc 14 da 68 bd
       0.24399224 0.010389324 -0.01935871 -0.0568486
000060 27 e5 a1 bd ba 0a 21 bd bb 9b 60 3e 46 1a fa bc
       -0.079050355 -0.03931687 0.21934406 -0.030530106
000070 b2 4d 9a 3c da 88 92 3b ec 75 c4 b9 b1 49 f3 3d
       0.018835876 0.0044718804 -0.00037471892 0.1187929
000080 af 9f 4c 3e 1b e4 01 bc 09 c8 84 bb 96 d1 26 bf
       0.1998279 -0.00792792 -0.0040521664 -0.6516355
000090 31 01 27 bf 13 b4 13 3c ad 6e 9e 3b
       -0.6523619 0.009015101 0.004834971
