trained/jvrc_step/actor_11299.pt (torch, 322033 bytes, 9 tensors)

weight f4 [256, 39]
-0.19526722 -0.1633553 -0.017403701 -0.14350985 -0.008582486 -0.36246386 -0.15975463 -0.2441693
-0.6860347 -0.09665957 -0.41716072 0.3274528 -0.0467778 -0.050474126 0.124210574 0.08087985
-0.25624138 -0.32944632 -0.04809745 -0.079043634 0.0701032 -0.122936785 -0.30848038 0.57566184
-0.4995568 -0.0032506024 0.15971479 0.14196435 0.08039393 -0.12781572 -0.017300414 -0.17220667
-0.01794665 -0.23771302 0.15013902 -0.07053442 0.25796223 0.011379076 -0.05281781 0.22883041
-0.14879364 0.12749332 0.58390445 -0.03432061 0.0830266 -0.121164836 0.1391698 0.17814614
0.077929825 -0.13583986 0.06957794 0.46890122 0.05155087 -0.13109435 0.211465 -0.15250708
0.21140622 -0.0018535942 0.489671 -0.012970686 0.08751567 -0.12306798 -0.24751756 0.0568765
-0.031391572 -0.23267725 0.03443627 -0.21533361 -0.009164456 -0.058057625 0.16044681 -0.13492939
-0.23977174 -0.3832842 0.21003 0.41757384 -0.084591284 0.2904141 0.28392753 -0.37220255
0.07819472 -0.53906536 0.11718359 -0.36976233 -0.12325981 -0.14232685 -0.12470597 0.0215311
0.19857489 -0.12530231 -0.22075832 -0.17478076 0.056935538 0.039756857 0.3231729 0.11705439
-0.1295769 0.4098002 0.07121806 0.15071629 0.060532324 -0.26981574 -0.08833206 -0.17825298
0.20510861 0.36794788 0.52847743 -0.2161219 -0.065618224 -0.17023359 -0.27891523 -0.07470553
0.03518519 0.05616782 0.24023576 0.11685863 0.1537402 0.38057777 -0.31449726 0.18422914
-0.48880178 0.06266387 -0.19315082 0.10319078 -0.24450044 0.3029916 -0.44009382 0.53874165
0.097152665 -0.11638388 0.31501365 0.12518586 -0.12196542 0.25737482 -0.33707368 0.65106416
-0.22941026 0.3131248 -0.24244711 0.3544997 0.14522368 -0.40154344 0.08510346 0.06466661
0.024635693 -0.18915796 0.020000312 -0.08826595 0.16982004 -0.0029457756 -0.03906401 -0.034013275
-0.26501998 0.046557434 0.1496193 -0.118463576 -0.031692017 0.15637372 0.3276927 0.2837007
0.10471547 -0.27662545 0.18013841 0.027980398 -0.11052591 -0.17808682 -0.05830244 0.17804115
0.06541128 -0.12597722 -0.28064933 0.13469279 -0.13103582 0.6508267 0.51164734 0.38489032
0.23252702 0.35897574 -0.38932222 -0.16361664 0.10619387 -0.24605905 -0.07247209 0.101719484
0.05543602 0.17269205 -0.17242105 -0.13742998 -0.11439797 -0.06313543 -0.06172008 0.065672144
0.19262716 -0.24384941 -0.048720114 -0.09105244 0.32369044 0.15916473 0.43778178 0.055810418
0.090213284 0.069029935 0.23504008 -0.01523064 -0.48970026 -0.30773872 -0.07832733 -0.119444504
-0.12438964 -0.02808661 0.0806917 0.46242836 -0.4767348 0.095297456 -0.26862624 0.6156236
-0.5187987 -0.224108 -0.2529633 0.07663924 0.18130189 0.10557939 -0.010715486 0.029873228
-0.12365844 -0.31685048 -0.07446295 0.18777148 -0.08205972 4.5595407e-05 0.39510766 0.33068365
0.023780927 0.11188713 0.032397576 0.48798367 -0.07172987 0.5253687 0.1749423 0.022671264
0.012521567 -0.0005666795 0.05219296 0.051286004 -0.33520448 0.0038608487 0.1949712 -0.21857364
-0.32705346 0.3213441 -0.53983974 -0.20295295 -0.26313362 -0.076163426 0.023676097 0.18164599
00000000: 21f4 47be 9d46 27be 3592 8ebc 3ff4 12be
00000010: 8e9d 0cbc dd94 b9be b896 23be 8407 7abe
00000020: f89f 2fbf 74f5 c5bd 1796 d5be e5a7 a73e
00000030: 149a 3fbd f5bd 4ebd 1d62 fe3d 56a4 a53d
00000040: 1232 83be 30ad a8be d501 45bd a1e1 a1bd
00000050: 4492 8f3d 48c6 fbbd 24f1 9dbe 935e 133f
00000060: e9c5 ffbe 0f08 55bb 468c 233e 1a5f 113e
00000070: 93a5 a43d 20e2 02be 99b9 8dbc f256 30be
00000080: da04 93bc 0b6b 73be 0bbe 193e 5a74 90bd
00000090: a013 843e 4e6f 3a3c 7d57 58bd 8552 6a3e
000000a0: 5c5d 18be 9c8d 023e c37a 153f c593 0cbd
000000b0: da09 aa3d 4525 f8bd 8782 0e3e f16b 363e
000000c0: ac99 9f3d 9b19 0bbe e17e 8e3d d213 f03e
000000d0: 0127 533d 993d 06be 488a 583e d12a 1cbe
000000e0: df7a 583e 4df4 f2ba 28b6 fa3e 0083 54bc
000000f0: 6a3b b33d 110b fcbd 3e75 7dbe 55f7 683d
00000100: 7394 00bd f242 6ebe 0c0d 0d3d 6a80 5cbe
00000110: 8426 16bc d5cd 6dbd 2b4c 243e ee2a 0abe
00000120: b986 75be d43d c4be 1b12 573e 3dcc d53e
00000130: 323e adbd 28b1 943e f35e 913e 5591 bebe
00000140: 8e24 a03d 3000 0abf f3fd ef3d 7d51 bdbe
00000150: a46f fcbd 21be 11be d865 ffbd fd61 b03c
00000160: 3757 4b3e 404f 00be 780e 62be baf9 32be
00000170: 3d35 693d 16d8 223d eb76 a53e 36ba ef3d
00000180: cfaf 04be 55d1 d13e c6da 913d 5f55 1a3e
00000190: bef0 773d 4a25 8abe 70e7 b4bd f387 36be
000001a0: fe07 523e aa63 bc3e 4c4a 073f 0f4f 5dbe
000001b0: d962 86bd b751 2ebe facd 8ebe 37ff 98bd
000001c0: 591e 103d 3a10 663d 5d00 763e 9453 ef3d
000001d0: 126e 1d3e 17db c23e c905 a1be 90a6 3c3e
000001e0: 3a44 fabe ea55 803d 54c9 45be b055 d33d
000001f0: 535e 7abe b721 9b3e fa53 e1be f9ea 093f
00000200: faf7 c63d ac5a eebd 7849 a13e b930 003e
00000210: 02c9 f9bd a2c6 833e ec94 acbe 24ac 263f
00000220: 86ea 6abe e551 a03e 0e44 78be fc80 b53e
00000230: 84b5 143e 1a97 cdbe b94a ae3d ed6f 843d
00000240: cbd0 c93c a0b2 41be b2d7 a33c c7c4 b4bd
00000250: 4ee5 2d3e ea0d 41bb 9501 20bd 8151 0bbd
00000260: b3b0 87be 02b3 3e3d cd35 193e 089d f2bd
00000270: 7dcf 01bd 6f20 203e 56c7 a73e 3841 913e
00000280: 1075 d63d daa1 8dbe 3476 383e 2637 e53c
00000290: 695b e2bd 645c 36be 8ace 6ebd 6b50 363e
000002a0: 59f6 853d 2c00 01be 45b1 8fbe e8ec 093e
000002b0: 412e 06be 949c 263f 52fb 023f 5810 c53e
000002c0: 901b 6e3e abcb b73e 3e55 c7be 1f8b 27be
000002d0: 2c7c d93d e7f6 7bbe 3f6c 94bd 4e52 d03d
000002e0: e110 633d 2fd6 303e 258f 30be 72ba 0cbe
000002f0: 7c49 eabd 264d 81bd 32ce 7cbd 1e7f 863d
00000300: 0e40 453e a9b3 79be be8e 47bd b479 babd
00000310: c1ba a53e 14fc 223e ef24 e03e 7799 643d
00000320: bec1 b83d 915f 8d3d 59ae 703e ef89 79bc
00000330: feb9 fabe ee8f 9dbe 146a a0bd 529f f4bd
00000340: ffbf febd e415 e6bc b141 a53d 69c3 ec3e
00000350: 9516 f4be 502b c33d 6189 89be 8299 1d3f
00000360: fecf 04bf 917c 65be 6884 81be 09f5 9c3d
00000370: 34a7 393e 023a d83d 0190 2fbc b3b8 f43c
00000380: a340 fdbd 3a3a a2be 0880 98bd 2b47 403e
00000390: ed0e a8bd b23d 3f38 8d4b ca3e 5e4f a93e
000003a0: 38d0 c23c 1425 e53d 52b3 043d ffd8 f93e
000003b0: 1ce7 92bd 907e 063f 1324 333e 16b9 b93c
000003c0: 4227 4d3c 388d 14ba 49c8 553d 4611 523d
000003d0: ec9f abbe 4b06 7d3b 88a6 473e c5d1 5fbe
000003e0: 8d73 a7be 3787 a43e f032 0abf e6d2 4fbe
000003f0: 73b9 86be 92fb 9bbd 60f4 c13c 6801 3a3e

bias f4 [256]
-0.18364573 -0.026548214 -0.06288268 -0.168685 -0.31057766 -0.02373546 -0.2061527 -0.010813269
-0.193281 -0.018575555 -0.14903851 -0.054414805 -0.1809697 -0.1839596 -0.0189069 -0.07037247
-0.10695007 -0.08574393 -0.059051502 -0.12748294 -0.17469978 -0.13600509 -0.16003397 -0.042589337
-0.28370824 -0.081966974 -0.09689923 -0.05278123 -0.11900518 -0.1808998 -0.074691795 -0.09554753
-0.26378128 -0.1821446 -0.035491243 -0.033521507 -0.19014397 -0.080868386 -0.14535844 -0.23702121
-0.11322139 -0.113329396 0.040286172 -0.22896773 -0.15933655 -0.026402267 -0.2259018 -0.042834874
-0.13846534 -0.23992005 -0.25911403 0.028599406 -0.062502295 -0.10281796 -0.15943432 -0.20582551
-0.18484153 -0.19459309 -0.2647745 -0.060465142 -0.07884163 -0.1757604 -0.13029893 -0.09063936
-0.14313248 -0.30699724 -0.27451858 -0.14776425 0.032109037 -0.12845793 -0.1720049 -0.06574026
-0.21814227 -0.060356986 -0.16247448 -0.07549468 -0.1512936 -0.111596726 -0.11699394 -0.110787414
-0.11323786 -0.06634844 -0.13763794 -0.13254061 -0.19246842 0.017421555 -0.15430331 -0.052575257
-0.19826734 -0.010636746 -0.12268743 -0.16165076 -0.09704047 -0.12490859 -0.017417924 -0.23723145
-0.055415105 -0.20451728 -0.1132838 -0.2747548 -0.0149240615 -0.13432612 -0.097994104 -0.077835746
-0.1621277 -0.19817942 -0.1087562 -0.13277496 -0.2503343 -0.06532134 -0.16271125 -0.042478275
-0.20093536 0.00064467074 -0.14881423 -0.12301605 -0.22542408 -0.1795616 -0.0831456 -0.06432458
-0.2990491 -0.16859767 -0.13757508 -0.26650834 -0.08831138 -0.10629441 -0.24918717 0.039168738
-0.09223471 -0.11622393 -0.17553852 -0.124873705 -0.051609263 -0.20129071 -0.17427954 -0.125242
-0.051674448 -0.11761917 -0.20491247 -0.19521528 -0.10127519 -0.25062254 -0.20242338 -0.05831109
-0.1316425 -0.05331569 -0.23975554 0.014436251 -0.037948985 -0.046441462 -0.027860096 -0.27914622
-0.14550118 -0.10593866 -0.17411922 -0.0012856189 -0.22019602 -0.25459722 -0.20551802 -0.15647946
-0.02417454 -0.021140004 -0.1204286 -0.1440498 -0.051162817 0.014371193 -0.19349273 -0.11051566
-0.15224454 -0.21825734 -0.122155845 -0.029561823 -0.19200535 -0.15206474 -0.22109464 -0.022578554
-0.2504075 -0.09391937 -0.04294113 -0.0931636 -0.11197077 -0.038071644 -0.078535795 -0.163735
-0.30191848 -0.2333079 -0.18455543 -0.19401824 -0.19964585 -0.081169 -0.21530606 -0.21521299
-0.057986822 -0.08888292 -0.119154796 -0.17746311 0.0060686194 0.086317725 -0.2062795 -0.15601459
-0.020276185 -0.07121875 -0.33676133 -0.030701058 0.062242072 -0.11224995 -0.14153194 -0.06957416
-0.021238029 -0.12282022 -0.26999757 -0.0992655 -0.1196876 -0.15887475 -0.02011746 -0.012666746
-0.12528461 -0.07232238 -0.1827847 -0.08667037 -0.056751955 -0.20336027 -0.18703629 -0.1707051
-0.16434939 -0.08801546 -0.18745077 -0.15202612 -0.22463618 -0.2385458 -0.060289 0.071962856
-0.13034917 -0.02197673 -0.15675937 -0.0011519422 -0.054017857 -0.0647709 -0.1896229 -0.18078059
-0.18782796 -0.1451435 -0.1568213 -0.002396467 -0.2234917 -0.12319187 -0.15517747 -0.14915246
-0.19786863 0.01688139 -0.026166542 0.006154737 -0.0798409 -0.11003759 -0.103727095 -0.22654772
00000000: a00d 3cbe a47b d9bc a2c8 80bd c3bb 2cbe
00000010: 0904 9fbe de70 c2bc b219 53be 232a 31bc
00000020: 74eb 45be c32b 98bc 8d9d 18be 0fe2 5ebd
00000030: 1f50 39be e85f 3cbe a5e2 9abc 711f 90bd
00000040: a308 dbbd 839a afbd fddf 71bd e38a 02be
00000050: 80e4 32be eb44 0bbe f2df 23be 2872 2ebd
00000060: 3542 91be 4dde a7bd 1a73 c6bd 2231 58bd
00000070: fdb8 f3bd cc3d 39be 03f8 98bd 6cae c3bd
00000080: 570e 87be 1d84 3abe 445f 11bd d94d 09bd
00000090: 1ab5 42be 539e a5bd d8d8 14be b0b5 72be
000000a0: 9ee0 e7bd 3e19 e8bd 1d03 253d 8476 6abe
000000b0: 1f29 23be 9149 d8bc cd52 67be 9f73 2fbd
000000c0: dcc9 0dbe 9aad 75be 98aa 84be 4d49 ea3c
000000d0: 3401 80bd 3992 d2bd c042 23be ecc3 52be
000000e0: 1947 3dbe 6943 47be 8690 87be 4caa 77bd
000000f0: b877 a1bd 89fa 33be 156d 05be 21a1 b9bd
00000100: 5291 12be be2e 9dbe b38d 8cbe 834f 17be
00000110: c484 033d 7a8a 03be 0d22 30be d4a2 86bd
00000120: b060 5fbe e338 77bd b65f 26be f49c 9abd
00000130: b6ec 1abe d38c e4bd 859a efbd 83e4 e2bd
00000140: 40e9 e7bd b1e1 87bd f6f0 0cbe bab8 07be
00000150: 7116 45be a6b7 8e3c b001 1ebe 2759 57bd
00000160: 9806 4bbe bf45 2ebc 8c43 fbbd c787 25be
00000170: 27bd c6bd 13d0 ffbd 09b0 8ebc cdec 72be
00000180: f3fa 62bd fa6c 51be 5601 e8bd a9ac 8cbe
00000190: 0d84 74bc c98c 09be 22b1 c8bd 5968 9fbd
000001a0: ce04 26be 8cef 4abe 92bb debd 29f6 07be
000001b0: d12b 80be 32c7 85bd c79d 26be b3fd 2dbd
000001c0: 00c2 4dbe 1fff 283a c262 18be d7ef fbbd
000001d0: 92d5 66be ffde 37be 3e48 aabd 9bbc 83bd
000001e0: f71c 99be dea4 2cbe 7be0 0cbe c873 88be
000001f0: 99dc b4bd e2b0 d9bd ec2a 7fbe 666f 203d
00000200: 8de5 bcbd d006 eebd 5fc0 33be c9bd ffbd
00000210: 3c64 53bd 271f 4ebe 5676 32be 703f 00be
00000220: 96a8 53bd 52e2 f0bd 93d4 51be 84e6 47be
00000230: 5e69 cfbd 9951 80be 1348 4fbe 9cd7 6ebd
00000240: 4bcd 06be 8e61 5abd 7a82 75be 0686 6c3c
00000250: 6570 1bbd 6739 3ebd db3a e4bc 41ec 8ebe
00000260: 43fe 14be 5ef6 d8bd 4f4c 32be 3682 a8ba
00000270: 117b 61be 915a 82be 5173 52be 273c 20be
00000280: af09 c6bc cd2d adbc 45a3 f6bd ca81 13be
00000290: 1a90 51bd 2775 6b3c f522 46be 0956 e2bd
000002a0: fee5 1bbe da7e 5fbe d82c fabd a32b f2bc
000002b0: 0d9d 44be dcb6 1bbe a266 62be a9f6 b8bc
000002c0: 6935 80be cc58 c0bd 0ae3 2fbd 8fcc bebd
000002d0: ee50 e5bd 03f1 1bbd 60d7 a0bd 26aa 27be
000002e0: 0f95 9abe 44e8 6ebe 19fc 3cbe b8ac 46be
000002f0: f66f 4cbe ef3b a6bd 3179 5cbe cb60 5cbe
00000300: 9783 6dbd 4008 b6bd 6e07 f4bd e4b8 35be
00000310: 45db c63b 59c7 b03d ef3a 53be 4ac2 1fbe
00000320: 3e1a a6bc 23db 91bd fb6b acbe c980 fbbc
00000330: 8bf1 7e3d 4de3 e5bd c0ed 10be e67c 8ebd
00000340: 60fb adbc 2b89 fbbd 1f3d 8abe b64b cbbd
00000350: c61e f5bd 10b0 22be 5fcd a4bc 2f88 4fbc
00000360: 9c4a 00be c21d 94bd ea2b 3bbe 3c80 b1bd
00000370: bd74 68bd ad3d 50be 7186 3fbe 51cd 2ebe
00000380: 354b 28be 7341 b4bd 18f3 3fbe bcac 1bbe
00000390: 0707 66be 5a45 74be 99f1 76bd 4361 933d
000003a0: 417a 05be 8b08 b4bc 8785 20be c4fc 96ba
000003b0: d441 5dbd 9ba6 84bd 812c 42be 8c1e 39be
000003c0: f955 40be 7fa0 14be c395 20be 0b0e 1dbb
000003d0: 02db 64be 054c fcbd d8e6 1ebe 6cbb 18be
000003e0: 139e 4abe d74a 8a3c 375b d6bc adad c93b
000003f0: a083 a3bd 635b e1bd df6e d4bd 20fc 67be

weight f4 [256, 256]
-0.29066885 -0.063866384 0.08583932 0.08683754 -0.14292273 -0.08330002 -0.08018918 0.024825394
-0.2868899 -0.14247212 -0.28542104 0.16829173 -0.088662 -0.22415918 -0.04095905 -0.23130961
-0.01579822 0.092408285 0.048169736 0.12036097 -0.34492677 -0.034531213 -0.07341533 0.03440179
-0.46397984 0.091467015 0.1689911 0.010604321 0.061721515 0.07486303 0.11948272 -0.07561756
0.06385493 -0.23393601 0.16820097 0.0049638283 -0.008224653 -0.08554235 0.10249581 0.14897627
0.008401574 -0.2280544 -0.033281203 0.2527705 -0.15872568 -0.009840077 0.22065398 0.025407022
-0.0051431814 0.109013535 0.0009169709 -0.023254449 -0.15615554 -0.24420792 -0.01393248 -0.2574659
0.29202598 -0.14738123 -0.039436705 -0.12363223 -0.28164777 -0.14310881 -0.035817504 -0.0053294133
0.022209648 0.19323142 0.094716825 0.259796 -0.37333363 -0.18957211 -0.0037171193 0.14140531
0.16814327 -0.00941466 -0.06166102 -0.121187925 0.09240899 0.05898555 0.029268265 0.13880137
-0.11230264 -0.1927044 -0.030538866 0.09791294 -0.084629126 0.21271218 -0.3267098 -0.112580955
0.07687067 -0.015358074 -0.36966628 0.055886 -0.14636977 -0.07104722 -0.07484229 -0.18825886
-0.25425845 -0.21682204 -0.048594195 0.22381105 -0.044349875 -0.04040015 0.040607937 -0.0018822416
-0.101327635 0.09991819 -0.0643671 0.048282817 0.053361304 0.18293397 0.20209204 0.009569973
-0.14362115 0.056309476 -0.30756906 0.03520584 -0.033030592 -0.11710793 -0.18464077 0.19662923
0.12126221 0.08418185 0.16012758 -0.03027495 -0.24740069 0.18437213 -0.27871054 0.13600071
-0.061836585 -0.048208233 -0.30989805 -0.03551434 -0.09780436 0.11887491 -0.16713503 0.013928134
-0.36346838 -0.2531579 -0.18958472 0.01904313 -0.060437303 -0.14666475 0.06430287 -0.35357517
-0.28970873 0.006771287 -0.05583455 -0.13071758 -0.12309384 0.08998062 -0.24218422 -0.11072707
0.024937188 -0.2491674 0.06243731 -0.2658687 -0.07761559 -0.22261673 -0.25083718 -0.009073591
-0.06770186 0.038279403 0.060651522 0.06097973 -0.09237522 -0.23601283 -0.100379065 -0.27638316
0.060716923 0.2186465 0.110580824 0.09221823 -0.046372443 -0.016724885 -0.093708046 0.0014094164
0.05539634 -0.13818666 -0.09011625 -0.018172529 0.041835584 -0.074133016 -0.05100087 0.16840613
0.021012485 0.04161831 -0.07167296 0.0053653233 -0.22739568 0.08800953 -0.17743775 0.16610582
0.19605123 0.08215699 -0.07369163 0.140696 0.13545568 0.20665163 0.12257127 -0.20856391
0.1779762 -0.34801185 0.077716075 -0.21155295 -0.10047901 -0.28083283 -0.03386146 -0.2758669
-0.11984849 -0.12093385 -0.105171934 0.018764066 0.016740654 -0.04087867 -0.25246027 -0.08049379
-0.20035675 -0.050689787 -0.44378737 -0.05857928 0.15770073 0.008414509 0.026756464 -0.16179407
0.030477876 -0.14866222 -0.07197372 0.28866917 0.11286836 0.07307108 0.14499757 -0.07173968
0.047827087 -0.107315265 -0.33993813 0.059804507 -0.044720117 0.0013977286 -0.27105328 -0.013593971
0.02069407 -0.53578025 0.12529095 0.06281126 -0.07841596 -0.06398472 0.15512799 -0.3779193
0.05436308 -0.07045349 0.16423 -0.07739796 -0.06817558 -0.19919932 -0.04115873 -0.018891728
00000000: 8cd2 94be 61cc 82bd 87cc af3d e1d7 b13d
00000010: 565a 12be 3399 aabd 3a3a a4bd a05e cb3c
00000020: 3ce3 92be 36e4 11be b522 92be ab54 2c3e
00000030: 6c94 b5bd fc89 65be adc4 27bd 6ddc 6cbe
00000040: 456b 81bc 8e40 bd3d a14d 453d d07f f63d
00000050: 3e9a b0be 9a70 0dbd c75a 96bd e4e8 0c3d
00000060: c48e edbe 0f53 bb3d 010c 2d3e bfbd 2d3c
00000070: b3cf 7c3d ca51 993d 5bb3 f43d 61dd 9abd
00000080: 60c6 823d ec8c 6fbe e03c 2c3e 9ca7 a23b
00000090: b2c0 06bc d430 afbd 53e9 d13d 3c8d 183e
000000a0: c1a6 093c 1887 69be df51 08bd 236b 813e
000000b0: fc88 22be 4638 21bc 1ef3 613e 6322 d03c
000000c0: 2288 a8bb 7d42 df3d e060 703a 1d80 bebc
000000d0: 3de7 1fbe a411 7abe 0e45 64bc 92d2 83be
000000e0: 6e84 953e 1beb 16be 6288 21bd e532 fdbd
000000f0: 2334 90be 1e8b 12be 60b5 12bd 5ca2 aebb
00000100: 02f1 b53c 75de 453e e5fa c13d fb03 853e
00000110: 9625 bfbe 311f 42be ea9a 73bb 8ecc 103e
00000120: c02d 2c3e f23f 1abc 4490 7cbd 6031 f8bd
00000130: ed40 bd3d d59a 713d 00c4 ef3c f221 0e3e
00000140: edfe e5bd 4d54 45be a52c fabc 9486 c83d
00000150: 0952 adbd 39d1 593e 8246 a7be d890 e6bd
00000160: 5f6e 9d3d 6ea0 7bbc e644 bdbe b8e8 643d
00000170: f5e1 15be 3481 91bd ea46 99bd eec6 40be
00000180: 2a2e 82be 9906 5ebe b50a 47bd b92e 653e
00000190: 37a8 35bd a17a 25bd 8254 263d 8cb5 f6ba
000001a0: dd84 cfbd e8a1 cc3d e6d2 83bd 34c4 453d
000001b0: 6291 5a3d 0b53 3b3e 37f1 4e3e 60cb 1c3c
000001c0: 6c11 13be c4a4 663d b179 9dbe 0034 103d
000001d0: 164b 07bd 48d6 efbd 7812 3dbe 2c59 493e
000001e0: 5258 f83d 8967 ac3d 7cf8 233e 2c03 f8bc
000001f0: 9b56 7dbe 0ccc 3c3e 26b3 8ebe c543 0b3e
00000200: 5c48 7dbd ff75 45bd f5aa 9ebe 7c77 11bd
00000210: a74d c8bd b074 f33d 7225 2bbe d432 643c
00000220: 8718 babe ea9d 81be 7f22 42be 5700 9c3c
00000230: 1b8d 77bd 492f 16be 39b1 833d ce07 b5be
00000240: b454 94be ace1 dd3b c5b2 64bd d4da 05be
00000250: a018 fcbd c247 b83d 24ff 77be e0c4 e2bd
00000260: 1349 cc3c bd25 7fbe 44be 7f3d f11f 88be
00000270: ecf4 9ebd a4f5 63be bb6d 80be 66a9 14bc
00000280: 46a7 8abd ddca 1c3d bb6d 783d e2c5 793d
00000290: 382f bdbd 59ad 71be 8a93 cdbd 1882 8dbe
000002a0: 4fb2 783d dee4 5f3e 3378 e23d e9dc bc3d
000002b0: 08f1 3dbd a002 89bc 01ea bfbd 2bbc b83a
000002c0: 46e7 623d ce80 0dbe de8e b8bd 8ede 94bc
000002d0: ca5b 2b3d 0dd3 97bd 4ae6 50bd a872 2c3e
000002e0: 6022 ac3c f677 2a3d 46c9 92bd 98cf af3b
000002f0: 6ada 68be 573e b43d 3eb2 35be a517 2a3e
00000300: a7c1 483e ed41 a83d a3eb 96bd 9d12 103e
00000310: e5b4 0a3e 7c9c 533e a506 fb3d c791 55be
00000320: 653f 363e 9c2e b2be 9b29 9f3d 56a1 58be
00000330: f0c7 cdbd 52c9 8fbe 50b2 0abd 6d3e 8dbe
00000340: 2073 f5bd 2bac f7bd 6264 d7bd 19b7 993c
00000350: b223 893c 6470 27bd 7942 81be eed9 a4bd
00000360: 522a 4dbe 18a0 4fbd 1938 e3be d4f0 6fbd
00000370: 4d7c 213e 02dd 093c 5f30 db3c 58ad 25be
00000380: bdac f93c e93a 18be f566 93bd 72cc 933e
00000390: 8727 e73d 4aa6 953d 3e7a 143e 41ec 92bd
000003a0: 56e6 433d 1bc8 dbbd 5f0c aebe 92f5 743d
000003b0: 712c 37bd fd33 b73a 7fc7 8abe 3fb9 5ebc
000003c0: 9c86 a93c e528 09bf 454c 003e 31a3 803d
000003d0: 8c98 a0bd 6c0a 83bd dfd9 1e3e a37e c1be
000003e0: d2ab 5e3d eb49 90bd e92b 283e d282 9ebd
000003f0: a39f 8bbd e8fa 4bbe 0e96 28bd d3c2 9abc

bias f4 [256]
-0.03492766 0.019947618 0.08231145 0.039746154 0.007013169 -0.036501188 0.08332488 -0.05338379
-0.019470785 -0.0009925863 0.09884462 0.07741905 -0.011150698 -0.013472796 -0.015317279 -0.037086997
0.052987244 -0.057087973 -0.030953199 -0.048890326 0.16135478 0.08861895 -0.026257815 0.022416195
-0.040586855 -0.009346396 -0.014092298 0.12688057 -0.023031471 -0.018750582 -0.071982995 -0.008428775
0.07623217 -0.049270567 0.047503836 0.010308591 0.13178481 0.110136434 -0.15724917 -0.07636175
0.046489332 0.1119142 -0.056536436 -0.07970091 -0.08625965 0.0433408 0.19005 -0.060316928
0.07791741 0.0011977975 0.0952694 0.13417433 0.013200043 0.019060705 0.05315401 -0.049399577
0.06629096 0.06752536 0.043901462 0.014210023 -0.013593949 -0.011318824 0.044867128 0.09265973
0.025904143 0.076211646 0.19625227 0.013541714 -0.03181932 0.062257618 -0.10598505 0.042285416
-0.049369335 -0.022931594 0.12276379 0.12155314 0.10521085 0.06675241 0.052705843 -0.043835107
0.053559802 -0.040995467 0.050177988 -0.154793 -0.086227134 0.0015079997 -0.020580696 -0.09623315
-0.020736309 0.016649956 0.04478886 0.07243137 0.021658383 -0.055868585 -0.03490266 0.10074372
0.016671725 -0.034460474 0.0015593442 0.00428902 -0.14941615 0.11147117 0.12688448 0.03872696
-0.012903203 0.19832659 -0.06412842 0.021939674 -0.030187258 -0.055920985 0.02932272 0.06707104
-0.01619892 0.078061536 -0.054708924 -0.045727827 0.042263776 0.13231206 0.098678865 -0.16327055
-0.08042881 0.013405709 -0.024708292 0.036401127 0.029097803 0.0006868141 0.072278716 0.06496305
-0.06458279 -0.07410064 -0.061405662 0.0828732 0.12159732 0.06717721 -0.068644635 0.07328411
-0.069110475 -0.006034298 0.04586411 -0.07620745 0.03129771 0.042930577 0.03550455 0.024757616
-0.08328619 0.09026039 0.02378043 -0.0147867175 0.020870142 0.0140001755 0.07349742 0.03871068
0.14072333 -0.05825383 0.10882422 -0.07525195 0.0379838 0.034539796 0.020739803 -0.086540096
-0.002215726 0.041435268 0.055168927 -0.107150644 -0.10328054 -0.10001016 -0.04296417 -0.04351525
0.04138523 -0.0028790857 0.14057595 0.053858325 0.030621594 0.008265975 0.10704933 -0.09613603
-0.074884154 0.04305353 -0.028897008 0.103767954 0.00403986 -0.1135924 0.09051264 0.145285
0.05992449 -0.05838984 -0.022942571 0.040955674 0.11999481 -0.15900859 0.029264737 -0.050737265
0.000862342 -0.0033313008 0.02663903 0.014916675 -0.024304358 0.02808 -0.027804077 -0.016040165
-0.036686104 0.05184511 0.028911948 -0.09552849 -0.04061507 -0.11948849 -0.03583711 -0.027411725
-0.14137073 0.11037976 0.011460394 0.116477616 0.082940795 -0.032615833 0.012607751 0.0236814
0.084809124 0.10478228 0.041088574 -0.026806502 0.09498092 0.071916945 0.058152188 0.13283318
0.035024107 0.027343737 -0.019893693 -0.016778657 -0.16123077 0.06393789 0.033671893 -0.092268005
-0.07709342 -0.13603483 0.027302327 0.0098270355 0.027317923 -0.058291793 -0.0092603965 0.008567715
0.012435763 -0.056268465 -0.059026375 0.029796572 0.072545215 -0.090364814 0.08393749 0.05525506
0.102360204 -0.026797876 -0.022136284 0.056773823 0.1160666 -0.06882662 0.0092999125 -0.058831103
00000000: 4e10 0fbd 3069 a33c e892 a83d ddcc 223d
00000010: bace e53b 4582 15bd 3ca6 aa3d f6a8 5abd
00000020: 3281 9fbc ab19 82ba 0c6f ca3d e18d 9e3d
00000030: 6bb1 36bc 01bd 5cbc 53f5 7abc 89e8 17bd
00000040: 2709 593d 14d5 69bd 9091 fdbc 3941 48bd
00000050: 303a 253e da7d b53d a11a d7bc 2ba2 b73c
00000060: 673e 26bd a021 19bc 62e3 66bc fbec 013e
00000070: 7fac bcbc d29a 99bc d26b 93bd d818 0abc
00000080: 9d1f 9c3d efcf 49bd 6293 423d 5de5 283c
00000090: 99f2 063e 368f e13d ed05 21be 8d63 9cbd
000000a0: 996b 3e3d 4633 e53d c092 67bd 3b3a a3bd
000000b0: e6a8 b0bd 1f86 313d 789c 423e e20e 77bd
000000c0: 2a93 9f3d 6aff 9c3a 9a1c c33d ff64 093e
000000d0: fe44 583c 3225 9c3c 05b8 593d 3657 4abd
000000e0: 8ec3 873d bc4a 8a3d 05d2 333d 28d1 683c
000000f0: 28b9 5ebc 9772 39bc 98c6 373d 62c4 bd3d
00000100: ed34 d43c da14 9c3d 5bf6 483e 11de 5d3c
00000110: fa54 02bd d801 7f3d b10e d9bd 7933 2d3d
00000120: 8037 4abd 0adb bbbc 956b fb3d daf0 f83d
00000130: c978 d73d 7db5 883d 15e2 573d 718c 33bd
00000140: 8661 5b3d ddea 27bd 6f87 4d3d 0e82 1ebe
00000150: da97 b0bd 13a8 c53a d998 a8bc e315 c5bd
00000160: 31df a9bc 7d65 883c 8674 373d e656 943d
00000170: ec6c b13c 75d6 64bd 17f6 0ebd b952 ce3d
00000180: 2493 883c 6d26 0dbd e962 cc3a e88a 8c3b
00000190: 8c00 19be ff4a e43d 01ee 013e 29a0 1e3d
000001a0: f567 53bc 2016 4b3e c355 83bd d5ba b33c
000001b0: 454b f7bc 670d 65bd 3336 f03c 8b5c 893d
000001c0: 99b3 84bc bade 9f3d 7716 60bd 1a4d 3bbd
000001d0: c81c 2d3d d07c 073e 2518 ca3d 6530 27be
000001e0: dcb7 a4bd 9ea3 5b3c 0b69 cabc 5919 153d
000001f0: 845e ee3c 500b 343a dd06 943d 590b 853d
00000200: fb43 84bd 14c2 97bd 8184 7bbd 6db9 a93d
00000210: 0408 f93d 3494 893d 8f95 8cbd fb15 963d
00000220: cb89 8dbd 5cbb c5bb 01dc 3b3d a712 9cbd
00000230: 0732 003d f9d7 2f3d 386d 113d 7cd0 ca3c
00000240: f391 aabd 70da b83d 2dcf c23c fd43 72bc
00000250: dcf7 aa3c fe60 653c d185 963d 178f 1e3d
00000260: c719 103e 919b 6ebd 3cdf de3d b21d 9abd
00000270: e794 1b3d 9a79 0d3d 85e6 a93c ef3b b1bd
00000280: b735 11bb 07b8 293d d0f8 613d cc71 dbbd
00000290: bf84 d3bd 20d2 ccbd 33fb 2fbd 0c3d 32bd
000002a0: 8f83 293d 0baf 3cbb 24f3 0f3e 8c9a 5c3d
000002b0: 23da fa3c 036e 073c ae3c db3d f8e2 c4bd
000002c0: dd5c 99bd e658 303d 6bb9 ecbc 4b84 d43d
000002d0: cd60 843b 22a3 e8bd b15e b93d 97c5 143e
000002e0: 6273 753d 2f2a 6fbd 0ff2 bbbc 23c1 273d
000002f0: d7bf f53d 26d3 22be 9abc ef3c e1d1 4fbd
00000300: cb0e 623a f451 5abb 183a da3c 1265 743c
00000310: ef19 c7bc 0708 e63c 60c5 e3bc aa66 83bc
00000320: 2b44 16bd 8a5b 543d c0d8 ec3c 71a4 c3bd
00000330: fd5b 26bd 62b6 f4bd efc9 12bd 8e8e e0bc
00000340: 7dc3 10be c90e e23d 60c4 3b3c d18b ee3d
00000350: dddc a93d 2e98 05bd be90 4e3c 7fff c13c
00000360: 68b0 ad3d 1898 d63d 7e4c 283d 4f99 dbbc
00000370: 5b85 c23d 3149 933d fd30 6e3d 6c05 083e
00000380: 7075 0f3d f9ff df3c 19f8 a2bc 6573 89bc
00000390: ae19 25be def1 823d 8aeb 093d 02f7 bcbd
000003a0: 28e3 9dbd b74c 0bbe 21a9 df3c 9301 213c
000003b0: d6c9 df3c 60c3 6ebd ebb8 17bc 9a5f 0c3c
000003c0: 5fbf 4b3c c379 66bd a4c5 71bd f117 f43c
000003d0: 9692 943d 3011 b9bd 6be7 ab3d 2153 623d
000003e0: 3aa2 d13d 3887 dbbc 2757 b5bc ab8b 683d
000003f0: 53b4 ed3d f9f4 8cbd a95e 183c e2f8 70bd

weight f4 [12, 256]
-0.019914037 0.056039836 -0.25323626 0.13557178 -0.0055163307 -0.21954933 -0.0071416083 0.039613206
0.10401138 0.04251341 0.05829958 -0.08297662 -0.011896723 0.23735309 0.2423056 -0.24839438
-0.13823116 -0.12354066 -0.0058549233 0.3427908 0.04869813 0.1007006 0.3740431 -0.34394354
0.047991984 -0.14295892 0.097759604 -0.059173632 0.022475401 -0.039876413 -0.23118812 0.06192393
0.26190332 0.08373474 0.16038036 -0.06870908 0.12134146 -0.027695265 -0.13631023 -0.04429551
-0.029829707 0.15923338 0.069219254 -0.045781277 0.073941626 0.0040495796 0.05441688 -0.09414346
0.10102109 0.17892054 -0.18975198 -0.094723985 -0.47787106 0.10743749 0.029598765 -0.11286243
0.1570937 0.2593617 0.11688955 -0.11804925 -0.13369015 -0.1621421 -0.36881703 -0.038352963
0.20371142 0.13453037 -0.3185456 0.03270532 0.18056141 0.17227809 0.14167446 0.31819788
-0.07829061 -0.0734095 -0.05064068 -0.16251236 0.068624765 -0.053101115 0.04399672 0.2184257
-0.21685602 -0.2607769 0.15922047 -0.12629248 0.13886799 -0.014893702 -0.08094145 0.4226125
-0.010935829 0.13989872 0.08596299 -0.11756977 0.08595482 -0.16761997 0.044552833 -0.27760306
-0.26458395 -0.0009968084 0.18127058 -0.058076534 0.14227082 -0.20787384 -0.042215228 0.21876135
0.21308397 -0.08016785 0.21775904 -0.04546188 0.18114738 0.054504145 -0.41798362 -0.054269433
-0.12681538 -0.22491002 0.17525339 0.12350899 0.25431305 -0.072831586 0.08401211 0.20774128
0.12991774 -0.17709534 -0.2123591 0.078420706 -0.08766109 0.17460044 -0.31114456 0.048538137
-0.06136308 -0.017571077 -0.11413059 0.1852194 -0.016571196 0.00770428 0.13490845 -0.21770218
-0.18185177 -0.1298469 0.097031236 0.31136924 0.06659883 -0.12353455 0.08360199 0.07976569
-0.03506041 0.04146139 0.087967336 0.25315732 0.18759522 0.010832927 0.25154826 -0.10639779
0.05013309 0.15185694 0.05761281 -0.18383735 -0.18084866 -0.06599726 0.07429154 0.07975588
-0.006873097 -0.055380233 -0.14903302 0.044950455 0.04094347 0.32618088 0.13094267 -0.07112629
-0.054401234 -0.020670133 0.12783992 0.022811515 0.008219184 0.045381315 -0.19310246 -0.14215003
-0.051766388 0.12652232 0.11455281 0.16108039 -0.1465496 0.06588428 0.12814175 -0.030871611
0.007811021 0.057636127 0.11444075 0.030567478 0.037285462 0.05055578 -0.03528337 -0.08626117
0.09240484 0.13501742 -0.09018509 0.20586017 -0.26522836 -0.22744283 0.2461841 -0.09341607
0.007300224 0.13546069 -0.14619683 -0.08694011 0.23293307 -0.18782887 0.021367693 -0.12222227
0.06671963 -0.048888274 0.10743145 0.14938992 -0.0230464 0.054413907 -0.031479087 0.112822585
0.20623848 -0.018746762 0.22661677 0.13227665 0.03636814 -0.046087697 0.19015361 -0.24592178
-0.2468491 0.16925107 -0.12397331 0.08671252 0.24551287 -0.33856016 -0.18036994 -0.1360793
-0.30510402 -0.08191939 -0.000311719 -0.1631573 0.08540426 0.236493 -0.11004838 -0.07468918
-0.0338478 0.037887715 -0.17418621 0.05996317 -0.22009805 -0.2657399 0.18267871 0.023085946
0.16824605 -0.07831595 0.037968468 0.056944672 -0.24996497 -0.04563089 0.08451747 -0.30557203
00000000: c322 a3bc 078a 653d 2fa8 81be 54d3 0a3e
00000010: 56c2 b4bb 8ad1 60be 2704 eabb 7541 223d
00000020: eb03 d53d 8b22 2e3d 8acb 6e3d a5ef a9bd
00000030: 79ea 42bc b00c 733e f61e 783e 195b 7ebe
00000040: 788c 0dbe e302 fdbd a8da bfbb 4782 af3e
00000050: b177 473d 1e3c ce3d 9482 bf3e 5e19 b0be
00000060: 3e93 443d d363 12be 3036 c83d 0d60 72bd
00000070: 551e b83c 7355 23bd 94bc 6cbe f2a3 7d3d
00000080: 3118 863e 1f7d ab3d c03a 243e 59b7 8cbd
00000090: df81 f83d 2ee1 e2bc e994 0bbe 356f 35bd
000000a0: 6e5d f4bc 130e 233e d3c2 8d3d 2685 3bbd
000000b0: b56e 973d 56b2 843b 3ce4 5e3d 49ce c0bd
000000c0: 25e4 ce3d f236 373e 584e 42be a6fe c1bd
000000d0: 84ab f4be 3008 dc3d 1c79 f23c 6b24 e7bd
000000e0: 2cdd 203e 0fcb 843e ca63 ef3d cec3 f1bd
000000f0: 12e6 08be 9408 26be 96d5 bcbe ff17 1dbd
00000100: ba99 503e 54c2 093e 6918 a3be 03f6 053d
00000110: 17e5 383e ab69 303e 1c13 113e d5ea a23e
00000120: d456 a0bd b857 96bd 9a6c 4fbd a469 26be
00000130: 248b 8c3d 8e80 59bd e835 343d fdaa 5f3e
00000140: 810f 5ebe 8d84 85be b10a 233e d152 01be
00000150: 6933 0e3e b704 74bc a2c4 a5bd aa60 d83e
00000160: 312c 33bc 9c41 0f3e 5d0d b03d 6bc8 f0bd
00000170: 1509 b03d 92a4 2bbe 087d 363d fd21 8ebe
00000180: 8c77 87be 57a7 82ba ff9e 393e a9e1 6dbd
00000190: 71af 113e e1dc 54be e0e9 2cbd fa02 603e
000001a0: af32 5a3e 0b2f a4bd 3afc 5e3e 3c36 3abd
000001b0: b37e 393e bd3f 5f3d f301 d6be a049 5ebd
000001c0: e4db 01be d04e 66be a075 333e 48f2 fc3d
000001d0: 5235 823e ba28 95bd 8b0e ac3d 21ba 543e
000001e0: 2809 053e 7b58 35be aa74 59be 099b a03d
000001f0: a887 b3bd 75ca 323e 574e 9fbe edcf 463d
00000200: da57 7bbd 38f1 8fbc 4cbd e9bd 28aa 3d3e
00000210: 51c0 87bc 2f74 fc3b 7125 0a3e 52ed 5ebe
00000220: 5a37 3abe 96f6 04be 50b8 c63d ca6b 9f3e
00000230: f864 883d afff fcbd 8537 ab3d 325c a33d
00000240: 819b 0fbd 6bd3 293d 3828 b43d d69d 813e
00000250: f618 403e 977c 313c efca 803e 16e7 d9bd
00000260: 5b58 4d3d 6380 1b3e 69fb 6b3d dc3f 3cbe
00000270: 6430 39be 9229 87bd 2a26 983d 0d57 a33d
00000280: b737 e1bb 62d6 62bd 1d9c 18be f81d 383d
00000290: 57b4 273d 2e01 a73e d615 063e a9aa 91bd
000002a0: d4d3 5ebd 6954 a9bc 78e8 023e 37df ba3c
000002b0: c2a9 063c c2e1 393d a7bc 45be c78f 11be
000002c0: fe08 54bd 118f 013e aa9a ea3d 42f2 243e
000002d0: 1911 16be 56ee 863d 9737 033e 76e6 fcbc
000002e0: 98f3 ff3b dc13 6c3d e95f ea3d a668 fa3c
000002f0: a4b8 183d 9413 4f3d 4c85 10bd b2a9 b0bd
00000300: c03e bd3d 0242 0a3e f6b2 b8bd 02cd 523e
00000310: 03cc 87be c6e6 68be af17 7c3e ed50 bfbd
00000320: b836 ef3b 35b6 0a3e 9fb4 15be a80d b2bd
00000330: 0286 6e3e 3656 40be 4d0b af3c ab4f fabd
00000340: 4da4 883d 123f 48bd 0505 dc3d acf9 183e
00000350: cecb bcbc 1ee1 5e3d 37f0 00bd 870f e73d
00000360: 2e30 533e cf92 99bc 3a0e 683e 8873 073e
00000370: c2f6 143d 74c6 3cbd a1b7 423e ebd2 7bbe
00000380: 03c6 7cbe 2750 2d3e b8e5 fdbd 5596 b13d
00000390: ba67 7b3e c257 adbe e6b2 38be 5f58 0bbe
000003a0: 9836 9cbe 5ac5 a7bd 376e a3b9 b512 27be
000003b0: 6ee8 ae3d 392b 723e 0c61 e1bd a4f6 98bd
000003c0: fea3 0abd 2630 1b3d df5d 32be f19b 753d
000003d0: 6261 61be 0f0f 88be 2110 3b3e bd1e bd3c
000003e0: b148 2c3e 1d64 a0bd d384 1b3d d13e 693d
000003f0: d1f6 7fbe 75e7 3abd 7f17 ad3d f073 9cbe

bias f4 [12]
-0.0029080273 -0.006789643 -0.0036552306 0.09380358 -0.010669174 -0.10353216 -0.011453946 -0.024958404
-0.012443521 0.0981086 0.010822188 -0.08974391
00000000: 9a94 3ebb a77b debb 988c 6fbb 171c c03d
00000010: c2cd 2ebc ab08 d4bd 55a9 3bbc 9175 ccbc
00000020: e9df 4bbc 29ed c83d 8c4f 313c a8cb b7bd

stds f4 [12]
0.223 0.223 0.223 0.223 0.223 0.223 0.223 0.223
0.223 0.223 0.223 0.223
00000000: 1d5a 643e 1d5a 643e 1d5a 643e 1d5a 643e
00000010: 1d5a 643e 1d5a 643e 1d5a 643e 1d5a 643e
00000020: 1d5a 643e 1d5a 643e 1d5a 643e 1d5a 643e

obs_std f4 [39]
0.2187817 0.2506484 1.4673884 1.785364 1.56159 0.28037822 0.22552833 0.27068272
0.27866971 0.26843327 0.27213848 0.2805761 0.2257572 0.26772898 0.27579233 0.27075052
0.2691119 3.4338052 3.2819037 5.147885 4.7318406 5.3109155 4.8736105 3.4220595
3.258438 5.1361566 4.734961 5.3218336 4.8492737 0.64380586 0.7651757 0.22390686
0.2682306 0.26756588 0.21633732 0.25916606 0.26678756 0.3727655 0.41615182
00000000: 4f08 603e fd54 803e 62d3 bb3f cf86 e43f
00000010: 2ee2 c73f bc8d 8f3e e6f0 663e ed96 8a3e
00000020: ccad 8e3e 1670 893e bc55 8b3e aca7 8f3e
00000030: e52c 673e c613 893e a734 8d3e d09f 8a3e
00000040: 09c9 893e 77c3 5b40 b60a 5240 79bb a440
00000050: 3d6b 9740 05f3 a940 9ef4 9b40 0603 5b40
00000060: 408a 5040 655b a440 cd84 9740 764c aa40
00000070: 402d 9b40 76d0 243f 8ee2 433f d747 653e
00000080: 8555 893e 65fe 883e 8887 5d3e 6ab1 843e
00000090: 6198 883e 1fdb be3e da11 d53e

obs_mean f4 [39]
0.0066673416 0.022275064 0.017862394 -0.012458505 -0.041163757 -0.5738615 -0.063136384 0.0057324255
0.95116746 0.009415738 -0.43209916 -0.56039643 0.0575112 -0.005297662 0.9422575 -0.01674516
-0.4203183 -0.09637599 0.07197382 0.013994117 0.24399224 0.010389324 -0.01935871 -0.0568486
-0.079050355 -0.03931687 0.21934406 -0.030530106 0.018835876 0.0044718804 -0.00037471892 0.1187929
0.1998279 -0.00792792 -0.0040521664 -0.6516355 -0.6523619 0.009015101 0.004834971
00000000: b779 da3b 327a b63c 2854 923c c21e 4cbc
00000010: 549b 28bd 96e8 12bf a64d 81bd 12d7 bb3b
00000020: b67f 733f 7844 1a3c 1a3c ddbe 2476 0fbf
00000030: dd90 6b3d 0398 adbb ca37 713f 252d 89bc
00000040: f633 d7be c660 c5bd 0367 933d 9547 653c
00000050: 1ad9 793e fc37 2a3c 2896 9ebc 14da 68bd
00000060: 27e5 a1bd ba0a 21bd bb9b 603e 461a fabc
00000070: b24d 9a3c da88 923b ec75 c4b9 b149 f33d
00000080: af9f 4c3e 1be4 01bc 09c8 84bb 96d1 26bf
00000090: 3101 27bf 13b4 133c ad6e 9e3b
