trained/jvrc_step/critic_1099.pt (torch, 310576 bytes, 7 tensors)

weight f4 [256, 39]
0.24529122 -0.021365859 0.13293189 -0.13493781 -0.11703534 -0.010595376 -0.1582471 0.114451386
0.048409287 -0.18966296 0.02585916 -0.39981022 0.14715834 0.14406058 0.1821641 0.04906625
0.119408384 0.020832973 -0.06826638 -0.06564558 -0.15396246 -0.04241316 -0.26634973 -0.20981719
-0.0041796127 -0.0092581 -0.1893097 0.007640738 -0.050663702 -0.12717132 0.34534094 -0.015518449
-0.039531454 -0.25874147 0.21041478 -0.27239487 -0.1524335 0.12124348 0.009871725 -0.56479925
-1.4431689 -0.35507482 -0.46380976 0.008372187 -0.1519523 -0.26365986 0.14238226 -0.15928133
0.16443893 -0.066258535 -0.7642677 -0.22605051 0.17742807 -0.42514926 -0.038507383 -0.01728845
-0.22031978 -0.26773697 0.1806188 -0.16052303 -0.14475237 -0.07922566 -0.3787565 -0.20935749
0.1110947 -0.21259305 -0.01873641 -0.11876077 -0.015779136 0.010730748 0.37305728 0.004493455
0.069865525 0.10562513 0.15836455 -0.11478179 -0.0800941 0.044634245 0.02723551 -0.25921828
0.2155618 -0.05179577 -0.22009474 -0.25651255 -0.28175497 0.08817102 0.058273714 -0.082549
0.34120068 0.15326376 0.29924563 0.016650608 -0.0026411822 -0.056297284 0.018114535 0.19345555
-0.13002199 -0.0024713704 0.121442035 -0.051080156 0.14614035 -0.1975175 0.18833779 -0.16184746
-0.21874142 0.071373984 -0.0078052715 -0.19860825 -0.16627094 -0.21520789 0.0850919 -0.0561151
0.12425574 0.16001241 -0.21639386 0.15802962 -0.09982472 0.0004068291 0.18753448 -0.005967175
0.06705846 0.054708973 -0.103620425 -0.008717283 -0.36376473 -0.017595071 -0.029734652 0.28042874
0.14680992 0.25530362 -0.13778083 0.15626337 0.15986222 -0.10418169 0.018163465 -0.0635719
0.14544858 -0.050315045 -0.03971359 0.0041541895 0.20341885 -0.006999894 0.09352261 0.15691479
-0.060875945 -0.08214487 -0.1820861 0.21922421 0.14970632 -0.15624662 -0.2172513 0.4842535
-0.20295468 -0.015158099 0.2641742 0.43293104 0.022490611 0.5095434 -0.16014436 0.0353295
0.024952633 -0.3120058 0.113216765 -0.039065823 -0.18325515 0.00973134 -0.012879687 0.012729357
-0.040705442 -0.10242383 -0.047395162 -0.010152684 0.031143226 0.01775059 -0.1804207 0.13730721
0.055276748 -0.005303479 0.017778678 0.008934514 -0.11540741 0.08191105 0.0019686024 4.874697e-05
0.022027662 0.04292902 0.06694184 -0.34238052 -0.6842693 -0.008936695 -0.059816923 0.24727175
0.18659389 0.09773466 -0.15986441 -0.12244812 0.35284072 -0.15668905 -0.06635316 0.044354793
0.072721034 0.1859211 -0.18558428 0.23098089 -0.030175013 -0.11689837 -0.30306154 -0.34020624
0.044338927 0.07965288 -0.08982721 0.0872765 -0.03614567 0.08169098 -0.11688296 -0.075141676
0.0026055505 -0.009793777 -0.10052696 -0.17140251 0.122755565 0.014730606 0.018346114 -0.014273377
-0.09517061 0.2385341 -0.28678775 -0.049630698 0.33300135 -0.3479708 0.2593901 0.22991739
0.54085594 0.4272527 0.24770078 -0.16229679 0.20340843 -0.10998194 -0.14015748 -0.44567192
-0.052116096 0.2820488 0.013316832 -0.22147387 0.044073578 0.114203 0.1535275 0.06267306
0.17137064 -0.22367813 -0.14117596 -0.13886411 -0.021049036 -0.038092464 0.08233599 -0.04628201
00000000: 9f2d 7b3e 7407 afbc 4c1f 083e 232d 0abe
00000010: 39b0 efbd 3a98 2dbc 870b 22be 7d65 ea3d
00000020: d148 463d 0237 42be 97d6 d33c edb3 ccbe
00000030: adb0 163e 9e84 133e 3a89 3a3e b1f9 483d
00000040: 628c f43d e9a9 aa3c 3ecf 8bbd 3171 86bd
00000050: 56a8 1dbe 6cb9 2dbd fe5e 88be 51da 56be
00000060: 22f5 88bb 49af 17bc 67da 41be 285f fa3b
00000070: be84 4fbd 3339 02be 87d0 b03e 1841 7ebc
00000080: bceb 21bd c379 84be f976 573e 5777 8bbe
00000090: 8717 1cbe 804e f83d 04bd 213c af96 10bf
000000a0: c2b9 b8bf 5ecc b5be 7978 edbe 7f2b 093c
000000b0: 6299 1bbe 6dfe 86be a8cc 113e a51a 23be
000000c0: ae62 283e 8eb2 87bd 0ca7 43bf c979 67be
000000d0: b4af 353e 2aad d9be ebb9 1dbd 82a0 8dbc
000000e0: 829b 61be d214 89be 22f4 383e 2660 24be
000000f0: f739 14be 1041 a2bd 5fec c1be cf61 56be
00000100: 9e85 e33d feb1 59be 1a7d 99bc d938 f3bd
00000110: 3f43 81bc 05d0 2f3c 5d01 bf3e d53d 933b
00000120: a815 8f3d fd51 d83d 512a 223e b712 ebbd
00000130: 6008 a4bd 66d2 363d 011d df3c 42b8 84be
00000140: 3cbc 5c3e cd27 54bd 8460 61be 9d55 83be
00000150: 3042 90be 0293 b43d 6bb0 6e3d 730f a9bd
00000160: dbb1 ae3e 2df1 1c3e b936 993e db66 883c
00000170: af17 2dbb fb97 66bd ef64 943c 3619 463e
00000180: 7c24 05be b7f6 21bb 9ab6 f83d 6d39 51bd
00000190: d1a5 153e 0742 4abe 9fdb 403e 57bb 25be
000001a0: c0fd 5fbe 862c 923d 5dc3 ffbb f65f 4bbe
000001b0: ee42 2abe 755f 5cbe a944 ae3d f2d8 65bd
000001c0: cb79 fe3d 4bda 233e 5a96 5dbe 84d2 213e
000001d0: e770 ccbd ad4b d539 0a09 403e 4b88 c3bb
000001e0: f255 893d 8416 603d f236 d4bd efd2 0ebc
000001f0: 5f3f babe 8a23 90bc 1696 f3bc 5b94 8f3e
00000200: 5755 163e 28b7 823e 6b16 0dbe 8103 203e
00000210: ecb2 233e 365d d5bd 8ccb 943c fc31 82bd
00000220: 79f0 143e 2617 4ebd b8aa 22bd de1f 883b
00000230: 084d 503e 5e5f e5bb c888 bf3d 45ae 203e
00000240: 0e59 79bd 923b a8bd c774 3abe 507c 603e
00000250: 9d4c 193e 1dff 1fbe 2077 5ebe 13f0 f73e
00000260: 5ad3 4fbe ad59 78bc d741 873e 23a9 dd3e
00000270: 3b3e b83c 7071 023f e2fc 23be aab5 103d
00000280: 7769 cc3c 39bf 9fbe 31de e73d 7c03 20bd
00000290: 3da7 3bbe 3370 1f3c 5305 53bc cb8e 503c
000002a0: c0ba 26bd 96c3 d1bd 6e21 42bd 7157 26bc
000002b0: 1420 ff3c af69 913c 34c0 38be 439a 0c3e
000002c0: df69 623d cec8 adbb 97a4 913c 1162 123c
000002d0: b85a ecbd fbc0 a73d ab03 013b a975 4c38
000002e0: 5b73 b43c 57d6 2f3d ce18 893d 804c afbe
000002f0: 462c 2fbf 376b 12bc 9702 75bd ce34 7d3e
00000300: 7812 3f3e 1c29 c83d 7fb3 23be 14c6 fabd
00000310: 8aa7 b43e 1873 20be 2ae4 87bd 5fad 353d
00000320: c4ee 943d 1a62 3e3e ce09 3ebe 4186 6c3e
00000330: 9731 f7bc 6a68 efbd e22a 9bbe 832f aebe
00000340: bc9c 353d 0d21 a33d 54f7 b7bd 06be b23d
00000350: 7b0d 14bd 9a4d a73d 5560 efbd e1e3 99bd
00000360: e2c1 2a3b 1476 20bc 14e1 cdbd 2484 2fbe
00000370: 4567 fb3d a458 713c 974a 963c e2da 69bc
00000380: cfe8 c2bd 4842 743e d8d5 92be 8f49 4bbd
00000390: 277f aa3e 3b29 b2be c7ce 843e 776f 6b3e
000003a0: 8975 0a3f dec0 da3e 46a5 7d3e 2131 26be
000003b0: 4d4a 503e 363e e1bd 7185 0fbe 1c2f e4be
000003c0: b077 55bd b368 903e d72e 5a3c 0cca 62be
000003d0: 7f86 343d 43e3 e93d 5036 1d3e bc5a 803d
000003e0: c97b 2f3e e10b 65be 6e90 10be 6532 0ebe
000003f0: 076f acbc d806 1cbd c69f a83d 3492 3dbd

bias f4 [256]
0.28464118 -0.11294053 -0.1673368 -0.012561053 -0.21784484 -0.07119986 -0.123172216 0.1561084
0.083318725 0.2579682 0.0022727516 0.11800839 0.13277745 -0.06805001 0.01987346 0.015823333
-0.048253946 0.15490688 0.12917243 0.17789565 0.026558202 0.16264911 0.05470729 0.1942933
-0.06933551 -0.060388993 0.2309692 0.036457755 0.14513767 0.045554418 0.23471732 0.25234598
-0.26361647 -0.048178125 0.17466335 -0.2653635 -0.20519508 -0.03651286 0.011555944 -0.19163093
-0.002324777 0.24091297 0.15510269 0.2617935 0.15049894 0.0064237434 0.1910635 -0.13758567
-0.097839184 -0.09246687 0.039021872 -0.08006339 0.30432355 -0.062524445 -0.07046321 0.15027638
-0.1908436 -0.059331063 -0.005023501 -0.119146556 0.17730771 0.10050905 -0.059384096 0.23790172
-0.012430018 0.026589336 -0.06461881 0.051539812 0.22005509 -0.18180387 0.11490458 0.025478577
-0.070825115 -0.06108083 -0.025308704 0.06099555 -0.013310413 0.11370092 0.16767487 -0.027174449
0.03534699 -0.150793 0.074778594 0.24711624 -0.039863095 -0.055644557 0.23343891 0.018938715
0.21508703 0.08600867 -0.15229067 0.1446922 -0.03160219 0.16161638 -0.070788175 0.03665907
0.17817403 0.012832226 0.033305757 0.34133625 -0.14465412 0.022693502 -0.20641287 0.21294993
-0.054308027 -0.0729728 0.2305463 -0.11856295 0.19470613 -0.01182132 0.12847921 0.16166621
-0.009408311 -0.07802856 0.23337832 0.0792725 0.020242028 -0.30053678 0.113107145 0.12062489
0.13923249 0.15594544 -0.059580695 0.12532656 0.052115925 0.18147632 -0.06494038 -0.08034176
0.07410069 0.1408439 0.02281327 0.20038748 0.1791062 0.17321323 0.2745776 0.081477374
0.25183854 -0.22307004 0.08693115 -0.137505 0.1647915 0.11991341 0.008079448 -0.18148755
0.1302216 -0.11004428 0.2951698 0.23684098 0.20348983 0.13169654 -0.12814368 0.020528492
0.006443972 0.07142186 -0.14676143 0.10492821 0.14522924 0.11903711 -0.1845737 -0.025921473
0.08204636 0.21163468 0.10320531 -0.12249307 -0.06133554 0.123212844 0.13417888 -0.023060977
0.15482497 0.16890417 0.1772305 0.28291938 0.05778563 0.123124704 0.25433204 0.100540824
0.12520853 0.06372612 -0.022267507 0.12706773 0.09740369 0.08232257 -0.17550382 0.10372904
-0.040334355 0.18589097 -0.14381863 0.11488565 -0.020707827 -0.097297944 0.009349106 0.23741953
0.2232021 0.10087012 -0.030220535 0.16155255 -0.06737233 -0.04838546 0.09567563 -0.1871594
0.09418354 0.5779697 0.09874578 -0.102807134 0.116418615 0.44653788 0.084399365 -0.028312767
-0.10985827 -0.14141184 0.03890781 -0.10194379 -0.15989175 0.18721707 -0.23574382 -0.23330154
0.079770744 -0.074311934 0.16340692 0.012921665 -0.0021871962 0.0021821454 -0.034734856 -0.01250752
0.115474485 -0.0077626314 0.044010714 0.059059504 0.05094142 0.24688846 0.10529202 -0.22095159
-0.042261366 -0.24166681 0.2201139 0.2452774 -0.13235565 0.120331965 0.16301179 0.1331212
0.037626475 0.17199111 0.08338094 0.17523599 0.053793807 -0.011055244 0.02083318 0.06491139
0.10336647 0.036265083 0.05451643 -0.17942987 -0.046143286 -0.004984486 0.12758206 0.02480854
00000000: 7dbc 913e 5d4d e7bd 575a 2bbe e0cc 4dbc
00000010: b812 5fbe 3bd1 91bd b741 fcbd e1da 1f3e
00000020: 02a3 aa3d 6814 843e 72f2 143b 62ae f13d
00000030: d0f6 073e ce5d 8bbd abcd a23c ef9f 813c
00000040: eea5 45bd e99f 1e3e c745 043e 472a 363e
00000050: 9690 d93c 7d8d 263e c014 603d d3f4 463e
00000060: c7ff 8dbd 735a 77bd 3183 6c3e ba54 153d
00000070: f89e 143e 4597 3a3d bd59 703e 7e33 813e
00000080: bdf8 86be 6d56 45bd f3da 323e badd 87be
00000090: a91e 52be 828e 15bd 2455 3d3c e63a 44be
000000a0: 495b 18bb e4b1 763e 3dd3 1e3e cc09 863e
000000b0: 651c 1a3e 447e d23b 26a6 433e 42e3 0cbe
000000c0: e95f c8bd 455f bdbd 66d5 1f3d 46f8 a3bd
000000d0: 4cd0 9b3e d10c 80bd 044f 90bd 0de2 193e
000000e0: 816c 43be 2105 73bd 2e9c a4bb 1c03 f4bd
000000f0: 2790 353e b0d7 cd3d bd3c 73bd 829c 733e
00000100: 46a7 4bbc e1d1 d93c de56 84bd 691b 533d
00000110: 1f56 613e cb2a 3abe 1853 eb3d 73b8 d03c
00000120: c20c 91bd e42f 7abd 3354 cfbc 78d6 793d
00000130: eb13 5abc 07dc e83d f6b2 2b3e f39c debc
00000140: 01c8 103d 7b69 1abe 8525 993d 0a0c 7d3e
00000150: 7c47 23bd 8ceb 63bd 9c0a 6f3e 5d25 9b3c
00000160: c63f 5c3e 5025 b03d 16f2 1bbe 312a 143e
00000170: 4c71 01bd c47e 253e 64f9 90bd d227 163d
00000180: 4173 363e 423e 523c 9e6b 083d a0c3 ae3e
00000190: 3620 14be b9e7 b93c e55d 53be 8c0f 5a3e
000001a0: 1872 5ebd c372 95bd 5414 6c3e 22d1 f2bd
000001b0: 0b61 473e 36ae 41bc 0e90 033e d48b 253e
000001c0: 5125 1abc 70cd 9fbd bafa 6e3e 9f59 a23d
000001d0: 9cd2 a53c f5df 99be b8a4 e73d 2f0a f73d
000001e0: f692 0e3e 29b0 1f3e e30a 74bd 9b55 003e
000001f0: 8277 553d eed4 393e 76ff 84bd 388a a4bd
00000200: 1ac2 973d 6239 103e e5e2 ba3c 6032 4d3e
00000210: 9e67 373e cf5e 313e 6f95 8c3e 9cdd a63d
00000220: fbf0 803e 796c 64be f508 b23d 1cce 0cbe
00000230: 1abf 283e 2995 f53d a95f 043c dfd7 39be
00000240: d058 053e e55e e1bd 7f20 973e 7186 723e
00000250: a35f 503e 75db 063e 1938 03be 5e2b a83c
00000260: f427 d33b a045 923d a148 16be 9ae4 d63d
00000270: f9b6 143e bac9 f33d e300 3dbe 4559 d4bc
00000280: ec07 a83d c3b6 583e 4e5d d33d a6dd fabd
00000290: fa3a 7bbd 0457 fc3d 3066 093e 60ea bcbc
000002a0: 708a 1e3e 37f5 2c3e ea7b 353e cfda 903e
000002b0: a0b0 6c3d ce28 fc3d cf37 823e 59e8 cd3d
000002c0: aa36 003e d782 823d 596a b6bc 0b1e 023e
000002d0: 967b c73d bc98 a83d 46b7 33be e46f d43d
000002e0: a335 25bd 345a 3e3e 3145 13be 2b49 eb3d
000002f0: 76a3 a9bc 2544 c7bd fe2c 193c 1b1e 733e
00000300: 178f 643e fe94 ce3d 0e91 f7bc 086e 253e
00000310: 81fa 89bd d52f 46bd 96f1 c33d b7a6 3fbe
00000320: 4de3 c03d d2f5 133f 3a3b ca3d 8c8c d2bd
00000330: e26c ee3d 9da0 e43e 93d9 ac3d 2df0 e7bc
00000340: 5ffd e0bd 44ce 10be cc5d 1f3d e8c7 d0bd
00000350: aaba 23be d5b5 3f3e d466 71be 99e6 6ebe
00000360: d85e a33d db30 98bd 2554 273e 64b5 533c
00000370: 1057 0fbb 5302 0f3b 2346 0ebd 57ec 4cbc
00000380: e37d ec3d ac5d febb 9444 343d 61e8 713d
00000390: f3a7 503d 54d0 7c3e 58a3 d73d 2241 62be
000003a0: 411a 2dbd 8177 77be 8a65 613e 002a 7b3e
000003b0: 3d88 07be 9b70 f63d 90ec 263e ed50 083e
000003c0: 381e 1a3d 701e 303e a0c3 aa3d 1071 333e
000003d0: e556 5c3d 0e21 35bc 58aa aa3c 43f0 843d
000003e0: cdb1 d33d b28a 143d 9f4c 5f3d 77bc 37be
000003f0: be00 3dbd e654 a3bb dfa4 023e 473b cb3c

weight f4 [256, 256]
0.016921656 -0.033647757 -0.061035905 -0.1897924 -0.039309457 0.13521574 0.040827233 -0.09120732
-0.14914657 -0.028306771 -0.06460929 0.092505746 0.07195534 0.019767895 0.056483958 0.17879926
-0.029387707 -0.058397774 0.17912532 -0.13708687 -0.304351 0.11338773 0.14520217 0.09876626
0.27300236 -0.4009234 -0.17115656 -0.07576153 0.133977 0.031185962 0.21529396 0.09995471
-0.08479252 0.20766196 -0.015437112 -0.19449812 -0.28935823 -0.12497438 0.08601459 0.114620805
-0.122050405 0.17121308 0.0131997615 0.14995708 -0.032330748 0.13851646 0.016153874 -0.112420045
0.022067312 0.023460895 0.16560166 -0.258022 0.0547828 -0.112647705 -0.055927902 0.0629623
-0.15589635 -0.07882191 0.002211097 0.029679025 -0.062706426 -0.03785722 0.033289023 0.13988996
-0.09084268 -0.104533255 0.063315704 -0.27526215 -0.21540019 -0.033643346 0.037894614 -0.16650021
0.11180783 0.058030266 -0.0021602358 -0.0027173606 -0.14086048 0.09065244 0.093138225 0.038718756
0.03457546 0.010646037 0.23186015 -0.027775027 -0.042760592 -0.15797946 0.034847904 0.0822267
-0.0391055 0.003489563 -0.089467935 0.04901439 -0.01593508 -0.22985795 -0.068442926 0.01529127
-0.15743704 -0.051793184 0.10951192 -0.12544917 0.046213638 0.10489589 -0.24611908 -0.08765504
0.1323383 -0.07167415 0.06005349 0.07079539 -0.28685617 -0.10345226 0.022277826 -0.13031295
0.06505748 0.0672685 -0.16241099 0.09386137 -0.030607603 0.07872176 -0.22809626 -0.23852709
0.07721451 0.053751234 -0.19048132 -0.021921756 -0.3755307 0.1024487 -0.1386389 0.2398425
0.19288476 -0.14669424 0.22621304 -0.113856874 0.0660788 0.040475458 -0.048212543 -0.010197477
0.10129138 -0.13683338 0.051011458 -0.20538604 0.14983413 0.21459687 -0.009177858 0.019948913
0.09760331 -0.21034658 -0.06597353 0.0066432613 -0.040313464 0.025606722 -0.016918108 -0.25742692
0.008703517 -0.07131994 0.0101199495 -0.087398425 0.09236582 0.00055111013 -0.2712736 -0.07365763
-0.23557642 0.04409871 -0.23235388 0.054162286 0.014971466 -0.04073137 -0.0728761 0.09878536
-0.021205047 -0.08965324 0.011508846 -0.085946925 -0.08920137 -0.31034586 -0.0037323372 0.10318376
0.14516106 0.06418685 0.011418027 0.0019944285 0.12192886 0.15057243 -0.20878173 0.09146999
-0.20455176 -0.09608352 -0.010169566 -0.21882811 0.08028432 -0.055633713 0.07965684 0.077786505
-0.37635505 -0.10811661 0.11830154 -0.18656458 0.23471655 0.058451705 -0.051895626 0.083400406
0.074779525 0.22136328 0.12947765 0.08927097 0.010394928 -0.006835088 0.16645668 -0.051961835
-0.028604178 0.0494683 0.008092639 0.06079271 0.04657053 0.26392922 -0.15840405 0.06708019
-0.11243548 -0.068862945 -0.06423958 0.06840052 0.062185105 -0.0635378 -0.10370732 0.002243749
0.16262032 0.102790475 0.05113189 -0.37652817 0.12838168 0.043155428 0.035253376 -0.2831196
0.0430057 -0.015248523 0.014016745 -0.110518076 -0.11419985 -0.3058848 -0.18720028 0.09640267
0.11231304 -0.0472742 -0.04940067 -0.06312615 0.2105698 0.18829831 0.23844893 -0.23358402
-0.07719338 -0.04711672 -0.047069676 0.07221473 0.15256616 -0.10451335 -0.2278675 -0.021712203
00000000: 499f 8a3c 3bd2 09bd c900 7abd f058 42be
00000010: f402 21bd ff75 0a3e 753a 273d e7ca babd
00000020: e1b9 18be 9ae3 e7bc e051 84bd a773 bd3d
00000030: 525d 933d 48f0 a13c b95b 673d 2717 373e
00000040: 7dbe f0bc 8132 6fbd a16c 373e 8060 0cbe
00000050: e5d3 9bbe d437 e83d e1af 143e f745 ca3d
00000060: f7c6 8b3e d545 cdbe aa43 2fbe dc28 9bbd
00000070: 4431 093e b479 ff3c 0576 5c3e 0eb5 cc3d
00000080: b3a7 adbd 56a5 543e f1eb 7cbc 842a 47be
00000090: c326 94be 91f2 ffbd 6b28 b03d 50be ea3d
000000a0: 90f5 f9bd 7b52 2f3e d043 583c 598e 193e
000000b0: 3f6d 04bd 42d7 0d3e 2155 843c 7b3c e6bd
000000c0: 82c6 b43c 1031 c03c 7b93 293e 761b 84be
000000d0: ee63 603d d7b3 e6bd a814 65bd 61f2 803d
000000e0: 4ba3 1fbe 626d a1bd 0de8 103b 6d21 f33c
000000f0: 3a6c 80bd 2c10 1bbd 125a 083d 503f 0f3e
00000100: ba0b babd 8815 d6bd aaab 813d 29ef 8cbe
00000110: de91 5cbe 9bcd 09bd 6237 1b3d 087f 2abe
00000120: 81fb e43d 25b1 6d3d be92 0dbb bf15 32bb
00000130: bb3d 10be fda7 b93d 41bf be3d 8f97 1e3d
00000140: ff9e 0d3d b76c 2e3c bf6c 6d3e 7488 e3bc
00000150: bb25 2fbd 5ec5 21be adbc 0e3d 7966 a83d
00000160: 172d 20bd 27b1 643b f73a b7bd 50c3 483d
00000170: 498a 82bc e25f 6bbe ce2b 8cbd 3c88 7a3c
00000180: 2d37 21be 1725 54bd c947 e03d bf75 00be
00000190: 834a 3d3d a8d3 d63d a406 7cbe 7c84 b3bd
000001a0: b183 073e e6c9 92bd a6fa 753d 2cfd 903d
000001b0: d0de 92be c7de d3bd fd7f b63c c270 05be
000001c0: db3c 853d 11c4 893d 114f 26be 643a c03d
000001d0: ccbc fabc e038 a13d 1192 69be 7240 74be
000001e0: a422 9e3d 412a 5c3d 890d 43be 4195 b3bc
000001f0: 8f45 c0be a0d0 d13d 5bf7 0dbe 4699 753e
00000200: 9583 453e 0437 16be 64a4 673e cb2d e9bd
00000210: 5254 873d 98c9 253d 847a 45bd 5213 27bc
00000220: db71 cf3d 0d1e 0cbe 64f1 503d b850 52be
00000230: 1e6e 193e 48bf 5b3e ba5e 16bc e76b a33c
00000240: 3fe4 c73d 1865 57be 211d 87bd b7af d93b
00000250: bb1f 25bd 30c5 d13c d897 8abc 76cd 83be
00000260: 3299 0e3c 3010 92bd 25ce 253c f2fd b2bd
00000270: 4b2a bd3d 6078 103a 60e4 8abe d0d9 96bd
00000280: f23a 71be d9a0 343d 2dee 6dbe 46d9 5d3d
00000290: e14a 753c f0d5 26bd 1140 95bd fb4f ca3d
000002a0: 35b6 adbc 1e9c b7bd 998f 3c3c f104 b0bd
000002b0: 35af b6bd a7e5 9ebe 3a9a 74bb 0252 d33d
000002c0: 1aa5 143e 6574 833d ad12 3b3c f5b4 023b
000002d0: d7b5 f93d a92f 1a3e e1ca 55be 9e54 bb3d
000002e0: 0476 51be 70c7 c4bd 409e 26bc 7a14 60be
000002f0: 1b6c a43d 2de0 63bd 2023 a33d 884e 9f3d
00000300: 9cb1 c0be 3e6c ddbd 1448 f23d c90a 3fbe
00000310: 8959 703e 0e6b 6f3d 8290 54bd d5cd aa3d
00000320: 0226 993d 0ead 623e ca95 043e b3d3 b63d
00000330: 7d4f 2a3c e0f8 dfbb 9f73 2a3e efd5 54bd
00000340: 4f53 eabc 469f 4a3d fd96 043c c701 793d
00000350: bdc0 3e3d bb21 873e ac34 22be 5761 893d
00000360: 9344 e6bd 0408 8dbd 0a90 83bd 9215 8c3d
00000370: cfb5 7e3d 1b20 82bd 8164 d4bd dd0b 133b
00000380: f185 263e d083 d23d ac6f 513d 4dc8 c0be
00000390: 7d76 033e bfc3 303d d865 103d 0df5 90be
000003a0: bf26 303d f1d4 79bc 7da6 653c 4d57 e2bd
000003b0: 9ce1 e9bd ef9c 9cbe 6eb1 3fbe c36e c53d
000003c0: 6104 e63d 97a2 41bd 5b58 4abd 4848 81bd
000003d0: 9c9f 573e 46d1 403e f52b 743e a630 6fbe
000003e0: 9017 9ebd 76fd 40bd 22cc 40bd 51e5 933d
000003f0: 4e3a 1c3e 180b d6bd 1956 69be cadd b1bc

bias f4 [256]
-0.108316876 -0.12803389 0.25721273 -0.1677523 -0.06971494 -0.14419656 -0.068003766 -0.062351037
0.22544597 0.21863724 0.16054651 -0.07936372 -0.10434269 0.23990606 0.3004601 0.15010211
0.12255156 0.18558793 -0.12983944 -0.18937673 0.19649924 0.26052737 0.09045861 -0.09364182
-0.14499882 0.2229394 -0.05355237 -0.08464945 0.19142854 -0.07924639 -0.03737982 0.214416
0.17041445 -0.22764598 0.10078296 0.23559354 -0.11980796 0.18730597 0.2747133 -0.09617162
-0.25469363 0.11392758 -0.09333864 0.21208642 -0.10822677 -0.12236916 0.0651854 0.14267306
0.26520225 -0.1546559 -0.043602504 0.21438627 0.16455115 -0.056332406 0.21371889 0.16928667
0.18303207 0.23870867 0.14209266 0.2589255 0.212438 0.21845417 -0.10990207 0.20287937
-0.0786863 0.21215329 -0.064798065 0.21429645 -0.1286997 0.23985574 -0.14505334 0.20784646
-0.14072718 0.10665767 0.17149304 -0.05843554 -0.0481569 0.2369751 0.23151201 -0.07794471
0.07005967 0.08368326 0.2715409 0.2568434 0.14760967 -0.031546097 0.12744804 -0.09831955
0.22196598 -0.1254381 -0.07993451 0.21828185 0.2641285 0.21921188 0.20739277 0.1848847
-0.24622269 -0.061545737 0.1299994 0.0527052 -0.2574386 -0.13090658 0.22148 0.08755129
0.12794395 -0.08592449 0.23091868 0.21725577 -0.10867105 -0.24359381 0.22292903 -0.09699099
-0.11703394 0.2206599 0.21721174 0.1935236 0.22477345 -0.058716223 0.29338178 -0.13811898
0.21580307 -0.12957668 0.015727999 0.23513483 0.19803712 -0.11796621 -0.10082927 -0.15868992
0.20583403 -0.16348977 0.23730743 -0.11155985 -0.056396056 0.21609661 -0.09850738 0.23757531
-0.13577732 -0.16365695 0.22073516 -0.070059285 -0.16042218 0.112389095 -0.10175229 -0.034603264
-0.07825199 -0.10072979 -0.11393528 0.21599792 0.22750121 0.21912724 0.25741065 0.26159328
0.16822729 0.012900926 -0.10757007 0.11609467 -0.11722257 0.2145893 0.18191437 0.29452196
0.25589412 -0.106883936 0.19964723 0.25181186 0.20327175 0.20767355 -0.07142819 -0.032808173
0.20344672 0.26512778 0.18111436 0.2184775 -0.10761617 -0.14722553 -0.071256846 -0.09671733
0.2243368 0.21328029 0.22916184 0.1588441 0.3441972 -0.10144326 0.15318476 -0.042544544
0.1111921 0.17063835 -0.0053175963 -0.065802544 0.22966747 0.21724655 0.19003052 0.23377407
0.2402299 -0.07883138 0.206163 -0.10992023 0.2163499 0.17335576 0.17852679 -0.017464738
-0.087287225 -0.072982386 0.21872792 -0.18023178 0.17738482 0.0974462 -0.08367447 0.2145707
0.19609699 0.16378243 -0.106371105 0.15078326 -0.046464916 -0.16624008 0.15177248 -0.12527908
0.22689638 0.08439129 0.27194375 0.22084461 -0.071706735 -0.04772364 -0.1682832 0.26958874
0.18174936 0.059189957 -0.21656568 -0.102038406 0.2558269 0.17626739 -0.15506564 0.25669697
-0.15988466 0.15205844 -0.06961066 0.22265309 -0.11588948 -0.1603485 -0.14618714 0.27313554
0.16721156 -0.009360285 0.22444274 -0.16500746 0.23710178 0.1841062 0.22639708 -0.10776114
0.22223473 0.19798581 -0.08408401 -0.10965923 -0.08214282 0.19971317 0.21234271 -0.051397767
00000000: 3dd5 ddbd 511b 03be 63b1 833e 42c7 2bbe
00000010: b5c6 8ebd 43a8 13be 8f45 8bbd cd63 7fbd
00000020: 4fdb 663e 71e2 5f3e 4e66 243e 7289 a2bd
00000030: 9fb1 d5bd efa9 753e e8d5 993e 5eb4 193e
00000040: 50fc fa3d c30a 3e3e a1f4 04be f9eb 41be
00000050: 1937 493e d863 853e 5d42 b93d 48c7 bfbd
00000060: 927a 14be 3a4a 643e bb59 5bbd b15c adbd
00000070: d805 443e ee4b a2bd 951b 19bd de8f 5b3e
00000080: 2081 2e3e 071c 69be 4c67 ce3d 6f3f 713e
00000090: e05d f5bd 23cd 3f3e 39a7 8c3e a0f5 c4bd
000000a0: 3467 82be dd52 e93d 5428 bfbd 2f2d 593e
000000b0: ffa5 ddbd af9c fabd ec7f 853d e318 123e
000000c0: 97c8 873e 1e5e 1ebe 8a98 32bd 1388 5b3e
000000d0: 1980 283e cfbc 66bd 20d9 5a3e 7c59 2d3e
000000e0: c26c 3b3e 0c70 743e bd80 113e e291 843e
000000f0: 5989 593e 73b2 5f3e 5614 e1bd 9cbf 4f3e
00000100: 4826 a1bd b63e 593e d9b4 84bd 8770 5b3e
00000110: dbc9 03be be9c 753e dd88 14be b4d5 543e
00000120: c91a 10be 566f da3d df9b 2f3e 1b5a 6fbd
00000130: 2b40 45bd 9aa9 723e 7c11 6d3e 7aa1 9fbd
00000140: 727b 8f3d 2162 ab3d 6907 8b3e fa80 833e
00000150: fd26 173e 7b36 01bd bd81 023e c35b c9bd
00000160: 0d4b 633e d872 00be b4b4 a3bd 4785 5f3e
00000170: da3b 873e 1479 603e c55e 543e 6a52 3d3e
00000180: cd21 7cbe 6217 7cbd 901e 053e 68e1 573d
00000190: fece 83be 600c 06be a7cb 623e 174e b33d
000001a0: bd03 033e 2ef9 afbd f275 6c3e 4c78 5e3e
000001b0: ed8e debd a870 79be 8247 643e 36a3 c6bd
000001c0: 7eaf efbd abf4 613e c16c 5e3e 0d2b 463e
000001d0: 032b 663e 6c80 70bd 2336 963e 106f 0dbe
000001e0: 7bfb 5c3e c0af 04be 01d8 803c 2fc7 703e
000001f0: 3eca 4a3e 4598 f1bd 947f cebd 9c7f 22be
00000200: 28c6 523e dd69 27be b800 733e 7e79 e4bd
00000210: 8dff 66bd 6e48 5d3e 3dbe c9bd f146 733e
00000220: 3609 0bbe b095 27be 6608 623e 3e7b 8fbd
00000230: b645 24be 412c e63d 8163 d0bd 27bc 0dbd
00000240: 9442 a0bd 6c4b cebd e656 e9bd 8f2e 5d3e
00000250: 14f6 683e e462 603e 54cb 833e 8eef 853e
00000260: c643 2c3e 685e 533c b24d dcbd 0bc3 ed3d
00000270: 6312 f0bd 4cbd 5b3e c347 3a3e 95cb 963e
00000280: 8e04 833e f7e5 dabd 5370 4c3e 7ced 803e
00000290: 7826 503e 60a8 543e f148 92bd dd61 06bd
000002a0: 5654 503e d4be 873e 0b76 393e 91b8 5f3e
000002b0: de65 dcbd 4ac2 16be 1cef 91bd bc13 c6bd
000002c0: 8cb8 653e 2666 5a3e 67a9 6a3e 07a8 223e
000002d0: 9e3a b03e 7cc1 cfbd 77dc 1c3e 3043 2ebd
000002e0: afb8 e33d d2bb 2e3e 3b3f aebb 7cc3 86bd
000002f0: f32d 6b3e e175 5e3e 5c97 423e 7862 6f3e
00000300: d4fe 753e 5972 a1bd 651c 533e dc1d e1bd
00000310: d48a 5d3e 2c84 313e bacf 363e 3612 8fbc
00000320: a5c3 b2bd ca77 95bd 36fa 5f3e ae8e 38be
00000330: 5ea4 353e e091 c73d 855d abbd 6cb8 5b3e
00000340: a6cd 483e 95b6 273e 18d9 d9bd ed66 1a3e
00000350: ff51 3ebd d73a 2abe 3f6a 1b3e 2949 00be
00000360: 8657 683e 57d5 ac3d 363c 8b3e 1725 623e
00000370: fbda 92bd dd79 43bd 6e52 2cbe 8907 8a3e
00000380: 811c 3a3e 2b71 723d 65c3 5dbe 83f9 d0bd
00000390: befb 823e 707f 343e 87c9 1ebe c96d 833e
000003a0: ceb8 23be 35b5 1b3e 0990 8ebd 2cff 633e
000003b0: 7757 edbd 6632 24be 15b2 15be 6cd8 8b3e
000003c0: 8239 2b3e e15b 19bc 51d4 653e b7f7 28be
000003d0: cfca 723e 5686 3c3e a3d4 673e dfb1 dcbd
000003e0: 8091 633e cbbc 4a3e 3d34 acbd 0595 e0bd
000003f0: 7f3a a8bd 9c81 4c3e 5e70 593e 7786 52bd

weight f4 [1, 256]
-0.90870255 -0.576243 0.31146163 -0.7079537 -0.7384557 -0.31042188 -0.7242363 -0.5755784
0.5668944 0.08643969 0.5737088 -0.53659034 -0.29901555 0.2751512 0.44339365 0.63483495
0.8028402 0.79090995 -0.24601786 -0.5520357 0.4633322 0.4735724 1.0771995 -0.372996
-0.2889174 0.1187854 -0.76972383 -0.68250024 0.6766883 -0.59560615 -0.63036156 0.08926198
0.0910441 -0.34920737 0.9115402 0.6179864 -0.4185471 0.43437588 0.41270187 -0.8223703
-0.7193692 0.90797246 -0.44829828 0.52649134 -0.77055305 -0.9897666 0.68600833 0.7995294
0.5191227 -0.47120243 -0.8901146 0.3493925 0.5534831 -0.53230274 0.08259693 0.40142605
0.6142873 0.65071124 0.6259999 0.34851086 0.08545154 0.09409163 -0.4000372 0.5925794
-0.53458613 0.07137401 -0.63751256 0.47155732 -0.32815534 0.29333687 -0.17163523 0.18137053
-0.5069816 0.45951155 0.7673619 -0.9964271 -0.47225258 0.19368175 0.1631805 -0.63596016
0.8178252 0.9161431 0.4237215 0.37173676 0.44123396 -0.7197726 0.34416053 -0.3274598
0.09103572 -0.33667102 -0.38630277 0.3485204 0.41701284 0.714508 0.6395351 0.4759779
-0.95541567 -0.46635103 0.62134403 0.95037526 -0.8797824 -0.91418177 0.14123757 0.40950423
1.0150732 -0.34521866 0.37369508 0.8574784 -0.52594227 -0.96728826 0.12222642 -0.4621449
-0.59679395 0.099582404 0.099883355 0.51988244 0.1390954 -1.0624342 0.43791676 -0.432916
0.72058105 -0.37942785 -0.63472843 0.1126243 0.927574 -1.173634 -0.5084046 -1.0333853
0.38842362 -0.571896 0.5176651 -0.4474564 -0.50521183 0.6128877 -0.6188736 0.16973121
-0.3764843 -0.60230744 0.12982891 -0.6168917 -0.59422165 0.7271934 -0.28984302 -0.48277992
-0.53745496 -0.815034 -0.33775997 0.08337989 0.5364108 0.11024247 0.37502334 0.46443853
0.75259906 -0.9748056 -0.32512453 0.52187914 -0.49996275 0.07679621 0.7566499 0.8756485
0.42118666 -0.26960716 0.67544144 0.6836382 0.049028527 0.5168688 -0.32691178 -0.53401446
0.042954475 0.45787 0.40922368 0.079947114 -0.54689205 -0.71060234 -0.55941725 -0.25658733
0.11914722 0.08136128 0.16783214 0.22787419 0.43165648 -0.60374427 0.7644022 -0.8022885
0.6739703 0.27721664 -0.5791891 -0.2448552 0.16757797 0.6609543 0.4586708 0.34376028
0.7110993 -0.44057205 0.252793 -0.89352757 0.1022141 1.0176408 0.57083786 -0.8378839
-0.9554906 -0.8787281 0.18604125 -0.8245697 0.21568027 0.967132 -0.5136971 0.7644787
0.43581292 0.8488399 -0.6044364 0.5785742 -0.84005785 -0.33632967 0.1143507 -0.5084224
0.5278292 1.1766269 0.41172948 0.72421056 -0.7504519 -0.51582414 -0.39475897 0.32740337
0.53641737 0.4835048 1.1385938 -0.65094364 0.40831548 0.73531437 -1.4664099 0.18295185
-0.57463443 0.78689075 -0.6676228 0.13699408 -0.5693291 -1.0699785 -0.69157684 0.45755526
0.8093113 0.03786095 0.15070075 -0.3788931 0.7503588 0.6811871 0.5505036 -0.47672915
0.13437398 0.043445073 -0.67118114 -0.4687348 -0.33891016 0.672618 0.06798229 -0.88077146
00000000: bba0 68bf a984 13bf e677 9f3e 743c 35bf
00000010: 6f0b 3dbf 9eef 9ebe 8d67 39bf 1b59 13bf
00000020: fe1f 113f 4b07 b13d 94de 123f fc5d 09bf
00000030: 9118 99be 9ee0 8c3e 7e04 e33e 8b84 223f
00000040: ef86 4d3f 1379 4a3f 1bec 7bbe 3652 0dbf
00000050: e139 ed3e 1578 f23e ace1 893f 55f9 bebe
00000060: fbec 93be c345 f33d 9f0c 45bf 56b8 2ebf
00000070: 723b 2d3f a579 18bf 605f 21bf fcce b63d
00000080: 5475 ba3d 4fcb b2be b35a 693f 5b34 1e3f
00000090: ce4b d6be 8466 de3e a94d d33e dc86 52bf
000000a0: 9428 38bf e270 683f 5a87 e5be 23c8 063f
000000b0: f742 45bf 5861 7dbf 3e9e 2f3f f5ad 4c3f
000000c0: 3ae5 043f 7241 f1be 8dde 63bf 93e3 b23e
000000d0: 12b1 0d3f fe44 08bf 9428 a93d b787 cd3e
000000e0: ef41 1d3f 0395 263f 8841 203f 0470 b23e
000000f0: 3801 af3d 1db3 c03d add1 ccbe 49b3 173f
00000100: a3da 08bf 892c 923d 0634 23bf f66f f13e
00000110: fa03 a8be 4030 963e 25c1 2fbe 32b9 393e
00000120: 8cc9 01bf 1945 eb3e d471 443f d915 7fbf
00000130: 17cb f1be 8254 463e ca18 273e 49ce 22bf
00000140: fe5c 513f 5b88 6a3f 06f2 d83e 4854 be3e
00000150: 6be9 e13e 0443 38bf cf35 b03e d0a8 a7be
00000160: f070 ba3d 2560 acbe 7ac9 c5be 4471 b23e
00000170: b582 d53e ffe9 363f 93b8 233f 60b3 f33e
00000180: 1f96 74bf 90c5 eebe 6710 1f3f cb4b 733f
00000190: 6b39 61bf d107 6abf 95a0 103e 8aaa d13e
000001a0: ebed 813f 80c0 b0be f654 bf3e b483 5b3f
000001b0: 27a4 06bf 34a0 77bf d851 fa3d 429e ecbe
000001c0: 7dc7 18bf dcf1 cb3d a58f cc3d 0417 053f
000001d0: 066f 0e3e d8fd 87bf a036 e03e 2aa7 ddbe
000001e0: 0078 383f 5e44 c2be 907d 22bf 92a7 e63d
000001f0: 7d75 6d3f a439 96bf ce26 02bf f845 84bf
00000200: 76df c63e c767 12bf b385 043f 0119 e5be
00000210: 9055 01bf 35e6 1c3f 806e 1ebf 05ce 2d3e
00000220: 8dc2 c0be d230 1abf dff1 043e 9dec 1dbf
00000230: e91e 18bf 5929 3a3f 4e66 94be ee2e f7be
00000240: a696 09bf 11a6 50bf e0ee acbe 13c3 aa3d
00000250: 3852 093f cec6 e13d 0f03 c03e e3ca ed3e
00000260: 55aa 403f dc8c 79bf b976 a6be df99 053f
00000270: 1efb ffbe 5547 9d3d cfb3 413f 802a 603f
00000280: c7a5 d73e f309 8abe bbe9 2c3f ea02 2f3f
00000290: 23d2 483d 8451 043f fb60 a7be 2cb5 08bf
000002a0: 08f1 2f3d f06d ea3e c485 d13e 50bb a33d
000002b0: 1e01 0cbf 09ea 35bf f835 0fbf 6a5f 83be
000002c0: 7503 f43d bea0 a63d 30dc 2b3e da57 693e
000002d0: 1402 dd3e fc8e 1abf ddaf 433f c762 4dbf
000002e0: 5189 2c3f 57ef 8d3e bd45 14bf 52bb 7abe
000002f0: 8f99 2b3e 4d34 293f e6d6 ea3e 5901 b03e
00000300: 9b0a 363f a992 e1be 166e 813e 39be 64bf
00000310: a055 d13d 0e42 823f 6e22 123f 8f7f 56bf
00000320: 089b 74bf 53f4 60bf 9981 3e3e 0017 53bf
00000330: 4adb 5c3e f695 773f a781 03bf e0b4 433f
00000340: df22 df3e 924d 593f 58bc 1abf 701d 143f
00000350: 080e 57bf 6733 acbe b330 ea3d f827 02bf
00000360: d01f 073f b69b 963f 35ce d23e dd65 393f
00000370: 9e1d 40bf 0d0d 04bf d91d cabe 6aa1 a73e
00000380: a652 093f f18d f73e 71bd 913f 3ea4 26bf
00000390: ba0e d13e 903d 3c3f 52b3 bbbf bb57 3b3e
000003a0: 3e1b 13bf ac71 493f 54e9 2abf 2d48 0c3e
000003b0: 8dbf 11bf 0ef5 88bf 2e0b 31bf af44 ea3e
000003c0: 062f 4f3f 1514 1b3d 4c51 1a3e 47fe c1be
000003d0: 8417 403f 4762 2e3f ceed 0c3f d815 f4be
000003e0: 5599 093e 76f3 313d 87d2 2bbf 02fe efbe
000003f0: a285 adbe b130 2c3f 4d3a 8b3d 3d7a 61bf

obs_std f4 [39]
0.2187817 0.2506484 1.4673884 1.785364 1.56159 0.28037822 0.22552833 0.27068272
0.27866971 0.26843327 0.27213848 0.2805761 0.2257572 0.26772898 0.27579233 0.27075052
0.2691119 3.4338052 3.2819037 5.147885 4.7318406 5.3109155 4.8736105 3.4220595
3.258438 5.1361566 4.734961 5.3218336 4.8492737 0.64380586 0.7651757 0.22390686
0.2682306 0.26756588 0.21633732 0.25916606 0.26678756 0.3727655 0.41615182
00000000: 4f08 603e fd54 803e 62d3 bb3f cf86 e43f
00000010: 2ee2 c73f bc8d 8f3e e6f0 663e ed96 8a3e
00000020: ccad 8e3e 1670 893e bc55 8b3e aca7 8f3e
00000030: e52c 673e c613 893e a734 8d3e d09f 8a3e
00000040: 09c9 893e 77c3 5b40 b60a 5240 79bb a440
00000050: 3d6b 9740 05f3 a940 9ef4 9b40 0603 5b40
00000060: 408a 5040 655b a440 cd84 9740 764c aa40
00000070: 402d 9b40 76d0 243f 8ee2 433f d747 653e
00000080: 8555 893e 65fe 883e 8887 5d3e 6ab1 843e
00000090: 6198 883e 1fdb be3e da11 d53e

obs_mean f4 [39]
0.0066673416 0.022275064 0.017862394 -0.012458505 -0.041163757 -0.5738615 -0.063136384 0.0057324255
0.95116746 0.009415738 -0.43209916 -0.56039643 0.0575112 -0.005297662 0.9422575 -0.01674516
-0.4203183 -0.09637599 0.07197382 0.013994117 0.24399224 0.010389324 -0.01935871 -0.0568486
-0.079050355 -0.03931687 0.21934406 -0.030530106 0.018835876 0.0044718804 -0.00037471892 0.1187929
0.1998279 -0.00792792 -0.0040521664 -0.6516355 -0.6523619 0.009015101 0.004834971
00000000: b779 da3b 327a b63c 2854 923c c21e 4cbc
00000010: 549b 28bd 96e8 12bf a64d 81bd 12d7 bb3b
00000020: b67f 733f 7844 1a3c 1a3c ddbe 2476 0fbf
00000030: dd90 6b3d 0398 adbb ca37 713f 252d 89bc
00000040: f633 d7be c660 c5bd 0367 933d 9547 653c
00000050: 1ad9 793e fc37 2a3c 2896 9ebc 14da 68bd
00000060: 27e5 a1bd ba0a 21bd bb9b 603e 461a fabc
00000070: b24d 9a3c da88 923b ec75 c4b9 b149 f33d
00000080: af9f 4c3e 1be4 01bc 09c8 84bb 96d1 26bf
00000090: 3101 27bf 13b4 133c ad6e 9e3b
