trained/jvrc_step/critic_12699.pt (torch, 310590 bytes, 7 tensors)

weight f4 [256, 39]
000000 79 25 17 3f 9f e3 3a be f5 39 ca 3d c0 bf 35 3e
       0.59041554 -0.18250893 0.09874336 0.17748928
000010 e1 ef 72 3c de 54 5e 3e 93 14 db 3e 54 38 4b be
       0.014827699 0.21712062 0.42789134 -0.19845706
000020 01 e4 4f bd 2c 38 8c bd bd 02 64 3e 66 d5 7e be
       -0.05075455 -0.068466514 0.2226667 -0.24886093
000030 99 e4 e6 bd c6 b7 b6 3d 11 25 94 bc 7f 78 34 bd
       -0.1127407 0.08921771 -0.01808408 -0.044060227
000040 2a 21 b8 bd cc c4 09 3e 8a 55 0d 3e 99 99 7b bd
       -0.089907005 0.13453978 0.13802162 -0.06142578
000050 26 2c af 3d 4a 89 c8 bb 16 82 e7 3c 62 8c 83 3d
       0.085533425 -0.0061198818 0.028260272 0.0642326
000060 a2 8f 71 ba 1c 9e 01 3b 99 bb ad 3d 14 00 c8 bb
       -0.00092148234 0.0019778078 0.08483047 -0.006103525
000070 25 f2 c5 bb 4d d9 13 be da 1b 8a 3d d6 c9 8e be
       -0.006040829 -0.14438362 0.067435935 -0.27888364
000080 f0 c8 8d 3e 7c 70 10 be 0d c0 10 3e 42 30 2d be
       0.27692366 -0.1410541 0.14135762 -0.1691294
000090 4b 16 0d 3f 72 d5 8c bc 96 9d 8a 3e cc e0 c9 be
       0.5511214 -0.017191622 0.27073354 -0.3942932
0000a0 b7 8f 26 c0 fc 74 5c be 88 4c b8 be 8b 88 f4 bd
       -2.6025217 -0.21529001 -0.3599589 -0.11940106
0000b0 d5 ee a8 be 74 a2 3d be f3 89 57 3e 8a 62 2d bd
       -0.32994714 -0.18519002 0.21048717 -0.042330302
0000c0 98 2b b7 bd f1 3c 63 be 8f b5 8a bf a5 de 64 be
       -0.08943862 -0.22191216 -1.0836657 -0.22350557
0000d0 c3 91 04 3e f3 ba 33 bf eb 15 83 be 83 73 89 be
       0.12946229 -0.70207137 -0.2560266 -0.2684594
0000e0 fe 98 af 3c e4 9d 22 be ee f1 c2 3c e8 9f 32 3d
       0.021435257 -0.15880543 0.023797002 0.04360953
0000f0 73 b1 83 3c e0 ac 84 bc 79 d4 e9 be db fa 22 be
       0.016075825 -0.016195714 -0.45669916 -0.15916006
000100 e1 6f 04 3e fb fb c5 be 31 32 a0 bc 6b c5 53 bd
       0.12933303 -0.38668808 -0.019555183 -0.051701944
000110 b2 d3 f5 be e1 7f 9b be 20 b1 44 3e 42 b2 ce 3e
       -0.48013073 -0.30371 0.19208193 0.40370375
000120 02 dc 92 3e c4 4d 50 be e9 92 5c 3e 39 5c c3 3e
       0.28683478 -0.20342165 0.21540417 0.38156298
000130 64 97 69 bd 42 5e e4 bd 43 0e 6b bc 39 25 94 be
       -0.057029143 -0.11150791 -0.014346662 -0.2893465
000140 9d bf d3 3d 77 ee fb bd 11 1b 66 3d e5 9f 76 be
       0.10339282 -0.12301343 0.056178156 -0.24084432
000150 06 63 c8 3d 5f ae b3 bc 59 14 8b be 5e 10 25 3d
       0.09784512 -0.021933733 -0.27163962 0.040298812
000160 f3 39 9b bc d0 d2 77 bd 5d 45 d0 3d a4 67 fe bd
       -0.01894853 -0.06050378 0.1016948 -0.12422112
000170 bd 0b 08 3e 48 4c 73 bd 0b 32 a3 bc 29 49 05 be
       0.13285728 -0.05939892 -0.019921323 -0.1301619
000180 3a bb a0 3d d1 61 97 39 fc 65 d6 bd fc b1 55 bc
       0.07848211 0.00028873843 -0.10468671 -0.013042923
000190 cf 9b 99 bc c6 4d a4 bc ab 2a de 3c db eb ef 3c
       -0.018751053 -0.020056617 0.027119955 0.02928727
0001a0 26 9f d2 3b 15 7a 51 3c b2 b9 3f 3d 17 f4 97 3b
       0.0064276634 0.012785454 0.046807952 0.004637252
0001b0 b6 2b f7 3b 53 cb 58 be da e0 01 3f cd b6 40 bf
       0.0075430525 -0.21171312 0.5073372 -0.7527893
0001c0 c4 ce 2c 3f f4 2b 1d 3f b3 8f 19 bf 52 6f df 3c
       0.67503 0.6139519 -0.5998489 0.027274761
0001d0 01 6a b2 bd 69 2e 47 be b4 04 8f be cd cb b5 3c
       -0.08711625 -0.19451298 -0.27933276 0.022191906
0001e0 02 ba a6 bc 3a 20 c9 3d 70 99 c2 bd 41 7b 1a 3e
       -0.020352367 0.098206 -0.09501922 0.1508608
0001f0 d2 51 33 be a6 b1 1e be 9f 51 77 bd 97 b3 4e 3d
       -0.1751168 -0.15497455 -0.060380574 0.05046424
000200 68 17 51 bd fa 22 9f bd 45 ad 08 bc 3d 8a c6 bc
       -0.051047713 -0.07770343 -0.008342092 -0.024235839
000210 20 60 ea 3d 42 4a 04 3d 46 97 3f bd 19 e2 ce 3d
       0.11444116 0.03229738 -0.046775125 0.101017185
000220 21 06 78 bd fb af 1c bd ec b8 29 3c b4 3f b5 3c
       -0.06055272 -0.038253766 0.01035903 0.022125103
000230 8a 7d 71 3d f1 e4 85 bb 30 fe 1e 3d 5b 9a 8b 3c
       0.058957614 -0.00408613 0.03881663 0.017041376
000240 9f b9 22 bc b2 53 23 ba ec ea 96 bd 9c 02 22 be
       -0.009931951 -0.0006230428 -0.073690265 -0.15821308
000250 f7 59 27 bb 69 5a 23 be 8b 2b 56 be 56 ba d0 be
       -0.00255358 -0.15952457 -0.20915048 -0.40767163
000260 6e bf 6c bd 46 da 59 3e 84 b2 54 3d 29 e9 92 3e
       -0.05779975 0.21274671 0.05192806 0.28693512
000270 65 b8 06 3d 83 a0 28 3f b4 a4 d0 3c b0 4b 14 be
       0.032890696 0.6586992 0.025469162 -0.14481997
000280 54 2f d5 bd 6f 76 b1 be 44 9c 39 be b4 8f 7d be
       -0.10409418 -0.3466067 -0.18126017 -0.2476185
000290 f9 97 1b be 12 76 5b 3e f3 8f b2 3d b3 20 0e bf
       -0.15194692 0.21431759 0.087188624 -0.55518645
0002a0 96 de 38 3e 6a c1 c3 bd 9e 2b d9 bd ac 46 ea 3d
       0.1805366 -0.09558375 -0.106040224 0.11439261
0002b0 68 ec 45 3d 5d e6 79 bd 19 69 ca bc 21 19 9b bd
       0.048321158 -0.061010707 -0.024708318 -0.07573152
0002c0 47 2f a0 bd 27 05 93 38 8b 26 09 3d 02 c2 01 be
       -0.078215174 7.010466e-05 0.033484023 -0.12671664
0002d0 62 a4 68 bc 0d 7c 16 ba 8c 7e c0 bd a8 05 27 3c
       -0.014199348 -0.0005740531 -0.09399137 0.01019422
0002e0 77 3b b8 ba fe 04 e7 3c 12 fa 46 bd f3 01 03 bf
       -0.0014055808 0.028200623 -0.04857833 -0.5117485
0002f0 e3 86 bd bf 9c af 8d 3e 20 fa 47 be 8d ac 4d 3e
       -1.4806789 0.27673042 -0.19529009 0.20085354
000300 9a 23 42 3e 3e de bb 3e 34 e2 db 3e 96 d8 1c be
       0.18958893 0.36692995 0.42946017 -0.15316996
000310 71 e6 2d 3d 42 34 43 3e 65 ad 1d be 61 55 5a 3d
       0.042456094 0.19062904 -0.15398176 0.05330408
000320 d6 97 e0 3c f2 5e 47 be 5a 20 c6 bc 71 4a 44 3c
       0.027416151 -0.19469813 -0.024185348 0.011980639
000330 07 ee a8 3d 12 d0 fb bc 6d f5 81 be c1 67 70 be
       0.08248525 -0.030738864 -0.25382558 -0.23477079
000340 a3 e3 be bd 5e 64 8d be 53 c4 ba 3d e2 85 c4 be
       -0.09320762 -0.27615637 0.09119477 -0.38383394
000350 22 38 1f bc 34 ee 83 3d b5 1d 86 bc 59 15 ac bc
       -0.009717973 0.06441918 -0.016371587 -0.021006273
000360 4f fe a4 bc 22 e3 4c bc a9 d4 75 be 8e d1 0c 3c
       -0.020140795 -0.012505325 -0.24006905 0.008594884
000370 71 cc 06 bd 73 6d a9 bd a5 fa 28 3d da 66 08 3c
       -0.032909814 -0.08272829 0.04125466 0.008325303
000380 f0 41 1e 3d 00 b6 7d 3e 34 e7 f1 be 16 ee e3 3e
       0.0386371 0.24776459 -0.47246706 0.44517583
000390 c3 33 d9 3d e7 6e b6 3d 46 f6 b5 bd 24 88 10 3f
       0.10605576 0.08907872 -0.088848636 0.56457734
0003a0 f6 73 00 3f eb 91 cb 3e 1f 1d 12 3f be 13 05 be
       0.5017694 0.39759764 0.57075685 -0.12995812
0003b0 02 e6 f6 3d 89 17 84 3f 92 d4 c7 bd 2a 8a 02 be
       0.12055589 1.0319682 -0.097573414 -0.12748018
0003c0 da 10 6e 3e e2 14 25 bf 65 bc 70 bf bb 01 7d bf
       0.23248616 -0.6448499 -0.9403747 -0.98830765
0003d0 b3 32 86 3e 5c c5 31 3e 0a ae b1 3e 0d 12 dd 3e
       0.26210555 0.17360443 0.34703094 0.43177834
0003e0 db 6a 19 bf a4 f4 ac 3e 6a 70 a2 3e 2f bf aa 3d
       -0.59928674 0.33780396 0.3172639 0.083372466
0003f0 58 4e 77 3d 3d 28 1f bf 1d 3b af bf 49 16 0a be
       0.06037745 -0.62170774 -1.3689915 -0.13485064

bias f4 [256]
000000 40 25 1e be 3a 0d c9 3e 17 6f 47 bf 6d ae f9 be
       -0.15443897 0.39267904 -0.77903885 -0.4876589
000010 73 5b bd be 80 75 26 bf c8 30 19 bf 42 7f 15 be
       -0.36983833 -0.6502304 -0.5984006 -0.14599326
000020 e1 9e 10 bf bd bf 26 bf 74 7b 6c be fe 72 d3 bd
       -0.5649243 -0.6513632 -0.23093969 -0.103246674
000030 b1 c0 c7 be 0e 24 13 bf 5a 22 8e 3e 1e dd 10 bf
       -0.390142 -0.5747689 0.27760583 -0.565874
000040 6f 34 17 be 27 e5 11 bf da 8d 9a be 88 23 25 3f
       -0.14766096 -0.56990284 -0.3018635 0.6450734
000050 ea 06 c5 be b3 11 3e be 7d 16 c9 be ae f8 63 3e
       -0.38481838 -0.18561439 -0.3927497 0.22262833
000060 6d 57 01 bf c5 87 bb be 9a 7b 10 3f d9 20 aa be
       -0.50524026 -0.3662702 0.564386 -0.33228186
000070 50 a9 b4 be cb 9a 3f be d3 00 26 3d 3f 93 66 be
       -0.35285425 -0.18711393 0.04052813 -0.22517107
000080 d1 88 1f bf 1d 5d 29 bf e0 e8 d9 3c 90 81 4f bf
       -0.6231814 -0.66157705 0.026600301 -0.8105707
000090 96 0f ab bf fa 09 5e 3e d0 7f 3c 3d c6 66 e3 be
       -1.3364131 0.21683493 0.04602033 -0.44414347
0000a0 19 a5 bc be 3c b4 f6 3d bd 47 c1 be 5d ce ca 3e
       -0.3684471 0.12046096 -0.37750044 0.39610568
0000b0 aa 79 12 be 75 b1 7a be f6 78 ab be e8 16 fa be
       -0.14304224 -0.24481757 -0.33490723 -0.488456
0000c0 1e 41 cd be 4b 51 4d bf 4c 00 e0 be c4 7b 2a bf
       -0.40088743 -0.8020217 -0.43750226 -0.665951
0000d0 73 80 f2 3d 1b 56 83 bf 90 4c 4d bf f4 8d 8e be
       0.11840906 -1.0260652 -0.8019495 -0.27842677
0000e0 14 e6 13 bf 6a 0a bb be a2 bf e7 bd 82 88 04 bf
       -0.57772946 -0.36531383 -0.11315848 -0.51770794
0000f0 cd f2 b1 be c0 90 5f bf 2a 67 e4 be 6c a3 aa be
       -0.34755555 -0.87330246 -0.44609958 -0.33327806
000100 27 33 9d be 66 32 bc be 11 be 2c bf 9f 10 f2 be
       -0.3070309 -0.367572 -0.6747752 -0.47278306
000110 65 22 0e be 8b b4 89 bf c8 75 32 bf f8 df e5 be
       -0.13880308 -1.0758222 -0.6971097 -0.44897437
000120 15 a6 60 bf a4 ce 17 bf de 4b 31 bf d2 aa a4 be
       -0.8775342 -0.59299684 -0.6925639 -0.32161576
000130 db 8a 12 be 68 d9 a2 be 24 e7 93 be d0 25 42 bf
       -0.14310782 -0.31806493 -0.28887284 -0.7583895
000140 36 cb 5a bf b9 ad 4b be d2 b4 00 bf a2 f3 be be
       -0.85466325 -0.19890489 -0.5027591 -0.37295252
000150 3b 74 90 bf 1e 19 a0 be 13 ba db 3d 3b 8a 38 be
       -1.1285471 -0.31269163 0.1072885 -0.1802148
000160 ba 98 34 bf b0 e6 18 bf 0e a2 3c bf 2d 3c 7b be
       -0.7054554 -0.59727 -0.73684776 -0.24534674
000170 06 38 0e bf 1f 0c 34 bf 4c c3 3c bf 5e 5c c9 be
       -0.55554235 -0.70330995 -0.737355 -0.39328283
000180 e7 2d 49 be e4 6d 1a bf 63 2f 27 bf 71 46 9d 3f
       -0.19646417 -0.6032393 -0.6530668 1.2287122
000190 47 49 15 bf 5f 4f 23 bf 84 00 1f bf 3d 61 ea be
       -0.5831494 -0.63792986 -0.6211016 -0.45777312
0001a0 15 21 11 bf c2 38 7c bf 9d 3e dd 3e 20 19 1e bf
       -0.56691104 -0.98524106 0.43211833 -0.6175709
0001b0 63 f3 83 3f e1 55 db bd 4d 4b 23 bf 79 9c 02 3f
       1.0308651 -0.107097395 -0.63786775 0.5102001
0001c0 f0 dd 20 bf f2 49 22 bf 35 3c 56 be b1 04 26 3e
       -0.6283865 -0.6339408 -0.20921405 0.16212727
0001d0 71 fb 3f be 3b 25 a4 bf f2 8d 05 bf 41 04 b5 3e
       -0.18748261 -1.2823862 -0.52169716 0.35354808
0001e0 31 76 dc be 7f ff a7 be 34 51 40 bf 60 07 0c be
       -0.43058923 -0.32812116 -0.75123906 -0.13674688
0001f0 68 46 e2 be a4 75 21 bf 9b ef 89 3e 96 c8 3f be
       -0.4419434 -0.6307013 0.26940617 -0.18728861
000200 9b 30 fa be 40 f7 15 3e d7 52 db be 14 d9 08 bf
       -0.48865208 0.146451 -0.4283664 -0.53456235
000210 25 37 06 bf d5 2b db bd 79 0f e3 3e 80 ca 12 bf
       -0.52427894 -0.1070172 0.44347742 -0.5734024
000220 86 01 4e bd 0a 4f e5 be e0 7e 0b bd 6a 7c 86 be
       -0.05029442 -0.44786865 -0.034056544 -0.26266795
000230 d2 62 8f be bc 6a d6 be 30 b5 be bd 66 86 41 bf
       -0.2800508 -0.41878307 -0.093119025 -0.755957
000240 11 f7 e2 be 31 1b 10 bf 95 3d ca 3f e4 78 c2 be
       -0.44329122 -0.5629149 1.5800043 -0.37982857
000250 50 08 0f 3f e4 7c 4b be 18 c4 c1 bd 2a de fe be
       0.5587206 -0.1987186 -0.0946123 -0.49778873
000260 a0 81 21 bf 48 57 52 bf 3b df 5e bf b8 78 ea be
       -0.6308842 -0.8216443 -0.8705937 -0.45795226
000270 3d 2c 31 bf 70 12 de be 94 46 56 be 29 ea c8 be
       -0.6920813 -0.43373442 -0.20925361 -0.3924115
000280 12 95 d2 be fb 75 c6 be d9 18 01 bf 0a 43 af be
       -0.41129357 -0.38761887 -0.5042854 -0.34230834
000290 07 91 f4 be e9 e2 40 be 06 b2 18 3f 45 19 5a bf
       -0.47766897 -0.1883656 0.5964664 -0.8519481
0002a0 09 1f d8 bd 28 0d f9 be ed c7 f4 be da 29 18 3e
       -0.105527945 -0.4864285 -0.4780878 0.14859715
0002b0 9a 67 a7 be 13 48 ec be 4a cc 20 be 21 c1 be be
       -0.3269623 -0.46148738 -0.1570293 -0.3725672
0002c0 60 72 ea bd c0 59 37 bf c5 42 46 bf f9 f0 c0 3c
       -0.114475965 -0.7162132 -0.7744563 0.023552405
0002d0 cc 4b c7 be c9 e0 5b bd ee 5c 89 bf 94 32 62 bf
       -0.38925016 -0.05368117 -1.0731485 -0.88358426
0002e0 32 d0 64 bd ec a9 d3 bc c0 c7 62 bf 4d 70 f7 be
       -0.055862613 -0.025837861 -0.88586044 -0.48327866
0002f0 23 a4 42 be e8 a5 34 bf 04 79 1d bf 0e fe a6 be
       -0.19007926 -0.7056565 -0.6151278 -0.32615703
000300 29 ed 8a be 1e 36 b6 be 75 71 9b be 40 97 8b be
       -0.27134064 -0.35588163 -0.30359998 -0.27263832
000310 a2 86 17 bf e1 04 a1 be 2e e4 0a bf c4 4a 79 bf
       -0.5918981 -0.31449035 -0.54254425 -0.9737971
000320 26 b5 45 be 36 60 cd 3f 2d 3c a9 be 21 c9 81 3e
       -0.19307384 1.6044986 -0.33053723 0.25348762
000330 e2 39 49 bd 26 54 c4 3f 6f 70 35 bf 85 f1 9a be
       -0.049127467 1.533818 -0.70874685 -0.3026239
000340 ee ae 39 bf de e0 37 bf 84 40 d7 be 81 fe bf be
       -0.72532547 -0.71827495 -0.4204141 -0.3749886
000350 e9 f6 21 bf 05 db a5 bd 2e 83 a2 be 1d 40 13 bf
       -0.6326738 -0.08098415 -0.31740707 -0.57519704
000360 25 ad 20 bd 16 c4 1b bf 54 fc 83 be d1 8e 0d 3f
       -0.039227623 -0.6084608 -0.2577845 0.55296046
000370 48 30 8a be 3a b0 61 be e1 dd a2 be 50 25 b2 be
       -0.2698996 -0.22039881 -0.31809905 -0.34794092
000380 3e 5a 4f bf ba 07 ba bd f0 56 13 3f 0f 0f 1a bf
       -0.80997074 -0.09083505 0.5755453 -0.6017923
000390 2d f8 db be 94 b6 b3 be 30 46 f2 be c9 13 d7 be
       -0.4296278 -0.35100234 -0.47319174 -0.42007282
0003a0 a5 c3 1b bf 49 4c 15 bf 53 e0 47 be 25 70 41 3b
       -0.60845405 -0.58319527 -0.19519167 0.0029516306
0003b0 da eb 02 bf 1a b3 0d bf 5a 27 27 3e 20 2d 89 bd
       -0.5114113 -0.5535141 0.16323605 -0.0669806
0003c0 63 0d 88 be 12 af 53 be ed 97 fb be e0 d7 1c 3f
       -0.26572713 -0.20672253 -0.49139348 0.612669
0003d0 5e 56 1d bf 6c aa b5 3e 67 ab 92 be 42 a6 30 be
       -0.6145991 0.35481584 -0.28646395 -0.17250922
0003e0 f4 f8 22 be e2 6b de be 99 2d 50 3f 83 4d 6c bf
       -0.1591528 -0.43441683 0.81319577 -0.92305773
0003f0 ce dc 65 bf 06 68 08 bf 2d 0e da be b1 27 e9 be
       -0.89790046 -0.5328373 -0.4258894 -0.45538095

weight f4 [256, 256]
000000 24 4a ce bd 69 a0 8e be 9a 7d b5 3e f0 7f 60 3e
       -0.10072735 -0.27856758 0.3544739 0.21923804
000010 92 b2 fc bd 83 5a c0 3d 12 da 40 be ec 45 3d be
       -0.12338747 0.09392264 -0.18833187 -0.18483704
000020 e9 eb 2e bf 68 94 d3 3d 48 1a b1 bc 86 de 33 3e
       -0.6832872 0.103310406 -0.021618977 0.17565355
000030 19 b8 78 3e 21 90 eb 3d f0 bb bd 3e de 55 eb 3d
       0.24288978 0.115021 0.37057447 0.11490987
000040 8a 70 3d 3c 68 b8 e1 bc a7 83 ca 3e 53 88 06 3e
       0.011562476 -0.027553752 0.39553568 0.13137941
000050 62 34 8f bd d5 00 78 bd 7c b7 73 3e 6d 16 62 3e
       -0.06992413 -0.06054767 0.23800462 0.22078867
000060 8d 23 a1 3d 07 72 82 be 5e bd 9c bd a1 09 68 be
       0.07868109 -0.2547762 -0.076533064 -0.22659923
000070 f5 6d 93 3d db 22 7e 3d ef a7 bb 3e 46 4a 02 3f
       0.07198707 0.06204496 0.3665156 0.5089458
000080 8f 32 e8 be 91 64 1a 3e 4e 07 60 be d3 98 97 bf
       -0.45351073 0.15077426 -0.21877787 -1.1843513
000090 ce e4 70 bf f5 f6 4b be ba 9c 61 be 1d 3e 45 bf
       -0.9409913 -0.19918425 -0.22032443 -0.770479
0000a0 4c 66 e7 bd c8 b4 c3 3e dc 69 bd bd 3c 25 dd 3e
       -0.112988085 0.38223863 -0.09248707 0.4319247
0000b0 f0 36 72 be 18 e3 a9 3e a6 3c de 3d 7f 81 fb be
       -0.2365377 0.3318107 0.108514115 -0.49122235
0000c0 cb ae ec bd 34 53 cc 3d 20 f9 b7 3e b2 18 8c be
       -0.115567766 0.09976807 0.35932255 -0.2736259
0000d0 9d 95 6e 3e 19 98 c6 3e 56 91 a7 be 6d 1d 4f 3e
       0.2329926 0.38787916 -0.3272807 0.20226069
0000e0 e8 79 92 be 25 19 d0 3e c1 ae 5d 3e fb 69 03 3f
       -0.28608632 0.40644184 0.21648695 0.5133359
0000f0 a6 37 37 3e 5a 15 b5 bd 62 e0 2e be 4c ac 70 be
       0.17892322 -0.08841963 -0.17077783 -0.23503226
000100 f8 25 4f 3e 47 69 3e 3e 6b 4d d1 bc f6 fa c5 be
       0.20229328 0.18594848 -0.025549611 -0.3866803
000110 e6 da d6 3d 89 ba 88 be 4e a6 75 3e 36 a0 55 be
       0.1049097 -0.26704815 0.23989221 -0.20861897
000120 cd 97 a2 3e 72 65 df 3e 7e 0e 56 3e 44 70 8d 3d
       0.3175644 0.43632084 0.20903966 0.069061786
000130 e6 99 eb bd bb 4b 17 3e 7a 67 3e bd 77 fa 71 3e
       -0.11503963 0.14774983 -0.0464854 0.23630701
000140 44 83 8c 3e af 42 50 3d 48 4f 66 3e 79 4e 07 3e
       0.27443898 0.050844844 0.22491181 0.13213529
000150 30 ab 3d be 05 9f 99 be 60 80 cf 3e 22 f6 79 bc
       -0.18522334 -0.30004135 0.4052763 -0.015256437
000160 f1 a8 2b 3e 94 bb 0e bf 1f 2a 8a bd fb bf ae 3e
       0.16763665 -0.5575497 -0.06746315 0.34130844
000170 09 79 a4 be 03 a7 7e bd 40 c7 1a be f6 6a 2b 3e
       -0.32123592 -0.062170994 -0.1511507 0.16740021
000180 22 de 59 bd eb 48 82 bd 2d 48 c3 bd 28 d1 dd 3c
       -0.053190358 -0.06361564 -0.09535251 0.027077273
000190 35 74 e2 3e 88 01 4e be fa 2a 99 bf 43 4e 10 3f
       0.44229284 -0.20117772 -1.196624 0.5636942
0001a0 ca 5d e3 bd 54 08 69 be 93 19 75 3d 42 07 94 bd
       -0.11101873 -0.22757083 0.059838843 -0.07227947
0001b0 2c d4 1f 3e f4 39 27 bf da 1c 1a 3e 44 4e 57 bd
       0.15608281 -0.65322804 0.15050068 -0.052564874
0001c0 65 fe 69 3e 38 1d d9 3d 3d 95 b0 bc 98 ff 05 3e
       0.2285095 0.10601276 -0.021555537 0.13085783
0001d0 3f 1e b6 3b 9d 67 c3 3b 90 cc 78 be b4 91 27 bc
       0.005557805 0.0059632794 -0.24296784 -0.010227609
0001e0 b2 cd b2 3e d8 48 4a be 75 94 6f be 95 f6 ac 3d
       0.34922558 -0.1975435 -0.23396476 0.08445469
0001f0 8f d0 97 be d2 28 1a 3c 37 02 9a be 6f 4e 52 3e
       -0.29651305 0.009409146 -0.30079815 0.20537733
000200 78 8d 00 3f 64 dc a2 bc 11 97 53 3e 11 80 9a be
       0.50215864 -0.019880481 0.20663096 -0.30175832
000210 05 2b 49 3d 60 5e 95 3e 0a 43 3b be 42 db 4b 3d
       0.049113292 0.29173565 -0.18287292 0.049769647
000220 2d ac 25 3e d9 12 42 bd 7d 36 22 3e ca a5 1d bf
       0.16178961 -0.047381256 0.15841098 -0.615811
000230 dd 40 33 3e 05 89 a8 3e 25 d5 3c 3e 0c 88 2b bf
       0.17505212 0.32917038 0.18440683 -0.67004466
000240 4d 09 08 3f 0e 19 39 be df 0f a3 3d 4e ee ca bb
       0.5313919 -0.18075964 0.079620115 -0.006192959
000250 67 a6 96 3d 73 64 ec 3e e6 00 97 3e 03 55 20 bd
       0.073559575 0.46170387 0.29492873 -0.039143573
000260 d2 01 3e 3e d1 76 35 be a0 4e 5d be 69 c4 d9 3d
       0.18555382 -0.17721106 -0.21612024 0.106331654
000270 c0 d1 14 3e 92 53 5f bc 56 1f 62 bf 37 d9 98 be
       0.14533138 -0.013630765 -0.88329065 -0.29853222
000280 dc 41 9c 3d 16 c0 27 3e b1 38 29 be 80 05 b7 3e
       0.07629749 0.16381869 -0.16525532 0.35746384
000290 ae da 3b 3e 98 41 ae bd b9 ea 38 3e c0 c4 ba be
       0.18345138 -0.08508605 0.1805829 -0.36478233
0002a0 52 c9 d5 3d 72 a6 29 3e fb f7 cf 3d 64 91 1c be
       0.104387894 0.165674 0.101547204 -0.15289837
0002b0 fa af 2b 3e 44 e7 24 bf 17 e3 36 3e eb 2a 86 3e
       0.16766348 -0.64415383 0.17860065 0.2620462
0002c0 0a f1 0c 3f 3f 3e 8d be 37 d8 b2 3c 35 55 02 bc
       0.55055296 -0.27586553 0.021831615 -0.007954885
0002d0 44 7e a0 3e 65 30 a5 3e 79 cd 26 be ad ef 73 3e
       0.31346333 0.32263485 -0.16289319 0.23821898
0002e0 52 a1 2b bd b6 9f b3 be 20 dd 1f be 3a 20 e3 3d
       -0.041901894 -0.35082787 -0.15611696 0.11090131
0002f0 a7 e6 5a 3e 6d de 6a be 07 83 af 3e f4 bd 17 3d
       0.2137705 -0.22936411 0.34279653 0.037046388
000300 10 95 d2 be 07 78 a4 be ae c7 09 3e ad be de be
       -0.4112935 -0.32122824 0.13455078 -0.4350485
000310 34 88 bd 3e 14 41 b7 3e 52 a7 7e 3e 39 e9 a3 3e
       0.37017977 0.35791838 0.24868515 0.32013872
000320 5a ee 97 3e de dc ad 3e 6e e2 98 3e 70 5c 73 3e
       0.29674035 0.3395757 0.29860252 0.23765731
000330 43 e5 b6 3e 58 ad 6d 3e ba 05 2b 3f 7e 7c ec be
       0.35721788 0.23210657 0.66805613 -0.4618873
000340 d0 64 81 3e f3 85 1b be 52 28 4a bd 61 74 87 be
       0.25272226 -0.15187816 -0.04935486 -0.26455978
000350 11 85 cf bd 89 a4 cc 3e f4 27 65 be 1b ac 1b be
       -0.10132802 0.3996928 -0.22378522 -0.15202372
000360 c4 53 e2 be e8 27 8a be 56 71 47 be 30 8d 84 3d
       -0.44204533 -0.2698357 -0.19476828 0.06472242
000370 ee 7a 31 3e 05 95 3e be 25 39 94 bc 08 fc 18 3d
       0.1733205 -0.18611534 -0.018093655 0.03734973
000380 b3 8e 2c 3e 93 38 b7 3d 41 82 3c 3d 4d 02 cf bb
       0.1685131 0.089463376 0.046022657 -0.006317413
000390 5a ea 1b 3e 03 ca 3b be 0b 05 5a 3d 9e ff 1b 3d
       0.15226117 -0.1833878 0.053227466 0.038085572
0003a0 47 42 7e 3e 7d d4 92 bf a1 07 0f be 7e f1 22 be
       0.2482997 -1.1471096 -0.13967754 -0.15912434
0003b0 0d 66 a1 3d 38 8a 81 be d2 7e 2e be ec 7a 8f 3d
       0.07880793 -0.25300765 -0.17040566 0.07005867
0003c0 60 4d 92 bd 1e 6f f0 bc 14 32 9a 3e 52 4c 0f 3d
       -0.07143664 -0.02934986 0.30116332 0.034984894
0003d0 b3 94 e3 be 66 fd a0 3d cb d6 7f 3e b2 8f 98 be
       -0.44449386 0.07860832 0.24984281 -0.2979713
0003e0 48 0d 06 bd 4c 18 18 bf cb d1 67 bd 58 21 fa 3d
       -0.03272751 -0.59412074 -0.05659656 0.12213391
0003f0 0c 95 ac 3e eb 5d 5e 3d 8d 43 f4 be 5a 23 0f be
       0.33707464 0.054288786 -0.47707787 -0.1397833

bias f4 [256]
000000 0c d3 86 be c8 62 5c bd 2b c1 73 3f 15 b9 0c bf
       -0.2633289 -0.053805143 0.95216626 -0.5496991
000010 a3 b6 05 bf 97 e6 0a bf 63 cd c5 be dd cc a8 be
       -0.52231807 -0.542581 -0.3863326 -0.32968798
000020 f7 14 48 3f 5e e4 02 3f 03 2c 3a 3f 08 87 97 be
       0.7815699 0.5112971 0.72723407 -0.29595208
000030 c5 9a 38 be ae 9a 6a 3f b3 51 7e 3f a6 f3 31 3f
       -0.1802779 0.9164227 0.99343413 0.69512403
000040 78 19 12 3f f8 b1 57 3f b2 67 d6 be 2f 0c ac be
       0.5707011 0.84255934 -0.41875988 -0.33603045
000050 bc 49 17 3f e2 e3 76 3f 10 c0 34 3e 58 f5 73 be
       0.59096885 0.9644147 0.17651391 -0.2382406
000060 5a fa 00 bf e5 5c 06 3f 54 1c 63 be 10 aa bb be
       -0.50382006 0.52485496 -0.22178775 -0.36653185
000070 46 db 31 3f c1 5e 21 be 45 51 02 bf 4b 92 ec 3e
       0.6947521 -0.15758802 -0.5090526 0.46205363
000080 2a 5f de 3e 9d a9 bf be ea b9 ee 3e 38 d2 83 3f
       0.4343198 -0.37434092 0.46626216 1.0298529
000090 22 4b 00 bf 23 25 5e 3f c3 4c 69 3f 78 c2 e2 be
       -0.50114644 0.86775416 0.91132754 -0.44288993
0000a0 0a 64 07 bf d2 22 41 3f 99 d9 a1 be 92 e1 18 3f
       -0.5288702 0.75443757 -0.31611326 0.59719193
0000b0 16 4b df be da 52 57 3e 4b 49 42 3f 48 03 41 3f
       -0.43611974 0.21027699 0.75893086 0.7539563
0000c0 37 e9 62 3f 5e fa 2c be 66 a1 a8 be e2 26 43 3f
       0.8863711 -0.16892383 -0.32935637 0.76231205
0000d0 96 21 52 3f 58 1b f6 be 76 0c e2 3e c0 03 da 3e
       0.820825 -0.48067737 0.44150132 0.42580986
0000e0 81 92 0c 3f eb 59 66 3f 08 2b a6 3d 2b 9d 6e 3f
       0.5491105 0.89980954 0.08113676 0.9320857
0000f0 2c 6c b2 3e 00 67 03 3f 54 32 df be e5 82 16 3f
       0.34848154 0.5132904 -0.43593085 0.5879348
000100 ca 88 db be 88 c3 ca 3e 8e 96 ab be cb b6 6a 3f
       -0.428778 0.39602304 -0.33513302 0.9168517
000110 d2 ea bf be 3a 65 5a 3f bf 19 93 be af 5c 64 3e
       -0.3748384 0.8531071 -0.2873058 0.22300981
000120 db ee ad be 6b 56 36 3f ed 55 07 3f 92 02 c0 be
       -0.33971295 0.71225613 0.5286549 -0.3750196
000130 ad bc f9 be f8 e4 46 3f 2e 76 15 3f d8 78 af be
       -0.4877676 0.7769313 0.5838345 -0.34271884
000140 39 52 18 3f 04 d5 85 3e 7a cd 74 3f 1e 6c 0a 3f
       0.5950046 0.2613908 0.9562603 0.54071224
000150 65 95 0e 3f 94 1e b2 be 8f 3b 25 3f 7e fb fb be
       0.5569671 -0.34788954 0.64544004 -0.4921531
000160 49 c2 e7 3e 2c c4 da be 86 ea ce be 9e 79 3d 3f
       0.45265415 -0.42727792 -0.40413302 0.740137
000170 07 fb 77 3f 2e 15 47 3f d2 47 07 3f c3 93 28 3f
       0.9686741 0.7776669 0.52843964 0.65850466
000180 96 e3 b4 be d3 57 aa be cd e5 2c 3f 77 fd f7 3d
       -0.35329884 -0.3327013 0.6753815 0.121088915
000190 97 d5 1f bd 56 76 aa be fd 64 14 3f 1f 2a 57 3f
       -0.039022055 -0.33293408 0.57966596 0.84048647
0001a0 94 9b 5d 3f 6b 0e 17 be b5 3b 67 3f e3 7c 05 3f
       0.8656552 -0.14751594 0.9032548 0.52143687
0001b0 eb 34 da be fc cf 73 3e 5b d9 0c 3f bf 34 a5 3d
       -0.42618498 0.23809808 0.5501916 0.08066701
0001c0 1a fe d0 bd e4 79 fc 3e ef 53 02 3f 03 a4 62 3f
       -0.10204716 0.49311745 0.5090932 0.8853151
0001d0 e3 65 fb 3e 53 c7 f7 3c a0 41 72 3f 67 c4 c2 be
       0.4910117 0.030246412 0.94631386 -0.38040468
0001e0 e3 8c 84 3f 82 ea c1 be a2 9e 86 be 8c 75 d9 3e
       1.0355495 -0.37874228 -0.26292902 0.42472494
0001f0 5b 51 c6 3e 37 86 86 be f1 81 18 be f1 e1 7d be
       0.38733944 -0.26274273 -0.14893319 -0.24793221
000200 cf 26 30 3f d0 79 01 bf 65 9d 73 3f 90 ba bc be
       0.6880922 -0.50576496 0.9516204 -0.36861086
000210 41 e9 9e be ab 7c 4f 3f 2f fe be be e2 40 19 3f
       -0.31037334 0.81049603 -0.37303302 0.5986463
000220 23 57 1f bf b3 fa 94 be 1f a0 10 3f 8d 15 bc be
       -0.62242335 -0.29097518 0.56494325 -0.36735192
000230 47 8f 76 bf f6 60 19 3f f6 40 bb be 44 4f be be
       -0.96312374 0.59913576 -0.36573 -0.3716985
000240 59 91 7e be 19 34 d6 be cc 3a 78 be 7c cb ee 3e
       -0.24860133 -0.41836622 -0.24241179 0.4663962
000250 c5 c5 1f 3f 07 a4 07 3f 5e 95 80 3f 99 40 78 3f
       0.6241115 0.5298466 1.0045583 0.9697357
000260 bf a6 15 3f b9 8f 57 be a4 fb ea bd 19 23 c0 3d
       0.5845756 -0.2105092 -0.11473778 0.09381694
000270 70 36 a2 be aa 49 f0 3e d0 dc 0d 3f 7b 57 4a 3f
       -0.31682158 0.469312 0.5541506 0.79039735
000280 41 2c 07 3f 4b 9c 90 be ce 81 80 3f 66 cc 60 3f
       0.528019 -0.28244242 1.0039613 0.8781189
000290 1a ef a6 3e a7 ff 44 3f b0 7b 86 be bc 00 9e be
       0.32604295 0.76952595 -0.2626624 -0.30859935
0002a0 46 65 b8 3e 7c b4 78 3f a6 4b 5f 3f e0 e3 fe 3e
       0.36014766 0.971504 0.87224805 0.4978323
0002b0 3c 76 d0 be 08 28 11 bf e9 11 c8 be f3 c3 98 bd
       -0.40715206 -0.5670171 -0.39076164 -0.07459249
0002c0 a9 cb cc 3e 7c b7 07 3f 79 86 17 3f f9 69 97 3e
       0.3999913 0.5301435 0.59189564 0.29573038
0002d0 fd 7a 8e 3f 1d 52 f0 be ce 48 30 3f 0e bc 3f be
       1.1131283 -0.46937647 0.6886109 -0.18724081
0002e0 81 31 15 3f 32 40 c3 3e 69 a4 70 be b0 f9 b6 bc
       0.5827866 0.38134915 -0.23500217 -0.022335857
0002f0 f6 77 13 3f 01 98 6b 3f e0 7d 26 3f 64 45 77 3f
       0.5760492 0.92028815 0.6503582 0.96590257
000300 3c 02 4c 3f 76 98 9d be d4 f2 0e 3f af f6 8a be
       0.7969091 -0.3078038 0.55839276 -0.2714133
000310 c9 90 02 3f 02 61 0d 3f e3 6f 40 3f a3 36 93 be
       0.51002175 0.5522615 0.75170726 -0.28752622
000320 ee 3d c4 be ac 5b ff be d5 8a 18 3f 3d 8d 04 3f
       -0.383285 -0.49874628 0.5958684 0.5177801
000330 7b 4d e8 3e cb ec 23 3e 9a f9 2c 3d fb 41 39 3f
       0.45371613 0.16008298 0.042230226 0.72366303
000340 dc 6d f5 3e 9a ce 0a 3f ca cf 99 be a2 c5 36 3f
       0.4793538 0.542215 -0.30041343 0.71395314
000350 c8 f7 de be b0 aa 37 bf b0 6d a7 3e 0f 06 86 be
       -0.43548417 -0.71744823 0.32700872 -0.26176497
000360 a1 d8 3f 3f 87 01 bd 3d 50 57 78 3f dd 8d 52 3f
       0.74939924 0.09228807 0.9700823 0.82247716
000370 07 b8 24 be 48 80 34 be 2f 89 0c bf ce 04 6f 3f
       -0.16085826 -0.1762706 -0.54896826 0.93366706
000380 9c 9e dd 3e d4 2d 46 3e a9 96 5b bf c5 7c dd be
       0.43285072 0.1935342 -0.85776764 -0.43259254
000390 f4 95 75 3f a5 4b 66 3f 69 ff db be 7a d4 68 3f
       0.95931935 0.89959174 -0.429683 0.90949214
0003a0 b3 38 11 bf 02 46 51 3f bc 4c 62 be 01 da 0f 3f
       -0.5672714 0.8174745 -0.22099584 0.5619202
0003b0 dc 55 83 be 4a d3 d6 be 12 1a a6 be b8 8d 73 3f
       -0.25651443 -0.41958076 -0.32441765 0.9513812
0003c0 46 af 00 3f 2d 1c 2e 3e 7a 70 15 3f 9d 27 c9 be
       0.50267446 0.17002936 0.5837475 -0.39288035
0003d0 99 8a 81 3f e2 c4 14 3f 40 62 21 3f d6 90 5d be
       1.0120422 0.5811292 0.6304054 -0.21637282
0003e0 08 60 0e 3f 6a d8 67 3e 35 1f 8e be 59 50 e4 be
       0.5561528 0.22641149 -0.27758184 -0.4459255
0003f0 3a d2 75 be f8 97 4b 3f 69 e7 f2 3e 3f 9b 75 bd
       -0.24005976 0.7952876 0.47442177 -0.059962507

weight f4 [1, 256]
000000 ed d7 8b bf 74 62 c1 bf 24 77 e0 3e 8c 6e c0 be
       -1.092527 -1.510817 0.43840897 -0.3758434
000010 ba 27 99 bf a0 16 a2 bf 00 82 e9 bf a9 fd 28 bf
       -1.1965249 -1.2663155 -1.8242798 -0.66012055
000020 b2 36 c9 3e 74 86 4f 3d 6c 58 4e 3f 10 1a 8e bf
       0.39299542 0.050665334 0.8060367 -1.1101704
000030 a3 74 7d bf ae 7f 9c 3e 61 7a 05 3f 79 52 80 3e
       -0.990061 0.30566162 0.5213986 0.25062922
000040 fe 6d 18 3f da d9 05 3f 11 94 87 bf bc ce a5 bf
       0.59542835 0.5228554 -1.0592061 -1.2953715
000050 1d 08 4b 3f 5e 59 08 3f ea fc 02 40 c4 cf 6b bf
       0.79309255 0.53261364 2.0466866 -0.921139
000060 9f 3c 07 bf 88 e2 71 3d d4 99 90 bf 73 81 19 bf
       -0.52826875 0.059053928 -1.1296945 -0.5996315
000070 a1 cb fd 3e 9a 9b 26 c0 de 21 88 bf 8f 42 8e 3d
       0.4956942 -2.6032472 -1.0635335 0.06946289
000080 4f 7e 04 3f e0 84 50 bf 79 db e3 3e d2 87 a9 3e
       0.5175523 -0.8145275 0.44503382 0.33111435
000090 18 e1 39 be 92 8e cf 3e f8 03 01 3f ef 0a f4 bf
       -0.18152273 0.4053846 0.5039668 -1.9065837
0000a0 9f 71 86 bf 30 a7 0a 3f 36 f2 b6 bf e9 54 1b 3f
       -1.0503424 0.5416136 -1.4292667 0.6067644
0000b0 bd 6d a5 bf e5 19 7b c0 57 a8 84 3e 16 b2 cb 3e
       -1.2924114 -3.9234555 0.25909683 0.39784306
0000c0 63 1e 07 3f 7f b2 8e bf ea 25 19 c0 7a d2 7b 3e
       0.5278074 -1.1148223 -2.392939 0.24592009
0000d0 ea 00 d4 3e 91 3b 23 bf 34 f2 1b 3e 6d 20 44 3f
       0.41406947 -0.63762766 0.15229112 0.7661198
0000e0 45 0a 57 3f 6f d7 8d 3e ff 61 44 3f 38 60 d7 3e
       0.84000045 0.27703425 0.7671203 0.42065597
0000f0 74 80 fc 3e 75 e9 df 3d 2a 84 76 bf 79 8e 42 3f
       0.49316752 0.109332 -0.96295416 0.75998646
000100 ed d8 ea be cf 93 d6 3e 18 8e 4f bf 68 5d 8f 3e
       -0.45868626 0.41909644 -0.8107619 0.2800095
000110 4e 0f e4 bf 53 a3 a4 3e 83 80 c9 bf 4b bd 2a 3f
       -1.7817171 0.32155856 -1.5742344 0.6669509
000120 4c 0e c7 be c7 1d fb 3e e8 bb 79 3f 0d 6f 4a bf
       -0.38878095 0.49046156 0.9755235 -0.790757
000130 28 3d 48 bf a1 39 09 3e 7e 31 94 3d 60 d3 50 bf
       -0.7821832 0.1340089 0.072360024 -0.8157253
000140 f9 86 22 3f 1a 1d 69 3f d5 75 02 3f d3 78 56 3f
       0.634872 0.9106003 0.5096105 0.83778113
000150 43 f1 c2 3e 30 1d 81 bf 57 bf 66 3e d9 8a 07 be
       0.38074693 -1.0087032 0.22533928 -0.1323656
000160 00 51 48 3d fd 2f aa bf 4d d6 37 be 14 e1 89 3e
       0.048905373 -1.3295895 -0.17952843 0.26929533
000170 71 48 fd 3e 17 29 20 3f 36 41 02 3f f6 09 36 3f
       0.4946933 0.625627 0.50880754 0.7110895
000180 54 56 c4 bf 9f 16 ff be b8 44 45 3f 29 da ef 3f
       -1.5338845 -0.49821946 0.7705798 1.8738452
000190 d7 1b 9d bf 08 6f d9 bf 20 6d cc 3d 41 6c e0 3e
       -1.2274121 -1.6987009 0.099817514 0.4383259
0001a0 e7 b1 ed 3e e1 7d 9e bf d7 f4 cb 3e 2e bc 14 3f
       0.4642479 -1.2382165 0.39835235 0.5809964
0001b0 dc 52 00 bf 31 b8 bd bf 61 86 e0 3d 7f a6 e1 bf
       -0.50126433 -1.4821836 0.10963131 -1.7628936
0001c0 37 96 36 c0 dc 14 cc 3d cb e4 3a 3d 4a e8 11 3f
       -2.8529184 0.09964916 0.04562835 0.5699507
0001d0 c1 e6 64 3d 3e 3b 3f c0 51 05 cc 3e 4b 36 f6 be
       0.055884127 -2.9879909 0.39847806 -0.48088297
0001e0 dd fe e1 3e 4e e6 50 bf 18 ca eb bf 6c 81 42 3e
       0.44139758 -0.8160142 -1.8421049 0.18994683
0001f0 cb c9 a6 3f 4f e5 f8 bf 0a 6e c1 bf 99 76 c4 bf
       1.3030332 -1.944498 -1.5111706 -1.5348693
000200 52 b8 ec 3d 49 d7 b1 be 93 8e c2 3e b1 d0 97 bf
       0.11558594 -0.34734562 0.379994 -1.1860563
000210 5c fe d0 be 65 fe 05 3f 59 73 2b bf e7 5c a6 3d
       -0.4081906 0.523413 -0.6697288 0.081231885
000220 91 a9 9f be 96 3e da bf d1 37 ac 3d f4 eb 0d bf
       -0.31184056 -1.705035 0.08409084 -0.5543816
000230 0a f4 8e bf fa a3 49 3f 2e ba bd bf 79 42 e3 be
       -1.1168225 0.78765833 -1.4822443 -0.44386652
000240 02 bd e6 bf 2e 90 ee bf a6 c2 36 c0 d0 08 e2 3d
       -1.8026431 -1.863775 -2.8556304 0.11036837
000250 6d c9 cb 3e 56 ed 6a 3d f8 df e0 3e 7c 4b b1 3e
       0.39802113 0.057355247 0.43920875 0.34627903
000260 d4 f2 2c 3f 6e 09 bf bf fc 10 27 c0 a3 4c 53 3f
       0.67558026 -1.4924753 -2.6104116 0.82538813
000270 6e cf 75 bf 41 28 0b 3e e6 b6 59 3f db fe b0 3f
       -0.9601964 0.13589574 0.85044706 1.3827776
000280 57 f7 13 3f bc 8b e8 bf 8a ca a5 3e 23 9b 80 3e
       0.57799286 -1.8167644 0.32381088 0.2511836
000290 a4 e2 e2 3e 72 6d d3 3e 97 f3 2f bf 05 ac 7d bf
       0.44313538 0.41294438 -0.68731064 -0.99090606
0002a0 58 4b 39 3f 3c d2 02 3f 4e 41 94 3e 7d 1a 67 3d
       0.7238059 0.5110204 0.28956074 0.056421746
0002b0 37 7f 19 bf 66 72 be bf 64 cb b5 be af 51 cd bf
       -0.5995974 -1.4878662 -0.35506737 -1.6040553
0002c0 f0 13 31 3e 02 3b 9f 3d f0 9a a0 3d 4c e9 31 3f
       0.17292762 0.07774927 0.07842052 0.6949661
0002d0 f7 ae 1c 3f a8 2c 90 bf 39 fe d0 3e 2e cc 6c bf
       0.61204475 -1.1263628 0.40818956 -0.92499053
0002e0 f7 e1 1d 3f 72 db f9 3e c7 3e 53 bf 6b 8b a8 bf
       0.6167292 0.48800236 -0.82517666 -1.3167547
0002f0 21 3f 72 3d 46 64 20 3f 47 4b 28 3f 62 fb 5e 3e
       0.059142236 0.62653005 0.65739864 0.21775582
000300 f7 31 46 3f 52 6d 89 bf 72 b3 13 3f c0 2e 04 c0
       0.7741999 -1.0736487 0.57695687 -2.0653534
000310 eb 11 c7 3d ba a3 7b 3f 00 fc 93 3e a3 20 f7 bf
       0.097202145 0.982967 0.28903198 -1.9306835
000320 b0 5b d0 bf f7 5d 03 c0 bb 9c d4 3d 6f e8 a9 bf
       -1.6277981 -2.0526102 0.103814565 -1.3274058
000330 6f 17 a5 3e e4 50 f0 3f f5 e4 26 c0 c1 ec f6 3e
       0.3224444 1.8774686 -2.6077244 0.48227504
000340 7d be 0d 3f d1 8f 4b 3f be 20 b9 bf 9a 48 b8 3e
       0.5536879 0.7951632 -1.4463117 0.3599289
000350 60 d0 bf bf ef 99 d3 be 76 cf 30 3e c1 7c 29 bf
       -1.4985466 -0.4132838 0.1726664 -0.66205984
000360 da d0 98 3e 8b 25 02 40 a1 eb 03 3f a2 ff 06 3f
       0.2984684 2.0335414 0.51531416 0.52733815
000370 ee 17 d4 bf 0f cd b6 bf 61 a6 c7 bf f0 5a df 3e
       -1.6569803 -1.4281329 -1.559765 0.43624067
000380 f0 68 26 3f 8b bb c5 3e bd da 1c 40 b2 04 7f bf
       0.6500387 0.38619646 2.4508507 -0.9961654
000390 88 ef 10 3f f2 62 5c 3e dc 4d 8c bf a2 59 8a 3e
       0.56615496 0.2152212 -1.0961261 0.2702151
0003a0 48 e0 a4 bf ce 0b e4 3e 6c 3f 2e c0 6e 35 86 3d
       -1.2880945 0.44540256 -2.722621 0.0655316
0003b0 b0 e8 00 c0 2c ae ed bf b7 77 fd bf 31 d8 04 3f
       -2.014202 -1.8568778 -1.9802159 0.5189238
0003c0 80 16 98 3f e5 ff 34 3f d0 e8 c0 3d c4 fa 4c bf
       1.1881866 0.70702964 0.094194055 -0.8007014
0003d0 99 20 8a 3e 09 d6 ae 3f 7a b7 64 3f 75 79 27 c0
       0.26977995 1.3659068 0.89342463 -2.6167881
0003e0 44 4f 80 3d 8a 36 c1 3e 15 69 73 bf 22 54 9c be
       0.06265119 0.37736923 -0.9508222 -0.30532938
0003f0 fd a7 ab be c2 d2 cb 3e b1 9f 96 3e e2 12 20 c0
       -0.33526602 0.39809233 0.2941871 -2.5011525

obs_std f4 [39]
000000 4f 08 60 3e fd 54 80 3e 62 d3 bb 3f cf 86 e4 3f
       0.2187817 0.2506484 1.4673884 1.785364
000010 2e e2 c7 3f bc 8d 8f 3e e6 f0 66 3e ed 96 8a 3e
       1.56159 0.28037822 0.22552833 0.27068272
000020 cc ad 8e 3e 16 70 89 3e bc 55 8b 3e ac a7 8f 3e
       0.27866971 0.26843327 0.27213848 0.2805761
000030 e5 2c 67 3e c6 13 89 3e a7 34 8d 3e d0 9f 8a 3e
       0.2257572 0.26772898 0.27579233 0.27075052
000040 09 c9 89 3e 77 c3 5b 40 b6 0a 52 40 79 bb a4 40
       0.2691119 3.4338052 3.2819037 5.147885
000050 3d 6b 97 40 05 f3 a9 40 9e f4 9b 40 06 03 5b 40
       4.7318406 5.3109155 4.8736105 3.4220595
000060 40 8a 50 40 65 5b a4 40 cd 84 97 40 76 4c aa 40
       3.258438 5.1361566 4.734961 5.3218336
000070 40 2d 9b 40 76 d0 24 3f 8e e2 43 3f d7 47 65 3e
       4.8492737 0.64380586 0.7651757 0.22390686
000080 85 55 89 3e 65 fe 88 3e 88 87 5d 3e 6a b1 84 3e
       0.2682306 0.26756588 0.21633732 0.25916606
000090 61 98 88 3e 1f db be 3e da 11 d5 3e
       0.26678756 0.3727655 0.41615182

obs_mean f4 [39]
000000 b7 79 da 3b 32 7a b6 3c 28 54 92 3c c2 1e 4c bc
       0.0066673416 0.022275064 0.017862394 -0.012458505
000010 54 9b 28 bd 96 e8 12 bf a6 4d 81 bd 12 d7 bb 3b
       -0.041163757 -0.5738615 -0.063136384 0.0057324255
000020 b6 7f 73 3f 78 44 1a 3c 1a 3c dd be 24 76 0f bf
       0.95116746 0.009415738 -0.43209916 -0.56039643
000030 dd 90 6b 3d 03 98 ad bb ca 37 71 3f 25 2d 89 bc
       0.0575112 -0.005297662 0.9422575 -0.01674516
000040 f6 33 d7 be c6 60 c5 bd 03 67 93 3d 95 47 65 3c
       -0.4203183 -0.09637599 0.07197382 0.013994117
000050 1a d9 79 3e fc 37 2a 3c 28 96 9e bc 14 da 68 bd
       0.24399224 0.010389324 -0.01935871 -0.0568486
000060 27 e5 a1 bd ba 0a 21 bd bb 9b 60 3e 46 1a fa bc
       -0.079050355 -0.03931687 0.21934406 -0.030530106
000070 b2 4d 9a 3c da 88 92 3b ec 75 c4 b9 b1 49 f3 3d
       0.018835876 0.0044718804 -0.00037471892 0.1187929
000080 af 9f 4c 3e 1b e4 01 bc 09 c8 84 bb 96 d1 26 bf
       0.1998279 -0.00792792 -0.0040521664 -0.6516355
000090 31 01 27 bf 13 b4 13 3c ad 6e 9e 3b
       -0.6523619 0.009015101 0.004834971
