trained/jvrc_step/critic_21199.pt (torch, 310590 bytes, 7 tensors)

weight f4 [256, 39]
0	0x3f6d2c8f	0.92646116
1	0xbe5e4aba	-0.21708193
2	0x3ea1d7ff	0.31610104
3	0xbde00036	-0.1093754
4	0x3d01dd40	0.03170514
5	0x3d967214	0.073459774
6	0x3e4c716e	0.19965145
7	0xbdfc3d1c	-0.12316343
8	0xbe28a542	-0.16469291
9	0x3d7fa247	0.06241062
10	0x3e39f0a5	0.18158205
11	0xbef22214	-0.47291625
12	0x3eaeff5f	0.34179208
13	0xbdfc7c88	-0.1232844
14	0xbdc6ae23	-0.09701183
15	0xbe53b1df	-0.20673321
16	0xbde5193d	-0.111864544
17	0xbe379f18	-0.17931783
18	0x3e9d4b3e	0.30721468
19	0xbdf86354	-0.1212832
20	0xbd94d854	-0.07267824
21	0xbd0eab34	-0.03483124
22	0xbcfbf39e	-0.030755814
23	0x3d649e6a	0.055815138
24	0x3b804040	0.003913909
25	0xbc424446	-0.011857098
26	0x3d95ce3f	0.07314729
27	0xba44907c	-0.00074983365
28	0xba12bc93	-0.0005597558
29	0x3cf00075	0.029297093
30	0x3e375489	0.17903341
31	0xbeabaaf7	-0.33528873
32	0x3e5dbb9f	0.21653603
33	0x3e4df4eb	0.2011296
34	0x3e36673d	0.1781282
35	0xbd2c31a7	-0.04203954
36	0x3f1941b1	0.5986586
37	0x3cef78b4	0.02923236
38	0x3e78a436	0.24281392
39	0xbf435a42	-0.763096
40	0xc02ce8a8	-2.7017002
41	0xbdbf1b7a	-0.093314126
42	0xbdae315c	-0.08505508
43	0x3de2f78d	0.11082373
44	0xbf45e73e	-0.7730597
45	0xbdf164ea	-0.11786826
46	0x3ec87b09	0.39156368
47	0xbe46e7a2	-0.19424298
48	0xbe3b29a5	-0.18277605
49	0x3b7afacc	0.003829646
50	0xbf8bbfaa	-1.0917866
51	0xbe4e5bf2	-0.20152262
52	0x3e6f06c9	0.23342432
53	0xbf1fa4d1	-0.62360865
54	0xbe2cd3db	-0.16877691
55	0xbd8fcb40	-0.07021189
56	0x3de91728	0.1138137
57	0xbdc9e9cb	-0.098590456
58	0x3df919b3	0.12163105
59	0xbdfbbad2	-0.122914925
60	0xbd14b320	-0.03630364
61	0x3cef6401	0.02922249
62	0xbe7d26ad	-0.24721785
63	0xbd8f38ef	-0.06993281
64	0x3e013a74	0.12619954
65	0xbda82515	-0.08210198
66	0xbcd6e0c2	-0.02623022
67	0xbda62252	-0.08112015
68	0xbef88e0f	-0.48545882
69	0xbdd7ac92	-0.10530962
70	0xbe6af4c4	-0.22944933
71	0x3e8124b0	0.25223303
72	0x3c1cf51a	0.009579921
73	0xbda4fdc0	-0.080562115
74	0xbe7c7a54	-0.2465604
75	0x3ee04ded	0.43809453
76	0xbe1befd1	-0.15228201
77	0xbdb4daef	-0.08830821
78	0xbe3847bc	-0.17996114
79	0x3d713151	0.058884922
80	0x3daeb467	0.08530503
81	0xbe0ffad0	-0.14060521
82	0x3e14ad87	0.1451932
83	0xbde3755d	-0.1110637
84	0x3d3678bf	0.044548746
85	0x3c47ee86	0.0122028645
86	0xbe28db8e	-0.16490003
87	0x3dff652d	0.124704696
88	0xbe0139e9	-0.12619747
89	0xbd1776f1	-0.036978666
90	0x3e257e7d	0.16161533
91	0x3d83eea1	0.06441999
92	0x3cd3d77e	0.02585959
93	0xbcb67313	-0.022271669
94	0xbd12fe27	-0.03588691
95	0xbe507c51	-0.20359923
96	0x3d6d9076	0.057999097
97	0xbca1b102	-0.019737724
98	0xbdb4937d	-0.08817194
99	0xbd049fa3	-0.032378804
100	0xbc0578b3	-0.008146453
101	0x3d8dcba4	0.06923607
102	0x3c7d0cf3	0.015444982
103	0x3ba8a071	0.005146079
104	0x3cec8d83	0.028876072
105	0xbcb4a560	-0.022051513
106	0xbc849011	-0.016181977
107	0x3d806de3	0.06270959
108	0x3e7f6426	0.24940547
109	0xbece45eb	-0.40287718
110	0x3f2b9c4a	0.67035353
111	0xbf88bb6c	-1.0682197
112	0x3f65adbe	0.89718235
113	0x3f5ba54c	0.857991
114	0xbf34cb92	-0.70623124
115	0xbd1b3eb1	-0.037901584
116	0xbde79eec	-0.11309609
117	0xbe371f89	-0.17883123
118	0xbe8e3afb	-0.27779374
119	0x3d6bac4e	0.05753737
120	0xbd9d7a5e	-0.07689355
121	0x3d2ac5b0	0.041692436
122	0x3bd89b62	0.00661032
123	0xbd88d65c	-0.06681511
124	0xbb3ca9a4	-0.0028787637
125	0xbeb71136	-0.35755318
126	0x3d8d3452	0.06894745
127	0x3d57fbb9	0.052730296
128	0xbc8304f2	-0.015993569
129	0xbd1bd4c9	-0.038044725
130	0xbe233075	-0.15936454
131	0x3e14c893	0.14529638
132	0xbc65e759	-0.014032208
133	0xbbce8c69	-0.0063033593
134	0xbe650b44	-0.22367579
135	0x3cfe06e6	0.031009149
136	0x3da0795c	0.078356475
137	0xbde28a5f	-0.110615484
138	0x3c3b96d2	0.011449533
139	0xbdc4d319	-0.09610576
140	0x3e21ea47	0.15812026
141	0x3cb16122	0.021652762
142	0xbc04e9c8	-0.008112378
143	0x3da42269	0.08014376
144	0xbd6c96c1	-0.057760958
145	0x3d44588a	0.047936
146	0xbe9db0eb	-0.3079904
147	0xbf18860f	-0.5957956
148	0x3de93f25	0.11388997
149	0x3e28920b	0.16461961
150	0x3dab14af	0.083535545
151	0xbf22ee74	-0.636451
152	0x3e2bc74c	0.16775244
153	0x3eab8606	0.3350069
154	0xbd580aef	-0.052744802
155	0x3e3c4f97	0.18389736
156	0x3dbc6ce3	0.09200456
157	0x3f5e6298	0.8686919
158	0xbd3451ca	-0.044023313
159	0xbe3f61fe	-0.18689725
160	0xbe13b775	-0.14425452
161	0xbdffccf8	-0.124902666
162	0xbda7fbba	-0.0820231
163	0xbdb2f53f	-0.08738183
164	0xbe5d573c	-0.21615309
165	0x3e16e829	0.14737
166	0x3da9a454	0.08283296
167	0xbf5308b8	-0.8243518
168	0x3d96dda0	0.0736649
169	0xbe549456	-0.2075971
170	0xbecd4dc4	-0.40098393
171	0x3dd4cb6e	0.10390364
172	0x3daaa836	0.08332865
173	0x3d4b0427	0.049564507
174	0x3db5c9ad	0.08876357
175	0xbdff32ef	-0.12460887
176	0x3d6c20c4	0.057648435
177	0xbb57a0a7	-0.0032902153
178	0xbb5fb440	-0.0034134537
179	0xbe191724	-0.14950234
180	0x3d27cf8d	0.04096942
181	0xbd7a1ffc	-0.06106566
182	0xbda5010d	-0.08056841
183	0x3ba3649a	0.004986358
184	0x3c7741bf	0.015091359
185	0x3d077a89	0.033075843
186	0x3dbe65dc	0.09296772
187	0xbec25d7a	-0.37961942
188	0xbfad7bb1	-1.3553373
189	0x3ebba42d	0.36648694
190	0xbeccd158	-0.40003467
191	0x3d474e60	0.04865873
192	0x3dd0221c	0.10162756
193	0x3edb3b99	0.42818907
194	0x3ed3e0b6	0.41382378
195	0xbe944c75	-0.28964582
196	0xbde2fb54	-0.11083093
197	0x3e6d94c4	0.23201281
198	0xbdf5a832	-0.11994971
199	0x3ca9e9be	0.02074134
200	0x3e213526	0.15742931
201	0x3dbc24e0	0.09186721
202	0xbd3fe61d	-0.046850313
203	0xbdeadf08	-0.11468321
204	0x3caa5e37	0.020796878
205	0x3d1a63c6	0.037692808
206	0xbf13f391	-0.5779353
207	0xbe249bf9	-0.16075124
208	0xbcaae519	-0.020861195
209	0xbe868056	-0.26269788
210	0x3e1fb47f	0.15596198
211	0xbdf59a5a	-0.11992331
212	0xbd436429	-0.047702942
213	0x3dac4260	0.084110975
214	0xbc6f74e0	-0.0146152675
215	0xbca4b8a9	-0.020107584
216	0x3b7e8def	0.0038841923
217	0xbd1bb64c	-0.03801565
218	0xbccf6782	-0.025317911
219	0x3e5074ab	0.20357005
220	0xbdc06cf7	-0.093957834
221	0xbd898f9b	-0.06716844
222	0xb9e88b12	-0.00044354104
223	0x3d08f763	0.03343905
224	0xbce90446	-0.02844442
225	0x3e3ddc7e	0.18541142
226	0xbf274247	-0.65335506
227	0x3edc416b	0.4301866
228	0x3eb1d922	0.34735972
229	0xbe685edb	-0.22692434
230	0xbdefdae6	-0.117116734
231	0x3f173038	0.5905795
232	0x3f07700e	0.52905357
233	0x3ee6bfcc	0.45068204
234	0x3f3f3c69	0.74701554
235	0xbd593b29	-0.053034935
236	0x3e54534a	0.20734897
237	0x400423d9	2.064688
238	0xbd33acaf	-0.043865856
239	0xbd09df32	-0.03366012
240	0x3e62cc52	0.22148255
241	0xbf4f0179	-0.8086162
242	0xbfab4f9e	-1.3383672
243	0xbf4c5c3e	-0.7982825
244	0x3f7b0e2f	0.9806852
245	0x3e9bc2c0	0.3042202
246	0x3e988355	0.29787698
247	0x3f423c2a	0.75873053
248	0xbf8416fb	-1.0319513
249	0x3ebe6bb2	0.3719154
250	0x3f8228a4	1.0168653
251	0x3ef81177	0.48450825
252	0x3c380b39	0.011233144
253	0xbf21162f	-0.62924474
254	0xc0213ab2	-2.5192075
255	0x3e0818c4	0.13290697

bias f4 [256]
0	0xbec5a62d	-0.38603345
1	0x3e9cb2b2	0.30605084
2	0xbf64fd4b	-0.89448994
3	0xbf4e79c8	-0.80654573
4	0xbf06ca1c	-0.52652144
5	0xbf4a805f	-0.7910213
6	0xbf16cc54	-0.5890553
7	0xbee1dc9e	-0.4411363
8	0xbf579022	-0.84204304
9	0xbf41e21c	-0.7573564
10	0xbe1be97b	-0.15225784
11	0xbe87cce3	-0.26523504
12	0xbeee1f1f	-0.4650812
13	0xbf2e47c0	-0.6807823
14	0x3da9fbad	0.082999565
15	0xbf0e1e7f	-0.55515283
16	0xbe309c71	-0.17247178
17	0xbf79ea31	-0.9762297
18	0xbf057cc7	-0.5214352
19	0x3f0afdf2	0.5429374
20	0xbf1d75ac	-0.6150768
21	0xbf5b8098	-0.85743093
22	0xbed7a647	-0.42119047
23	0x3db338fe	0.08751105
24	0xbf2a4ce9	-0.66523606
25	0xbe99775b	-0.29973873
26	0x3f02a74b	0.5103652
27	0xbef2ef13	-0.47448024
28	0xbed1f71d	-0.41008845
29	0xbea9e7f9	-0.33184794
30	0xbe7fa96a	-0.2496697
31	0xbf287c04	-0.6581423
32	0x3f8373a6	1.0269668
33	0xbf3d9d6f	-0.7406835
34	0xbdb0c682	-0.08631612
35	0xbfabe6a1	-1.3429757
36	0xbfd0f90e	-1.6326005
37	0xbe86a2ab	-0.2629598
38	0xbe5a02bb	-0.21290104
39	0xbf0cc398	-0.5498595
40	0xbee84bd4	-0.45370352
41	0xbdfc6bd9	-0.12325258
42	0xbf1734e3	-0.59065074
43	0x3e36f696	0.17867503
44	0xbe6ed405	-0.23323067
45	0xbf2cb115	-0.67457706
46	0xbf27e0c4	-0.6557734
47	0xbf3cf1f7	-0.7380671
48	0xbf1e7111	-0.61891276
49	0xbf5aa02d	-0.8540066
50	0xbf31f416	-0.6951307
51	0xbf7b0945	-0.9806102
52	0xbdfbe844	-0.123001605
53	0xbfa52771	-1.2902662
54	0xbf92de5e	-1.1474111
55	0xbe9f77a1	-0.31145957
56	0xbf39348a	-0.72345793
57	0xbee4751b	-0.44620594
58	0xbe0d65b4	-0.13808328
59	0xbf43d43a	-0.7649571
60	0xbf1d7747	-0.6151013
61	0xbf7ea0a7	-0.99463886
62	0xbf008522	-0.50203145
63	0xbed303fb	-0.41213974
64	0xbeb29b8f	-0.34884307
65	0xbf0f039b	-0.55864877
66	0xbf44e860	-0.76917076
67	0xbf3cdf47	-0.73778194
68	0x3c158a6c	0.009127241
69	0xbfc800f9	-1.5625297
70	0xbf216449	-0.6304365
71	0xbedbe780	-0.42950058
72	0xbfa443db	-1.2833208
73	0xbf3d5f8b	-0.7397391
74	0xbf5daa08	-0.8658757
75	0xbf54bd21	-0.8310109
76	0xbe18e55e	-0.14931247
77	0xbee8a7f3	-0.45440635
78	0xbebb6ee5	-0.36608043
79	0xbf8777f9	-1.0583488
80	0xbf952f49	-1.1655055
81	0xbe1cab1d	-0.1529965
82	0xbf02a33e	-0.5103034
83	0xbee2612c	-0.4421476
84	0xbfb1108b	-1.3833174
85	0xbf2c0c14	-0.6720593
86	0x3a20bd8e	0.00061317615
87	0xbeeb7d6d	-0.4599413
88	0xbf854805	-1.0412604
89	0xbf06661c	-0.52499557
90	0xbf9a2425	-1.204228
91	0xbf04d897	-0.5189299
92	0xbf4e88a7	-0.80677265
93	0xbf669069	-0.900641
94	0xbf5e8e45	-0.86935836
95	0xbe63fed8	-0.22265184
96	0xbeb09745	-0.3449041
97	0xbf7939da	-0.973539
98	0xbf670c90	-0.90253544
99	0x3fa10985	1.258103
100	0xbf5c8cc0	-0.8615227
101	0xbf6bdd8f	-0.92134947
102	0xbf81668a	-1.0109417
103	0xbf4f036f	-0.80864614
104	0xbf7e7b61	-0.9940701
105	0xbfa5ba10	-1.2947407
106	0x3ef289e1	0.47370818
107	0xbea7ec73	-0.32797584
108	0x3f84c8ed	1.0373818
109	0xbea0245c	-0.3127774
110	0xbf4ff66d	-0.8123539
111	0x3f584fa5	0.8449653
112	0xbf4699ef	-0.77578634
113	0xbf778d4a	-0.96699965
114	0xbea74357	-0.32668564
115	0x3dc1eebc	0.09469363
116	0xbdc6e791	-0.097121365
117	0xbfb70916	-1.4299648
118	0xbf240964	-0.6407683
119	0x3e3ed4e2	0.18635896
120	0xbf02c6cd	-0.51084596
121	0xbeb470d6	-0.35242337
122	0xbf40960b	-0.7522895
123	0xbe5a18f3	-0.2129858
124	0xbf2bcf52	-0.6711322
125	0xbf551e8a	-0.83249724
126	0xbd06beb8	-0.032896727
127	0xbe8f430a	-0.27980834
128	0xbf23624c	-0.63821864
129	0x3e084c74	0.13310415
130	0xbf0f09b3	-0.55874175
131	0xbf3861f0	-0.7202444
132	0xbf6f3ff1	-0.9345694
133	0xbe4452ef	-0.19172262
134	0x3ef08615	0.46977296
135	0xbf1f2199	-0.6216064
136	0xbe3189c0	-0.17337704
137	0xbf3fbc63	-0.7489683
138	0xbec37192	-0.38172585
139	0xbee5374e	-0.44768757
140	0xbeaff5a4	-0.34367096
141	0xbf08bf30	-0.5341673
142	0xbeddaade	-0.43294424
143	0xbf6b92b4	-0.92020726
144	0xbf12305e	-0.5710505
145	0xbf27b7ad	-0.6551464
146	0x3fbc0aa6	1.469075
147	0xbf44cdf2	-0.7687675
148	0x3f5a72ab	0.8533122
149	0xbe724702	-0.236599
150	0xbe92fa86	-0.2870676
151	0xbf8394f1	-1.0279828
152	0xbf320209	-0.69534355
153	0xbf97179e	-1.1804082
154	0xbf5cd80a	-0.8626715
155	0xbec3a65f	-0.3821287
156	0xbf2620ba	-0.64893687
157	0xbf467a19	-0.77530056
158	0x3ea571c4	0.3231336
159	0xbf1dc801	-0.61633307
160	0xbf2cb061	-0.6745663
161	0xbf20c187	-0.627953
162	0xbf2f385c	-0.6844537
163	0xbf0ac62e	-0.5420865
164	0xbf18ceb0	-0.5969038
165	0xbeb70e68	-0.3575318
166	0x3ed41b0a	0.4142688
167	0xbfa5180e	-1.2897966
168	0xbebff9b0	-0.37495184
169	0xbef8af49	-0.48571232
170	0xbf1e5882	-0.618538
171	0x3de147ed	0.11000047
172	0xbea87674	-0.32902873
173	0xbf0ffac4	-0.5624201
174	0xbe3d528c	-0.1848852
175	0xbedccb2c	-0.43123758
176	0xbe570740	-0.2099886
177	0xbf896be2	-1.0736048
178	0xbf937538	-1.1520147
179	0x3e425067	0.18975984
180	0xbef61c1b	-0.48068318
181	0xbe355bc6	-0.1771079
182	0xbfba217d	-1.454147
183	0xbfa9b6d2	-1.3258917
184	0x3ccb5fd9	0.024825977
185	0xbe0668b1	-0.13125874
186	0xbfa3319f	-1.2749518
187	0xbede82d3	-0.43459186
188	0xbf1220ee	-0.57081497
189	0xbf8e3ce4	-1.1112332
190	0xbf34c019	-0.7060562
191	0xbf1aa6d2	-0.604108
192	0xbf2c8179	-0.6738506
193	0xbf127a24	-0.5721762
194	0xbec71896	-0.38885945
195	0xbee78f21	-0.45226386
196	0xbf1c375e	-0.61021984
197	0xbef52801	-0.47882083
198	0xbef62454	-0.4807459
199	0xbf41a891	-0.75647837
200	0xbde0e481	-0.10981084
201	0x4011ed7b	2.2801197
202	0xbf1c7e21	-0.6112996
203	0xbe25001f	-0.16113327
204	0xbea702f9	-0.32619455
205	0x3fc3acde	1.528713
206	0xbf803f7c	-1.0019374
207	0xbee88800	-0.4541626
208	0xbf34efe7	-0.7067856
209	0xbf8610ab	-1.0473837
210	0xbeabe113	-0.33570156
211	0xbea51cb6	-0.32248467
212	0xbf79efa4	-0.9763129
213	0xbe3bda2a	-0.18344942
214	0xbd38c4a3	-0.045109402
215	0xbf4da8b0	-0.8033552
216	0xbe08891c	-0.13333553
217	0xbf22fed9	-0.63670117
218	0xbf01b7c1	-0.5067101
219	0x3eac47c7	0.33648512
220	0xbf07c219	-0.53030545
221	0xbe914d2b	-0.28379187
222	0xbf17bc53	-0.59271735
223	0xbed93854	-0.42425787
224	0xbf86578e	-1.049547
225	0xbed02d50	-0.4065957
226	0x3efb6cc1	0.4910641
227	0xbf1e5e33	-0.61862487
228	0xbf0e3e9f	-0.555643
229	0xbf0783ae	-0.529353
230	0xbed3fb7a	-0.414028
231	0xbf2ac801	-0.6671143
232	0xbf2d9441	-0.6780434
233	0xbf046e94	-0.5173123
234	0xbe468bcf	-0.1938927
235	0xbe1ceb30	-0.15324092
236	0xbf2851c4	-0.65749764
237	0xbf33eae5	-0.70280296
238	0x3daeda88	0.08537775
239	0xbed15b5b	-0.4089001
240	0xbeba154a	-0.36344367
241	0xbe694b59	-0.22782649
242	0xbef65258	-0.48109698
243	0x3e6a9721	0.22909214
244	0xbf825a5d	-1.0183827
245	0x3e0a8305	0.13526542
246	0xbf13773a	-0.576038
247	0xbe927b6c	-0.28609788
248	0xbe808fd5	-0.25109735
249	0xbf43d9a1	-0.7650395
250	0x3f8e2cdb	1.1107439
251	0xbf9e0deb	-1.2347997
252	0xbf862d3f	-1.0482558
253	0xbf2a889c	-0.666147
254	0xbefc0d46	-0.49228877
255	0xbf660ad9	-0.898603

weight f4 [256, 256]
0	0x3a9d8b3d	0.0012019646
1	0xbe1700b3	-0.1474636
2	0x3f11269a	0.56699526
3	0x3dc8abab	0.09798368
4	0xbe3a1eb2	-0.18175772
5	0x3ce54c81	0.027990581
6	0xbddb968f	-0.10722076
7	0xbcba458e	-0.022738244
8	0xbf46696b	-0.77504605
9	0x3dc6b914	0.097032696
10	0xbc8031b6	-0.015648704
11	0x3ebac352	0.36477143
12	0x3f082956	0.53188074
13	0xbcd95048	-0.026527539
14	0x3eaf72e8	0.34267354
15	0x3e1a59aa	0.15073267
16	0x3eab57b7	0.3346536
17	0x3c8c255e	0.017107662
18	0x3ea1093c	0.31452358
19	0x3e265e9b	0.16247027
20	0x3e3eec87	0.18644916
21	0x3d73b91f	0.059502717
22	0x3e5e62f3	0.21717434
23	0x3f0056c7	0.5013241
24	0x3e66b1d7	0.22528778
25	0xbd4082fa	-0.04699991
26	0xbe09fa3e	-0.13474366
27	0xbae39fa4	-0.0017366302
28	0x3a29d91f	0.0006479192
29	0x3e0eda3e	0.1395044
30	0x3ec6c2d1	0.38820508
31	0x3f57526f	0.8411016
32	0xbeb3bd54	-0.35105383
33	0x3e80cd20	0.25156498
34	0xbe57ff2e	-0.21093437
35	0xbf7d8c56	-0.9904226
36	0xbf4ba825	-0.79553443
37	0x3da62f31	0.0811447
38	0xbe155c3e	-0.14585969
39	0xbf61ebe5	-0.8825057
40	0x3d44a541	0.04800916
41	0x3f352b76	0.7076944
42	0xbecb58c3	-0.39716157
43	0x3f0268e4	0.509413
44	0xbef5bc56	-0.4799525
45	0x3ef6feb8	0.4824121
46	0x3dd2eea1	0.10299421
47	0xbecf4ac7	-0.40486738
48	0xbd5af061	-0.0534519
49	0x3e7ece70	0.24883437
50	0x3eaff1c9	0.34364155
51	0xbbb3f144	-0.0054914076
52	0x3ecda677	0.40166065
53	0x3e5b5557	0.21419273
54	0xbe012173	-0.12610416
55	0x3ee78798	0.45220637
56	0xbcabcc0a	-0.020971317
57	0x3ec5e71a	0.3865288
58	0x3edf0af5	0.43563047
59	0x3f1aaaa4	0.60416627
60	0x3e3639bf	0.17795466
61	0xbe812f22	-0.25231272
62	0x3d1989b4	0.03748484
63	0xbe78586d	-0.24252482
64	0x3edf52bb	0.43617806
65	0x3e8ad2a9	0.27113846
66	0xbe313e66	-0.1730896
67	0xbe9e95a1	-0.30973533
68	0x3ec069d2	0.37580734
69	0xbf1514a7	-0.5823464
70	0x3f097da0	0.53707314
71	0xbee42df8	-0.4456632
72	0x3ce91822	0.02845389
73	0x3f6c4d8b	0.9230582
74	0xbd84ab1a	-0.064779475
75	0x3f07201b	0.52783364
76	0xbdfeb6fd	-0.12437246
77	0x3ef0e233	0.47047576
78	0x3ca825f5	0.020525912
79	0x3ed3bd0d	0.41355172
80	0x3e492b78	0.19645488
81	0x3e87aa6a	0.26497203
82	0x3e94db3a	0.29073507
83	0x3ebe18c7	0.3712828
84	0xbdc61169	-0.096712895
85	0xbe227521	-0.15864994
86	0x3e0232ca	0.12714687
87	0x3e4f5abf	0.2024946
88	0x3eccef4e	0.40026325
89	0xbec619aa	-0.38691455
90	0xbce3d573	-0.027811741
91	0x3f12f3b2	0.574031
92	0xbeb964cc	-0.36209714
93	0x3d24c358	0.040225357
94	0xbec4bcac	-0.38425195
95	0xbd0816e8	-0.03322497
96	0xbc465008	-0.012104042
97	0x3d6b75d4	0.057485417
98	0xbe3f21bd	-0.18665214
99	0x3db6b3ef	0.08921038
100	0x3f208b31	0.6271239
101	0xbe329cd1	-0.17442633
102	0xbfd5fbae	-1.6717432
103	0x3ef8a104	0.48560345
104	0xbe2ee745	-0.1708041
105	0x3d5b8236	0.053590976
106	0x3e0c3b41	0.13694479
107	0xbdc590f8	-0.09646791
108	0x3e463abc	0.19358343
109	0xbee96eee	-0.45592445
110	0x3eacfe96	0.33787984
111	0x3d0b00c2	0.03393627
112	0x3cecc609	0.028903024
113	0xbe4d162c	-0.20027989
114	0x3d613144	0.054978624
115	0x3d01de7e	0.031706326
116	0x3e0d173d	0.13778396
117	0xbd810dcb	-0.06301459
118	0xbe7dc9a1	-0.24783947
119	0x3d44002f	0.047851738
120	0x3e23bb7d	0.1598949
121	0x3d7c9eb5	0.061674792
122	0xbe490813	-0.19631986
123	0x3d7e0eca	0.062025823
124	0xbe0ef55c	-0.13960785
125	0xbd5f4b63	-0.054515254
126	0xbda8b61c	-0.082378596
127	0x3e897b06	0.26851672
128	0x3f577250	0.841588
129	0xbcb87ab6	-0.02251945
130	0x3ef93207	0.4867098
131	0xbec70b36	-0.3887574
132	0xbce9eca0	-0.028555214
133	0x3eac7424	0.33682358
134	0x3dc4e3c0	0.09613752
135	0xbcff63b0	-0.031175464
136	0x3e6b176d	0.22958155
137	0xbdb51d04	-0.08843425
138	0x3cb6aabd	0.022298211
139	0xbef680c9	-0.4814513
140	0x3e5b8d01	0.21440507
141	0x3e47da15	0.19516785
142	0x3eac5871	0.33661225
143	0xbf3754d4	-0.7161381
144	0x3ebc1040	0.36731148
145	0xbe3bef62	-0.18353036
146	0x3dcb2cad	0.099206306
147	0x3c3095bf	0.01077789
148	0x3e1a7f79	0.1508769
149	0x3efa068f	0.4883313
150	0x3ecc9b72	0.39962345
151	0xbce15e2b	-0.027510723
152	0xbdb14d98	-0.08657378
153	0xbd5e2a0b	-0.054239314
154	0xbe63ed8a	-0.22258583
155	0xbb3d9bff	-0.0028932092
156	0x3f117928	0.56825495
157	0x3e804860	0.25055218
158	0xbf48f547	-0.78499264
159	0xbeb2ad85	-0.3489801
160	0x3e3cfd11	0.18455912
161	0x3ecffe67	0.4062378
162	0x3dd544f1	0.1041354
163	0x3ed78047	0.42090055
164	0x3d85bf79	0.06530661
165	0xbddeaae7	-0.10872441
166	0x3d996c7e	0.07491396
167	0xbec99468	-0.39371037
168	0x3e93e9d4	0.28889334
169	0x3e7b233d	0.24525161
170	0x3e06c055	0.13159306
171	0xbbec4db2	-0.0072114104
172	0x3e58ff35	0.21191104
173	0xbe7fc97e	-0.24979207
174	0x3e496443	0.19667153
175	0x3cee059b	0.029055407
176	0x3f1d2df9	0.61398274
177	0xbe99b57c	-0.30021274
178	0xbe341f42	-0.17590049
179	0x3eed90a8	0.46399426
180	0x3ee99be4	0.45626748
181	0x3e4095a4	0.18807083
182	0xbec72e29	-0.38902405
183	0x3e32f422	0.17475942
184	0xbe424778	-0.18972576
185	0xbde00cad	-0.10939918
186	0xbe0b1bcf	-0.13584827
187	0x3e1ed9f5	0.15512832
188	0x3e177bf0	0.14793372
189	0xbe1ffe80	-0.15624428
190	0x3e26d577	0.16292368
191	0x3e6572de	0.224071
192	0xbe68035f	-0.22657536
193	0x3ea6a062	0.32544237
194	0xbe21a392	-0.15785053
195	0xbe9f0179	-0.3105581
196	0x3e92a596	0.28641957
197	0x3eada8d5	0.3391787
198	0x3eabae3a	0.33531362
199	0x3eaed2a0	0.3414507
200	0x3eae54af	0.34048983
201	0x3ea85d0a	0.32883483
202	0x3ec942f3	0.3930889
203	0x3eacc52e	0.33744186
204	0x3f049adf	0.51798815
205	0x3e9f6ea4	0.311391
206	0x3f42e828	0.7613549
207	0xbee6dea5	-0.4509174
208	0x3ee772e2	0.45204836
209	0x3d655abb	0.05599473
210	0xbe9ccef9	-0.30626658
211	0xbed36770	-0.41289854
212	0x3e1ea12f	0.15491174
213	0x3ef98031	0.48730615
214	0xbe5bf908	-0.21481717
215	0xbf0985c9	-0.53719765
216	0xbf121419	-0.57061917
217	0xbef2d8e1	-0.4743109
218	0xbe7985ae	-0.24367401
219	0x3e5c3b9a	0.21507111
220	0x3e9be075	0.30444685
221	0xbe1f1c08	-0.15538037
222	0xbc820472	-0.01587126
223	0x3e9d5a02	0.30732733
224	0x3e12275d	0.14272828
225	0xbbfe1b96	-0.0077547533
226	0xbdacae94	-0.08431736
227	0x3e09613b	0.13415997
228	0x3ea5c62b	0.32377753
229	0xb9d78ff8	-0.0004111526
230	0x3cc5156c	0.024058066
231	0x3e7d2801	0.24722292
232	0x3e9f4bb0	0.31112432
233	0xbfb84708	-1.4396677
234	0x3e83f61c	0.25773704
235	0xbe16f290	-0.14740968
236	0x3e9a8c5b	0.30185208
237	0xbe81dde2	-0.25364596
238	0x3e947de9	0.29002312
239	0x3d0f4547	0.034978177
240	0x3ea6a347	0.32546446
241	0x3da20a46	0.07912116
242	0x3f120c86	0.5705036
243	0xbc1a0f61	-0.009403081
244	0xbf64d783	-0.89391345
245	0x3e06c554	0.13161212
246	0x3efc80bc	0.49316967
247	0xbdc20823	-0.09474208
248	0xbd578948	-0.052621156
249	0xbee834c5	-0.4535276
250	0x3d600398	0.054690927
251	0x3eb5df2c	0.3552183
252	0x3e40a24f	0.18811916
253	0x3e3ad9ee	0.18247196
254	0xbf332083	-0.69971484
255	0xbeae6d23	-0.3406764

bias f4 [256]
0	0xbec87d6c	-0.3915819
1	0x3e02e11a	0.12781182
2	0x3fa0fd2e	1.2577264
3	0xbf1b9af6	-0.60783327
4	0xbf093fcb	-0.53612965
5	0xbf027302	-0.5095674
6	0xbe70a8e5	-0.23501928
7	0xbeee1460	-0.4649992
8	0x3f4af63a	0.7928196
9	0x3f24a308	0.64311266
10	0x3f41f285	0.7576068
11	0xbe94996a	-0.29023296
12	0xbe34b672	-0.17647722
13	0x3f922b22	1.1419413
14	0x3fa5684c	1.2922454
15	0x3f620858	0.8829398
16	0x3f515929	0.8177667
17	0x3fa087ce	1.2541444
18	0xbed667b2	-0.41875988
19	0xbeac0c2f	-0.33603045
20	0x3f5dd094	0.8664639
21	0x3fa7a4c0	1.3097153
22	0x3e411eb8	0.18859375
23	0xbe60be53	-0.21947603
24	0xbf3d6985	-0.73989135
25	0x3f1c8216	0.61135995
26	0xbd744de9	-0.059644613
27	0xbf02c151	-0.5107623
28	0x3f4b60ae	0.79444396
29	0xbe1744f0	-0.14772391
30	0xbf025145	-0.5090526
31	0x3f1d22e5	0.6138137
32	0x3f16e85c	0.589483
33	0xbedbcb94	-0.42928755
34	0x3f414ca2	0.7550756
35	0x3fb08885	1.3791662
36	0xbf462e7a	-0.7741467
37	0x3f8a2df8	1.0795279
38	0x3f946ca1	1.1595651
39	0xbeace219	-0.3376625
40	0xbf429c42	-0.7601968
41	0x3f637286	0.88846624
42	0xbe879c89	-0.26486614
43	0x3f75e644	0.9605448
44	0xbefb4ff8	-0.4908445
45	0x3e789184	0.2427426
46	0x3f82a2bd	1.0205914
47	0x3f813c9b	1.009662
48	0x3f911652	1.1334937
49	0xbe2759d1	-0.16342856
50	0xbee088d1	-0.43854383
51	0x3f72860c	0.9473579
52	0x3f87b939	1.06034
53	0xbf24e3d0	-0.64410114
54	0x3f1579b2	0.5838882
55	0x3ed5f8f2	0.41791493
56	0x3f23f8e1	0.64051634
57	0x3f8dab3c	1.1067882
58	0x3e1d97ea	0.15389982
59	0x3f9d0e48	1.2269983
60	0x3f0386f9	0.51377827
61	0x3f00df2c	0.50340533
62	0xbedf3254	-0.43593085
63	0x3f491248	0.7854352
64	0xbf0581bc	-0.52151084
65	0x3f298f17	0.6623396
66	0xbf00ee9c	-0.5036409
67	0x3f9b34e0	1.2125511
68	0xbea2d9d9	-0.3180683
69	0x3f8b7523	1.0895122
70	0xbe8e2f49	-0.2777045
71	0x3e7878d5	0.24264844
72	0xbf019135	-0.50612193
73	0x3f6d41f5	0.9267877
74	0x3f1be617	0.60897964
75	0xbefaf88e	-0.49017757
76	0xbef9bcad	-0.4877676
77	0x3f4424d6	0.7661871
78	0x3f2778e4	0.6541884
79	0xbee727d6	-0.4514758
80	0x3f800948	1.0002832
81	0x3edc84d1	0.4307008
82	0x3fa1c130	1.2637081
83	0x3f3a86f3	0.72862166
84	0x3f520fd4	0.820554
85	0xbec89d41	-0.39182475
86	0x3f7c4e64	0.98557115
87	0xbf403566	-0.7508148
88	0x3ed65765	0.41863552
89	0xbee87b34	-0.45406497
90	0xbf13cf7f	-0.5773849
91	0x3f69da40	0.9134865
92	0x3fa6a318	1.3018522
93	0x3f7e1f55	0.9926656
94	0x3f0747d2	0.52843964
95	0x3f6258ec	0.88416934
96	0xbeddaa5b	-0.43294033
97	0xbeab5684	-0.33464444
98	0x3f3a71b2	0.72829735
99	0x3e07748c	0.13228053
100	0xbd26d16c	-0.040727064
101	0xbf06343a	-0.5242344
102	0x3f24387a	0.64148676
103	0x3f9cb685	1.22432
104	0x3f82987e	1.0202787
105	0xbe170e6b	-0.14751594
106	0x3f8fbcd1	1.1229497
107	0x3f7d5899	0.98963314
108	0xbee53ea0	-0.44774342
109	0x3e3472cb	0.17621915
110	0x3f2c15c2	0.672207
111	0x3d59ea40	0.053201914
112	0xbdd0fe1a	-0.10204716
113	0x3ec92baf	0.3929114
114	0x3f052a80	0.52017975
115	0x3fa80ffb	1.3129877
116	0x3f0ae03c	0.54248405
117	0x3cf7c753	0.030246412
118	0x3f87dfc3	1.0615162
119	0xbebafb6f	-0.36519954
120	0x3faa4c4b	1.3304533
121	0xbec8e73f	-0.39238927
122	0xbe68cdb2	-0.22734717
123	0x3f0912b4	0.53544164
124	0x3f49e2a3	0.78861445
125	0xbe868637	-0.26274273
126	0xbe514395	-0.20435937
127	0xbe7efaf6	-0.24900422
128	0x3f4e9c77	0.80707496
129	0xbf086ded	-0.53292733
130	0x3f901abf	1.1258162
131	0xbe4131af	-0.18866609
132	0xbee3f34a	-0.44521552
133	0x3f8fb8b7	1.1228245
134	0xbeeceb6f	-0.46273372
135	0x3f22ba88	0.63565874
136	0xbf463cd7	-0.77436584
137	0xbe94fab3	-0.29097518
138	0x3f07f107	0.53102154
139	0xbef39cf5	-0.47580686
140	0xbf998c1d	-1.1995884
141	0x3f522dd5	0.82101184
142	0xbebbba9e	-0.36665815
143	0xbeee785e	-0.46576208
144	0xbea5d501	-0.32389072
145	0xbed63419	-0.41836622
146	0xbe64650d	-0.22304173
147	0x3ee03fe4	0.43798745
148	0x3f4a20cd	0.789563
149	0x3f242aa1	0.64127547
150	0x3fab3d96	1.337817
151	0x3f993d2c	1.1971793
152	0x3f339f8b	0.7016532
153	0xbe39fc08	-0.18162549
154	0xbd8e0944	-0.06935361
155	0x3e464fd7	0.19366394
156	0xbe159c80	-0.14610481
157	0x3f259064	0.6467345
158	0x3f4b1318	0.7932601
159	0x3f5f0b80	0.8712692
160	0x3f067255	0.52518207
161	0xbea54f83	-0.32287225
162	0x3faabf19	1.3339568
163	0x3f852b11	1.0403768
164	0x3f110605	0.5664981
165	0x3f6b0637	0.9180636
166	0xbf077a66	-0.5292114
167	0xbe85217d	-0.26002112
168	0x3f10094c	0.56264186
169	0x3fa4471c	1.2834201
170	0x3f89ee31	1.0775815
171	0x3f08aa36	0.5338472
172	0xbee7b46b	-0.45254835
173	0xbf1ab5a8	-0.60433435
174	0xbf0559dd	-0.52090245
175	0xbe4bd389	-0.19904913
176	0x3ec6714a	0.38758308
177	0x3f31e302	0.6948701
178	0x3efa4def	0.48887584
179	0x3ea8165a	0.32829553
180	0x3fc49a74	1.5359635
181	0xbf2f4dab	-0.68477887
182	0x3f33004a	0.69922316
183	0xbebff927	-0.37494776
184	0x3f242a0e	0.6412667
185	0x3efaefb9	0.4901102
186	0xbedd31bf	-0.43202016
187	0xbd1cf2d0	-0.0383175
188	0x3f0d7860	0.552618
189	0x3f8cf482	1.1012118
190	0x3f6fe584	0.9370959
191	0x3f9ac278	1.2090597
192	0x3f867d85	1.0507056
193	0xbeb3c268	-0.35109258
194	0x3f266fea	0.6501452
195	0xbe8af6af	-0.2714133
196	0x3ef427cb	0.4768661
197	0x3f1cfbff	0.61322016
198	0x3f6d9593	0.9280636
199	0xbe92c4f6	-0.28665894
200	0xbee3c231	-0.44484094
201	0xbf0e8f4e	-0.55687416
202	0x3f24e4bb	0.64411515
203	0x3f3f391c	0.74696517
204	0x3f1102f6	0.56645143
205	0x3e2e4788	0.17019475
206	0x3cbd2f28	0.023093775
207	0x3f69432c	0.9111812
208	0x3f1f3435	0.62189037
209	0x3f40b33c	0.7527349
210	0xbe54470a	-0.20730224
211	0x3f669236	0.9006685
212	0xbea3f43f	-0.32022282
213	0xbf45c5d7	-0.77255005
214	0x3ecba929	0.39777496
215	0xbea67618	-0.32511973
216	0x3f60f550	0.8787432
217	0x3dd2fb43	0.103018306
218	0x3fae221b	1.3604158
219	0x3f8d069b	1.1017641
220	0x3c1d7db1	0.009612487
221	0xbe7069f6	-0.23477921
222	0xbf28159c	-0.65657973
223	0x3f97a7e5	1.1848112
224	0x3efcf35e	0.49404424
225	0x3ee09cfb	0.43869767
226	0xbf66d729	-0.9017206
227	0xbec24879	-0.37945917
228	0x3fad0fcd	1.3520447
229	0x3f893bad	1.0721337
230	0xbf3a770c	-0.728379
231	0x3f911774	1.1335282
232	0xbf2d6219	-0.6772781
233	0x3f8d2a9d	1.102863
234	0xbe638263	-0.22217707
235	0x3f0cf688	0.55063677
236	0xbe8d0b7d	-0.27547827
237	0xbedb1b86	-0.42794436
238	0xbea2a5d0	-0.3176713
239	0x3f952cc8	1.1654291
240	0x3f32daaf	0.69864935
241	0x3e71cde9	0.23613705
242	0x3f093525	0.5359672
243	0xbee50e52	-0.44737488
244	0x3fa5eb0f	1.2962359
245	0x3f1c6f93	0.6110775
246	0x3f1baee6	0.6081375
247	0xbe400d9a	-0.18755189
248	0x3f20ab38	0.6276126
249	0x3ede07cb	0.4336532
250	0xbeb74fdb	-0.35803112
251	0xbf317edd	-0.69334203
252	0xbe75d23a	-0.24005976
253	0x3f7fefe5	0.99975425
254	0x3f28f46d	0.65997964
255	0xbe13e288	-0.14441884

weight f4 [1, 256]
0	0xbf145863	-0.5794737
1	0xbf8a3c80	-1.0799713
2	0x3ee49432	0.44644314
3	0xbee3abbf	-0.4446697
4	0xbf98719c	-1.1909671
5	0xbfc2cd4c	-1.5218902
6	0xc049f11f	-3.1553419
7	0xbef6efac	-0.4822973
8	0x3ec136f3	0.37737235
9	0x3eaf1a25	0.34199634
10	0x3f537945	0.8260692
11	0xbfb46a28	-1.4094896
12	0xbf8bfe1e	-1.0936925
13	0x3e85f9df	0.261672
14	0x3eb8f6ae	0.36125702
15	0x3eb305d7	0.34965393
16	0x3e9895a2	0.2980166
17	0x3e95b986	0.29243106
18	0xbf879411	-1.0592061
19	0xbfa5cebc	-1.2953715
20	0x3f379d1d	0.7172411
21	0x3eab6c80	0.33481216
22	0x3fbf415e	1.4941823
23	0xbf79c35e	-0.9756373
24	0xbf48307c	-0.7819898
25	0x3e7f5d6e	0.24937984
26	0xbfce85f0	-1.6134624
27	0xbe803762	-0.25042254
28	0x3eb7b2b8	0.3587854
29	0xc02b0c88	-2.6726398
30	0xbf8821de	-1.0635335
31	0x3e4e6d7f	0.20158957
32	0x3ee8f79f	0.4550142
33	0xbf2702f3	-0.65238875
34	0x3e8566d3	0.2605501
35	0x3e4a941f	0.19783066
36	0xbe180f34	-0.1484955
37	0x3e7c18c6	0.24618825
38	0x3ebecad9	0.37264135
39	0xc0063d52	-2.0974927
40	0xbf917baf	-1.136587
41	0x3ed771e7	0.42079088
42	0xc02c2a80	-2.690094
43	0x3e8b1455	0.2716395
44	0xbf1b25b9	-0.60604435
45	0xc088098a	-4.2511644
46	0x3d428086	0.04748585
47	0x3eca4795	0.39507738
48	0x3e890b22	0.26766306
49	0xbf8ef347	-1.1167992
50	0xc08996f0	-4.299675
51	0x3dbfba63	0.09361722
52	0x3ea08958	0.31354785
53	0xbf7d371d	-0.9891222
54	0x3ea03e7a	0.31297666
55	0x3ee4b6b6	0.44670647
56	0x3ef2a5d4	0.47392142
57	0x3e9f27b1	0.3108497
58	0x3f11f54d	0.57014924
59	0x3e57642f	0.21034311
60	0x3ea753ba	0.32681066
61	0x3eb5d1b5	0.35511556
62	0xbf76842a	-0.96295416
63	0x3ef5990f	0.47968337
64	0xbe9208d0	-0.28522348
65	0x3e420860	0.18948507
66	0xbf225562	-0.63411534
67	0x3d9f5d75	0.077814974
68	0xbff33878	-1.9001608
69	0x3e6fefbf	0.234313
70	0xbfdd0d23	-1.7269634
71	0x3f50ca4d	0.81558686
72	0xbeaa0f88	-0.33214974
73	0x3f3c00e7	0.73438877
74	0x3f27ed47	0.6559643
75	0xbeea6455	-0.45779672
76	0xbf483d28	-0.7821832
77	0xbe02ae7a	-0.1276187
78	0x3e5c7212	0.2152789
79	0xbedd1616	-0.43180913
80	0x3ef0ab28	0.47005582
81	0x3f388e2e	0.7209195
82	0x3eb14e85	0.34630218
83	0x3eea3daf	0.45750186
84	0x3e8cfb8b	0.27535662
85	0xbf8ac2f4	-1.0840745
86	0x3df1c6b6	0.11805479
87	0xbe7c20e5	-0.24621923
88	0x3eec201f	0.46118256
89	0xbfaad64e	-1.3346651
90	0xbed72a39	-0.420244
91	0x3e9faab7	0.31184933
92	0x3ea7ce8e	0.32774776
93	0x3ef9950a	0.4874652
94	0x3f024136	0.50880754
95	0x3f3ceb67	0.73796695
96	0xbf9f26d5	-1.2433726
97	0xbe97ddc2	-0.29661375
98	0x3ede0e4e	0.4337029
99	0x3fa95c47	1.3231286
100	0xbf82b298	-1.0210752
101	0xbfb89520	-1.4420509
102	0x3e17bef1	0.14818932
103	0x3f116cb8	0.56806517
104	0x3f09c81e	0.5382098
105	0xbf9e7de1	-1.2382165
106	0x3e7a8816	0.24465975
107	0x3e959afb	0.29219803
108	0xbee233eb	-0.44180235
109	0xbfb83974	-1.4392533
110	0x3ea8c99d	0.3296632
111	0xbf8efbcd	-1.1170594
112	0xc0369637	-2.8529184
113	0x3e873a0d	0.26411477
114	0x3f00d301	0.50321966
115	0x3efbe3d1	0.49197248
116	0x3e6e329a	0.2326149
117	0xc03f3b3e	-2.9879909
118	0x3ec0c92a	0.37653476
119	0xbf1f3595	-0.62191135
120	0x3e68b540	0.22725391
121	0xbf4a20c8	-0.7895627
122	0xbff808f6	-1.9377735
123	0x3ed483fc	0.41506946
124	0x3ed30889	0.4121745
125	0xbff8e54f	-1.944498
126	0xbf8c4a4d	-1.0960175
127	0xbfc484bc	-1.5353007
128	0x3ce6a3c1	0.028154256
129	0xbee4233d	-0.44558135
130	0x3e92c2c9	0.28664234
131	0xbfc04804	-1.5021977
132	0xbedc2618	-0.42997813
133	0x3e502ca5	0.2032953
134	0xbf14ae8f	-0.58078855
135	0x3d047fea	0.03234855
136	0xbf356af4	-0.7086632
137	0xbfda3e96	-1.705035
138	0x3eab6d22	0.334817
139	0xbeb765b7	-0.3581979
140	0xbf99eb90	-1.2025013
141	0x3ec7ac0a	0.38998443
142	0xbfbdf54b	-1.4840482
143	0xbf2d57fc	-0.6771238
144	0xbff48c83	-1.9105381
145	0xbfee902e	-1.863775
146	0xc0365f8f	-2.8495824
147	0x3e8a2e78	0.26988578
148	0x3e00a2b0	0.1256206
149	0x3ea33165	0.31873623
150	0x3ee66f10	0.4500661
151	0x3dddc701	0.108289726
152	0x3ecd45d6	0.40092343
153	0xbfb9c4d0	-1.4513187
154	0xc05465b7	-3.3187082
155	0x3f3d923f	0.7405128
156	0xbfbcb930	-1.4744015
157	0x3f148f0d	0.5803078
158	0x3ecd911d	0.40149775
159	0x3fbf2dc6	1.4935844
160	0x3f1801b2	0.59377587
161	0xc03b6716	-2.9281669
162	0x3e2e4321	0.17017795
163	0x3eb631ec	0.35584962
164	0x3eb2aea4	0.34898865
165	0x3e7fc479	0.24977292
166	0xbf370de7	-0.7150559
167	0xbfaf0b43	-1.3675312
168	0x3f0837e6	0.53210294
169	0x3ee51196	0.4473998
170	0x3ddd179d	0.107955195
171	0x3f50add0	0.81515217
172	0xbee381a6	-0.4443485
173	0xbf6a9855	-0.9163869
174	0xbebde37c	-0.3708762
175	0xbf926e8c	-1.1439986
176	0x3e1a187c	0.15048403
177	0x3dd88b62	0.1057346
178	0x3e535d7d	0.20641132
179	0x3ebacb64	0.364833
180	0x3f22fa55	0.63663226
181	0xc0444c66	-3.067163
182	0x3e89617c	0.26832187
183	0xbf755b6c	-0.95842624
184	0x3f2a3264	0.6648314
185	0x3ec92513	0.39286098
186	0xbf1fac5c	-0.62372375
187	0xbfc022eb	-1.5010656
188	0x3eea60ea	0.45777065
189	0x3f0d96ad	0.5530804
190	0x3ee1b974	0.44086802
191	0x3d9dcc4d	0.07704983
192	0x3e88960b	0.26676974
193	0xbfba9639	-1.4577094
194	0x3f0fd8b8	0.5619006
195	0xc0042ec0	-2.0653534
196	0x3f07f107	0.53102154
197	0x3f093534	0.53596807
198	0x3e96f94c	0.29487073
199	0xbff67824	-1.9255414
200	0xbf820f2c	-1.016088
201	0xc07b51b1	-3.926861
202	0x3e1d2f2a	0.15350023
203	0xbfc583e6	-1.5430877
204	0x3e607479	0.21919431
205	0x3fa83151	1.314005
206	0xc028175d	-2.626426
207	0x3ee3647c	0.444126
208	0x3ebe398c	0.3715328
209	0x3ee47900	0.44623566
210	0xbfb9b7a3	-1.4509166
211	0x3ec8c2f3	0.39211234
212	0xc014e9f6	-2.3267798
213	0xbeddbe1e	-0.4330911
214	0x3ce33728	0.027736261
215	0xbf4dbfca	-0.8037077
216	0x3f05ba41	0.52237326
217	0x3fc4a9ac	1.536428
218	0x3f024837	0.5089144
219	0x3e0925c8	0.13393319
220	0xbfe1a184	-1.7627416
221	0xc0049833	-2.0717895
222	0xbfd65e0e	-1.6747453
223	0x3ea26a7a	0.3172186
224	0x3ecd03cd	0.40041962
225	0x3ea44842	0.32086378
226	0x4027a975	2.6197178
227	0xbf83e21f	-1.0303382
228	0x3f143e1d	0.5790728
229	0x3e19029c	0.14942402
230	0xbf859fa4	-1.0439343
231	0x3e6f1bf0	0.23350501
232	0xbf467bed	-0.77532846
233	0x3edb1b0b	0.4279407
234	0xc02e3f4b	-2.722613
235	0x3f146cad	0.57978326
236	0xc0315b3a	-2.771193
237	0xbfed21c2	-1.8525927
238	0xc0054098	-2.0820675
239	0x3eaf29ee	0.34211677
240	0x3f339afe	0.70158374
241	0x3f1539f2	0.5829154
242	0x3e601798	0.21884
243	0xbf0cd446	-0.55011404
244	0x3e18989e	0.14901969
245	0x3f8a0452	1.0782568
246	0x3f543592	0.8289424
247	0xc038304a	-2.8779473
248	0x3ea560ed	0.3230051
249	0x3ecf55c2	0.40495116
250	0xbf8893dd	-1.0670124
251	0xbe5e9c3e	-0.21739289
252	0xbeaba7fd	-0.33526602
253	0x3e3a965d	0.18221422
254	0x3da1dd55	0.07903544
255	0xc02d5f3c	-2.7089376

obs_std f4 [39]
0	0x3e60084f	0.2187817
1	0x3e8054fd	0.2506484
2	0x3fbbd362	1.4673884
3	0x3fe486cf	1.785364
4	0x3fc7e22e	1.56159
5	0x3e8f8dbc	0.28037822
6	0x3e66f0e6	0.22552833
7	0x3e8a96ed	0.27068272
8	0x3e8eadcc	0.27866971
9	0x3e897016	0.26843327
10	0x3e8b55bc	0.27213848
11	0x3e8fa7ac	0.2805761
12	0x3e672ce5	0.2257572
13	0x3e8913c6	0.26772898
14	0x3e8d34a7	0.27579233
15	0x3e8a9fd0	0.27075052
16	0x3e89c909	0.2691119
17	0x405bc377	3.4338052
18	0x40520ab6	3.2819037
19	0x40a4bb79	5.147885
20	0x40976b3d	4.7318406
21	0x40a9f305	5.3109155
22	0x409bf49e	4.8736105
23	0x405b0306	3.4220595
24	0x40508a40	3.258438
25	0x40a45b65	5.1361566
26	0x409784cd	4.734961
27	0x40aa4c76	5.3218336
28	0x409b2d40	4.8492737
29	0x3f24d076	0.64380586
30	0x3f43e28e	0.7651757
31	0x3e6547d7	0.22390686
32	0x3e895585	0.2682306
33	0x3e88fe65	0.26756588
34	0x3e5d8788	0.21633732
35	0x3e84b16a	0.25916606
36	0x3e889861	0.26678756
37	0x3ebedb1f	0.3727655
38	0x3ed511da	0.41615182

obs_mean f4 [39]
0	0x3bda79b7	0.0066673416
1	0x3cb67a32	0.022275064
2	0x3c925428	0.017862394
3	0xbc4c1ec2	-0.012458505
4	0xbd289b54	-0.041163757
5	0xbf12e896	-0.5738615
6	0xbd814da6	-0.063136384
7	0x3bbbd712	0.0057324255
8	0x3f737fb6	0.95116746
9	0x3c1a4478	0.009415738
10	0xbedd3c1a	-0.43209916
11	0xbf0f7624	-0.56039643
12	0x3d6b90dd	0.0575112
13	0xbbad9803	-0.005297662
14	0x3f7137ca	0.9422575
15	0xbc892d25	-0.01674516
16	0xbed733f6	-0.4203183
17	0xbdc560c6	-0.09637599
18	0x3d936703	0.07197382
19	0x3c654795	0.013994117
20	0x3e79d91a	0.24399224
21	0x3c2a37fc	0.010389324
22	0xbc9e9628	-0.01935871
23	0xbd68da14	-0.0568486
24	0xbda1e527	-0.079050355
25	0xbd210aba	-0.03931687
26	0x3e609bbb	0.21934406
27	0xbcfa1a46	-0.030530106
28	0x3c9a4db2	0.018835876
29	0x3b9288da	0.0044718804
30	0xb9c475ec	-0.00037471892
31	0x3df349b1	0.1187929
32	0x3e4c9faf	0.1998279
33	0xbc01e41b	-0.00792792
34	0xbb84c809	-0.0040521664
35	0xbf26d196	-0.6516355
36	0xbf270131	-0.6523619
37	0x3c13b413	0.009015101
38	0x3b9e6ead	0.004834971
