trained/jvrc_step/critic_11199.pt (torch, 310590 bytes, 7 tensors)

weight f4 [256, 39]
0	0x3f05a70c	0.5220802
1	0xbe5f13be	-0.21784875
2	0x3d1fc283	0.03900386
3	0x3e643470	0.22285628
4	0x3e1d8ade	0.15385005
5	0x3e51947c	0.20466799
6	0x3e567f4a	0.20946994
7	0xbe6eeffa	-0.23333731
8	0xbd4c84b4	-0.049931243
9	0xbcd08d86	-0.025458109
10	0x3e559d1b	0.20860712
11	0xbe88c2e9	-0.26711205
12	0xbcbd8493	-0.023134505
13	0x3d6134a2	0.054981835
14	0x3bd0f0c8	0.0063763596
15	0xbdfd3571	-0.12363709
16	0xbdce5fbd	-0.100768544
17	0x3d350b55	0.04420026
18	0x3d9cd905	0.07658581
19	0x3c50dac3	0.012747469
20	0x3da1b730	0.07896268
21	0x39f7ffcb	0.00047302092
22	0x3c7561f8	0.014976971
23	0x3e3b786a	0.18307653
24	0xbd94bfdb	-0.07263156
25	0x3d984d6f	0.07436644
26	0x3d985638	0.0743832
27	0xbba90fd4	-0.0051593576
28	0x3cd92d0d	0.02651074
29	0xbe046844	-0.12930399
30	0x3cff02b8	0.031129226
31	0xbe6ec1d3	-0.23316126
32	0x3e30d6c5	0.17269428
33	0xbcd6b5b2	-0.026209686
34	0x3e32aa61	0.17447807
35	0xbe065e24	-0.1312185
36	0x3f131732	0.5745727
37	0xbde83580	-0.11338329
38	0x3e70a363	0.23499827
39	0xbed836cf	-0.42229316
40	0xc024a166	-2.572351
41	0xbe8868fe	-0.26642603
42	0xbea2bdaf	-0.31785342
43	0xbe274ef8	-0.16338718
44	0xbeefaf86	-0.468136
45	0xbe47c888	-0.1951009
46	0x3e732dfe	0.23748013
47	0xbe01e1c0	-0.12683773
48	0x3d062a1d	0.032755006
49	0xbe5dcfc9	-0.21661295
50	0xbf8202fc	-1.0157161
51	0xbe64bb32	-0.22337034
52	0x3db67352	0.08908714
53	0xbf507fdd	-0.81445104
54	0xbeb80224	-0.35939133
55	0xbe7de564	-0.24794537
56	0x3d544f82	0.051833637
57	0xbe46f512	-0.19429424
58	0x3d6fe79d	0.058570493
59	0x3ce38ec9	0.027778046
60	0x3c366a3c	0.011133727
61	0x3c764e48	0.015033312
62	0xbed95d3a	-0.4245394
63	0xbddc2138	-0.107485235
64	0x3dd50c0b	0.10402688
65	0xbe9ceba4	-0.3064853
66	0xbc1ce628	-0.009576358
67	0xbd80cb5f	-0.0628879
68	0xbed56fdc	-0.41686904
69	0xbe34d144	-0.17657954
70	0x3e58b2bd	0.21161933
71	0x3ec4bda3	0.3842593
72	0x3e9b8933	0.30378112
73	0xbe773fd3	-0.24145441
74	0x3e843fa7	0.25829813
75	0x3ed3bfc9	0.41357258
76	0xbdde5077	-0.10855191
77	0xbe4b5a83	-0.19858746
78	0x3cd09103	0.025459772
79	0xbee2c1e1	-0.44288543
80	0x3d0b819a	0.034059145
81	0xbe2011b7	-0.15631758
82	0x3d608c46	0.054821275
83	0xbe5cb5e8	-0.21553767
84	0xbd151223	-0.03639425
85	0xbcf7515c	-0.030190162
86	0xbe593f88	-0.21215641
87	0x3d3beca4	0.045879975
88	0xbd763b47	-0.060115125
89	0xbd03db70	-0.032191694
90	0x3d903073	0.07040491
91	0xbe2fa9f4	-0.17154676
92	0x3e3d37e8	0.18478358
93	0xbcf40fe9	-0.029792743
94	0xbab76fe9	-0.0013995144
95	0xbe037d92	-0.1284087
96	0xbd24b3bf	-0.04021048
97	0x3d00fb81	0.031489853
98	0xbd06caf6	-0.032908402
99	0xbb1fb2db	-0.002436808
100	0xbd0a1080	-0.033707142
101	0xbd21b441	-0.039478544
102	0x3d8f85eb	0.07007965
103	0xbccafbf0	-0.024778336
104	0xbd994898	-0.07484549
105	0xbc1c5bad	-0.009543342
106	0x3cdf6380	0.027269125
107	0x3c85e56b	0.016344747
108	0x3d4ae570	0.049535215
109	0xbdebd307	-0.1151486
110	0x3efcdc34	0.49386752
111	0xbf458cd0	-0.7716799
112	0x3f2b7c27	0.66986316
113	0x3f0532bf	0.5203056
114	0xbf268563	-0.6504728
115	0x3db6bc29	0.089226075
116	0x3ce587c7	0.028018845
117	0xbdd6bbcf	-0.104850404
118	0xbe7fd0bd	-0.24981971
119	0x3cdcab02	0.026937012
120	0xbd50cc4e	-0.05097609
121	0xbd57d6fb	-0.052695256
122	0xbdec6870	-0.11543357
123	0x3c8ecc91	0.01743153
124	0xbe33ed0c	-0.17570895
125	0xbdba639e	-0.09101032
126	0x3d51a414	0.051181868
127	0xbd935feb	-0.07196029
128	0xbcfbe987	-0.030751003
129	0xbd3de8f2	-0.046364732
130	0xbe223b9d	-0.15843053
131	0x3d5a899c	0.05335389
132	0x3d922ec8	0.07137829
133	0xbd97480e	-0.0738679
134	0xbd3f6ad0	-0.046732724
135	0x3db42a02	0.08797075
136	0xbd67a2bb	-0.056551676
137	0xbd40ae77	-0.047041383
138	0x3c561db5	0.013068606
139	0x3b36ef64	0.0027913684
140	0x3cfaff26	0.030639242
141	0xbcfb082e	-0.030643549
142	0xbb20dc0b	-0.0024545218
143	0x3cb4f50b	0.022089502
144	0x3b826a02	0.0039799223
145	0x3c7abd78	0.015303962
146	0x3dc13860	0.09434581
147	0xbe450e41	-0.19243719
148	0x3e7763cf	0.24159168
149	0x3d207aa6	0.039179467
150	0x3d2399f5	0.039941747
151	0xbe9e1103	-0.30872354
152	0xbe329be6	-0.17442283
153	0x3dc6ff7f	0.09716701
154	0xbdafcf09	-0.08584411
155	0x3e7f1527	0.24910413
156	0x3e28d9d5	0.16489346
157	0x3f0a3127	0.5398125
158	0x3cfa1163	0.030525869
159	0xbe0b842c	-0.13624638
160	0xbd5f122c	-0.05446069
161	0xbecd8e5c	-0.40147674
162	0xbe379d09	-0.17930998
163	0xbeafae30	-0.34312582
164	0xbdde4a24	-0.10853985
165	0xbc9b133e	-0.018930074
166	0x3d296100	0.041352272
167	0xbf09757b	-0.53694886
168	0x3e82246a	0.25418407
169	0xbc9c3056	-0.019066017
170	0xbdd4e611	-0.10395444
171	0x3d039ad8	0.032130092
172	0x3e0b56a1	0.13607265
173	0xbd95d0b2	-0.07315196
174	0x3a778935	0.00094427477
175	0xbd14911d	-0.036271203
176	0xbc8bec88	-0.01708056
177	0x3cf9afee	0.030479398
178	0xbd8119a0	-0.06303716
179	0xbdc69cb0	-0.096978545
180	0x3c90e279	0.017686116
181	0x3bf69ad1	0.00752578
182	0xbd44f667	-0.04808655
183	0xbc2dd8af	-0.010610743
184	0xbc5cbc69	-0.013472655
185	0x3cc7098e	0.024296548
186	0xbdb2e890	-0.08735764
187	0xbe9e3dae	-0.30906433
188	0xbfa14147	-1.2598046
189	0x3e28362c	0.16426915
190	0xbe468ffc	-0.19390863
191	0x3e18cc77	0.14921747
192	0x3e097e00	0.13426971
193	0x3ed955a6	0.42448157
194	0x3ea456f8	0.32097602
195	0xbe6e0202	-0.23242953
196	0x3e127916	0.14304003
197	0x3e2e99be	0.17050835
198	0xbe2454c3	-0.16047959
199	0x3e2c80ff	0.16846083
200	0xbb116d14	-0.002219026
201	0xbd9cdb8e	-0.07659064
202	0x3d0933ab	0.03349654
203	0xbcbe4347	-0.02322544
204	0x3d1a4e5d	0.03767239
205	0xbb9c78d4	-0.004775146
206	0xbe83d0ba	-0.25745183
207	0x3d47af13	0.04875095
208	0x3dc9897e	0.09840678
209	0xbe874371	-0.2641864
210	0xbdbc7133	-0.092012785
211	0xbe689dd3	-0.22716455
212	0xbd5ad4cc	-0.053425595
213	0x3d2ee526	0.042699
214	0x3d51dff5	0.051238973
215	0xbd7d884e	-0.06189757
216	0xbd2e9800	-0.042625427
217	0xbce0d616	-0.027445834
218	0xbe205fba	-0.15661517
219	0x3d8d8a2e	0.06911121
220	0xbd1696cd	-0.03676491
221	0xbdbd14ff	-0.0923252
222	0xbc03f7dd	-0.008054701
223	0x3ced6edc	0.028983526
224	0xbdd1e125	-0.10248021
225	0x3e66ea6d	0.22550364
226	0xbf27b326	-0.65507734
227	0x3ee775c3	0.45207033
228	0x3d156025	0.036468644
229	0xbec1a702	-0.3782273
230	0xbb47f407	-0.0030510442
231	0x3f17cab1	0.5929366
232	0x3efa84cf	0.4892945
233	0x3ed04642	0.40678602
234	0x3f0aa115	0.5415204
235	0xbe25c441	-0.16188146
236	0x3de68f73	0.112578295
237	0x3f3ade8c	0.7299583
238	0xbdffbdaa	-0.124873474
239	0xbdf29fa1	-0.11846853
240	0x3e7f22e4	0.24915653
241	0xbefd9b2f	-0.49532458
242	0xbf57cebe	-0.8429984
243	0xbf8022a7	-1.0010575
244	0x3d85cf01	0.065336235
245	0x3e18bea2	0.1491647
246	0x3ead6ef3	0.3387371
247	0x3ebc287e	0.36749643
248	0xbefcabb7	-0.49349758
249	0x3eb53d97	0.35398552
250	0x3e5de245	0.21668346
251	0x3e05febc	0.13085455
252	0x3e2c11a1	0.168036
253	0xbf065bc3	-0.5248377
254	0xbf89b39e	-1.075794
255	0xbe6da7e3	-0.23208575

bias f4 [256]
0	0xbe1653ba	-0.14680377
1	0x3e8eb3a8	0.27871442
2	0xbf29cf92	-0.6633235
3	0xbed6da09	-0.41963223
4	0xbebceb63	-0.36898336
5	0xbf1b0d89	-0.6056753
6	0xbf16c44d	-0.5889328
7	0xbd692046	-0.056915544
8	0xbf0e67c1	-0.55627066
9	0xbf0e1311	-0.55497843
10	0xbf02b4bc	-0.5105703
11	0xbe058d92	-0.13042286
12	0xbe92e64d	-0.2869133
13	0xbf07d677	-0.5306162
14	0x3e90b24e	0.28261036
15	0xbf03fcce	-0.51557624
16	0xbe0e9a81	-0.13926126
17	0xbf165e5e	-0.5873774
18	0xbe8edbcb	-0.27902064
19	0x3f306d27	0.68916553
20	0xbebf2d1f	-0.37339112
21	0xbdddb64e	-0.108257875
22	0xbea3cb2d	-0.31990948
23	0x3e6bacac	0.23015088
24	0xbedd7ea2	-0.43260676
25	0xbeb3465a	-0.3501461
26	0x3ee718c9	0.45136097
27	0xbebb7168	-0.3660996
28	0xbeb086f6	-0.34477967
29	0xbe3eeed9	-0.186458
30	0x3e21572b	0.15755908
31	0xbe844778	-0.25835776
32	0xbf54aad1	-0.83073145
33	0xbf1adc0a	-0.60492
34	0x3de0530b	0.10953339
35	0xbf4d0f25	-0.80101234
36	0xbf9823ef	-1.1885966
37	0x3e1d5de9	0.15367855
38	0x3d8d6542	0.06904079
39	0xbefcbf99	-0.49364927
40	0xbec520b7	-0.38501522
41	0x3df6b9da	0.12047167
42	0xbe9d54c0	-0.30728722
43	0x3ee980bd	0.45606032
44	0xbddf8186	-0.109133765
45	0xbe4674fa	-0.1938056
46	0xbea7a5d9	-0.3274372
47	0xbefe1255	-0.4962336
48	0xbee2da85	-0.44307342
49	0xbf43d267	-0.76492923
50	0xbe430c73	-0.19047718
51	0xbf3377c6	-0.70104635
52	0x3e5be53c	0.21474165
53	0xbf609e76	-0.8774179
54	0xbf40dfcd	-0.7534149
55	0xbe0844b8	-0.13307464
56	0xbf25d431	-0.64776903
57	0xbec6da2d	-0.3883833
58	0xbdd6b109	-0.104829855
59	0xbed31158	-0.4122417
60	0xbe9a1ae8	-0.30098653
61	0xbf488d18	-0.7834029
62	0xbecf8cfc	-0.4053725
63	0xbe97f8de	-0.29682058
64	0xbe8b2797	-0.27178642
65	0xbeb7cf42	-0.35900313
66	0xbf406124	-0.75148225
67	0xbef1940a	-0.47183257
68	0xbe08ad45	-0.13347347
69	0xbf72f17b	-0.9489972
70	0xbf1f825f	-0.62308306
71	0xbe6d6140	-0.23181629
72	0xbf2f0e0a	-0.68380797
73	0xbf2abc56	-0.6669363
74	0xbf0d2a02	-0.55142224
75	0xbe73d26b	-0.23810737
76	0xbe0b192c	-0.13583821
77	0xbe9ceece	-0.30650944
78	0xbea01f94	-0.31274092
79	0xbf29761c	-0.66195846
80	0xbf246cf1	-0.6422873
81	0xbe8154f2	-0.2526012
82	0xbeb6d579	-0.35709742
83	0xbeda736f	-0.42666194
84	0xbf87ef8d	-1.061998
85	0xbeb3cacf	-0.35115668
86	0x3e996cf0	0.29965925
87	0xbe5a6b2b	-0.21329944
88	0xbf2330f3	-0.63746566
89	0xbf043070	-0.5163641
90	0xbf22ab33	-0.6354248
91	0xbe801ba8	-0.250211
92	0xbef80eee	-0.4844889
93	0xbf402528	-0.75056696
94	0xbf3d8f10	-0.7404642
95	0xbec2bf62	-0.38036638
96	0xbe06fafa	-0.13181677
97	0xbf0e17a7	-0.5550484
98	0xbf1c98b4	-0.61170506
99	0x3f93b77f	1.1540374
100	0xbf13bf3c	-0.57713675
101	0xbf1ecaf2	-0.6202842
102	0xbf26cc1f	-0.65155214
103	0xbeedf03f	-0.46472356
104	0xbf174cb5	-0.5910142
105	0xbf74170d	-0.9534767
106	0x3eea52f4	0.45766413
107	0xbf0130e0	-0.504652
108	0x3f901d12	1.1258872
109	0xbe000684	-0.12502486
110	0xbf07b7c8	-0.530148
111	0x3ee933af	0.45547244
112	0xbf1f38a9	-0.6219583
113	0xbf0f034e	-0.5586442
114	0xbe20d2b8	-0.15705383
115	0x3d27bca9	0.040951405
116	0xbe506780	-0.20351982
117	0xbf9cbc45	-1.2244955
118	0xbf021e49	-0.5082746
119	0x3e9647a2	0.29351526
120	0xbef388cf	-0.47565314
121	0xbe9841c9	-0.2973769
122	0xbf2a5b4d	-0.66545564
123	0xbdad227a	-0.084538415
124	0xbebda306	-0.3703844
125	0xbf0f44cf	-0.5596437
126	0x3e3dc5c4	0.18532473
127	0xbe03722e	-0.12836525
128	0xbef85052	-0.4849878
129	0x3e03d38e	0.1287367
130	0xbebc7c74	-0.368137
131	0xbf0bac09	-0.5455938
132	0xbed3eec8	-0.41393113
133	0x3cef8e0e	0.029242542
134	0x3ec98b2d	0.39363995
135	0xbf067c86	-0.5253376
136	0xbd4fd008	-0.050735503
137	0xbeb948de	-0.36188406
138	0x3daf240b	0.085517965
139	0xbed3f591	-0.4139829
140	0xbe956c7f	-0.29184338
141	0xbeb4c71f	-0.35308167
142	0x3b14d959	0.0022712557
143	0xbf46d827	-0.7767357
144	0xbea2ff66	-0.3183548
145	0xbee71261	-0.4513121
146	0x3fae4456	1.3614604
147	0xbebc4d68	-0.36777806
148	0x3ece614b	0.40308604
149	0xbde307f6	-0.11085503
150	0xbdd534d4	-0.10410467
151	0xbed4d9f1	-0.41572526
152	0xbf01ed75	-0.50752956
153	0xbf33c5ca	-0.7022368
154	0xbf441af2	-0.76603615
155	0xbef2740c	-0.47354162
156	0xbf250431	-0.6445952
157	0xbec313bd	-0.38100997
158	0xbe35686c	-0.17715615
159	0xbea2ac37	-0.31772014
160	0xbebfd8bf	-0.37470052
161	0xbea9ca69	-0.3316224
162	0xbeb9a3bd	-0.36257735
163	0xbec27bc6	-0.37985057
164	0xbef26c10	-0.4734807
165	0xbdd290e3	-0.10281541
166	0x3f1f027d	0.6211317
167	0xbf4f85e8	-0.810637
168	0x3d19bc46	0.037533067
169	0xbee4fe85	-0.44725433
170	0xbefab553	-0.48966464
171	0x3dddc5d5	0.10828749
172	0xbe937bd8	-0.28805423
173	0xbed8efcd	-0.42370453
174	0xbe31d1a3	-0.17365126
175	0xbe886fb5	-0.26647726
176	0xbd96c95a	-0.073626235
177	0xbf1f4fa7	-0.62230915
178	0xbf3ffc9a	-0.74994814
179	0x3bff4610	0.0077903345
180	0xbe93a237	-0.28834698
181	0xbd261fba	-0.0405576
182	0xbf7c4e7a	-0.98557246
183	0xbf467127	-0.77516407
184	0xbd951a9d	-0.07280467
185	0xbd31bec5	-0.043394823
186	0xbf4fc06f	-0.81153005
187	0xbebe73c6	-0.37197703
188	0xbeaa48a3	-0.33258542
189	0xbf082a2f	-0.5318937
190	0xbf265527	-0.6497368
191	0xbe36a1de	-0.17835185
192	0xbe819548	-0.25309205
193	0xbeb252c1	-0.3482876
194	0xbe9bd7e7	-0.30438158
195	0xbe67aca4	-0.22624451
196	0xbf05c785	-0.5225757
197	0xbeb4d3e4	-0.3531791
198	0xbef1357e	-0.47111124
199	0xbf5f513b	-0.8723332
200	0xbe1c220c	-0.15247363
201	0x3fc28034	1.5195374
202	0xbe5df6d4	-0.21676189
203	0x3e498335	0.19678958
204	0xbcc05b96	-0.023481172
205	0x3fb6cd20	1.4281349
206	0xbf1eaa43	-0.6197855
207	0xbeb110c0	-0.34583092
208	0xbf37700c	-0.71655345
209	0xbf2b505e	-0.66919506
210	0xbe977361	-0.29580215
211	0xbee9ec2e	-0.45688003
212	0xbf146102	-0.5796052
213	0xbe1322d4	-0.14368755
214	0xbed5eb62	-0.41781145
215	0xbf25f20e	-0.6482247
216	0xbdf5dd39	-0.120050855
217	0xbf15f29e	-0.5857333
218	0xbe8a538a	-0.2701686
219	0x3f067f7f	0.52538294
220	0xbe88a6c7	-0.2668974
221	0xbe854674	-0.26030314
222	0xbea7d7ee	-0.3278193
223	0xbee2c132	-0.4428802
224	0xbf475de8	-0.77877665
225	0xbc74eedd	-0.014949528
226	0x3f0ba46f	0.5454778
227	0xbf17db07	-0.59318584
228	0xbebc2cd5	-0.36752954
229	0xbe90196f	-0.28144404
230	0xbf014c84	-0.5050738
231	0xbebfd0fb	-0.37464127
232	0xbef8b1e2	-0.48573214
233	0xbf15c0c7	-0.5849728
234	0xbe1d5ba9	-0.15366997
235	0x3d1d13e7	0.03834906
236	0xbecf5dd3	-0.4050127
237	0xbf020ba1	-0.50798994
238	0x3de4c226	0.111698434
239	0xbd6c7fb4	-0.057738975
240	0xbea1796a	-0.31537944
241	0xbe4d1c40	-0.20030308
242	0xbee5fb5c	-0.44918334
243	0x3f07b3c9	0.53008705
244	0xbf1ea29d	-0.6196688
245	0x3ed9a516	0.42508763
246	0xbe7b9ef0	-0.24572349
247	0xbe0603fc	-0.13087457
248	0xbe1ff94c	-0.15622443
249	0xbeae9bb7	-0.34103176
250	0x3f346062	0.7045957
251	0xbf36fbb3	-0.7147781
252	0xbf4dce0e	-0.8039254
253	0xbf05b691	-0.522317
254	0xbed83b9d	-0.4223298
255	0xbeb57eb0	-0.35448217

weight f4 [256, 256]
0	0xbd91e4b8	-0.07123703
1	0xbea52d6e	-0.32261223
2	0x3edeeace	0.43538517
3	0x3e39fed1	0.18163611
4	0xbd843b22	-0.06456591
5	0x3dac73c7	0.0842052
6	0xbe5067a5	-0.20352037
7	0xbe34d413	-0.17659025
8	0xbf200ae1	-0.625166
9	0x3e05dfe9	0.13073696
10	0xbcd866e0	-0.026416242
11	0x3e414c6f	0.18876813
12	0x3e359f3a	0.17736521
13	0x3e413d4e	0.18871042
14	0x3ea910a0	0.33020496
15	0x3e024eca	0.12725368
16	0xbd42246f	-0.047398027
17	0xbd7de962	-0.06199015
18	0x3e9ce033	0.306398
19	0x3dadfa6f	0.08495032
20	0xbd0c7e89	-0.03430036
21	0x3c02b43c	0.007977542
22	0x3e846b8f	0.2586331
23	0x3e5a5ac3	0.21323685
24	0x3d48ad5c	0.048993453
25	0xbe88f8c2	-0.26752287
26	0xbe223557	-0.1584066
27	0xbe74c57c	-0.2390346
28	0x3d964d0e	0.07338916
29	0xbd80c039	-0.062866636
30	0x3e8a7f18	0.2705009
31	0x3ed135d5	0.40861383
32	0xbef43c6a	-0.47702342
33	0x3e3621b3	0.17786293
34	0xbe989a9b	-0.29805455
35	0xbf6c3d6f	-0.9228124
36	0xbf52656b	-0.82186
37	0xbe69212e	-0.22766563
38	0xbdd6a12c	-0.1047996
39	0xbf527b89	-0.8221975
40	0xbe436758	-0.19082391
41	0x3ecfc04c	0.40576398
42	0xbd9ad0d3	-0.07559361
43	0x3ebd37e3	0.369567
44	0xbedb2f1f	-0.42809388
45	0x3eac3f3d	0.33641997
46	0x3e35c96d	0.17752619
47	0xbf026e02	-0.5094911
48	0xbe2ff524	-0.17183357
49	0x3e16f15a	0.14740506
50	0x3ea904b5	0.33011404
51	0xbe9d32b7	-0.30702755
52	0x3e47329e	0.19452903
53	0x3e9e8a47	0.30964872
54	0xbe821297	-0.25404808
55	0x3e30110f	0.17194007
56	0xbe97b1da	-0.29627877
57	0x3eac3dea	0.33640987
58	0x3e281a4d	0.16416283
59	0x3efc9e81	0.4933968
60	0x3dbff2b5	0.093724646
61	0xbdb72005	-0.08941654
62	0xbd05e12c	-0.032685444
63	0xbe0b2c03	-0.13591008
64	0x3e7943ef	0.24342321
65	0x3e224e12	0.15850094
66	0xbd921454	-0.071327835
67	0xbe95faeb	-0.29292998
68	0x3e0502d9	0.12989368
69	0xbeaddeeb	-0.33959135
70	0x3e3e7424	0.18598992
71	0xbde5f03a	-0.1122746
72	0x3ec4f29e	0.38466352
73	0x3eb779c7	0.35835096
74	0x3e6c956c	0.23103875
75	0xbd7b1dba	-0.061307646
76	0xbd853099	-0.0650341
77	0x3e13bfb1	0.14428593
78	0x3d047ac1	0.03234363
79	0x3e822e85	0.25426117
80	0x3e1a1967	0.15048753
81	0x3d1d365e	0.038381927
82	0x3e830947	0.25593016
83	0x3db2461a	0.08704777
84	0xbe6de4c9	-0.23231806
85	0xbe3ee7ed	-0.1864316
86	0x3e80b3d6	0.25137204
87	0xbcc65580	-0.024210691
88	0x3e2704fe	0.16310498
89	0xbef673a4	-0.48135102
90	0xbce5c823	-0.028049534
91	0x3e8bd2c5	0.27309242
92	0xbe5e4870	-0.2170732
93	0xbd9c119a	-0.07620545
94	0xbe1e0a2b	-0.15433566
95	0x3e136cde	0.14396998
96	0xbc8d00b0	-0.017212242
97	0xbdef18a8	-0.11674625
98	0x3cec2205	0.028824816
99	0xbcdaa1fe	-0.026688572
100	0x3eadbb20	0.33931828
101	0xbdfabf41	-0.1224351
102	0xbf6a4ac8	-0.9152036
103	0x3ee98759	0.45611075
104	0xbdda0d4a	-0.10647066
105	0xbea4f3e2	-0.32217318
106	0xbbd42dd2	-0.006475189
107	0xbe3d4e6b	-0.18486945
108	0x3ddd9022	0.10818507
109	0xbf0b9986	-0.54531133
110	0x3d8f2121	0.06988741
111	0xbdc3b907	-0.095567755
112	0x3e74c81e	0.23904464
113	0x3df16030	0.117859244
114	0xbd85d684	-0.06535056
115	0x3df053d9	0.11734743
116	0x3cde934c	0.027169846
117	0x3cd45c68	0.025922969
118	0xbe8e3fdb	-0.27783093
119	0xbda60aa5	-0.08107499
120	0x3ece5f10	0.40306902
121	0xbe67ddbe	-0.22643182
122	0xbe7d0f20	-0.24712801
123	0x3e30ba81	0.17258646
124	0xbdd8bd9d	-0.10583041
125	0x3be9fb54	0.0071405564
126	0xbea8f3f3	-0.32998618
127	0x3e5d0c06	0.21586618
128	0x3efe0d38	0.4961946
129	0xbae884b8	-0.0017739749
130	0x3e89c2f6	0.26906556
131	0xbe85b4fb	-0.2611464
132	0x3d249cde	0.040188663
133	0x3e834508	0.25638604
134	0xbe526c44	-0.20549113
135	0x3d59881d	0.053108323
136	0x3dd57d26	0.10424261
137	0xbb441363	-0.0029918782
138	0x3d751c0d	0.059841204
139	0xbf2deb12	-0.67936814
140	0x3e2c1f9e	0.16808936
141	0x3e9bb4bb	0.30411324
142	0x3e0e3e58	0.1389097
143	0xbf02658a	-0.50936186
144	0x3f089162	0.53346837
145	0xbe5a14c3	-0.21296982
146	0x3d54ba99	0.051935766
147	0x3cd2987d	0.025707478
148	0x3c9f0318	0.019410655
149	0x3ec8a197	0.39185783
150	0x3e8875e4	0.26652443
151	0xbe0a0dd4	-0.13481838
152	0x3d676ad8	0.05649838
153	0xbe40449c	-0.18776172
154	0xbe66dc42	-0.22544959
155	0x3e002bd2	0.12516716
156	0x3d8538ad	0.06504951
157	0xbd0e2bb8	-0.034709662
158	0xbf4c49f9	-0.79800373
159	0xbea707cf	-0.32623145
160	0x3db97928	0.09056312
161	0x3e4a6e7a	0.19768706
162	0xbe08c0ea	-0.13354841
163	0x3ea9dc55	0.33175912
164	0x3e94c945	0.29059806
165	0xbd859776	-0.065230295
166	0x3e1d4af1	0.15360619
167	0xbecc6080	-0.39917374
168	0x3e0996ef	0.13436483
169	0x3e3e2e03	0.1857224
170	0x3d90c289	0.07068355
171	0xbe678bb9	-0.22611894
172	0x3e3d6851	0.18496825
173	0xbf1fe3e9	-0.6245714
174	0x3e76655c	0.24062103
175	0x3e3971d0	0.18109822
176	0x3f00c02c	0.5029323
177	0xbe7c9814	-0.24667388
178	0x3dfa9e62	0.122372404
179	0xbde18774	-0.11012164
180	0x3ed7f5a7	0.42179605
181	0x3eb651d5	0.35609308
182	0xbe0a203c	-0.13488859
183	0x3e84b9c2	0.25922972
184	0xbd94944f	-0.0725485
185	0xbecbbf59	-0.39794424
186	0xbda2e8d6	-0.07954566
187	0x3cfe56ad	0.03104719
188	0x3e5eca5d	0.21756883
189	0xbeb00418	-0.34378123
190	0x3e9483d4	0.29006827
191	0x3cb50b68	0.022100165
192	0xbeb812b1	-0.3595176
193	0xbe85ab82	-0.26107413
194	0x3e1e1e6d	0.15441294
195	0xbebd396b	-0.3695787
196	0x3ea15dfa	0.3151701
197	0x3e9bb864	0.30414116
198	0x3e55e839	0.20889367
199	0x3eacc3cc	0.3374313
200	0x3e96df89	0.2946742
201	0x3e9af5a8	0.30265546
202	0x3e9f0479	0.310581
203	0x3e3adb17	0.18247639
204	0x3eac59d8	0.33662295
205	0x3e3b9d10	0.18321633
206	0x3f176680	0.5914078
207	0xbedff501	-0.4374161
208	0x3e523e7f	0.20531653
209	0xbde6c69f	-0.11268353
210	0xbd07596b	-0.03304426
211	0xbe9819a2	-0.29707056
212	0xbdd10a58	-0.10207051
213	0x3eb750ca	0.35803825
214	0xbe8917db	-0.26776013
215	0xbdcc2486	-0.09967904
216	0xbeed0943	-0.4629613
217	0xbe9e885c	-0.3096341
218	0xbe6130ca	-0.21991268
219	0x3d3887c2	0.045051344
220	0x3e2d2e99	0.16912307
221	0xbe3bbf03	-0.18334584
222	0xbe21ba9d	-0.15793844
223	0x3dae33db	0.085059844
224	0x3e012471	0.12611558
225	0xbce70139	-0.028198825
226	0xbb065a08	-0.002050044
227	0xbcf7bcfd	-0.030241484
228	0x3c95679e	0.018237885
229	0xbe654cff	-0.22392653
230	0xbc767e42	-0.015044751
231	0xbd7e334e	-0.062060647
232	0x3da7fb14	0.08202186
233	0xbf3d6291	-0.73978525
234	0xbdd82c26	-0.10555296
235	0xbe396915	-0.18106492
236	0x3cd307bd	0.025760526
237	0xbe9bede4	-0.30454934
238	0xbe678f9e	-0.2261338
239	0x3da5e4d8	0.08100289
240	0xbe16e691	-0.14736392
241	0xbc8a839a	-0.016908456
242	0x3e8dfcc1	0.27731898
243	0xbc08230c	-0.008309137
244	0xbee45c30	-0.44601583
245	0x3e10c828	0.14138854
246	0x3e4efcef	0.20213674
247	0xbecd55fa	-0.40104657
248	0xbdb5ed24	-0.088831216
249	0xbf01ebef	-0.5075063
250	0xbd8b72c3	-0.068089984
251	0x3d9813f9	0.074256845
252	0x3e52be10	0.20580316
253	0x3c68e708	0.014215238
254	0xbeffbaa6	-0.4994709
255	0xbd82e329	-0.063909836

bias f4 [256]
0	0xbe91af31	-0.28453973
1	0xbc32ce78	-0.010913484
2	0x3f6653ba	0.89971507
3	0xbf00503e	-0.5012244
4	0xbef36d77	-0.47544453
5	0xbf0970ec	-0.5368793
6	0xbec96a4b	-0.39338908
7	0xbea3c1a9	-0.31983688
8	0x3f3d4752	0.7393695
9	0x3efd334d	0.49453202
10	0x3f2b702d	0.6696804
11	0xbe93b2ca	-0.28847343
12	0xbe4c39c4	-0.19943911
13	0x3f5d11c8	0.8635526
14	0x3f7121ff	0.941925
15	0x3f1cbf00	0.6122894
16	0x3f0a2482	0.53961957
17	0x3f47b995	0.7801755
18	0xbed667b2	-0.41875988
19	0xbeac0c2f	-0.33603045
20	0x3f0db59b	0.5535523
21	0x3f680706	0.90635717
22	0x3e3405ba	0.1758031
23	0xbe729c37	-0.23692404
24	0xbeeff9d4	-0.4687029
25	0x3f085b47	0.5326428
26	0xbe93628f	-0.28786132
27	0xbebdb4ca	-0.37051994
28	0x3f2d66c6	0.67734945
29	0xbe4d163d	-0.20028014
30	0xbecaec1c	-0.39633262
31	0x3ef26c16	0.47348088
32	0x3edd11a3	0.43177518
33	0xbea4d0a7	-0.3219044
34	0x3edfe0d4	0.43726218
35	0x3f71d89b	0.9447114
36	0xbef977e7	-0.4872429
37	0x3f512e5d	0.8171137
38	0x3f5f3afd	0.87199384
39	0xbee6d53b	-0.45084557
40	0xbf01e40f	-0.50738615
41	0x3f343b2e	0.704028
42	0xbeb7553b	-0.35807213
43	0x3f0c2ca7	0.54755634
44	0xbedc6dd1	-0.43052533
45	0x3dbcfb35	0.092276014
46	0x3f324c10	0.6964731
47	0x3f32ea19	0.69888455
48	0x3f52f880	0.8241043
49	0xbe2cfa5e	-0.16892383
50	0xbe8b0abf	-0.27156636
51	0x3f3b27b4	0.7310746
52	0x3f4455f1	0.76693636
53	0xbef8d6b0	-0.48601294
54	0x3ee9db4e	0.4567513
55	0x3eeb89f5	0.4600369
56	0x3ef106ad	0.47075406
57	0x3f59a501	0.850174
58	0x3da62b08	0.08113676
59	0x3f62fba7	0.8866524
60	0x3ed69db9	0.41917208
61	0x3ef3b1c6	0.47596568
62	0xbedf3254	-0.43593085
63	0x3f01d805	0.50720245
64	0xbed4533a	-0.41469747
65	0x3ee1cdf0	0.4410243
66	0xbeab0237	-0.33400127
67	0x3f5b92bc	0.85770774
68	0xbe879481	-0.26480487
69	0x3f4f23d1	0.80914026
70	0xbe1ced69	-0.1532494
71	0x3e9b4fdd	0.30334368
72	0xbeaad725	-0.33367267
73	0x3f2e47d1	0.68078333
74	0x3eff1116	0.49817723
75	0xbebfa43c	-0.37429988
76	0xbef97dfc	-0.4872893
77	0x3f39c5a5	0.72567207
78	0x3f126b30	0.57194805
79	0xbea91513	-0.3302389
80	0x3f01ff07	0.50779766
81	0x3e642f37	0.22283636
82	0x3f690bae	0.91033447
83	0x3f0c72d0	0.5486269
84	0x3f06c597	0.5264525
85	0xbebce19d	-0.3689088
86	0x3f1aaa02	0.6041566
87	0xbeefae86	-0.46812838
88	0x3ee74d55	0.45176187
89	0xbe93a2aa	-0.2883504
90	0xbee08342	-0.43850142
91	0x3f32c4bb	0.69831437
92	0x3f6926cd	0.9107483
93	0x3f40b740	0.7527962
94	0x3f0747d2	0.52843964
95	0x3f1f63d3	0.62261695
96	0xbeb05c1d	-0.34445277
97	0xbea51fc6	-0.32250804
98	0x3f243915	0.641496
99	0x3df28a82	0.118428245
100	0xbd5edf06	-0.05441191
101	0xbe95d61c	-0.29264915
102	0x3f102827	0.5631127
103	0x3f44268e	0.7662133
104	0x3f4c30c3	0.79761904
105	0xbe100b62	-0.14066842
106	0x3f59baaf	0.8505048
107	0x3ef81f1e	0.4846124
108	0xbed719e4	-0.4201194
109	0x3e221f3d	0.15832229
110	0x3f07399d	0.52822286
111	0x3d5de1aa	0.05417029
112	0xbdd0fe1a	-0.10204716
113	0x3f0066e8	0.5015702
114	0x3f017076	0.50562227
115	0x3f4a4a55	0.7901967
116	0x3f0979f4	0.5370171
117	0x3cf7c753	0.030246412
118	0x3f68f2e0	0.909956
119	0xbebb9f58	-0.36645007
120	0x3f753182	0.9577867
121	0xbed4fd7d	-0.41599646
122	0xbe9277ee	-0.28607124
123	0x3eda0a0f	0.425858
124	0x3eb3a1a9	0.35084274
125	0xbe868637	-0.26274273
126	0xbe2a72a3	-0.16645293
127	0xbe7de1f1	-0.24793221
128	0x3f2835a5	0.65706855
129	0xbefa2e19	-0.48863295
130	0x3f6cc8b5	0.92493755
131	0xbed900af	-0.42383334
132	0xbe96d534	-0.29459536
133	0x3f3d84f9	0.74031025
134	0xbebe42bc	-0.3716029
135	0x3f15c906	0.5850986
136	0xbf0a3e1f	-0.5400104
137	0xbe94fab3	-0.29097518
138	0x3f0cac88	0.5495076
139	0xbebd1a59	-0.36934164
140	0xbf617771	-0.8807288
141	0x3f0be42d	0.54645044
142	0xbe9b6998	-0.30354
143	0xbec40fa0	-0.3829317
144	0xbeae82b1	-0.34084085
145	0xbed63419	-0.41836622
146	0xbe7a3439	-0.24433984
147	0x3eee6de6	0.4656822
148	0x3f064b79	0.5245891
149	0x3f0501d4	0.51955914
150	0x3f7234f2	0.9461204
151	0x3f69c708	0.9131932
152	0x3f057020	0.52124214
153	0xbe67eab0	-0.2264812
154	0xbe63b830	-0.2223823
155	0x3e0c8e14	0.13726074
156	0xbe6858f4	-0.22690183
157	0x3ef0fd4d	0.47068253
158	0x3f004b2c	0.50114703
159	0x3f460979	0.77358204
160	0x3f09e1f4	0.538604
161	0xbea06fbb	-0.31335244
162	0x3f6edecf	0.9330873
163	0x3f6d3ec0	0.92673874
164	0x3e9a433b	0.30129418
165	0x3f2fae56	0.6862539
166	0xbe9576b5	-0.2919213
167	0xbe63c4b3	-0.22243004
168	0x3e9482a8	0.29005933
169	0x3f6bab3f	0.92058176
170	0x3f4bfc66	0.79682004
171	0x3ef3ec12	0.47641045
172	0xbeaad6a4	-0.33366883
173	0xbf0ca4bf	-0.5493888
174	0xbebb1e32	-0.36546475
175	0xbe417de1	-0.18895675
176	0x3ef6ea57	0.48225662
177	0x3ef64f80	0.4810753
178	0x3f13ffdc	0.57812285
179	0x3e89f5a7	0.2694523
180	0x3f86a932	1.0520384
181	0xbefb9502	-0.4913712
182	0x3f2b1a6e	0.66837204
183	0xbe7fedb4	-0.2499302
184	0x3f14cc7c	0.5812452
185	0x3eb9ebcd	0.36312714
186	0xbe8189ed	-0.25300542
187	0xbe0abcc3	-0.1354857
188	0x3f1141b5	0.56740886
189	0x3f55fff7	0.83593696
190	0x3f09cd7c	0.5382917
191	0x3f60288d	0.87561876
192	0x3f373730	0.71568584
193	0xbe620cd8	-0.22075212
194	0x3f047bd2	0.51751435
195	0xbe8aa691	-0.27080205
196	0x3f06f3e8	0.5271592
197	0x3f0c5af2	0.5482627
198	0x3f358574	0.7090676
199	0xbe97b9d7	-0.29633972
200	0xbed305d5	-0.41215387
201	0xbeeeec8c	-0.46664846
202	0x3f143a46	0.5790142
203	0x3ef1c79c	0.47222602
204	0x3ed9587f	0.4245033
205	0x3e23fc75	0.16014273
206	0x3ce74c22	0.028234545
207	0x3f376d69	0.7165132
208	0x3eef0064	0.46679986
209	0x3f09dcfc	0.5385282
210	0xbe9ae64b	-0.30253825
211	0x3f28f764	0.6600249
212	0xbee41aab	-0.44551596
213	0xbf29d672	-0.6634284
214	0x3eac2d48	0.33628297
215	0xbe74e2d9	-0.2391466
216	0x3f335511	0.70051676
217	0x3db55e70	0.08855903
218	0x3f69be1e	0.9130572
219	0x3f386b2d	0.7203854
220	0xbe191431	-0.14949109
221	0xbe11f487	-0.14253436
222	0xbefb2766	-0.49053496
223	0x3f62d8bd	0.88611966
224	0x3eddb689	0.43303326
225	0x3e516d68	0.20451891
226	0xbf5668b1	-0.83753496
227	0xbea35ad5	-0.31905237
228	0x3f6843b8	0.9072833
229	0x3f531fdb	0.8247048
230	0xbed6ed1a	-0.4197777
231	0x3f597f15	0.84959537
232	0xbf08036c	-0.5313022
233	0x3f411b13	0.75431937
234	0xbe32f40e	-0.17475912
235	0x3f0d4f5f	0.55199236
236	0xbea562b5	-0.3230187
237	0xbed5775b	-0.41692623
238	0xbec5ba09	-0.38618496
239	0x3f65b68a	0.8973166
240	0x3f054842	0.5206338
241	0x3e35db5c	0.1775946
242	0x3f114296	0.5674223
243	0xbebda03c	-0.37036312
244	0x3f7118dd	0.94178563
245	0x3f0f7e94	0.5605252
246	0x3f2a4161	0.6650601
247	0xbe20e94f	-0.15714
248	0x3f0c4b57	0.5480246
249	0x3e8ca2bc	0.27467906
250	0xbe8bf832	-0.27337795
251	0xbee542c9	-0.44777516
252	0xbe75d23a	-0.24005976
253	0x3f3b6766	0.7320465
254	0x3ee74b40	0.451746
255	0xbdab30bd	-0.083589055

weight f4 [1, 256]
0	0xbf8d2eda	-1.1029923
1	0xbfa8c3ad	-1.3184716
2	0x3eddef71	0.43346742
3	0xbee2f360	-0.44326305
4	0xbf87013a	-1.0547249
5	0xbf9aa019	-1.2080108
6	0xbfb82548	-1.4386377
7	0xbf30959d	-0.6897829
8	0x3eb1dbef	0.3473811
9	0x3d6e7550	0.058217347
10	0x3f54e2ef	0.83158773
11	0xbf804076	-1.0019672
12	0xbf8cd868	-1.1003542
13	0x3eb394d8	0.35074496
14	0x3f096bfc	0.53680396
15	0x3e769724	0.24081093
16	0x3f1f89d6	0.62319696
17	0x3f1814ae	0.59406555
18	0xbf879411	-1.0592061
19	0xbfa5cebc	-1.2953715
20	0x3f424505	0.75886565
21	0x3f146778	0.5797038
22	0x400a0705	2.1566784
23	0xbf6bdd91	-0.9213496
24	0xbf12cabb	-0.5734059
25	0x3d84e20f	0.0648843
26	0xbf83c51e	-1.029453
27	0xbf2b6dc6	-0.66964376
28	0x3efe77d3	0.49700794
29	0xc01b9fce	-2.4316287
30	0xbf846e71	-1.0346204
31	0x3d0657c3	0.03279854
32	0x3ef118d8	0.47089267
33	0xbf5faa4c	-0.8736923
34	0x3f07d95a	0.5306603
35	0x3ec2fbf4	0.3808285
36	0xbe74f435	-0.23921283
37	0x3eda2ca4	0.42612183
38	0x3f023481	0.50861365
39	0xbff3e343	-1.905373
40	0xbf8a0ced	-1.0785195
41	0x3f209b96	0.62737405
42	0xbf8c6d43	-1.0970844
43	0x3f1bf289	0.60916954
44	0xbfb55a73	-1.4168228
45	0xc05d9d40	-3.4627228
46	0x3eb09f6e	0.34496635
47	0x3ef0823d	0.46974364
48	0x3ed6c551	0.41947415
49	0xbf8eb27f	-1.1148223
50	0xc0178191	-2.367283
51	0x3e8837c2	0.2660504
52	0x3ec3e701	0.3826218
53	0xbf28ae7a	-0.6589123
54	0x3de1eabc	0.110311
55	0x3f3f9750	0.7484026
56	0x3f414236	0.75491655
57	0x3eca99e3	0.3957053
58	0x3f4461ff	0.7671203
59	0x3ee5d058	0.44885516
60	0x3d8a7f39	0.06762547
61	0x3d71553e	0.058919184
62	0xbf76842a	-0.96295416
63	0x3f49dbe2	0.7885114
64	0xbf020a99	-0.5079742
65	0x3e401943	0.18759637
66	0xbf58b486	-0.84650457
67	0x3eb70a21	0.35749915
68	0xbfd507bf	-1.6642989
69	0x3eb3f59c	0.35148323
70	0xbfb2f3df	-1.3980674
71	0x3f16c29f	0.5889072
72	0xbed66e9b	-0.4188126
73	0x3efe7566	0.49698943
74	0x3f583541	0.8445626
75	0xbf4b79ad	-0.7948254
76	0xbf484264	-0.78226304
77	0x3e3e3f66	0.18578872
78	0x3db2ba87	0.087269835
79	0xbf51613e	-0.81789005
80	0x3f2d8506	0.677811
81	0x3f94214a	1.1572659
82	0x3f098763	0.5372221
83	0x3f2a6a79	0.66568714
84	0x3ecebd2e	0.40378708
85	0xbf6965b1	-0.91170794
86	0x3e7b93d7	0.24568115
87	0xbe2da494	-0.16957313
88	0x3d304795	0.043037016
89	0xbf92a229	-1.1455737
90	0xbe131261	-0.1436248
91	0x3e3ad21a	0.1824421
92	0x3f053601	0.5203553
93	0x3f3844f1	0.71980196
94	0x3f024136	0.50880754
95	0x3f34222d	0.7036465
96	0xbfbf3d60	-1.4940605
97	0xbf03d2c4	-0.5149348
98	0x3f1091fc	0.56472754
99	0x3ffe721f	1.9878577
100	0xbfa04670	-1.2521496
101	0xbfdb5774	-1.7136064
102	0x3de8c62c	0.11365923
103	0x3edaf76a	0.42766887
104	0x3ed4ad05	0.41538253
105	0xbf9e8801	-1.2385255
106	0x3ed45b5e	0.41475958
107	0x3f28fad6	0.66007745
108	0xbf039e5e	-0.51413524
109	0xbfc3484e	-1.5256441
110	0x3d5ede99	0.054411504
111	0xbfe3d1de	-1.7798421
112	0xc0369637	-2.8529184
113	0x3d6b569d	0.057455648
114	0x3d569654	0.052389458
115	0x3f154a5a	0.58316576
116	0x3d69d1c2	0.057084806
117	0xc03f3b3e	-2.9879909
118	0x3ec64dab	0.3873113
119	0xbecd0c98	-0.4004867
120	0x3ef4ec5b	0.47836575
121	0xbf355205	-0.70828277
122	0xbfe655da	-1.799495
123	0x3db5c570	0.08875549
124	0x3fc457eb	1.533933
125	0xbff8e54f	-1.944498
126	0xbfbad0de	-1.4594991
127	0xbfc47699	-1.5348693
128	0x3e142aa2	0.14469388
129	0xbebad1c4	-0.36488163
130	0x3eb29fef	0.34887645
131	0xbf99126f	-1.195875
132	0xbee8ab1d	-0.4544305
133	0x3f17fa7a	0.5936657
134	0xbf2a31fe	-0.6648253
135	0x3dc1893b	0.09450003
136	0xbe26a590	-0.16274095
137	0xbfda3e96	-1.705035
138	0x3dc8a2e0	0.09796691
139	0xbf196628	-0.59921503
140	0xbf825b03	-1.0184025
141	0x3f421425	0.7581199
142	0xbfadfc0a	-1.3592541
143	0xbededa41	-0.4352589
144	0xbfa73c76	-1.3065326
145	0xbfee902e	-1.863775
146	0xc036c0ac	-2.8555098
147	0x3dac1597	0.084025554
148	0x3f021e24	0.5082724
149	0x3d880451	0.06641448
150	0x3eed6ead	0.463735
151	0x3edf259d	0.43583384
152	0x3f2e76b6	0.6814989
153	0xbfbb6b75	-1.4642168
154	0xc0153f45	-2.3319867
155	0x3f3b06a5	0.73057014
156	0xbf4dcaf7	-0.80387825
157	0x3d22b21f	0.03972065
158	0x3f47e666	0.78085935
159	0x3faf7c1f	1.3709754
160	0x3f24b477	0.6433787
161	0xbfb17b2d	-1.3865715
162	0x3ec4e603	0.38456735
163	0x3ea1f578	0.3163259
164	0x3ed70b8e	0.42001003
165	0x3e950e0a	0.29112273
166	0xbf2c0edf	-0.6721019
167	0xbf86dbb1	-1.0535794
168	0x3f3a53f6	0.72784364
169	0x3f0875f5	0.5330499
170	0x3eb4ec4c	0.3533653
171	0x3d1624ae	0.036656074
172	0xbf27e2dc	-0.65580535
173	0xbfd4f3f8	-1.6636953
174	0xbed94e0a	-0.42442352
175	0xbfcce774	-1.6008134
176	0x3dcdfd1b	0.10058042
177	0x3ce5a608	0.028033271
178	0x3dcad7e1	0.09904457
179	0x3f384543	0.71980685
180	0x3f1e7e79	0.6191173
181	0xbf8eda29	-1.1160327
182	0x3f073130	0.5280943
183	0xbf6577d5	-0.89635974
184	0x3f22556b	0.6341159
185	0x3ef5354e	0.4789223
186	0xbf509d96	-0.8149046
187	0xbf8e17a3	-1.1100963
188	0x3d93de59	0.07220144
189	0x3f355580	0.7083359
190	0x3f3b0af8	0.7306361
191	0x3e86071f	0.26177308
192	0x3f4a9ac5	0.7914241
193	0xbf6ef608	-0.93344164
194	0x3f053f1a	0.5204941
195	0xc00432d6	-2.0656028
196	0x3d8df690	0.06931794
197	0x3f9232d8	1.1421766
198	0x3e792f7b	0.24334519
199	0xbff6eadf	-1.9290427
200	0xbff5dcf6	-1.9208057
201	0xc00d4f7c	-2.2079763
202	0x3de6fcf0	0.11278713
203	0xbfac3d6c	-1.3456244
204	0x3ea62bcb	0.32455286
205	0x3ffddf7a	1.9833825
206	0xc0266fe8	-2.6005802
207	0x3f09f603	0.5389101
208	0x3f086997	0.5328612
209	0x3f521c22	0.8207418
210	0xbfa3b1d6	-1.2788646
211	0x3e955a1b	0.29170308
212	0xbf9ed47a	-1.2408593
213	0xbec35ef1	-0.38158372
214	0x3e4be827	0.19912778
215	0xbf25c1da	-0.6474892
216	0x3ea25e87	0.31712744
217	0x4008da88	2.138338
218	0x3f07aebb	0.5300099
219	0x3f3c3fbb	0.73534745
220	0xbfc4acc5	-1.5365225
221	0xbfa10e90	-1.2582569
222	0xbfc6a9d3	-1.5520576
223	0x3ef32eb5	0.47496572
224	0x3f2e3474	0.6804879
225	0x3eddaad5	0.43294397
226	0x4017c00e	2.371097
227	0xbf2d5ba1	-0.6771794
228	0x3f11fe61	0.57028776
229	0x3e6c892f	0.23099206
230	0xbf887d44	-1.0663228
231	0x3e90b181	0.28260425
232	0xbfc5d27b	-1.5454859
233	0x3ed0d1ba	0.4078501
234	0xc027e797	-2.6235101
235	0x3d9a9e74	0.07549754
236	0xbfc43f2c	-1.5331779
237	0xbfeda6b0	-1.8566494
238	0xbfd469c1	-1.6594774
239	0x3f0a2126	0.5395683
240	0x3f816235	1.0108095
241	0x3f27560c	0.6536567
242	0x3dd055ca	0.10172613
243	0xbf4657d2	-0.77477753
244	0x3ea9a512	0.3313375
245	0x3fa2323a	1.2671578
246	0x3f18dd1b	0.5971238
247	0xc0211951	-2.5171702
248	0x3d974233	0.073856734
249	0x3ea4ac0c	0.3216251
250	0xbf73a34e	-0.9517106
251	0xbeb8edf5	-0.36119047
252	0xbeaba7fd	-0.33526602
253	0x3f0273aa	0.5095774
254	0x3eaf6fc4	0.34264958
255	0xbff3ee31	-1.9057065

obs_std f4 [39]
0	0x3e60084f	0.2187817
1	0x3e8054fd	0.2506484
2	0x3fbbd362	1.4673884
3	0x3fe486cf	1.785364
4	0x3fc7e22e	1.56159
5	0x3e8f8dbc	0.28037822
6	0x3e66f0e6	0.22552833
7	0x3e8a96ed	0.27068272
8	0x3e8eadcc	0.27866971
9	0x3e897016	0.26843327
10	0x3e8b55bc	0.27213848
11	0x3e8fa7ac	0.2805761
12	0x3e672ce5	0.2257572
13	0x3e8913c6	0.26772898
14	0x3e8d34a7	0.27579233
15	0x3e8a9fd0	0.27075052
16	0x3e89c909	0.2691119
17	0x405bc377	3.4338052
18	0x40520ab6	3.2819037
19	0x40a4bb79	5.147885
20	0x40976b3d	4.7318406
21	0x40a9f305	5.3109155
22	0x409bf49e	4.8736105
23	0x405b0306	3.4220595
24	0x40508a40	3.258438
25	0x40a45b65	5.1361566
26	0x409784cd	4.734961
27	0x40aa4c76	5.3218336
28	0x409b2d40	4.8492737
29	0x3f24d076	0.64380586
30	0x3f43e28e	0.7651757
31	0x3e6547d7	0.22390686
32	0x3e895585	0.2682306
33	0x3e88fe65	0.26756588
34	0x3e5d8788	0.21633732
35	0x3e84b16a	0.25916606
36	0x3e889861	0.26678756
37	0x3ebedb1f	0.3727655
38	0x3ed511da	0.41615182

obs_mean f4 [39]
0	0x3bda79b7	0.0066673416
1	0x3cb67a32	0.022275064
2	0x3c925428	0.017862394
3	0xbc4c1ec2	-0.012458505
4	0xbd289b54	-0.041163757
5	0xbf12e896	-0.5738615
6	0xbd814da6	-0.063136384
7	0x3bbbd712	0.0057324255
8	0x3f737fb6	0.95116746
9	0x3c1a4478	0.009415738
10	0xbedd3c1a	-0.43209916
11	0xbf0f7624	-0.56039643
12	0x3d6b90dd	0.0575112
13	0xbbad9803	-0.005297662
14	0x3f7137ca	0.9422575
15	0xbc892d25	-0.01674516
16	0xbed733f6	-0.4203183
17	0xbdc560c6	-0.09637599
18	0x3d936703	0.07197382
19	0x3c654795	0.013994117
20	0x3e79d91a	0.24399224
21	0x3c2a37fc	0.010389324
22	0xbc9e9628	-0.01935871
23	0xbd68da14	-0.0568486
24	0xbda1e527	-0.079050355
25	0xbd210aba	-0.03931687
26	0x3e609bbb	0.21934406
27	0xbcfa1a46	-0.030530106
28	0x3c9a4db2	0.018835876
29	0x3b9288da	0.0044718804
30	0xb9c475ec	-0.00037471892
31	0x3df349b1	0.1187929
32	0x3e4c9faf	0.1998279
33	0xbc01e41b	-0.00792792
34	0xbb84c809	-0.0040521664
35	0xbf26d196	-0.6516355
36	0xbf270131	-0.6523619
37	0x3c13b413	0.009015101
38	0x3b9e6ead	0.004834971
