trained/h1_walk/actor_37699.pt (torch, 308593 bytes, 9 tensors)

weight f4 [256, 28]
00000000: c8aa adbd 71ea 923d f436 97be 2574 c13d
00000010: 89c1 bbbc 5c6e fa3e b17f f33d 2677 923d
00000020: 1bb2 18be 446a 04be 90d9 d7bd 0a7e 163d
00000030: 503b 79bd 47b8 653d 36fc b0bd dc2d 813e
00000040: 9184 2b3f 6bbd 203e e37e 34be abcc a7be
00000050: b975 1fbf 223e e1be ccae 2d3e 23c0 48be
00000060: 4f03 32bf fb06 4b3e c1fb 91bd 47ed ac3e
00000070: 86b5 6dbe cc9b d5bd 2cd8 133e 2175 cfbe
00000080: c732 68be f3c9 71bd 5483 47bd 74ea 223e
00000090: b6e5 31be b75d 203d 6c1d b03b cee0 34be
000000a0: e746 f83c e9ed 49be bbc4 0a3e eab6 813e
000000b0: 14a6 c83e b00e f43e ff8a 6cbd 1354 743e
000000c0: 4dcf 05bf c879 9cbe 2962 2cbe d5e9 ecbb
000000d0: da5f 56be b270 acbd d95f 56be 1415 5bbd
000000e0: f496 9b3d 8824 493d 543d 1c3e d16f d6be
000000f0: c0a9 993d a4b8 a5be 23be 853e da06 53be
00000100: b662 a03d c711 be3e be77 513e 8aa7 c4be
00000110: b021 193f f1c2 5d3e 8793 073f bb78 81be
00000120: d190 c33e 0f9a 66bf 63d7 c8be 80cb 833e
00000130: bd9a ea3d 3963 f3bc 231a ebbe 4402 04be
00000140: cc49 86be d21c 9ebd 7e23 da3e 2f2a da3d
00000150: 7b73 513e 99af 843d 6f38 7b3e f3fe 88be
00000160: 577e 6ebe c15e 563e db30 2a3d 9c7e 67be
00000170: f834 e1bc 7b08 823e f33d 2cbe cb0f 333e
00000180: 3f0a 3abe 8f13 a5be f561 533e 4317 85be
00000190: 2369 35bf 7a1f e0be 69cc 163f c3a1 f03e
000001a0: 16ce 863d ce29 94be b666 bbbd a631 23be
000001b0: 717d 0ebe c4df f0bd 6d9b 75be a14a bd3e
000001c0: b6b3 2e3c 54b6 223e 082a 5cbe 08e3 943e
000001d0: f80e 413d 7e10 c63e a994 0b3e 3392 1e3f
000001e0: 09fc 223e 7248 39bf 8c2a 413c 186d 3b3e
000001f0: 487b a4be 8573 85be b471 033e 3ca7 bc3e
00000200: b3d4 303e 6901 e83e 9ba8 a13e e6c0 14bf
00000210: 1d3e 19be 81c9 b9be 94ef 00be c995 8fbe
00000220: f066 583e 3970 eabd 9f15 153e df2c 67be
00000230: 4472 fc3e 3883 96be 5aec e8bd d8e3 96be
00000240: 3bb5 9bbe d1d5 6dbe 1423 ca3e 4daa 823d
00000250: 019c 00bf b9d4 263e 6dd8 81be fa40 de3e
00000260: 3f5c 96be 20e2 66bd 7a75 c33e 777f c7be
00000270: 2663 70be 38e8 9cbe 270a 48be e865 783e
00000280: ea64 39bf f67e 133e 6182 37bf 49b4 223e
00000290: 3097 d43e ec5c ebbd e2a0 8cbd be75 5b3e
000002a0: 75fb b5be d02e 903e 5737 b13d d867 48bb
000002b0: 45d7 b0be d40f 27be 0e23 6e3e 55ae 633d
000002c0: 56d0 2b3e 0f96 6d3d b448 e5bd 1e8b 13bf
000002d0: 2ded a2bd a782 653e 0f0a bd3d 0591 f7be
000002e0: aad6 7cbe 10f2 bbbd b50d 0b3c 9a92 01bf
000002f0: 8e23 96be b220 efbe af92 d03d 1796 733d
00000300: 9aa4 0c3f 4879 ea3e 81ac 7d3d 4056 0ebd
00000310: 7d94 bebe 6156 b63d 216b b83d 96af c43d
00000320: 4c5f 5e3d 9c43 45bd 0fc0 28be dd1b b23e
00000330: efbb 38be 8ef7 1ebf 48e2 8f3e 92c3 983c
00000340: 4ac7 783d ee8b a4bc 51f3 673e 7834 173e
00000350: 8d60 383e 01c4 423f 2cf4 e9bd 0851 e9be
00000360: cb97 4f3e 2ed6 013d 4aa4 c73e c1da a7be
00000370: fb76 ab3e b243 cdbd 588a 6a3e 8b2e 0f3e
00000380: b39d d03d 3d7a 5d3c 5b2a e03e ea47 8e3e
00000390: e09b 63be 9564 bf3d c151 c3be 5c55 6abf
000003a0: f76b 7dbc 3e5b 2a3f e8ae 663e 8917 303f
000003b0: e84a 65be 5d6b 8dbe cb74 7f3e bcb7 cb3e
000003c0: 938a 29be cf79 abbe 76b0 443e 9bc4 3c3e
000003d0: e4f9 c33e ee68 dc3d 04a2 2c3e 9ec4 eabc
000003e0: 566e 023f 1c27 85be eb9b 91bd 578c 4d3c
000003f0: 85c7 873d 111f aa3e 0147 e83d bd4e 313d
-0.084798396 0.071736224 -0.29534113 0.09445981 -0.022919433 0.48912323 0.118895896 0.07151632
-0.14911692 -0.12931162 -0.10539544 0.036741294 -0.06084758 0.056083944 -0.086418554 0.252303
0.66999155 0.15697257 -0.17626528 -0.32773337 -0.62289006 -0.43992716 0.16961211 -0.19604544
-0.695363 0.19826882 -0.07128096 0.33774778 -0.23213777 -0.104301065 0.14437932 -0.4051905
-0.2267562 -0.059030484 -0.04870923 0.1590975 -0.17372784 0.039151873 0.005374601 -0.17663881
0.030307246 -0.19719662 0.13551609 0.25334865 0.39189208 0.47667456 -0.057749745 0.23860197
-0.5226944 -0.30561662 -0.1683432 -0.0072300234 -0.20935002 -0.084199324 -0.20935 -0.0534869
0.075971514 0.049107105 0.1525777 -0.41882184 0.0750308 -0.32367432 0.26121625 -0.20608082
0.078313276 0.37122938 0.20455834 -0.38409072 0.5981703 0.21656395 0.52959484 -0.25287423
0.38196424 -0.90078825 -0.39226827 0.25741196 0.11455295 -0.029710399 -0.45918378 -0.1289149
-0.26228178 -0.07720341 0.42605203 0.10652577 0.20454209 0.06478805 0.24533246 -0.2675701
-0.23290382 0.20934583 0.0415505 -0.22606891 -0.027491078 0.25397095 -0.16820507 0.17486493
-0.18167971 -0.32241485 0.20642836 -0.2599431 -0.7086355 -0.43774015 0.58905655 0.46998414
0.065822765 -0.28938144 -0.0915045 -0.15936908 -0.1391504 -0.1176143 -0.23985071 0.36971
0.010662964 0.15889865 -0.21500409 0.2907946 0.047133416 0.38684458 0.13630928 0.6194183
0.15916456 -0.7237617 0.011789929 0.18303335 -0.32125306 -0.26064697 0.12836343 0.3684634
0.17268638 0.45313576 0.31573948 -0.5810684 -0.149651 -0.36286548 -0.12591392 -0.28043965
0.21133018 -0.11447186 0.14559029 -0.2257571 0.49305928 -0.29396987 -0.113732055 -0.29470706
-0.30411705 -0.23226096 0.39479887 0.063801385 -0.50238043 0.16292085 -0.25360432 0.43408948
-0.29367253 -0.056367993 0.38175565 -0.38964435 -0.23475322 -0.3064592 -0.19535123 0.24257624
-0.7241961 0.144039 -0.7168332 0.15889086 0.41521597 -0.11492333 -0.068666235 0.21431634
-0.3554341 0.28160715 0.08653133 -0.0030579474 -0.34539238 -0.16314632 0.2325556 0.055586178
0.16778693 0.058004435 -0.11195508 -0.5763415 -0.07955394 0.22413121 0.09230434 -0.4835283
-0.24691263 -0.09177029 0.008487155 -0.5061432 -0.29324 -0.46704632 0.10184228 0.05946931
0.5493866 0.45795655 0.06193209 -0.034750223 -0.37222663 0.08903194 0.09004808 0.09603803
0.0542901 -0.04816018 -0.16479515 0.34786883 -0.18040441 -0.6209649 0.28102326 0.018647943
0.06073693 -0.020086255 0.22651412 0.14766109 0.18005581 0.7608033 -0.11423525 -0.45569634
0.20272748 0.0316984 0.3899253 -0.32784083 0.33489212 -0.100226775 0.22904336 0.13982598
0.10186329 0.013517913 0.43782315 0.2778924 -0.2222743 0.093453564 -0.3814831 -0.915365
-0.015467635 0.66545475 0.22527659 0.6878591 -0.22391856 -0.27620974 0.24946897 0.39788616
-0.16556768 -0.3349137 0.1920794 0.18434374 0.3827659 0.10762201 0.16858679 -0.028658208
0.5094961 -0.260064 -0.07109817 0.012545667 0.06629852 0.33226827 0.11341668 0.04328798

bias f4 [256]
00000000: 8a2d fabd e172 8b3c 32f6 aabd c73a 42be
00000010: c9db 803d 2540 18bd 4f3d 40be 62b6 41be
00000020: 8716 a7bc 1cf4 d2bc 37ba 50be 088e 46be
00000030: e44c 5dbe d06f 54be d77c 37be 91f5 d43d
00000040: 3c34 14be 8c8c 0abe fa47 14bd 4228 4fbc
00000050: 370f 44bd 9a20 a8bd bba9 2abe e1fd 77bd
00000060: a9e4 f3bd d240 59be 4ad3 88be fad9 0b3d
00000070: 91ae 8ebe 993f d23c 1954 30bd c84e b73d
00000080: e357 9bbe 72b5 9c3d bc60 a6bd d50d a9be
00000090: 609d 06be e1f4 eabd d000 a6bc 0db5 e6bd
000000a0: 58c3 803d 5a21 9d3d 3968 063e cff3 3b3e
000000b0: cb63 0abd 89de 11be fd36 06be e868 37be
000000c0: c57b 9f3d 407f 1cbe d4b8 3f3d a709 98bd
000000d0: b031 8fbe 2c1f 863e 603f 09bd 5a6c 40bc
000000e0: d2ea 723d 56ed d9bd 900d d2bd f251 24be
000000f0: 57e4 53be 7379 b1bc b7a7 353e e511 a4bd
00000100: 7eea 06bd 55c1 edbd 0e8e 63be e68c 8b3a
00000110: 185f 1bbe beb2 99bd 9823 15be 9f06 c83d
00000120: f927 1ebe a9e9 233e fd83 4bbe 7434 2bbe
00000130: 95ad 20be db4f 82bd dc35 15be 7767 1cbd
00000140: 761f 60be fd74 df3c a0be 1cbc c20b 62be
00000150: c6e7 7cbd a796 1bbe 74f6 79bd 3694 443e
00000160: 3268 4dbd 6885 21be ef6b 94bd 7029 5dbe
00000170: 5751 943d d7de 75bd 3041 f2bd be72 a2bd
00000180: 3452 9ebd 08f5 3b3e 0090 52be caa0 f43c
00000190: d359 54bd 69f2 8abd 3add e1bd fb66 46be
000001a0: 6ebe d4bd 7fc8 82be 6584 2ebe 3c94 76be
000001b0: dd21 babc 2b11 83be 785b 22be 6bac 4e3d
000001c0: 0dc5 043e d02d 18be 7b90 1f3d d85f 86be
000001d0: 4ebc 263b 4d4c efbb 009a 1fbe 6797 203d
000001e0: eee2 e1bd 0bf6 173b dc1c 1cbd b1c1 e2bd
000001f0: f397 e5bd a012 ebbb e024 873c 27e9 c03d
00000200: 3305 c9bd 2575 48be 7fc7 91be 692c bcbd
00000210: de70 65be bd27 583d 1724 69be faf5 47be
00000220: af83 4bbe c85d 84be 6673 4fbe cf99 00bd
00000230: d9df 56be 0818 c7bd dd2f 19be ff94 1bbe
00000240: 127d 38bd 0756 ae3b 5484 403d 9ebc 11be
00000250: bcb7 883d 5f01 92bd 5fb2 9abb 0b65 32be
00000260: e7b4 eb3d 835f e43d 9ece 25be 65d4 89be
00000270: 753d 8abd 7ee3 91be bb40 3cbe ddea 87be
00000280: 6b7a 04be c0f5 06bd 9fe2 26bd 1c01 ccbe
00000290: 0206 28bd 16f5 58be 540d bcbd 2fbd 2ebe
000002a0: 9ff0 53bd 8280 ff3d 4d4d 0d3e 082a e9bd
000002b0: 1cbc dbbc fb67 1abe bad0 37be 376f 10bc
000002c0: 3768 35be e5c4 f4bc 6313 79be 317d 61bb
000002d0: 7327 78bd ba4d 4ebd 23cb 013d f407 38bd
000002e0: 9347 99be 6784 393c 900f 8339 ae97 9f3d
000002f0: d1e7 2dbd 13ae aebe 8d83 c53d 8323 35be
00000300: 3e80 fe3d b951 26be 1d8e 65bd 497a 04be
00000310: 6517 d73d 302c f8bd 4af2 b1be 40be a43c
00000320: 28fa 74bd c935 3bbe 23b0 0bbe da83 8dbe
00000330: af53 13bd c488 6bbe 676e c6be 1246 a9bd
00000340: b0ba 17be f8a0 a5bc 83ec 4a3d a385 a23b
00000350: 9fe2 2bbe af72 6ebd eec9 75be f787 8abc
00000360: 7899 a0bd dbcb b5bd 3f86 2cbe d3e4 63be
00000370: 6d44 93be 1d45 04bd 5de1 3d3e ea96 61bd
00000380: 197f dcbd f68d 10be d396 74be 3d64 873d
00000390: 1c8b 893b af3e 77bd ba3e 70bd 8515 0f3e
000003a0: 8971 223c a62d 2c3e 34f8 30bb c33b 1b3e
000003b0: 6845 ffbd 44c1 98be bdcd 1a3e df8c d83d
000003c0: 5ff6 c538 4278 fcbc 7ed7 d63d b58a dcbb
000003d0: cc47 f0bd 1bea 873c 7e74 f7bc 5b53 24bb
000003e0: acc8 313d 5e9d 3cbe 34e7 e83c 5f1f a6bd
000003f0: 60ab a73d bbcc e8bd 1694 1fbe 81f8 88bc
-0.12215717 0.017022552 -0.08347739 -0.18967734 0.06291921 -0.037170548 -0.18773387 -0.1891723
-0.020396484 -0.025751166 -0.20383535 -0.19390118 -0.21611363 -0.20745778 -0.17918716 0.103984006
-0.14473051 -0.13530177 -0.036201455 -0.012643876 -0.047866073 -0.08209343 -0.1666631 -0.060544852
-0.11908848 -0.21216133 -0.267237 0.034143426 -0.2786756 0.025665091 -0.04304895 0.08950573
-0.3034049 0.076517954 -0.08123919 -0.33018366 -0.13145971 -0.11472488 -0.02026406 -0.112650014
0.06287259 0.07672377 0.13125695 0.18354724 -0.033786576 -0.14245047 -0.13106914 -0.17911112
0.07787279 -0.15282917 0.046807125 -0.07423716 -0.27967596 0.26195657 -0.033507705 -0.011744583
0.059305973 -0.10640971 -0.10256493 -0.16046885 -0.20692573 -0.021664357 0.1773976 -0.080112256
-0.032938473 -0.11609141 -0.22222158 0.0010646849 -0.15172994 -0.075047955 -0.14564359 0.09766888
-0.15444936 0.16007103 -0.19874568 -0.16719228 -0.15691216 -0.063628875 -0.14571327 -0.03818461
-0.21887001 0.027277464 -0.009566933 -0.22074798 -0.061744474 -0.15194188 -0.06102605 0.19197163
-0.050148197 -0.15773547 -0.07247149 -0.21597838 0.07242077 -0.06002697 -0.1182884 -0.079320416
-0.07730523 0.18355191 -0.20562744 0.029861826 -0.051843476 -0.06784517 -0.11028524 -0.19375221
-0.10387884 -0.2554359 -0.17042692 -0.24079984 -0.022721225 -0.25599036 -0.15855205 0.0504574
0.12965794 -0.14861226 0.038956147 -0.26244998 0.0025441828 -0.007302797 -0.1558609 0.03920689
-0.110296115 0.0023187425 -0.03811346 -0.110721 -0.11210623 -0.007173851 0.016497076 0.0941947
-0.09815445 -0.19575937 -0.28472516 -0.09188158 -0.22406337 0.052772272 -0.22767673 -0.19527426
-0.19874452 -0.258528 -0.20258865 -0.031396683 -0.20983829 -0.097213805 -0.14959665 -0.15193556
-0.04504115 0.005320314 0.047001198 -0.14232108 0.066756696 -0.07129168 -0.0047209705 -0.17421357
0.11509114 0.1115103 -0.161921 -0.26919857 -0.06750003 -0.28493875 -0.18384068 -0.26546374
-0.12937324 -0.03294921 -0.040743466 -0.39844596 -0.041021354 -0.21187243 -0.0918223 -0.17064355
-0.051743146 0.12475683 0.13799019 -0.1138497 -0.026823096 -0.15078728 -0.17950717 -0.008815578
-0.17715536 -0.029879043 -0.24323802 -0.0034406895 -0.060584497 -0.050367095 0.031687867 -0.04492946
-0.2993742 0.011323071 0.00024997862 0.077926025 -0.042457405 -0.34117183 0.09644232 -0.17689328
0.12426804 -0.16242112 -0.056043733 -0.12937273 0.10502509 -0.12117803 -0.34755164 0.02011025
-0.05980888 -0.18282236 -0.1364141 -0.27639657 -0.03596848 -0.2300139 -0.38756105 -0.08265318
-0.1481731 -0.020218357 0.04954196 0.0049597784 -0.16785668 -0.05821484 -0.24002811 -0.016910536
-0.07841772 -0.08876773 -0.16848086 -0.22255258 -0.28763142 -0.032292474 0.18543 -0.055075563
-0.107664295 -0.14116654 -0.2388566 0.06610916 0.0041974913 -0.060362514 -0.05865357 0.13973053
0.009914764 0.16814288 -0.002700341 0.15159516 -0.1246441 -0.2983495 0.15117545 0.10573744
9.439582e-05 -0.030819062 0.104903206 -0.0067304024 -0.11732444 0.016591122 -0.030206915 -0.0025074098
0.043404266 -0.18419406 0.028430559 -0.08111452 0.08186984 -0.11367174 -0.15583834 -0.016720058

weight f4 [256, 256]
00000000: 0f0b 9abd 2f92 793e 3f27 453d 4a28 983d
00000010: 4b63 c83d f5d1 66be 46d8 1dbe 7c53 ebbc
00000020: 2be5 87bd 258f 48bd 5889 923d 935b 95bd
00000030: cf6d c3bd 5630 e83d 9e0f 7d3e 7eaa 58be
00000040: 60b2 1a3d 4fe7 733d a6aa 1b3e e180 4c3e
00000050: 2a72 35be cb44 5cbe a6a0 7e3d 891e 773e
00000060: b98d 97be cda4 d0bc 95b2 793e bd86 68be
00000070: 6741 953e 33c2 8ebe a3e2 a53e 2b53 6cbe
00000080: c2fb 7e3e bc1b bfbe bd3f a4bd 9a38 18be
00000090: 5138 f33a 8b63 2dbe 196c 1f3e 9eaa 003e
000000a0: 49c9 49bd df1e 7fbe c19e 683e 18e3 df3d
000000b0: 3392 8bbd 13fc e2bd 261e ba3e 1e9d c0bd
000000c0: 150b 8ebd 55d3 c13d 787a b6be 5381 fcbd
000000d0: aa6f fb3d 2b28 8fbe c9c2 b9be 7841 2dbd
000000e0: 3ead 87be b6b7 703d a948 2f3e 733a 8dbd
000000f0: 9acd 133c 4f8b 44be d71d 5fbe 61e8 a9be
00000100: 44ac 0c3e 3b58 b3bc 8590 b33d fca5 b9bd
00000110: b8b2 9dbd d9ae fabd 9854 e8be 48b9 76bd
00000120: 2e03 21be 901c 10be 448b 03be 7f42 183c
00000130: 2f9d 7abe f819 3c3e 1223 b33d 2d7d b43d
00000140: da3e 5bbb 913f b4be d2e6 c6be ea3d 3bbe
00000150: 2d7f 3abe b0b0 e0b7 caa7 03be e8d7 55be
00000160: fb50 213e 95fa 4c3c 56e1 173e 503b 32be
00000170: 3bab 13be 1005 0b3e 0253 6e3e eb81 133e
00000180: a547 47be 498c d9be 643e 20be 7260 0abd
00000190: d783 3d3e d1bd 383e 347f 2fbe 10fe 94be
000001a0: 8c6b 253e 42db 85be e59e 943d 3a14 2abd
000001b0: fa75 493e 9512 193c 99f7 1ebd fafd 1ebe
000001c0: ad1c b43d 9932 db3d 29d5 a3be 78c6 36be
000001d0: b673 9e3e ac6c 4e3e 5af8 6dbe 30eb 58be
000001e0: d10f 53be 1b95 3fbe a642 8cbe 1f70 0f3e
000001f0: 364c b7be efbe 64be b818 8dbe f00b b33e
00000200: f2e1 55be f5fd 6abe 9885 50be a0a4 71bc
00000210: fec9 32be c37a 33be 04da 6abd 1ff4 bb3d
00000220: 1757 88be b701 0b3e f303 7fbb 198f 2e3e
00000230: a54f 253e 15d4 80bd a7a3 9dbe e560 5cbe
00000240: 8553 3ebd 4fff afbe 36a8 33b9 8cd7 aebe
00000250: def2 3cbe 6bb6 b8be 8c7d 8bbd ab28 d8bd
00000260: c022 e9bb 2360 13be e500 3bbd a73b 5f3c
00000270: 2671 a2be 8f11 e5bd 7c78 acbe 4abc 3d3e
00000280: 31ae cbbd b070 81bd c100 1a3c e01c efba
00000290: 610c 17be 27d2 17be 3dde c53d 6478 28bd
000002a0: 9ac0 d5be 8450 9a3d 863e b1be 0517 26be
000002b0: ddef a7be f643 313e 9432 573e d722 25be
000002c0: 6b2c 84bc bbf0 2abe 24e5 8fbd 45d8 dfbd
000002d0: fc8a ecbd a71b 4c3e 5ab3 fabe 031a 77bd
000002e0: 4608 2fbe 77c6 93be fcdd bfbd df54 16be
000002f0: 812e 2f3d d989 0dbe 919c f3bd 84a5 473d
00000300: ef91 6a3d 51fa ebbd b8f7 80be e143 77bd
00000310: b369 c8be ebec 93bd d6eb 98be cd98 e1bd
00000320: 60a2 3cbe d922 d4be a422 123e d946 643e
00000330: f6bc 973e cb13 b7bb fd90 c3bd 8194 77be
00000340: d5cf 38be bbe1 11be fa1a c2bc 0990 c43b
00000350: aa75 033d a626 a1be 126e 69be 09ba 363d
00000360: 7542 02be 4be2 433e a6b4 a1bd 370c 38bd
00000370: 0a78 cbbd e943 a63c 8ef0 40bc 77dd d1bd
00000380: 129c b9bd d6d8 80be ac63 a43d 5c5e 093d
00000390: 6d4b babd 8b0b a1be 76c6 8cbe 6b24 dabc
000003a0: 7532 89be 1e8b e43d 719f 84bd 2cd3 a1be
000003b0: e034 17bd 9755 fd3d c6db b0be 391c d43d
000003c0: 482c 8b3e 848c cfbe 3758 f8bd 96b0 a9bd
000003d0: 802b 92be 375f 03be a430 5fbe 409b ad3d
000003e0: dbc0 07bc a3ce 46be b264 3ebe 9894 57bb
000003f0: 3de4 df3c 34d3 36be fcbf 9f3d d649 2d3e
-0.075216405 0.24372171 0.04813313 0.074295595 0.09784564 -0.2254103 -0.15414533 -0.028726332
-0.06635507 -0.04896464 0.071551025 -0.07292857 -0.09542429 0.11337344 0.24712989 -0.21158788
0.037767768 0.059546765 0.15201816 0.19971038 -0.17719331 -0.21510617 0.062164925 0.24132742
-0.29600313 -0.025469208 0.2438453 -0.22707649 0.2915146 -0.27882537 0.32399473 -0.23078601
0.24900725 -0.37325847 -0.080199696 -0.14865342 0.0018556212 -0.16932504 0.1556858 0.12565085
-0.049264226 -0.2491412 0.2271681 0.109319866 -0.06814995 -0.110832356 0.36351126 -0.09404968
-0.069357075 0.094641365 -0.3564031 -0.12329354 0.122771576 -0.27960333 -0.36281422 -0.042298764
-0.2649936 0.05876895 0.17117561 -0.06895914 0.009021187 -0.19193767 -0.21788727 -0.33185104
0.13737589 -0.021892658 0.08767799 -0.09064862 -0.077001035 -0.12240381 -0.4537704 -0.06023529
-0.15723869 -0.14073396 -0.12846094 0.009293198 -0.24474023 0.18369281 0.087469235 0.08812938
-0.003345421 -0.35204747 -0.38847977 -0.18285337 -0.18212576 -2.6785157e-05 -0.12856975 -0.20883143
0.15753548 0.012510915 0.14832053 -0.17405438 -0.14420788 0.1357615 0.23273852 0.14405029
-0.19460924 -0.42489842 -0.156488 -0.033783384 0.18507324 0.18041159 -0.17138368 -0.29100084
0.16154307 -0.26143843 0.07256869 -0.041523196 0.1967391 0.009342809 -0.038810346 -0.15526572
0.08794532 0.1070301 -0.31998566 -0.17849147 0.30947655 0.20158643 -0.2323927 -0.21183467
-0.20611502 -0.18709223 -0.273946 0.14007615 -0.35800332 -0.2233846 -0.2755792 0.34970045
-0.20886973 -0.2294844 -0.20363462 -0.014748722 -0.17459866 -0.17527299 -0.057336822 0.09177422
-0.26628944 0.13574873 -0.0038912266 0.17046775 0.16143663 -0.062904514 -0.3078892 -0.21521337
-0.04646637 -0.34374472 -0.00017133434 -0.34148824 -0.18452021 -0.36076674 -0.068110555 -0.10554632
-0.007114738 -0.14392142 -0.04565515 0.013625062 -0.3172695 -0.1118499 -0.33685672 0.18528858
-0.09945334 -0.063203216 0.009399594 -0.0018242858 -0.14750816 -0.1482626 0.09661529 -0.04113044
-0.41748506 0.075348884 -0.34618014 -0.16219719 -0.3280019 0.17311081 0.21015388 -0.16126572
-0.016134461 -0.16693394 -0.07026127 -0.10929922 -0.11549947 0.19932424 -0.4896496 -0.06032754
-0.17093 -0.28862354 -0.09368512 -0.14680813 0.04276896 -0.13822116 -0.11895097 0.048741832
0.05726808 -0.115223534 -0.25188994 -0.06036747 -0.39143142 -0.07222923 -0.2986743 -0.110154726
-0.18421316 -0.41432837 0.14271027 0.22292651 0.29636353 -0.0055870763 -0.09549139 -0.24177743
-0.18048032 -0.14246266 -0.023694504 0.0059986156 0.032094635 -0.314748 -0.22795895 0.04461101
-0.12720664 0.19129293 -0.07895784 -0.044933524 -0.09935005 0.020296054 -0.011776103 -0.10247319
-0.09062971 -0.25165433 0.080268234 0.033537254 -0.090964176 -0.3145412 -0.27495164 -0.026628694
-0.26796308 0.11159347 -0.064757235 -0.31606424 -0.03691566 0.123698406 -0.34542674 0.103569455
0.2718222 -0.40536892 -0.12126201 -0.08285634 -0.28548813 -0.1282929 -0.21795899 0.08476877
-0.008285726 -0.19414763 -0.185931 -0.0032894965 0.027330512 -0.17854005 0.0780029 0.16922697

bias f4 [256]
00000000: d7c4 c43d 982f 1fbd abc5 113e fb98 043e
00000010: 3dd6 83bd 3cdd 633c 5a4a 3b3c ca65 ef3d
00000020: 9998 033c a7ff 743d fc9e b73c 9ccc 843c
00000030: 0af6 6ebd 8cc4 f13c 160b f33d f817 2e3d
00000040: 8780 293e 1ebe 01be 02ba a8bc 2532 bf3d
00000050: e33a 903d 29fa ae3d 2737 6a3e a9fd 643d
00000060: 6a7e efbc 1638 d03d 18e0 993d 9baf b3bd
00000070: f723 da3d bd85 063e 6c3d 083d c565 653d
00000080: 7bb0 8c3e d80f c9bd 3437 95bc 3861 2dbd
00000090: 1370 9a3d c01b 3c3e 03e0 15bd f25e 5a3d
000000a0: d4b8 583e 7cd0 353e b883 b93e 954a 64bd
000000b0: 9f6d 2a3e 7fd0 d93c fb63 cc3d 3e60 3a3e
000000c0: c511 a7bd a119 b03c 1ff2 af3d 46b7 a63c
000000d0: 567e 2e3e d186 4c3e dca4 cdbd 03b7 97ba
000000e0: 138a 013e cebc 0c3e ec5a aabd c0ec 473d
000000f0: 64ba 74bd 2607 29bc 312e 92bd c1c1 74bd
00000100: 3dc0 923d 1730 16bd 4c50 bb3d 67ab 113e
00000110: 2a78 dd3c a274 bd3b ad5b 083d 55ab 6f3d
00000120: 8833 e7bc 1548 c53d 6708 a03e 6351 c7bb
00000130: ea52 213e 5346 3ebd d480 4d3e 89a8 03bd
00000140: 72b2 e13d 612b 073e 1e11 87bd 937b 113e
00000150: c656 073e f227 4dbe df86 243d f747 70bd
00000160: 31bb aa3d f3ca 1e3e 2ce3 f43d cbcb 39bc
00000170: 2395 293d 2f63 2a3e f6cf 073d 353d 59bd
00000180: 7d5e aebd 7db3 823d 807c 9cbd 0e9a ca3d
00000190: f59e a63e 94bf 423d 9e34 da3d 5203 f63d
000001a0: 22df 383e 9d43 463d 5c16 3bbd 1f57 fd3d
000001b0: f9fc bd3b 577d 74ba 6030 433d 10ad 873e
000001c0: 8998 2a3d 3a9f 54bc 9604 063e 5d65 023e
000001d0: 47fe c33d 5c3e 153d d66e 4d3e 4cac bd3d
000001e0: 9332 333e a2ae 3cbc fe67 723e 8cf8 81bb
000001f0: b6c9 813d 9ce5 553e 97f7 643c 2ad2 783d
00000200: 0677 b13e bce8 993d 9074 cb3d e4a3 2c3e
00000210: b1ec b43c 017e 6b3c 1677 1a3e 7228 b5bc
00000220: a7d3 0f3e 64a0 5d3e 9682 bebd f77f 70bc
00000230: 4be5 79bd c489 d53c 10e2 bfbb 7443 c33e
00000240: 2f68 473e 1673 023e b8f2 3f3e eb8c 1f3d
00000250: 3cd7 233e 1453 a03d 41f5 c13d 4a43 683d
00000260: b115 323e 8921 8fbc 965f a23d 865c 743e
00000270: 5a6f 33bd 11e9 b33d 1c72 9b3d c3f9 973e
00000280: 7951 e13c 35d5 ef3d 601a 043e 732e 2d3e
00000290: 37be a83d 7c70 b53b ac82 073d e46e 2abd
000002a0: c337 ac3d 7ceb 1f3e c228 d93c 63e9 e3bc
000002b0: f5ea 04bd bf4b fdbd d71e f83c f3bb 983e
000002c0: 1b00 8c3e 8dd9 d93d c1ab 283e 17c0 a4bd
000002d0: 8ffd 80bd e635 e2bc d881 62bd 50aa 5b3d
000002e0: 7065 c13b 3469 bf3d efa5 b43e 0008 66bd
000002f0: 34ed d33b 28bd 073d 9189 a4bd 8d10 55bd
00000300: e10e e5bc d7d6 37bd 1656 1fbd b419 223d
00000310: fcac 813e 265c 35bd fae2 a23e d0b7 1b3e
00000320: 2307 693e 2a50 ba3c 120d f33d 7260 8d3d
00000330: ba03 0dbc 0ffc 3fbd 6d6a fbbb da9e 213a
00000340: 82d3 2a3c 92de 423e c82e 18bb 74f0 283c
00000350: 60b1 413e d737 333d 7d50 42bd 4552 65bd
00000360: 3961 933c dea4 85bd 3758 ed3d 1783 5ebd
00000370: 410c 4dbd 009f e03d a179 883e f4df 1fbd
00000380: 34dd aa3d bb82 d23c aad2 4cbd 5cd9 9a3c
00000390: 823f b53d 1b26 48bd fd33 4d3c 2507 173e
000003a0: c715 023e 3aa1 1b3c e158 80bd 7b8b 003e
000003b0: d5e9 62bd 2ffd ee3b 573f f4bd fb08 bebd
000003c0: 285e c9bb fdd6 043e c150 fe3b 7146 b73e
000003d0: 5217 683c a28d ea3d 0c85 8c3d 57e3 053e
000003e0: a477 b2bb 9e60 963e d454 8c3b 1d50 ffbd
000003f0: 0c2e 4fbc f922 6bbc ac3f 3e3e c7e6 673d
0.09607857 -0.03886375 0.1423556 0.12948982 -0.06437347 0.013907727 0.011431301 0.116893366
0.008031988 0.05981412 0.022414677 0.016210847 -0.05834011 0.029512666 0.11867349 0.042503327
0.16552936 -0.1267018 -0.020596508 0.09335736 0.07042482 0.08543808 0.22872601 0.05590597
-0.029235084 0.101669475 0.075134456 -0.087737285 0.10651391 0.13136955 0.0332617 0.056005258
0.27478394 -0.09817475 -0.0182148 -0.042329043 0.07540908 0.18369961 -0.036590587 0.053313203
0.21164256 0.17755312 0.36233306 -0.05573519 0.1664338 0.026588676 0.09980007 0.18200776
-0.08157686 0.021496596 0.08591103 0.020351063 0.17040381 0.19973303 -0.1004121 -0.0011574927
0.12650327 0.13743898 -0.08318123 0.048809767 -0.05974807 -0.010316646 -0.071377166 -0.05975509
0.07165573 -0.036666956 0.09146175 0.14225541 0.027034838 0.005781726 0.033290554 0.058513004
-0.028222814 0.09632889 0.3125641 -0.0060827 0.15754285 -0.046453785 0.20068675 -0.03214315
0.11020364 0.13200141 -0.06595062 0.14207296 0.13216695 -0.20034769 0.040167686 -0.05866238
0.08336485 0.15507106 0.11957392 -0.011340092 0.041401993 0.16639398 0.03315731 -0.053036887
-0.08514116 0.06381891 -0.07640934 0.09892665 0.3254315 0.047545984 0.10654567 0.12012352
0.18053868 0.048404325 -0.04567562 0.12370133 0.005797979 -0.00093265384 0.047653556 0.26499224
0.041649375 -0.012977416 0.13087687 0.1273398 0.09569984 0.036436424 0.20061812 0.09261379
0.17499761 -0.011516245 0.23672482 -0.0039663967 0.063373014 0.2088837 0.013975046 0.060747303
0.3466112 0.07515094 0.09934342 0.16859394 0.02208552 0.014373303 0.1508449 -0.022114012
0.14045583 0.21643215 -0.09302251 -0.014678947 -0.061009686 0.026066668 -0.005855806 0.381374
0.19473337 0.12739214 0.18744934 0.03895275 0.16000074 0.07828346 0.094706066 0.056704797
0.17391087 -0.017472045 0.07928388 0.2386342 -0.043807365 0.08784688 0.07590124 0.2968274
0.02750467 0.11710588 0.12900686 0.1691225 0.082394056 0.005537091 0.033083603 -0.04160966
0.08409073 0.15617174 0.026508693 -0.027821248 -0.032450635 -0.12367963 0.030288143 0.29830894
0.2734383 0.10637198 0.16471769 -0.08044451 -0.062983625 -0.027613591 -0.05529961 0.05362922
0.005901985 0.09346238 0.35282847 -0.056159973 0.006467486 0.033139378 -0.08034051 -0.052017737
-0.027961196 -0.04488262 -0.038900457 0.039575294 0.2532729 -0.044277333 0.31813794 0.15206838
0.22756629 0.022743303 0.11867727 0.06903161 -0.0086068455 -0.04687124 -0.007672599 0.00061653333
0.010426404 0.19030216 -0.0023221243 0.010311235 0.1891532 0.043754425 -0.04744004 -0.05598666
0.017990695 -0.065255865 0.11589091 -0.054324236 -0.050060514 0.10967827 0.26655295 -0.039031938
0.083429724 0.025697103 -0.050005592 0.018902473 0.08850004 -0.048864465 0.012524602 0.14748819
0.1270362 0.009498889 -0.06266952 0.12553208 -0.05539878 0.0072933654 -0.119261436 -0.09279057
-0.0061452575 0.12972637 0.0077610915 0.3579593 0.014165716 0.114527956 0.06861314 0.13075005
-0.005446391 0.29370588 0.0042825732 -0.12466452 -0.012645256 -0.0143516 0.18578976 0.05661657

weight f4 [10, 256]
00000000: bc5c 30bd 46ad b13d 3569 373e f145 2d3e
00000010: 96a4 3e3c 728e 96bd 2317 cfbd 41cd 6a3d
00000020: 52d6 80be cda6 043d 8c7e 0a3e 46b7 a53e
00000030: 6482 e23d f75f afbe 2538 29bc ed54 88bd
00000040: 77da 3d3c 0c00 1c3e 9fed b73e 80c0 6b3d
00000050: 1226 98be df58 9a3d 50de dbba 263e fe3d
00000060: bc6a a3bd 0612 b9bc 7860 81bd f43a 953d
00000070: 33e8 bc3e e954 ffbd 52dc 213e bd6e ff3d
00000080: 1c20 93be bd1c febb c688 b23d 7f3e 5ebc
00000090: 2858 6fbe f5b5 2c3e f964 813e 8f17 833c
000000a0: 78eb c5bc 4fdd 79bd 8f8a 8d3b 074b d0bd
000000b0: 36da 25bc ba8d 86bd e8d3 c1bd ba4e aabb
000000c0: c96a 9dbd 1cef bb3e 4975 053e 3d5d 50be
000000d0: e1f7 6dbb 4e71 9abe 6004 2ebe 787e b73e
000000e0: 6912 5b3c 5a65 cfbd 7e39 8d39 0a19 4a3d
000000f0: 6aa1 fbbd 106a 9c3c 543e fd3d 01ee 083e
00000100: c811 b7be d18f 04bd 3a5f 15be 6b6d 173e
00000110: 7e61 3ebe 8dd7 d23e 598b 6a3e dcd4 db3d
00000120: 1c4a 443d 9a69 063d 5370 593c 4fa9 7f3d
00000130: 20fd efbb e119 c93d fffc 3ebe 95d2 683d
00000140: db4b d63d 27d9 9ebe 3a89 b0bc 2cb6 173d
00000150: f886 a0bd a931 bcbd 9e9a 20be 3359 1bbe
00000160: 38cf b9bd 3c8e 6cbc 506e 343e 4d5b e4be
00000170: 2d38 aabe 4af0 6cbd e71e 05be 858e 333b
00000180: 2e58 e33d 6d3d e63d 6dec 81bd a55c 93bd
00000190: f446 b4bc c7ad 8bbe 6f66 ef3d b4de e83d
000001a0: b46a 363d cb36 ce3c 813a 9d3d 16d2 263e
000001b0: 1351 7b3e 004d 1dbc 6a54 4d3e 5ab1 873d
000001c0: 10a3 193e bbfc 96bd c2b6 073d 7c3d b63d
000001d0: 8c15 4bbb 08af 893d 20c5 ccbd 0266 9fbd
000001e0: 132b 25bc 815b 843e 9403 633e baba 85bd
000001f0: fee2 a5bd ebdd 583c 79f5 8ebe 7ca9 59be
00000200: dfa6 b5bd 3991 01bd fee7 0b3e 2f1f 4f3e
00000210: 1749 9d3d 9c83 5fbe 2b3d 933d 4335 72be
00000220: d40e 863d 5951 8fbd 6075 12bc dee2 bdbc
00000230: b6f9 0dbe 7dd8 a13d 158a 5ebc 1501 d9bb
00000240: 528d 10be f55e 07bc 4886 233e 2004 903d
00000250: 80b5 8a3e bb77 483e a36e a2bd 4217 68bd
00000260: b265 5a3d 3f51 d7bd 824f dfbd 4f2b dc3e
00000270: 8710 de3d edcd 973d 4798 1abe 2b3f 803e
00000280: 45c8 5d3e b705 613e 4362 83be a6de 863c
00000290: 1dbe f83d 5e50 b33d 06f6 43be 85ef f1ba
000002a0: b001 8a3e e92d 3a3e 63fa 113e 639f 5abe
000002b0: e90e 4e3e b5e0 cc3d 0913 743a f9e3 b1bb
000002c0: 5bdd 933d 39b1 9a3b 9760 a2bd f1c8 013c
000002d0: b49d e2bc 45af f0bd ec52 5fbd 55b6 233c
000002e0: 4c56 013e 8fb8 a33e 4db1 51bc 4831 b7bd
000002f0: b27c 543e 3835 c93d fa0b 2d3e d4e4 ac3d
00000300: 19d9 7d3c 1de3 b0be 8110 67be ef44 373c
00000310: c43d 6c3e 128c 55bd fa01 cebc 0ef7 b4bd
00000320: f207 ef3d d179 ce3d 3020 a3bd e555 0fbe
00000330: 3b58 eb3d 218e 83bc d669 593e f9e7 373d
00000340: 03d5 213e 9fbb 893d 8138 f2bd 7f11 dfbd
00000350: bd05 b53d f583 203d e381 5b3c 62f7 7a3e
00000360: f2d0 193e 714b 273e 5059 e73d 5e23 b4be
00000370: 571c c1be 89e9 e2bd cb76 783d cf6e f0bd
00000380: 4b49 24be dde9 2cbe c197 033e 3908 87bd
00000390: 2591 763d ac77 c9bd fee2 c63d cadb 153e
000003a0: b906 873d 439c 20bd 49bd 03bd 65a6 f1bc
000003b0: 4000 883d 07bf b23d 17d2 05be 2a65 813d
000003c0: 9191 383e 7e4d 893d eea6 2fbd 30a8 36bd
000003d0: 05d7 c5be e22b 8ebd f1cd 053e ac2e 5abd
000003e0: 0577 c43d f591 2dbd 106d 6cbe d483 2fbc
000003f0: 0a0d eebd 2c79 45be 89ad 91be 3491 a8bd
-0.04305719 0.086756274 0.17911227 0.16921212 0.01163592 -0.07351388 -0.10111835 0.05732465
-0.25163513 0.032385636 0.13524836 0.3236639 0.11060026 -0.34252903 -0.010328327 -0.06656823
0.011587731 0.15234393 0.35923478 0.05755663 -0.29716545 0.07536482 -0.0016774628 0.124141976
-0.07979342 -0.022591602 -0.06317228 0.07286635 0.36895904 -0.12467367 0.15806702 0.124722935
-0.28735435 -0.0077548907 0.08717494 -0.013564705 -0.23373473 0.16866286 0.2527235 0.016002445
-0.024160132 -0.061002072 0.004319496 -0.1017056 -0.010122826 -0.06570001 -0.09464246 -0.005197373
-0.07686383 0.36705863 0.13033022 -0.20348068 -0.0036311077 -0.3016457 -0.16993856 0.35838675
0.013371089 -0.10126753 0.0002693645 0.049340285 -0.12286647 0.019093543 0.12365404 0.13372041
-0.35755754 -0.032363717 -0.14587107 0.14787833 -0.18591878 0.41180077 0.2290472 0.10733959
0.04792224 0.032815553 0.013271409 0.062417325 -0.007323876 0.09819389 -0.18651198 0.05684145
0.10463687 -0.3102505 -0.02154981 0.037038967 -0.07838243 -0.091891594 -0.15683982 -0.15170746
-0.09072727 -0.014438208 0.17620206 -0.44600907 -0.33245984 -0.057846345 -0.1300007 0.002739818
0.11100803 0.11242185 -0.06343923 -0.07195405 -0.02200649 -0.2728102 0.116894595 0.11370602
0.044535354 0.025172612 0.07677174 0.16291079 0.24542646 -0.009600878 0.20051733 0.06625624
0.1500361 -0.07372423 0.033133276 0.08898446 -0.0030988185 0.06722838 -0.09998536 -0.07783128
-0.0100810705 0.25851062 0.22169334 -0.06529756 -0.08099936 0.013236503 -0.27921656 -0.2125606
-0.08869719 -0.031632636 0.13662717 0.2022674 0.076799564 -0.21827549 0.07189401 -0.2365313
0.06545797 -0.06997938 -0.008939117 -0.023179468 -0.13864788 0.0790262 -0.013582726 -0.0066224434
-0.1411641 -0.008262386 0.15969193 0.07032037 0.270916 0.19576924 -0.079312585 -0.056662805
0.05331964 -0.10513543 -0.10903837 0.43001792 0.10842996 0.07412324 -0.15097152 0.25048193
0.21658428 0.21974836 -0.25660905 0.016463589 0.12145636 0.08755563 -0.19136819 -0.0018458223
0.26954412 0.18181576 0.14255671 -0.21349864 0.20122875 0.10003797 0.0009310698 -0.005428788
0.072199546 0.0047208336 -0.07928579 0.007921443 -0.02766309 -0.1175218 -0.05452244 0.009992202
0.12630576 0.31976745 -0.012798619 -0.089449465 0.20750692 0.09824604 0.168991 0.08442083
0.015493655 -0.34548274 -0.2256489 0.011185869 0.23070437 -0.052135535 -0.025147427 -0.088361844
0.11671437 0.100818284 -0.07965124 -0.1399761 0.11491438 -0.016058983 0.2123178 0.04489896
0.15803914 0.06725239 -0.118271835 -0.10892009 0.08838985 0.039188344 0.013397667 0.24508432
0.15021113 0.16337372 0.11296332 -0.35183233 -0.37716934 -0.110796995 0.060660165 -0.11739885
-0.16043584 -0.16886087 0.12850858 -0.06593365 0.060197014 -0.09837279 0.09711264 0.14634624
0.06593079 -0.039211523 -0.03216294 -0.029498288 0.06640673 0.08727842 -0.13068424 0.06318124
0.18024279 0.067042336 -0.042883806 -0.04459399 -0.3864061 -0.06941964 0.13066842 -0.053267166
0.09593014 -0.042375524 -0.23088479 -0.010712583 -0.11623581 -0.19284505 -0.2845271 -0.0823082

bias f4 [10]
00000000: 8d73 213d b670 9bbd 38c3 f4bc 8e1e f2bd
00000010: 42ba 2c3e 1900 303c f5ca 2c3d 8850 44bd
00000020: 04d4 c7bd dcab 063e
0.03941684 -0.07589857 -0.029878244 -0.11822234 0.16867927 0.010742211 0.042185742 -0.047928363
-0.09757236 0.13151497

stds f4 [10]
00000000: 1d5a 643e 1d5a 643e 1d5a 643e 1d5a 643e
00000010: 1d5a 643e 1d5a 643e 1d5a 643e 1d5a 643e
00000020: 1d5a 643e 1d5a 643e
0.223 0.223 0.223 0.223 0.223 0.223 0.223 0.223
0.223 0.223

obs_std f4 [28]
00000000: cdcc 4c3e cdcc 4c3e 0000 803f 0000 803f
00000010: 0000 803f 0000 003f 0000 003f 0000 003f
00000020: 0000 003f 0000 003f 0000 003f 0000 003f
00000030: 0000 003f 0000 003f 0000 003f 0000 8040
00000040: 0000 8040 0000 8040 0000 8040 0000 8040
00000050: 0000 8040 0000 8040 0000 8040 0000 8040
00000060: 0000 8040 0000 803f 0000 803f 0000 803f
0.2 0.2 1.0 1.0 1.0 0.5 0.5 0.5
0.5 0.5 0.5 0.5 0.5 0.5 0.5 4.0
4.0 4.0 4.0 4.0 4.0 4.0 4.0 4.0
4.0 1.0 1.0 1.0

obs_mean f4 [28]
00000000: 0000 0000 0000 0000 0000 0000 0000 0000
00000010: 0000 0000 0000 0000 0000 0000 cdcc 4cbe
00000020: 9a99 193f cdcc ccbe 0000 0000 0000 0000
00000030: cdcc 4cbe 9a99 193f cdcc ccbe 0000 0000
00000040: 0000 0000 0000 0000 0000 0000 0000 0000
00000050: 0000 0000 0000 0000 0000 0000 0000 0000
00000060: 0000 0000 0000 003f 0000 003f 0000 003f
0.0 0.0 0.0 0.0 0.0 0.0 0.0 -0.2
0.6 -0.4 0.0 0.0 -0.2 0.6 -0.4 0.0
0.0 0.0 0.0 0.0 0.0 0.0 0.0 0.0
0.0 0.5 0.5 0.5
