trained/h1_walk/actor_35399.pt (torch, 308593 bytes, 9 tensors)

weight f4 [256, 28]
00000000: 3a8f 0cbe 47da de3d b227 a2be 9c82 0c3e
00000010: ed5f f4bd 7001 e83e 0d9f e93d 828b b03d
00000020: 7d0b 24be 9578 eebd 9e78 14be c61c 583c
00000030: 88b6 c6bc aa5f 173b 8d32 34bc 5d29 b23e
00000040: e9cc 293f 5c27 043e 2e18 6abd ea88 50be
00000050: 47c0 1bbf 5877 dfbe baaf af3d fa32 04be
00000060: c062 16bf 6cd8 7b3e 7142 603d a146 a53e
00000070: 8cf3 92be b814 ffbd eac6 0e3e f50e e8be
00000080: 4f94 6cbe 4efa 21bc df1b 95bd bcf0 073e
00000090: f9b7 2fbe 672d 9e3d 1aac 0b3b 47fb 83be
000000a0: 1709 fb3d c3ac 86be 49a4 1f3e a95f 4d3e
000000b0: 0de3 9b3e 388b 023f 9a97 b8bd be23 473e
000000c0: cb0c 17bf 20c2 9abe 48b6 bdbd df43 cfbb
000000d0: 5606 bebd 747a bdbd 12b1 bfbd b0a8 87bd
000000e0: be1f cb3d 06a6 973d 322c c73d 3a68 dcbe
000000f0: fbd3 9e3d 397c a5be 8d4f a43e c30d 92be
00000100: a3e5 383e 0f1a 813e dbed 333e c266 b8be
00000110: 8c67 033f 2f2e 9f3e 7df7 eb3e 0bdf a4be
00000120: 851c db3e 07f9 5ebf 2ee8 94be 4c7b 493e
00000130: ee0d d1bd 0bcf b53c 4fae edbe 98ce 2fbd
00000140: 87d4 5bbe f2ac b9bd 72b7 dc3e ac36 8a3d
00000150: c865 7d3e 9950 83bd 3922 a23e e8a7 81be
00000160: dcf1 cfbe 5691 543e 15d0 073d 0637 adbd
00000170: 85e3 343d bcab 1b3e cb49 22be d259 033e
00000180: 26cf aabd 47e6 78be c224 d23d a9c4 5dbe
00000190: d82b 33bf 0539 eebe 9f20 f33e b33e a93e
000001a0: c022 273e 2dfe 9ebe 4de6 b8bd ad73 39be
000001b0: 4d78 ccbd cf2e febd 8314 9ebe 48da a43e
000001c0: 9450 2dbd bb78 633e 6601 02be 9dd5 783e
000001d0: 791a 8b3c 8806 b93e 9307 c23d c0e2 103f
000001e0: 82a3 e83d 41fa 23bf 70cf c4bc aa46 823e
000001f0: 7969 a0be d5e7 92be d1c0 143e 56a1 e33e
00000200: c656 a63d 9d82 e63e 8a94 ad3e 143f 1dbf
00000210: b8ae 8fbe e158 fabe 4967 1ebe 2276 58be
00000220: e592 f03d 3c0a 96bd 6f85 d03d 6046 2bbe
00000230: 4565 0b3f ad3a b0be 9d44 c5bd ac71 9fbe
00000240: f223 a3be 309a a4be d10e b83e 3775 bd3d
00000250: f4ae dabe 3b92 913d 652e 4ebe 959b 9c3e
00000260: 025c 8fbe 6c6d cebb eac6 9d3e 7738 8bbe
00000270: 1a42 abbe 9b5d 85be bf7a 88be 6c04 f73d
00000280: 81b8 39bf 92ab c53d 5f53 2abf b305 2b3e
00000290: bea5 bd3e 1661 35be 3f25 c3bd b96e 253e
000002a0: 387c 87be e4fe 8e3e cdbd df3c af13 3fbc
000002b0: 47f0 edbe 0558 2fbe 2c78 483e ceec db3d
000002c0: 25f9 043e 73ba cd3d e9c8 86bd 2307 34bf
000002d0: df9f 2a3c 95f1 023e af56 123e 8622 d4be
000002e0: 61a1 6abe 81ec 81bd f32f b13c 3db5 01bf
000002f0: 1897 5bbe 22b7 c1be 7f89 db3d 001e 063d
00000300: 366c 1d3f cc83 8a3e 4aee 233e ca62 c4bc
00000310: 634f b9be 0b3f 1abc 6e6f 6d3e a95b f23d
00000320: 2428 653e 431c 86bd 2049 48be d924 e63e
00000330: f114 2abe b179 22bf efd9 8a3e 3797 4ebd
00000340: 4fe2 c03d b4e7 92bc 1a77 593e 5f8d 6f3d
00000350: a7f6 263e 3bb0 443f 60a2 6bbe 8b6e e5be
00000360: f40f 8f3d 3bdc d23c 9f66 903e 0260 6dbe
00000370: 8815 833e d83f c2bd 132f a63d 332c 053e
00000380: a00d e33d a6de 613d f6f3 f13e 1703 303d
00000390: a703 70be eceb a53d d8fc bfbe adca 5abf
000003a0: ff6d 7abd 64e5 2e3f ae59 4e3e b232 1a3f
000003b0: c8bb 63be b144 9abe a286 863e fb26 f23e
000003c0: 6ba4 4bbe 9486 6abe af8a 713e 3f80 3d3e
000003d0: 15f6 bb3e 8da8 f4ba e4c8 a53e 153d bebd
000003e0: fbd1 bd3e 0f70 36be 096d 7fbd b5b3 d63d
000003f0: 1623 1c3e 6414 963e fcb5 673e a74c 00be
-0.13726512 0.10881477 -0.3167091 0.13721699 -0.11932359 0.45313597 0.1140729 0.08620359
-0.16020007 -0.11644093 -0.14499137 0.013190454 -0.02425696 0.0023097792 -0.01099838 0.34797183
0.66328293 0.1290564 -0.057151966 -0.20364729 -0.60840267 -0.4364574 0.08578439 -0.12910071
-0.5874443 0.24594277 0.054750863 0.32280448 -0.28701437 -0.12455124 0.13943067 -0.4532391
-0.2310345 -0.009886337 -0.072807066 0.13275427 -0.17160024 0.077235036 0.0021312297 -0.25777647
0.12257593 -0.26303682 0.15590014 0.20056023 0.30446663 0.5099368 -0.09013291 0.19447228
-0.59003896 -0.3022623 -0.09263283 -0.0063252295 -0.09278552 -0.09251872 -0.09359945 -0.066239715
0.09918164 0.07404713 0.097252265 -0.4304827 0.07755276 -0.32321337 0.32091942 -0.28526124
0.1805635 0.25215194 0.17571203 -0.36015898 0.51329875 0.31089923 0.46087256 -0.32201418
0.42795196 -0.87098736 -0.2908339 0.1967594 -0.10207735 0.022193452 -0.4642205 -0.042921633
-0.21467791 -0.0906619 0.43108708 0.06748709 0.24745858 -0.06411857 0.31666735 -0.25323415
-0.40614212 0.20758566 0.033157427 -0.084577605 0.044162292 0.1520223 -0.15848462 0.12827232
-0.08340292 -0.24306594 0.10260917 -0.21657051 -0.69988775 -0.46527877 0.47485825 0.33055648
0.1632185 -0.31053296 -0.090283014 -0.18110533 -0.09983883 -0.12411272 -0.30875024 0.32197785
-0.042313173 0.22214024 -0.12695846 0.24300237 0.016980397 0.36137795 0.09474101 0.56595993
0.11359312 -0.6405373 -0.024024695 0.25444537 -0.3133047 -0.286925 0.14526679 0.44459027
0.081220195 0.45021525 0.3390239 -0.61424375 -0.28062987 -0.48895934 -0.15469088 -0.21138814
0.11746768 -0.07326171 0.101817004 -0.16726065 0.544514 -0.34419766 -0.096322276 -0.31141412
-0.31863362 -0.32148886 0.35948804 0.092508726 -0.42711604 0.071079694 -0.20134886 0.3058745
-0.27999884 -0.006299665 0.30815822 -0.27191517 -0.3344887 -0.26047978 -0.26656148 0.1206139
-0.72547156 0.09651865 -0.66533464 0.16701393 0.37040514 -0.17712817 -0.095285885 0.16155519
-0.2646196 0.2792884 0.027312184 -0.011662408 -0.4647238 -0.1712342 0.19577092 0.10738526
0.12985666 0.10045328 -0.06581289 -0.7032339 0.010414093 0.12787469 0.1429088 -0.4143259
-0.22913124 -0.06343938 0.02162931 -0.5066717 -0.21444356 -0.37835032 0.10719585 0.032743454
0.6149324 0.27053678 0.16008869 -0.023972888 -0.3619338 -0.009414445 0.23187038 0.11833889
0.22378594 -0.06548359 -0.19559145 0.44949988 -0.16609551 -0.63466936 0.27119395 -0.05043718
0.09418165 -0.01793275 0.2123684 0.05848443 0.16305028 0.76831406 -0.2301116 -0.448109
0.06985465 0.02573978 0.28203294 -0.23181155 0.25602365 -0.094848335 0.081144474 0.13005142
0.11086583 0.055143975 0.4725644 0.042971697 -0.23438893 0.08101639 -0.37497592 -0.8546551
-0.061140057 0.6831877 0.20151398 0.60233605 -0.22239602 -0.30130532 0.26274592 0.47295365
-0.19886939 -0.229029 0.2358806 0.18505953 0.36711183 -0.0018665955 0.3237983 -0.09288994
0.37074265 -0.17816184 -0.062359843 0.10483495 0.15247759 0.29312432 0.22628015 -0.1252924

bias f4 [256]
00000000: ceeb 18be 010f 0f3c 382e 0cbd 5980 f8bd
00000010: 8210 4a3c 2eda 3b3d 00d9 52be 2d20 14be
00000020: 1f50 d4bd 498b 83bd c3f0 39be f600 3fbe
00000030: 331f 5dbe 707d 80be cf7c 2abe 453d c13d
00000040: 8662 3dbe f232 c6bd f861 5d3d 24a0 0b3d
00000050: 28c1 21bd 6072 26ba 68bc 12be 61ee aabd
00000060: c6cc 87bd 5b7a 5bbe d133 18be 4652 e13d
00000070: 02ba 60be 5dbf 613d 1a4b aebc 655f b23d
00000080: 7f08 4bbe 7675 ef3b 2933 11be bf40 95be
00000090: e958 1ebe afb3 90bd fd64 04bd a4ef 6cbd
000000a0: b59b b83d bb36 a83d 682f f73d 0edb 1b3e
000000b0: 1723 4ebd 6b74 07be 4329 bdbd 7925 3cbe
000000c0: 4233 cd3d 7465 edbd 884d 1b3d 4109 00bc
000000d0: 94d9 a0be 6297 623e 4c3c a2bc a26c 983c
000000e0: 0c9e aa3d 1b75 17be 3a26 80bd 7331 3cbe
000000f0: a501 ffbd 59ac 85bc c614 a63d a5c0 61bd
00000100: 6748 85bc e65d c8bd 50ab 45be 68cc 133c
00000110: ff42 1ebe d18e a7bc 88b5 13be 3966 423d
00000120: 5409 7cbe 2311 1f3e ff2e 88be 084c 08be
00000130: 8371 46be 0af3 1a3a d69a 2bbe ce35 e83c
00000140: 21b3 67be b5af ca3c 8820 b1bc d9e2 72be
00000150: a64e 50bd 6c0e 02be c309 debc aad8 2d3e
00000160: 898f df3b 578c 14be b603 babd 8eae 13be
00000170: 5ffc 7f3d 8524 c83b c85d 3ebe de1e 11be
00000180: d22c 8cbd 3a09 053e b328 0cbe f6b2 363d
00000190: d929 25bd a3c8 94bd 20bd 39bd 9d6a 6dbe
000001a0: 7d50 a3bd 75c1 3cbe be3c 44be db98 24be
000001b0: cdd5 e6bd 5a20 2dbe 86e4 dabd 4113 c13c
000001c0: f0d9 3f3d f451 3ebe a25c 00bd 05be 56be
000001d0: 7c30 1c3d e54b c9bd a117 52be 2315 bd3b
000001e0: 7bd5 e0bd 3cc1 093d 2558 eebb 31fd 2bbe
000001f0: fe3b c6bd 3e2a b7ba 84a6 a83c f800 ef3c
00000200: 1f05 11be 78f5 3abe c7b2 6cbe 34cf 01be
00000210: 3050 09be 853c 413d a288 7fbe 2a62 e1bd
00000220: 57b8 46be ef1f 6ebe 5369 22be 8f01 35bb
00000230: ca64 3dbe 08f6 48be ced4 6abc 9636 0ebe
00000240: d8ec 86bb 5003 b23d 9c8b f33d 4075 c1bd
00000250: e44f 173e eeb8 abbd 1fdb 03bd 25cd 1bbe
00000260: 7c4a ca3d adaa db3d 7541 02be 9f93 0ebe
00000270: 2b8d c6bd 60ce 76be d402 27be 2eb9 6fbe
00000280: 7258 e9bd e962 c2bc d620 7abd 3e06 00bf
00000290: 3adb 99bd bd5a 63be 611f 47bd 2187 4abe
000002a0: f5ea c8bd 039f ff3d fa19 853d b619 06be
000002b0: db3c c7bc bc1d 72bd a84f 18be 2ea5 03be
000002c0: 79f2 cfbd 2590 883d e7c3 5ebe 54b0 9bbd
000002d0: a591 cebc 85be 5cbd 05cf f93c ecc3 75bd
000002e0: 7bc3 53be d6b5 f53c 4b4e 7e3b 1886 d13c
000002f0: 441f 85bd 61c9 86be 47d5 be3d 2ae3 1bbe
00000300: 8dae c43d b2e8 3cbe a023 15bd 07dc 1fbe
00000310: f093 e13d cb45 aabd 66fc 4abe a175 2abd
00000320: 8083 c8bd fe0e 7bbe 976e 62be ec67 60be
00000330: f7cc bb3d 5709 8abe 85e8 a7be 8832 10bd
00000340: 0b5b ecbd 30ae a1bd 7479 7bbc f95a b7bc
00000350: c00e a2bd e516 24bd fc9e 51be c32a babd
00000360: b293 97bd c2a4 afbd 7d30 1dbe 2137 5abe
00000370: 2b4b 5dbe 1716 22bd 74ff 433e 5b3b a0bd
00000380: 8b87 edbb 62d3 38be de87 16be dca3 053e
00000390: c38a a13d 92cc 79bd a50b 89bd 00ef 3e3e
000003a0: d8ab 213d 6bd7 1d3e cae4 f43b 901d cd3d
000003b0: f24f a5bc daf5 79be 675a 9c3d bfb8 a03d
000003c0: c043 0c3d 07c2 83bc 1261 023d b670 90bd
000003d0: b968 febd b9f7 f83d 4c92 443a ad9d c2bb
000003e0: 4dbd 513d c5f0 8bbe 7208 793c d7c5 67bd
000003f0: 1102 923d 05e9 b8bd 8beb 85be b5dd c53b
-0.14933702 0.008731605 -0.034223765 -0.121338554 0.012333037 0.04586237 -0.20590591 -0.14465399
-0.103668444 -0.06423051 -0.1815825 -0.1865271 -0.21593933 -0.250957 -0.16649173 0.09435514
-0.18494615 -0.09677686 0.05404851 0.03408827 -0.03949085 -0.00063494407 -0.14329684 -0.083462484
-0.06630854 -0.21433394 -0.14863516 0.110020205 -0.21945956 0.05511414 -0.021276046 0.08709601
-0.1982746 0.0073077036 -0.14179672 -0.2915096 -0.15463604 -0.07065522 -0.032322872 -0.057845727
0.09014074 0.08213564 0.12069589 0.15220281 -0.050326433 -0.13228004 -0.09236386 -0.1837367
0.10019542 -0.11591616 0.037915736 -0.007814706 -0.31416 0.2212806 -0.019804142 0.018606488
0.08330926 -0.14790766 -0.06257291 -0.18378238 -0.124514855 -0.016317533 0.08109431 -0.05511536
-0.016269876 -0.09783535 -0.19303632 0.009020902 -0.15455244 -0.020453842 -0.14424717 0.04746077
-0.24612933 0.15533881 -0.26598355 -0.13310254 -0.19379239 0.00059108494 -0.16758284 0.028345969
-0.22626926 0.024741987 -0.021621957 -0.23719348 -0.050856255 -0.12700814 -0.027104264 0.16977182
0.0068225306 -0.1450666 -0.09082739 -0.14422056 0.06249654 0.006107869 -0.18590462 -0.14171931
-0.06844486 0.12991801 -0.136874 0.044604264 -0.040323112 -0.07264831 -0.04534638 -0.23185201
-0.07974336 -0.18433173 -0.19163796 -0.16073935 -0.11271248 -0.16906872 -0.10688119 0.023568751
0.0468387 -0.1858595 -0.03133834 -0.20970924 0.038132176 -0.09828929 -0.20516826 0.005770342
-0.10978218 0.03363155 -0.0072736912 -0.16795804 -0.09679411 -0.0013974381 0.020587213 0.029175267
-0.1416211 -0.18257701 -0.23115073 -0.12676698 -0.13409495 0.047176857 -0.24954465 -0.110050514
-0.19406258 -0.23254369 -0.1586049 -0.0027619337 -0.18495479 -0.19625103 -0.014332963 -0.1388801
-0.0041175894 0.08692038 0.11891863 -0.09446192 0.1477657 -0.08384882 -0.032191392 -0.15214975
0.09877488 0.10725913 -0.12720282 -0.139235 -0.096948944 -0.24102163 -0.16309673 -0.23410484
-0.11393823 -0.023728805 -0.06106647 -0.50009525 -0.07512517 -0.22202583 -0.04861391 -0.1977811
-0.098104395 0.12481501 0.06499095 -0.13095745 -0.02432101 -0.05911039 -0.14874136 -0.1285598
-0.1015367 0.066681184 -0.21754418 -0.07601991 -0.025215933 -0.05389263 0.030494222 -0.0600013
-0.20680039 0.029993933 0.003880399 0.025576636 -0.06500104 -0.26325515 0.09318023 -0.15223375
0.096036054 -0.18448141 -0.036410928 -0.15611278 0.11014545 -0.08314093 -0.19822845 -0.041616086
-0.09790707 -0.24517438 -0.22112499 -0.21914643 0.09169953 -0.2696025 -0.32794586 -0.03520444
-0.115408026 -0.07894552 -0.015348781 -0.022382246 -0.079129696 -0.040060896 -0.20470804 -0.090901874
-0.074012175 -0.08576347 -0.15350528 -0.21310093 -0.21610706 -0.039571848 0.19140416 -0.07823821
-0.007248824 -0.18049386 -0.14700267 0.13050789 0.07887795 -0.06098611 -0.06691674 0.18645859
0.039470524 0.15414207 0.007473563 0.10015404 -0.020179722 -0.24410191 0.076344304 0.078477375
0.0342443 -0.01608373 0.031830855 -0.07052748 -0.12422318 0.12156624 0.00074986066 -0.0059392066
0.051205922 -0.2733213 0.015199767 -0.05658516 0.071293004 -0.0902882 -0.26156268 0.0060383924

weight f4 [256, 256]
00000000: 452c c1bd d3f6 993e 1058 503d 94b4 813d
00000010: 2cae 9bbc 042b 98be 4b72 c8bd c3f2 063d
00000020: d49d 8bbd b4fc 93bd d746 a73d b5f0 ecbb
00000030: dfe9 c0bd 32cf 9b3d e438 363e 1c6b 67be
00000040: 6ae4 b73c 364b 773d 28af fd3d 9d97 fa3d
00000050: 1e84 57be 5f5a 51be 7652 993d ed1f 1d3e
00000060: 4497 6fbe b73e b6bd 0b9d 513e 537b 8cbe
00000070: 13cd 903e 3e1a 89be 68a7 ad3e d4f3 27be
00000080: 8705 803e c432 afbe 891e d5bd ef54 13be
00000090: 259b 7b3d bdc2 2bbe 60e2 363e bfc7 a33d
000000a0: 2ec6 babd 7cba adbe 0b55 083e cbb4 7e3d
000000b0: bb10 debd 1e41 e7bd b0b7 c83e e2dc f7bd
000000c0: 3e40 f7bd 0f1a 993d 85d9 c4be 9139 6fbe
000000d0: 8299 043e bf32 a2be 81b3 d5be 1132 a0bc
000000e0: 24ff 41be b62d 4f3d cf1c 46bd 2800 4abd
000000f0: 5741 023d 378a 39be f82d 53be 4d2b 69be
00000100: cd11 a43d b062 98bd 2e17 9c3d 64c3 7dbe
00000110: aae1 82bd a120 36bd 250a e9be 714f 9bbd
00000120: 25d0 1bbe 4320 91bd 4555 f6bd a31a c83d
00000130: 675f 77be fa86 363e 17ca 803d 11f8 973d
00000140: 6ea3 f5b9 711d aebe bbe0 c1be 9efd d3bd
00000150: 512a 1abe 68ff 783d 0f0d fcbd 2249 81be
00000160: ee33 4b3e b349 ee3a 461a a33d dbf8 97be
00000170: 063d b6bd 95e2 a63d 781f 893e f450 123d
00000180: 17e2 14be 898d 88be 2cb4 2bbe 15b6 f9bc
00000190: d211 d33d 7f31 0d3e f0ff 3dbe e7c4 92be
000001a0: 8cfb 1d3e 7b06 96be d916 183d 9940 9bbc
000001b0: 8ada 663e 61ab 253c 05b1 1abd e715 78bd
000001c0: bc79 f13c 2a27 d93d 84a5 d6be d8ec 30be
000001d0: a801 753e 252a ef3d 3574 5dbe 1475 46be
000001e0: 27ec 3abe 0f1a 2abe b92f b0be bd65 d73d
000001f0: 7eeb 98be e14b 5dbe 9e2a 98be 69ff 8e3e
00000200: 3c83 65be 8453 6bbe 2904 3abe 7c80 c6bd
00000210: a9c2 1bbe 2e20 89be 0533 67bd 1377 2a3e
00000220: 0631 89be cfb5 1e3e 270d 80bd 2db6 fe3d
00000230: 21eb 453e 7260 d4bd 30d4 42be 1b84 36be
00000240: de6c debc 0174 bcbe 2658 853b 03f0 3abe
00000250: 47c3 3abe 1e88 bdbe 86d3 9cbd 21a1 36be
00000260: 5a18 f23c deb2 35be 1276 6abd 7f46 803d
00000270: 82b6 b1be 381c d6bd 3dc5 83be dbb3 803e
00000280: 343e 2cbd 0afb c2bd fa2f 423d cf36 6f3a
00000290: 12c3 f5bd d051 47be 9af6 f73d 0c71 b23d
000002a0: 2702 c1be 99bb 2d3d d73c b9be adb2 0bbe
000002b0: 2f62 abbe becc 123e 5bc1 0c3e 370a 70be
000002c0: b073 1cbc 72b8 2dbe ea01 91bd 1346 fabd
000002d0: 09fc 28be 6a50 623e 4099 05bf f06f 61bd
000002e0: bd3e 25be 144d 7dbe e2ae 98bd 7ef5 19be
000002f0: 1fe6 713c b1b7 e8bd 331c f2bd 6222 403c
00000300: 15fe a73d 220e e6bd 5b94 81be 2466 aebd
00000310: 3ea0 c3be fbd6 f6bd f1bd 97be bfb8 f7bd
00000320: 0702 8abe 2937 d4be c4d9 303e fad2 573e
00000330: c44f a23e 8590 053b 6dee c0bd 3945 8abe
00000340: 8403 35be 865f acbd d899 c43a f47e 0dbe
00000350: 60a4 d1bc 0a13 a8be 9c11 64be 9a6b 153e
00000360: 70a0 bdbd df1d 673e 3f99 9bbd f81f d1bc
00000370: 6f3e b8bd eecc 4dbd 863c 79bd 7508 d5bd
00000380: ad86 94bd e82c 8abe c2d2 a83d 7505 81bc
00000390: 0d66 d0bc 11fa a3be 4da7 9ebe 1767 93bd
000003a0: 32a1 88be e07e a73d db2b 97bd 6412 2cbe
000003b0: 9ac6 1ebd b405 133e 2cfc d6be 3c84 e83d
000003c0: 82be 643e 2617 c9be c301 5ebe 20b9 eebd
000003d0: 6aea 91be 6db1 d4bd a7b7 30be 2984 073e
000003e0: f5be eabc e368 c8bd eee0 39be b36f 81bd
000003f0: 09b0 653d 911c 36be c3ea bd3d 0ce6 963e
-0.09432272 0.30071124 0.050865233 0.06333271 -0.01900395 -0.29720318 -0.09787425 0.03294636
-0.06817213 -0.07225934 0.081678085 -0.007230843 -0.09419607 0.07607879 0.1779514 -0.22599453
0.022447783 0.06037446 0.12386924 0.12235949 -0.21046492 -0.2044463 0.07486431 0.1534421
-0.23397547 -0.08898681 0.20470063 -0.2743784 0.2828146 -0.26777834 0.33916783 -0.16401607
0.25004217 -0.3421842 -0.10406215 -0.14387868 0.061427254 -0.16773506 0.17859793 0.07997083
-0.09119831 -0.3393134 0.13313691 0.062184136 -0.10843035 -0.11291717 0.39202642 -0.12102677
-0.120728 0.074756734 -0.38447204 -0.23361804 0.12949184 -0.3167934 -0.41738513 -0.019555124
-0.18944985 0.050580703 -0.048367318 -0.049316555 0.031800594 -0.18119131 -0.20623004 -0.22770424
0.08011208 -0.07440698 0.07621609 -0.24781567 -0.06390698 -0.04446471 -0.45515552 -0.075835116
-0.1521612 -0.070862316 -0.120279826 0.097707056 -0.24157487 0.17824927 0.062885456 0.07420362
-0.00046851806 -0.34006837 -0.37866768 -0.10351108 -0.15055205 0.06079045 -0.12307178 -0.25251108
0.19844028 0.0018179923 0.07963996 -0.2968205 -0.08898358 0.08148686 0.2678182 0.035721734
-0.14539371 -0.26670483 -0.16767949 -0.030482331 0.10306133 0.13788413 -0.18554664 -0.2866585
0.15427989 -0.2930182 0.037131164 -0.018951701 0.22544304 0.010111661 -0.037766475 -0.060567763
0.029476993 0.10603173 -0.41923153 -0.17277849 0.23926413 0.1167796 -0.2162636 -0.193806
-0.18254147 -0.16611503 -0.3441141 0.10517452 -0.29867166 -0.21610977 -0.29720014 0.27929237
-0.22413343 -0.22981077 -0.1816565 -0.09692475 -0.15210976 -0.26782364 -0.05644514 0.16646986
-0.26795214 0.15499042 -0.062525086 0.12437091 0.19327976 -0.10369958 -0.19026256 -0.17823832
-0.027151521 -0.36807254 0.004069346 -0.1825562 -0.18238555 -0.37017912 -0.076575324 -0.17834903
0.029552627 -0.17744014 -0.057241507 0.06263446 -0.34709555 -0.10454601 -0.25736418 0.2513722
-0.04205151 -0.09520538 0.047409035 0.00091252936 -0.12000097 -0.19464803 0.121075824 0.08712968
-0.37696955 0.042415235 -0.3617923 -0.13642378 -0.33473346 0.14335915 0.13745634 -0.23441397
-0.009549066 -0.16964892 -0.07080443 -0.12220397 -0.16502394 0.22100988 -0.52186966 -0.055038393
-0.16137214 -0.24736434 -0.07455231 -0.15035054 0.014764338 -0.11363161 -0.11821785 0.0117269475
0.08202759 -0.11233164 -0.253085 -0.085155755 -0.38208193 -0.12052723 -0.296371 -0.120957844
-0.26954672 -0.41448334 0.17270571 0.21076575 0.3170148 0.002038033 -0.09420476 -0.27005938
-0.17677122 -0.08416657 0.0014999462 -0.1381796 -0.025591075 -0.32827026 -0.22272342 0.14591828
-0.09259117 0.22569989 -0.07597589 -0.02552794 -0.08996283 -0.050244264 -0.060848735 -0.10402004
-0.0725225 -0.26987386 0.08243324 -0.015749672 -0.025439287 -0.32026723 -0.30987015 -0.07197397
-0.26685482 0.08178496 -0.07381412 -0.1680389 -0.03876362 0.14357644 -0.41989267 0.11353347
0.22338298 -0.39275473 -0.2168036 -0.116564035 -0.28499156 -0.10385404 -0.17257558 0.13234009
-0.028655509 -0.097856306 -0.1815221 -0.06320133 0.056076083 -0.17784335 0.09273293 0.29472387

bias f4 [256]
00000000: ced8 4fb8 5e0a d7bc a155 da3d 4093 303e
00000010: 0e82 8fbd 0078 593d 47ff 4b3d be0e 863d
00000020: 7eed 743c 248c 773d fc9e b73c 9ccc 843c
00000030: 0af6 6ebd 61c4 3f3c ed6d f83d 4268 323d
00000040: fbd6 0d3e bb9f 1abe 02ba a8bc 9336 e83d
00000050: 04dc 813d 3384 013e 5fce 7e3e 4688 cf3d
00000060: 6a7e efbc 8a9c dc3d 6d80 e23d 9baf b3bd
00000070: f723 da3d fe18 ab3d 8e5c 733d 035e b43d
00000080: e5ae 8a3e b35d 64bd 3437 95bc 3163 0ebc
00000090: 29ea 0f3e 0fbf 253e 2141 29bb 5fd2 493d
000000a0: 9a5b 6a3e ead5 533e 6f3d b13e b587 2cbd
000000b0: 90d4 313e e520 503d 2972 463d 2257 333e
000000c0: ac37 a3bd a119 b03c 2906 c63d a936 a33d
000000d0: 06d4 173e 436e fe3d 445a f5bd efc6 29bc
000000e0: b7a3 863d f3c3 013e ec5a aabd c0ec 473d
000000f0: 64ba 74bd 177c 28bc 312e 92bd 5e32 68bd
00000100: 7dec 923d bc48 763c eec0 843d 9c0f 443e
00000110: 5aec 863c 810c 3c3a 0958 0e3d bba5 6f3d
00000120: 3f45 3bbd 6139 263e c73b a43e ca3a 38bb
00000130: add9 d03d 3529 1abd 7f06 833e 75a1 03bd
00000140: 619e 2c3e 9523 0d3e 1e11 87bd a88f 1e3e
00000150: 7054 983d f227 4dbe df86 243d f747 70bd
00000160: c141 b63d f773 213e 1630 933d cbcb 39bc
00000170: 4b3b 813c 7382 053e da4a 223d 353d 59bd
00000180: 7d5e aebd 9cdb 85bc d876 70bd 5a53 d53d
00000190: 7786 963e 05c1 8a3d 3d7e af3c 7a37 ef3d
000001a0: 21ba 703e 2592 cd3d 36e1 07bd 8566 083e
000001b0: e197 7f3d 577d 74ba 026d 513d af0b 773e
000001c0: ce7c 0b3d e402 95bb 38d5 ff3d 1ca9 053e
000001d0: e3c3 693d 1db3 0f3d 2727 503e 91f5 9a3d
000001e0: 4161 f03d a2ae 3cbc 9ce9 3a3e 8cf8 81bb
000001f0: f45d 763d 3a00 333e 97f7 643c 64c7 783d
00000200: 518b 8b3e 95e0 c13d 86b4 e03d 7503 393e
00000210: f5b3 dc3c 017e 6b3c c9a2 063e 7cfa 55ba
00000220: 586a e23d ff38 593e 9682 bebd f909 9ebc
00000230: 4be5 79bd 19fd 4f3b 10e2 bfbb 4975 c63e
00000240: cd0e 623e 0dd0 0a3e fa0d 7b3e 08a2 c13c
00000250: 3411 fb3d 1453 a03d d4c6 be3d 8bb6 323d
00000260: 2e93 443e 8921 8fbc 32e9 3b3d 8721 3f3e
00000270: 53fb 25bd 5c99 e63d e217 873d 2f5a 893e
00000280: 7951 e13c f1e8 df3d 1803 ff3d 6381 2e3e
00000290: 566c fa3d 7c70 b53b 6c7f 6dba af7f 33bd
000002a0: 7f16 c73d 370a e23d 3870 0f3d 2f9b d3bc
000002b0: f5ea 04bd bf4b fdbd fdd7 0d3d 54d0 943e
000002c0: ab14 8b3e 1208 f33c 6ca8 de3d 17c0 a4bd
000002d0: d94a 7c3c 6cb9 d6bc d944 4dbd 751f 473d
000002e0: 31da e53b 715a bf3d cd22 983e 0008 66bd
000002f0: 0354 d73b 28bd 073d adf7 9fbd 58ca 71bd
00000300: 363f b2bd 2288 0ebd 13ff d1bb b419 223d
00000310: 7fd4 593e b1bb 8abc 7505 923e 6f94 253e
00000320: bac9 2f3e b41d bf3c 1cc2 563e 34f0 a23d
00000330: 06e5 e73c 65fc 23bd e43c 0f3c da9e 213a
00000340: 780b 4b3c 3fb0 373e c82e 18bb 74f0 283c
00000350: 71cf 333e d62d 30bd 961a 22bd 6d4e 5bbd
00000360: bd54 933c dea4 85bd dadc fb3d 1783 5ebd
00000370: 410c 4dbd 26b4 333e 50fd 7c3e f4df 1fbd
00000380: 34dd aa3d 8d8a df3d aad2 4cbd 119a a33d
00000390: f763 ab3d 1b26 48bd fd33 4d3c e9b7 473e
000003a0: 8a2f 283e e727 2e3d e158 80bd ad81 e23d
000003b0: 509c 4cbd 8ce6 203c 573f f4bd fb08 bebd
000003c0: 8232 81bc 2be6 883d c150 fe3b 4ea7 d03e
000003d0: 5217 683c ec21 0c3e 115f dd3d f921 e73d
000003e0: 4bea 61bb 5f71 923e 3dd1 2dbd 1d50 ffbd
000003f0: 142b e0bb f186 7cbd 772d 613e e134 8b3d
-4.955456e-05 -0.02625006 0.10660864 0.17243671 -0.07007228 0.053092957 0.049804 0.065457806
0.014949201 0.060436383 0.022414677 0.016210847 -0.05834011 0.011704535 0.12130342 0.04355646
0.1385154 -0.15099995 -0.020596508 0.11338534 0.06340793 0.12648086 0.24883412 0.10133414
-0.029235084 0.10772045 0.110596515 -0.087737285 0.10651391 0.08354376 0.05941444 0.08806994
0.2708656 -0.05575342 -0.0182148 -0.008690641 0.14054169 0.16186164 -0.0025826173 0.04927289
0.22886506 0.2068707 0.34617183 -0.042121608 0.17366242 0.05081262 0.048448715 0.17513707
-0.07969603 0.021496596 0.09669144 0.0796941 0.14826974 0.124233745 -0.119801074 -0.010362371
0.06574195 0.12672405 -0.08318123 0.048809767 -0.05974807 -0.010283492 -0.071377166 -0.05668866
0.07174013 0.01503199 0.06482111 0.1914658 0.016470123 0.0007173494 0.034751926 0.058507662
-0.045720335 0.16232826 0.32076856 -0.0028111213 0.10197768 -0.037636954 0.25590894 -0.0321364
0.16857292 0.13783105 -0.06595062 0.15484488 0.0743798 -0.20034769 0.040167686 -0.05866238
0.0889926 0.15766893 0.07186906 -0.011340092 0.015775343 0.13038044 0.039622165 -0.053036887
-0.08514116 -0.01634007 -0.05870709 0.10416289 0.29399464 0.06775097 0.0214225 0.11680503
0.23508503 0.100376405 -0.033173762 0.13320358 0.062400702 -0.00093265384 0.05112935 0.2412555
0.03405457 -0.0045474637 0.1249184 0.13052791 0.057071578 0.035082925 0.20327435 0.07566369
0.117373 -0.011516245 0.18253177 -0.0039663967 0.060148194 0.17480555 0.013975046 0.06073703
0.27254727 0.09466664 0.10971932 0.18067725 0.026941279 0.014373303 0.13148035 -0.000816263
0.1105544 0.21213149 -0.09302251 -0.019291865 -0.061009686 0.0031736551 -0.005855806 0.38761356
0.22075959 0.13555928 0.2451705 0.023636833 0.122591406 0.07828346 0.09315267 0.043631118
0.1919677 -0.017472045 0.04587669 0.18665133 -0.040522885 0.1125972 0.06596352 0.26826617
0.02750467 0.10933102 0.12451762 0.17041545 0.12227695 0.005537091 -0.000905982 -0.04382294
0.09721088 0.110371046 0.03501913 -0.025830833 -0.032450635 -0.12367963 0.03462981 0.29065192
0.27164206 0.029666934 0.10871968 -0.08044451 0.015398704 -0.026211463 -0.050114486 0.048613984
0.007014536 0.09343422 0.2971405 -0.056159973 0.0065712943 0.033139378 -0.07810912 -0.05903086
-0.08703463 -0.034797795 -0.006408581 0.039575294 0.21272467 -0.016935201 0.28519788 0.16169904
0.17166796 0.023329593 0.20972484 0.07955971 0.02830745 -0.040035624 0.008742545 0.00061653333
0.012392871 0.17938326 -0.0023221243 0.010311235 0.17559601 -0.043012463 -0.039576136 -0.05354159
0.017984742 -0.065255865 0.122979835 -0.054324236 -0.050060514 0.1754919 0.24706006 -0.039031938
0.083429724 0.10915098 -0.050005592 0.0798837 0.08368676 -0.048864465 0.012524602 0.1950375
0.16424385 0.042518523 -0.06266952 0.1105989 -0.04995376 0.009820592 -0.119261436 -0.09279057
-0.015771154 0.06684526 0.0077610915 0.40752643 0.014165716 0.13684815 0.10809148 0.11285777
-0.0034471925 0.2860212 -0.042435873 -0.12466452 -0.006841073 -0.061652128 0.2199 0.06797195

weight f4 [10, 256]
00000000: dc03 40be ddc0 b33d cd10 323e 9132 3f3e
00000010: b68b 4d3b 10f0 92bd bda2 eabd 194d 603e
00000020: 8b57 81be 184e e63c 8c7e 0a3e 46b7 a53e
00000030: 6482 e23d 20d2 65be 11fe 883c 5b7d c73c
00000040: f54e 3ebd d53c 143e 9fed b73e 891d 823c
00000050: 6087 96be e186 563d aa5e 573d e682 053e
00000060: bc6a a3bd 7688 78bc 48a5 6e3d f43a 953d
00000070: 33e8 bc3e 71f3 f7bd 5421 443e c23e ab3d
00000080: 792c 4fbe 0cca 86bc c688 b23d 462b 1bbd
00000090: 142b 40be 5ae5 eb3d 1c54 853e fddc 8b3d
000000a0: f6db 013d effd 1cbe 877a f13a c032 cbbd
000000b0: 04f8 1b3d 9520 d0bd a27e 90bc f02f 07bd
000000c0: 7f4d 9ebd 1cef bb3e c846 073e 1258 35be
000000d0: 3260 823e 5ee8 93be 6aae 5cbe 4120 b73e
000000e0: 1fde 34bd 8083 02be 7e39 8d39 0a19 4a3d
000000f0: 6aa1 fbbd 536d 9c3c 543e fd3d 7287 1f3e
00000100: 1372 aabe 5ded 9bbd 1138 35be ae3a 3e3e
00000110: d7c5 39be a525 d03e 629d 673e dcd4 db3d
00000120: 4102 5c3c 8223 893d 5974 d93c c4c3 823d
00000130: b9bb 89bd 59e2 303e 2d65 4bbe 03d3 683d
00000140: 3610 133d fd77 4bbe 3a89 b0bc 7306 163e
00000150: ace3 cebd a931 bcbd 9e9a 20be 3359 1bbe
00000160: 1cd7 c7bd bddd 49bd 9730 7e3e 4d5b e4be
00000170: c85d bfbe 25bc fc3c cd03 b9bd 858e 333b
00000180: 2e58 e33d b407 213e 2926 1ebd cd74 92bd
00000190: 5983 73bd 3b40 aabe 8bbf 943d a48d ea3d
000001a0: 89d5 3fbe 55ff 5a3d f1c3 2d3e 7807 1a3e
000001b0: 8111 8c3e 004d 1dbc d5c7 df3d cad9 a23d
000001c0: 98a6 803e b2d4 91bd 2412 e83d 10ba 4f3e
000001d0: daad 2dbd 31bd 7f3d 8d7d d1bd 11f9 3ebd
000001e0: ad00 3d3b 815b 843e c1e9 613e baba 85bd
000001f0: aad8 a5bd c5d3 c5bb 79f5 8ebe dd34 59be
00000200: 62cd 203c ec3b 843c 095d 8c3b ed1f 6e3e
00000210: 9f8e 913d 9c83 5fbe a6c5 a23c 77dd 8abe
00000220: 05a1 013e af9c 2d3c 6075 12bc 100b 08be
00000230: b6f9 0dbe 2387 50bd 158a 5ebc 2580 96bb
00000240: ffc1 0fbe 14b2 a4bd 9b97 5b3e 598e 143d
00000250: b2bd 223e bb77 483e c682 a1bd c265 cebd
00000260: ff6c c23d 3f51 d7bd 5397 d3bd 221c f23e
00000270: ac5d e33d 25da 8e3d d6fd 84bd 7960 6e3e
00000280: 45c8 5d3e fdee 273e bc9f 1abe 8904 09bd
00000290: 278a 043e 5e50 b33d 6b96 16be 3e30 2b3d
000002a0: 07ba 573e 88f6 603e cd57 0d3e 9c8d 5abe
000002b0: e90e 4e3e b5e0 cc3d bbfd 2a3a e100 32bd
000002c0: 4e84 493d eab6 d13b 752f 29bb f1c8 013c
000002d0: d56a 51bd 6197 f4bd b9fc 5fbd ab5d 4a3c
000002e0: 7e7f 003e 19c0 a33e 2aa4 79bd 4831 b7bd
000002f0: 4eb4 543e 3835 c93d e696 2d3e fa89 a93d
00000300: 575c 553c a12d b2be e472 65be ef44 373c
00000310: 9886 303e fae2 d5bd 15f0 613c 6d1a cabd
00000320: 8e2f 7cbd c55c cd3d ef48 9dbd 536a 0ebe
00000330: 3d04 0e3e a9a3 80bd 338e 553e f9e7 373d
00000340: adf9 1d3e 241c 1e3e 8138 f2bd 7f11 dfbd
00000350: 05f2 443d f82b d33c dd0e 983c 3930 7b3e
00000360: f2d0 193e 714b 273e 43f1 e63d 5e23 b4be
00000370: 571c c1be 4619 babd 8f4e 463c cf6e f0bd
00000380: 4b49 24be 0beb 19be c197 033e 5258 0bbe
00000390: 0318 813d ac77 c9bd fee2 c63d a8c3 593e
000003a0: 051b bb3d 3c0d 25bd 49bd 03bd becc 19be
000003b0: d75e a93d 2d85 b23d 17d2 05be 2a65 813d
000003c0: efc5 373e f2f4 1ebc eea6 2fbd db8c a6bd
000003d0: 05d7 c5be 3c4f 9fbd 2fc4 843e ffc4 e03d
000003e0: 1e9f b63d b825 b63d bd2c 60be d483 2fbc
000003f0: fc59 eebd dc54 73bc a7ea 82be 9ca1 c8bd
-0.18751472 0.0877702 0.17389221 0.18671633 0.0031363792 -0.071746945 -0.11456821 0.2190441
-0.25262102 0.02811341 0.13524836 0.3236639 0.11060026 -0.22443438 0.01672271 0.024351766
-0.046462018 0.1447633 0.35923478 0.015883224 -0.29400158 0.052374724 0.052580513 0.13038215
-0.07979342 -0.015169254 0.058263093 0.07286635 0.36895904 -0.1210698 0.19153339 0.083615795
-0.20231809 -0.016453765 0.08717494 -0.037883066 -0.18766433 0.11518355 0.26040733 0.068292595
0.03170391 -0.15331243 0.0018423357 -0.09921789 0.038078323 -0.101624645 -0.017638508 -0.0330047
-0.07729625 0.36705863 0.13210595 -0.17709377 0.25464016 -0.2888822 -0.21550909 0.35766795
-0.044157144 -0.12745476 0.0002693645 0.049340285 -0.12286647 0.019095099 0.12365404 0.15579012
-0.33290157 -0.07613633 -0.17697169 0.18577072 -0.18141876 0.4065372 0.2261863 0.10733959
0.013428272 0.06696226 0.026544737 0.063849956 -0.067252584 0.17273845 -0.19862814 0.05684186
0.03590413 -0.1986999 -0.02154981 0.14650898 -0.10102019 -0.091891594 -0.15683982 -0.15170746
-0.09757826 -0.04928373 0.24823223 -0.44600907 -0.37376237 0.030851433 -0.09033928 0.002739818
0.11100803 0.15725595 -0.03861061 -0.07151184 -0.059451435 -0.3325213 0.072630964 0.11452797
-0.18733801 0.05346616 0.16969277 0.15041912 0.27357104 -0.009600878 0.10926787 0.07951696
0.251271 -0.071206465 0.11331585 0.20285821 -0.042402126 0.062436286 -0.10229025 -0.046624247
0.0028839514 0.25851062 0.22061826 -0.06529756 -0.08097966 -0.006037208 -0.27921656 -0.21211572
0.009814592 0.016141854 0.0042835516 0.23254366 0.07107281 -0.21827549 0.019869637 -0.2712209
0.1265908 0.010596438 -0.008939117 -0.1328547 -0.13864788 -0.050910126 -0.013582726 -0.0045929127
-0.14038847 -0.08041778 0.21444552 0.036268566 0.15892676 0.19576924 -0.07886271 -0.100780025
0.094934456 -0.10513543 -0.10331597 0.4728709 0.11101851 0.069752015 -0.06493728 0.23278989
0.21658428 0.1639976 -0.15099996 -0.03345159 0.12943326 0.08755563 -0.14705817 0.041794054
0.21067058 0.21969044 0.13803025 -0.21343082 0.20122875 0.10003797 0.0006522794 -0.04345787
0.04919844 0.006399979 -0.002581564 0.007921443 -0.051127274 -0.11942936 -0.054684374 0.012351434
0.12548634 0.31982496 -0.060947575 -0.089449465 0.20771906 0.09824604 0.16952094 0.0827827
0.013022504 -0.34800437 -0.22407109 0.011185869 0.17238843 -0.10443683 0.01379015 -0.098683216
-0.06156879 0.1002746 -0.076799266 -0.13907747 0.13868804 -0.06281216 0.20855026 0.04489896
0.15427275 0.15440422 -0.118271835 -0.10892009 0.04808237 0.025777802 0.018561775 0.24530114
0.15021113 0.16337372 0.11276486 -0.35183233 -0.37716934 -0.09086852 0.012103691 -0.11739885
-0.16043584 -0.15031068 0.12850858 -0.1360791 0.06303408 -0.09837279 0.09711264 0.21266043
0.09136013 -0.040295824 -0.03216294 -0.15019509 0.082700424 0.087168075 -0.13068424 0.06318124
0.179466 -0.009701954 -0.042883806 -0.08132335 -0.3864061 -0.07778785 0.25930926 0.10975074
0.08917068 0.08893913 -0.21892066 -0.010712583 -0.11638257 -0.014851775 -0.2556965 -0.097964495

bias f4 [10]
00000000: 211c ed3b eafc e2bd 9aac 99bd 280c 17be
00000010: 716e 2c3e b8dd 3d3c 2e74 c73d 24e0 a6bd
00000020: 56c2 eebd d175 2c3e
0.0072360192 -0.11083396 -0.07503624 -0.14750731 0.16839005 0.011588506 0.097389564 -0.0814822
-0.116581604 0.16841818

stds f4 [10]
00000000: 1d5a 643e 1d5a 643e 1d5a 643e 1d5a 643e
00000010: 1d5a 643e 1d5a 643e 1d5a 643e 1d5a 643e
00000020: 1d5a 643e 1d5a 643e
0.223 0.223 0.223 0.223 0.223 0.223 0.223 0.223
0.223 0.223

obs_std f4 [28]
00000000: cdcc 4c3e cdcc 4c3e 0000 803f 0000 803f
00000010: 0000 803f 0000 003f 0000 003f 0000 003f
00000020: 0000 003f 0000 003f 0000 003f 0000 003f
00000030: 0000 003f 0000 003f 0000 003f 0000 8040
00000040: 0000 8040 0000 8040 0000 8040 0000 8040
00000050: 0000 8040 0000 8040 0000 8040 0000 8040
00000060: 0000 8040 0000 803f 0000 803f 0000 803f
0.2 0.2 1.0 1.0 1.0 0.5 0.5 0.5
0.5 0.5 0.5 0.5 0.5 0.5 0.5 4.0
4.0 4.0 4.0 4.0 4.0 4.0 4.0 4.0
4.0 1.0 1.0 1.0

obs_mean f4 [28]
00000000: 0000 0000 0000 0000 0000 0000 0000 0000
00000010: 0000 0000 0000 0000 0000 0000 cdcc 4cbe
00000020: 9a99 193f cdcc ccbe 0000 0000 0000 0000
00000030: cdcc 4cbe 9a99 193f cdcc ccbe 0000 0000
00000040: 0000 0000 0000 0000 0000 0000 0000 0000
00000050: 0000 0000 0000 0000 0000 0000 0000 0000
00000060: 0000 0000 0000 003f 0000 003f 0000 003f
0.0 0.0 0.0 0.0 0.0 0.0 0.0 -0.2
0.6 -0.4 0.0 0.0 -0.2 0.6 -0.4 0.0
0.0 0.0 0.0 0.0 0.0 0.0 0.0 0.0
0.0 0.5 0.5 0.5
