trained/h1_walk/actor_35099.pt (torch, 308593 bytes, 9 tensors)

weight f4 [256, 28]
00000000: 3bac e8bd a392 0d3e d3cf 9fbe 3c80 353e
00000010: cad1 e1bd 4754 ea3e 90ae 9e3d 1d0d 9a3d
00000020: 8a7c 3abe 8475 d1bd 14c2 27be 11c4 a23d
00000030: 1b49 79bd e6d8 7d3b f349 bd3a c449 b43e
00000040: ca7d 293f 2e03 e43d 90e8 c1bd f535 3abe
00000050: de54 1bbf 0555 d1be 41a9 973d a817 01be
00000060: c9d6 0bbf d7e0 583e 919a 543d 0f13 a43e
00000070: 992e 91be fe14 ecbd d11d 373e dd5f f3be
00000080: ece8 5bbe 6fd9 0dbd bd71 d8bc da28 073e
00000090: 5ad0 2fbe fc80 8b3d 735b 91bc 775b 4cbe
000000a0: 7a65 a03d dc41 71be cb41 173e 4c01 7b3e
000000b0: 3981 853e 221a 033f b942 b2bd 9fe5 483e
000000c0: a5c1 10bf 3eb6 a9be ef10 2ebd 8690 5bbd
000000d0: d34d a8bd 5f87 d0bd 1f96 eebd 73e5 79bd
000000e0: 69bd ff3d d794 783d 5bd2 9c3d 128e d8be
000000f0: 9dc3 973d 0c8f aabe 3755 a13e f2a3 9abe
00000100: d1f8 3f3e c7b5 803e 2461 3c3e 73c5 c9be
00000110: 611b 063f 4499 a63e ae26 de3e 3ada abbe
00000120: 9eab e33e db95 5bbf c5d3 8dbe 82d8 5c3e
00000130: d00b b1bd 716f b03c c51d e5be efcd a9bd
00000140: 0f3e 2fbe ef97 e8bd a88b df3e 6e8b 493d
00000150: e9f0 583e f8da 9bbc c3ec 8d3e a04a 71be
00000160: 5bda bfbe 1fb4 4d3e af47 a13c f951 f9bd
00000170: 5bff 023d 1c98 263e acd7 4bbe bea8 123e
00000180: 7ab2 e9bd 40b2 84be fb58 063e d4b7 6fbe
00000190: 4fde 21bf 18f1 fdbe 8dda 053f cef6 a93e
000001a0: d19c 283e b3d2 8bbe a71f a9bd 0250 2dbe
000001b0: ead4 0dbe fd35 f1bd b420 8fbe 3650 a83e
000001c0: 8400 b3bd 48ee 503e 5b9f 13be f1e0 713e
000001d0: dd05 343d 905d ba3e 5d08 0f3e d549 153f
000001e0: f80b 073e 9266 29bf 9fd5 803b b35c 863e
000001f0: 2728 a6be 3193 8bbe f6e3 0f3e 701d dc3e
00000200: ebf4 b03d 0c31 df3e b8e6 aa3e 6150 17bf
00000210: 4659 7ebe 8337 ddbe 5262 02be 6fe4 81be
00000220: a3e7 e53d 22d8 9ebd bd5c b33d cd6b 52be
00000230: 7a64 053f a202 bfbe 0f6d c1bd 4278 99be
00000240: 8d77 91be 1445 a2be 9889 af3e a640 db3d
00000250: 2245 d2be a5e8 853c dea7 21be 772f 963e
00000260: 46d0 85be 8226 00bb 055d 983e 0a7f 95be
00000270: 2a03 a7be e647 82be 9342 9bbe d584 123e
00000280: 5ecb 40bf 327c af3d 4e17 28bf 9871 243e
00000290: b071 c73e 4982 27be b8d6 f0bd e510 0b3e
000002a0: 77b5 88be d100 9f3e 8a39 6d3d b8bc 3ebd
000002b0: b40e f0be 1141 3dbe 4bd7 653e 9b4d d33d
000002c0: 5991 0f3e e45b b63d 7f5a 7bbd fd8c 36bf
000002d0: 9eec d5bc f847 153e 8807 123e 983d cabe
000002e0: 5779 7cbe 1c92 26bd 1f90 dc3b adde edbe
000002f0: d1df 37be b15f b6be 0bc6 113e 56e6 193d
00000300: f3ad 193f d306 983e dde0 dd3d bd15 05bd
00000310: e664 c0be 137d 0fbd 72b5 6a3e 2e35 103e
00000320: 1940 803e 04fe d4bd 7dec 33be a734 ec3e
00000330: fcab 11be cd24 2abf 8dd7 673e 051c 8ebd
00000340: 048d 943d 8f69 5d3b 9ce6 443e 9c6e d33d
00000350: 8cd9 323e 9d75 403f a8da 83be 34ca d0be
00000360: b6d1 d93d d299 733c 2b89 893e 157b 69be
00000370: ab8e 863e abd4 05be 9df7 403d dfd0 d33d
00000380: 4cc7 b33d 693c c13d 24d0 f53e 2922 0c3c
00000390: f295 60be 8cfd 2c3d 479f c8be ceb1 5cbf
000003a0: b64a 3abd efd7 293f 7ba7 2a3e cec1 1d3f
000003b0: b206 81be 1132 9cbe 5288 8b3e 5adb e33e
000003c0: 6f9c 41be 8842 7dbe 0be4 8b3e 999e 293e
000003d0: ed02 a73e 109c eabc eadd b13e d2df dbbd
000003e0: aebf a83e aa8a 3fbe 3488 84bd 2aa4 b03d
000003f0: 75fe 013e f56b 9d3e 4de9 793e 35cc f0bd
-0.11360975 0.13825469 -0.31213245 0.17724699 -0.11026342 0.45767424 0.07748139 0.075220324
-0.1821157 -0.102274925 -0.16382629 0.07947553 -0.060860734 0.0038734018 0.0014441594 0.3521253
0.66207564 0.11133419 -0.09468186 -0.18184645 -0.6067637 -0.40885177 0.074053295 -0.1260668
-0.5462461 0.2117952 0.05190522 0.3204579 -0.28355864 -0.115274414 0.17882468 -0.47534075
-0.21475571 -0.03463119 -0.026421422 0.13199177 -0.17169324 0.06811711 -0.017743802 -0.19956766
0.07831855 -0.2356028 0.14771192 0.24512213 0.26075152 0.5121175 -0.087041326 0.19618843
-0.5654548 -0.33146852 -0.042496618 -0.053604625 -0.08217969 -0.1018207 -0.11649727 -0.061009835
0.12487299 0.06068882 0.076573096 -0.4229589 0.07410357 -0.3331226 0.31510326 -0.30203205
0.1874726 0.25138685 0.18396431 -0.39408454 0.52385527 0.32538807 0.43388885 -0.3356493
0.4446687 -0.85775536 -0.2770063 0.21566966 -0.08644831 0.021537514 -0.44749275 -0.08291232
-0.17113517 -0.11357104 0.43661237 0.049205236 0.2118565 -0.01902531 0.27719697 -0.23563623
-0.3747128 0.20088242 0.019687502 -0.12173838 0.031981807 0.16268963 -0.19906491 0.14322183
-0.11410995 -0.25917244 0.13119881 -0.23409969 -0.6322984 -0.49598002 0.5228661 0.3319611
0.1646607 -0.27309188 -0.0825799 -0.16925052 -0.13850752 -0.117778756 -0.27954638 0.32873696
-0.08740333 0.20403397 -0.14416258 0.23620965 0.043950904 0.36399508 0.13968034 0.58315784
0.1318816 -0.66172135 0.0039317156 0.262426 -0.3245251 -0.27260736 0.14051804 0.4299121
0.086404644 0.43592107 0.3337915 -0.59107023 -0.24838743 -0.43206415 -0.12732819 -0.25369594
0.11225822 -0.07756068 0.08757923 -0.20548935 0.5210644 -0.37306696 -0.094446294 -0.29974562
-0.28411523 -0.31693327 0.34284663 0.1070569 -0.4106837 0.016346285 -0.15786693 0.29333088
-0.26135463 -0.0019554202 0.29758468 -0.29198486 -0.326196 -0.2544548 -0.3032423 0.14308484
-0.75310314 0.0856861 -0.6566056 0.16058958 0.38953924 -0.16358294 -0.11759704 0.13580664
-0.26700947 0.3105531 0.0579162 -0.046566695 -0.46886218 -0.18481852 0.22445409 0.103175364
0.1402029 0.089042455 -0.0613656 -0.7130888 -0.026113804 0.14578235 0.14260685 -0.39500117
-0.24655662 -0.040666685 0.0067310478 -0.4645895 -0.17956473 -0.35619882 0.14235704 0.03757318
0.6003105 0.29692706 0.10833905 -0.032491434 -0.3757698 -0.03503139 0.22920778 0.14082786
0.25048903 -0.10400012 -0.17570682 0.4613392 -0.14225763 -0.66462404 0.2264082 -0.06938938
0.07253459 0.0033784842 0.19228595 0.103238314 0.174658 0.75179464 -0.2575276 -0.4077927
0.10635702 0.014868217 0.26862463 -0.22800858 0.26280722 -0.13069408 0.047111142 0.103425734
0.08778247 0.094353504 0.4801036 0.008553066 -0.219322 0.04223399 -0.3918402 -0.8620881
-0.045481406 0.66345114 0.16665451 0.6162385 -0.2520042 -0.30506948 0.27252442 0.4450329
-0.18907331 -0.24732411 0.2732242 0.16564406 0.3261942 -0.02863887 0.3473962 -0.1073605
0.3295874 -0.1870524 -0.06471291 0.08625062 0.12694724 0.30746427 0.24405403 -0.117576994

bias f4 [256]
00000000: bd13 25be f7ac 063c dbbe c9bc ad6a 06be
00000010: fae3 e43c ce6a 853d a042 4cbe ebb0 f1bd
00000020: 6549 b3bd b6fe b6bd ad0b 3bbe ed02 46be
00000030: 9791 43be 5bdf 6fbe 88bc 30be 0d67 bc3d
00000040: d456 4abe 9dd0 d1bd cb3d 263d ad4f 3c3d
00000050: 9d1d 35bd cd10 b9ba c037 ddbd 719a a4bd
00000060: e6b5 65bd 7701 4ebe 473b ffbd 34d1 ae3d
00000070: d329 36be 459d 5b3d 0ffa cbbc 622e c33d
00000080: 04df 1bbe 0ce0 20bd eabe 01be e411 a5be
00000090: 2d88 0bbe 7de5 82bd 9f20 ffbb f1ba 89bd
000000a0: 43b1 8b3d c1d5 9c3d 9ef8 0d3e 1770 153e
000000b0: 7709 c4bc ec3b fbbd b23b 3ebd be39 3ebe
000000c0: 8d00 c13d d936 debd 52fc f93c f7a3 b63b
000000d0: a3db 99be b320 5d3e 20bb 60bd 52b2 243c
000000e0: beec cc3d 2938 e3bd 4c68 41bd 5e65 63be
000000f0: 6eea 06be 84ec f23b 7661 b43d 903a 5cbd
00000100: 3e85 25bc 64bd 9ebd e8d1 4fbe 636d 303d
00000110: f0bb 1dbe 986b d7bc 087a f3bd 9259 1c3d
00000120: e731 62be 5154 1a3e 92ca 8dbe 4999 06be
00000130: c83b 53be 2b26 a2bb e2ed 21be f38f 8fbb
00000140: 04a2 57be 69d4 3e3c 6ff4 04bd 3b23 70be
00000150: fb35 9cbd b960 08be 6e70 a1bc 7644 273e
00000160: d7eb 32bd 5279 1bbe bd9c 9abd cf2b 0abe
00000170: 89fa 783d 58fc 993c 2b9e 13be 7ae5 0dbe
00000180: 447d 32bd 5d8b 263e 8f63 20be 4a49 853d
00000190: d116 65bd 8cb5 b8bd dd69 63bd 9951 90be
000001a0: d4f4 c2bd 3cb9 29be c45c 32be bd47 2ebe
000001b0: 1f60 cbbd c2ce 2dbe 33c6 a0bd e3b3 c83c
000001c0: d6ea 763d a961 40be 74a6 383a 2e33 4dbe
000001d0: 23b0 c13c cc9b ddbd c544 3dbe 6a8d 743a
000001e0: 0f7a f8bd 24ff 943d 4674 1a3d 2233 13be
000001f0: ed75 b0bd 559e d33b bcae a23c bc47 bd3b
00000200: fac3 d5bd 1d3e 42be 1ad9 4fbe 0611 f4bd
00000210: e7b0 0abe d530 f43c 4eac 94be eb16 d1bd
00000220: 17c3 5fbe b84f 6cbe ff5d 0fbe 05d5 26bc
00000230: 4387 52be 714d 58be 7a45 20bd d28b b0bd
00000240: 9a07 e0bc 0c49 a33d b826 143e a671 89bd
00000250: e470 093e a9a0 febd 5f38 47bd fea1 42be
00000260: df07 dc3d 6e4c bf3d bd3f e2bd 445e 13be
00000270: 8edb 85bd 769e 44be 5c5a febd 1675 4abe
00000280: 1504 ebbd f325 9fbc 10c3 07bd b1dd 09bf
00000290: 7944 d8bd b7c0 62be 00b7 04bd d795 0fbe
000002a0: 2735 c0bd 44a9 f73d 1787 833d 7859 16be
000002b0: 71cc 24bd 5b03 b5bd df03 12be 07f0 b4bd
000002c0: d13f 20bd 84cc 683d 8b0b 54be c150 c5bd
000002d0: a83c 0fbd 456c f4bc ca7f b63b 5cfa 84bd
000002e0: 4c1d 58be 429e 633d 545a a3bc 5426 e83b
000002f0: c389 61bd 272f 85be 379f 453d d756 00be
00000300: e67a 533d d53b 65be 4f1e 5ebd 270e 07be
00000310: 3f4f bf3d abe0 b3bd e292 27be 80c7 09ba
00000320: 106d bebd 7d1f 97be 6731 3ebe 1b6e 42be
00000330: 6d8c ce3d 8fc3 8dbe 7913 95be e59a 06bd
00000340: 009a b2bd 82aa e0bd f8dd 3bbd 61e8 52bd
00000350: 8780 f2bd 37da 9fbd e7ef 6bbe aa4e 9bbd
00000360: 26f4 7ebd ddbf 4fbd 52a2 42be 8b37 4bbe
00000370: 3002 53be d249 8fbd baad 1f3e 27d4 b8bd
00000380: 5c66 40bc 0290 27be 4a98 13be d906 fc3d
00000390: d830 db3d af63 f9bb 8084 7bbd 0edb 493e
000003a0: c39b a03d c55d 043e 216f 453a 8159 da3d
000003b0: e322 8fbc 3f4f 5ebe 582f d43d 0b1b d63d
000003c0: b818 413c 7952 c1bb 08fc f0bb b7d6 d8bd
000003d0: 451f 09be 23f1 ca3d ac36 4a3c 36da acbc
000003e0: 69f2 323d 4261 83be 9f13 7fbc 19f3 7ebd
000003f0: 6b1d 963d d4bf aebd f1b1 a4be 3cef 06bd
-0.16120811 0.008219949 -0.02462714 -0.13126631 0.027940739 0.06514512 -0.1994729 -0.118013225
-0.08754233 -0.08935301 -0.18266173 -0.19337054 -0.19098507 -0.23425047 -0.17259419 0.09199343
-0.19759685 -0.10244868 0.040586274 0.045974422 -0.044217695 -0.0014119387 -0.10801649 -0.0803727
-0.056081675 -0.20117746 -0.12462478 0.08535996 -0.17789392 0.05361678 -0.02489951 0.09530331
-0.15221792 -0.039276168 -0.12670484 -0.32240212 -0.13626166 -0.06391428 -0.007785871 -0.06725109
0.06820919 0.07657958 0.13864371 0.1459354 -0.023930294 -0.122672886 -0.04644365 -0.18576714
0.09423933 -0.10850305 0.030515824 0.0055737454 -0.30050382 0.21594505 -0.054865956 0.0100522805
0.100060925 -0.11094696 -0.047218606 -0.22206637 -0.13175365 0.0074134488 0.08807652 -0.053766787
-0.010102568 -0.07750967 -0.20294917 0.04307307 -0.15403724 -0.026296422 -0.1188851 0.03817136
-0.22089349 0.15071227 -0.2769361 -0.13144411 -0.20628273 -0.0049483976 -0.15813401 -0.0043811738
-0.21057898 0.011647322 -0.032459673 -0.2345094 -0.076274835 -0.13318147 -0.019706931 0.1633471
-0.043681946 -0.15182999 -0.07549427 -0.13493274 0.060785804 0.018797085 -0.14415805 -0.1385707
-0.043576494 0.162641 -0.15662979 0.065081194 -0.055929963 -0.09019002 -0.05552088 -0.28187254
-0.095193535 -0.16574568 -0.174182 -0.17019553 -0.09930443 -0.16973403 -0.078503035 0.02449984
0.06028255 -0.18787254 0.00070438464 -0.20039055 0.023643559 -0.108207315 -0.18483265 0.00093289337
-0.12132656 0.07275227 0.037708543 -0.14374974 -0.086162426 0.0064580836 0.01985871 0.0057763737
-0.1043777 -0.18969007 -0.20297661 -0.119173095 -0.13544045 0.029808441 -0.29037708 -0.102094494
-0.21851765 -0.23077285 -0.140007 -0.010182624 -0.20559411 -0.21123292 -0.039128758 -0.086204186
-0.027347375 0.07972917 0.14467895 -0.0671113 0.1342197 -0.12432987 -0.048637744 -0.19007108
0.10743689 0.0934075 -0.11047313 -0.14391428 -0.06536017 -0.19201073 -0.124195784 -0.19771227
-0.11475388 -0.019427275 -0.03314501 -0.538539 -0.10559935 -0.22143827 -0.032401085 -0.14022003
-0.09385138 0.12092832 0.06422251 -0.14682567 -0.040234033 -0.08838531 -0.14259289 -0.08834844
-0.03912336 0.056835666 -0.20707528 -0.09634543 -0.034969956 -0.029836783 0.005569433 -0.06493065
-0.21104926 0.05557085 -0.019940533 0.007084647 -0.05506302 -0.26012537 0.048247542 -0.12533127
0.051630877 -0.22386105 -0.054228123 -0.13188992 0.09341287 -0.087830864 -0.16364625 -0.0005255863
-0.09298146 -0.2951621 -0.18573533 -0.18987314 0.10085378 -0.27688262 -0.2911642 -0.032862563
-0.087207794 -0.10970022 -0.045865983 -0.051491145 -0.11840921 -0.07805293 -0.23040734 -0.07583363
-0.062244557 -0.050720084 -0.19007233 -0.19845407 -0.20606303 -0.06996502 0.15593615 -0.0902484
-0.011743154 -0.16363528 -0.14413562 0.123059936 0.107026756 -0.00761076 -0.06140566 0.19712469
0.07842209 0.12926395 0.0007531513 0.10661603 -0.01747269 -0.21709917 0.103605926 0.10454377
0.011785679 -0.005899724 -0.007354263 -0.105878286 -0.13390835 0.099092744 0.012342136 -0.021100145
0.04368821 -0.2566014 -0.015568643 -0.062243555 0.0732983 -0.08532682 -0.3216701 -0.032942995

weight f4 [256, 256]
00000000: 5173 a6bd a697 873e 717b 4a3d c9c9 b53d
00000010: 681e 82bc d3fa 90be 3f81 bbbd 620f 4cbc
00000020: d962 95bd da70 a1bd dc96 cd3d 1e3d a4bb
00000030: 061a c2bd da7e 893d af84 2d3e 4ca6 67be
00000040: 4f06 8fbb f24a 863d 9f7b e73d 0499 f03d
00000050: 094f 68be 22cf 48be 6e9c 9c3d 4e1d 093e
00000060: 6b33 72be dbc5 d9bd 1da8 663e 23a6 8abe
00000070: 644e 853e 52b2 93be 13bd ad3e dc38 1bbe
00000080: e246 833e 8b0c aebe 73fa e6bd 84a8 12be
00000090: 222f a83d f0b8 36be 881f 3f3e 2a87 b23d
000000a0: f1ce f6bd 8395 a4be c88f 0f3e a397 883d
000000b0: 2e05 c2bd 1e41 e7bd 80fd c83e ca48 e9bd
000000c0: 1432 10be 4a66 9e3d fda6 c5be 51e0 75be
000000d0: 779c 043e c896 a7be 7314 ccbe a234 cdbc
000000e0: 4a17 43be 53bf d63c cb8e 89bd 948a 6abd
000000f0: b625 933c c444 40be 00e3 3bbe a37e 79be
00000100: af12 8d3d 48a1 aebd 7825 a53d ad8b 85be
00000110: 43c2 85bd 97c0 a0bd 7586 eabe 35c7 9cbd
00000120: f722 1bbe 1620 89bd ce30 f4bd 93cf af3d
00000130: af65 77be 3e33 343e 12be 7b3d 8fcb 913d
00000140: ab96 a9ba 48ff aabe afe1 c1be b4ff c2bd
00000150: 5155 16be f57d 053d a5dc fdbd 27c3 7dbe
00000160: 9107 4b3e b37c 223a 7cc9 ae3d 0035 a1be
00000170: 741e 94bd cc1f b63d 699d 893e 244f d63c
00000180: 4560 1dbe 43a2 88be f268 2bbe 689a 10bd
00000190: 9d3c d63d 6df5 123e 3242 40be e7c4 92be
000001a0: cc98 1c3e 61a0 96be bf36 5b3d 8ce0 9ebc
000001b0: 720f 573e e897 053c c945 21bd 9ad4 a6bd
000001c0: 9c9f 213d cc10 e23d 791b e2be d8ec 30be
000001d0: 254e 683e 252a ef3d 2d25 63be fc3a 3fbe
000001e0: c4e9 41be a939 40be 72e2 afbe 2d0b ed3d
000001f0: d4cc 9bbe 1da5 61be a93e 98be 3bf7 8b3e
00000200: 0108 65be 8453 6bbe 4861 2ebe eb6e 9ebd
00000210: 5e6d 32be 4973 82be 0533 67bd 4780 263e
00000220: 7f20 88be d20e 0d3e fa17 4dbd 62e5 073e
00000230: ddb0 2f3e 58eb cbbd 02b1 51be 531f 2fbe
00000240: baa8 a3bc 076e babe bff6 4639 3f4d 38be
00000250: b597 3ebe eee7 bebe 86d3 9cbd 791e 2dbe
00000260: f8ac 423d 68af 51be 6aa9 5cbd 7b27 6d3d
00000270: a591 adbe 6622 e0bd 5365 73be fb7d 863e
00000280: bff2 abbb 5f36 d6bd 93bf 113d cf36 6f3a
00000290: 9c1d f9bd b9b4 45be 482a ff3d 9c48 7d3d
000002a0: ebf9 bdbe 8c57 da3c f8c8 b7be 298d 01be
000002b0: 088a acbe d237 013e 876a e83d ad0e 63be
000002c0: 69f4 25ba 89a2 2dbe ea01 91bd a743 f6bd
000002d0: caf3 08be 51b1 643e 7f03 06bf b1b3 60bd
000002e0: 1200 2dbe 3d59 70be 57cf 9fbd 45e3 19be
000002f0: 5ed6 823c 734b febd 38fd f3bd fa75 733c
00000300: f1a4 c43d 98cb e5bd 5b94 81be b8c1 93bd
00000310: 5ca9 bebe 4bce c3bd bdf6 97be 3c6b f5bd
00000320: c38d 85be da36 d4be 805a 2c3e e759 653e
00000330: 987c a43e cd0d 4d3b e0ac bfbd cfd8 88be
00000340: 8403 35be 144f 9dbd 323c 493c 2b14 11be
00000350: 9ffe 0cbd ec69 9dbe 3a75 61be 5a86 103e
00000360: 90e6 babd c694 5f3e 2977 9fbd a656 ddbc
00000370: 7625 b5bd 3776 4abd a056 24bd 7508 d5bd
00000380: acbc 8fbd 4bf1 89be ab56 ab3d b9fe 10bd
00000390: afd1 c3bc a863 a3be ffc1 9fbe bd81 67bd
000003a0: 13a4 88be 1269 9d3d 206b 95bd 8783 2dbe
000003b0: 81a9 30bd 49a8 083e 814b d7be 71cc e03d
000003c0: 6441 743e 802c c8be 9f49 5ebe f11f f7bd
000003d0: 211b 92be f077 98bd b36d 24be 83d5 003e
000003e0: aba7 3ebd 0d83 99bd 7bd5 38be b028 a8bd
000003f0: b9d1 6b3d 911c 36be c3ea bd3d f0fb 943e
-0.081274636 0.26482886 0.04943413 0.08876378 -0.01588364 -0.28316364 -0.09155511 -0.012454839
-0.07294244 -0.07882853 0.1003854 -0.0050121685 -0.0947762 0.06713648 0.16945146 -0.22622031
-0.0043647657 0.065572634 0.11302876 0.117479354 -0.226864 -0.19610265 0.07647024 0.13390085
-0.23652427 -0.10633441 0.22525068 -0.27079877 0.2603637 -0.28846985 0.33933315 -0.15158409
0.25640017 -0.33993945 -0.11278238 -0.14322096 0.08212115 -0.17843986 0.18664372 0.08717187
-0.1205119 -0.32145318 0.14019692 0.066695474 -0.09473644 -0.11291717 0.39255905 -0.113908365
-0.14081603 0.07734354 -0.38603964 -0.24011351 0.12950312 -0.32732224 -0.39859352 -0.025049511
-0.19051853 0.026214277 -0.06716689 -0.057261065 0.017962318 -0.18776232 -0.18348312 -0.24364714
0.06888329 -0.08526856 0.08063787 -0.26083127 -0.06531193 -0.078492336 -0.45805708 -0.07655183
-0.15150057 -0.06695573 -0.11923371 0.085845135 -0.24159883 0.17597672 0.061460562 0.07118904
-0.0012938579 -0.3339789 -0.37867495 -0.09521428 -0.14680983 0.032590825 -0.123956 -0.24781476
0.19827105 0.0006198391 0.08534524 -0.31485748 -0.07232371 0.088927835 0.26877907 0.026160784
-0.15368755 -0.26686296 -0.16739252 -0.035303503 0.1046078 0.14351435 -0.18775252 -0.2866585
0.15292662 -0.29419234 0.053519007 -0.019394182 0.21001986 0.008153893 -0.039373193 -0.08146019
0.039458856 0.1103836 -0.44161585 -0.17277849 0.2268606 0.1167796 -0.2218215 -0.18674845
-0.18936831 -0.18771996 -0.34352452 0.11574397 -0.3042971 -0.22035642 -0.29735306 0.2733706
-0.22366334 -0.22981077 -0.17029297 -0.07736 -0.17424533 -0.2547858 -0.05644514 0.16259871
-0.26587293 0.13775185 -0.050071694 0.13271096 0.17157312 -0.09956998 -0.2047768 -0.17101793
-0.019977916 -0.3641207 0.00018974672 -0.17998217 -0.18612559 -0.37286323 -0.076575324 -0.16906156
0.047528237 -0.20477068 -0.053872503 0.05789898 -0.3390018 -0.10944061 -0.23769121 0.2626799
-0.0052474434 -0.10459589 0.03558309 0.00091252936 -0.12163851 -0.19307221 0.124592364 0.061836824
-0.37104735 0.026653074 -0.35895514 -0.12651505 -0.3369906 0.1261895 0.113484435 -0.22173567
-0.00063306704 -0.16956533 -0.07080443 -0.120246224 -0.13374248 0.22333266 -0.52349085 -0.054858867
-0.16894558 -0.23471542 -0.07803219 -0.15028103 0.015971359 -0.124167345 -0.11913532 0.014859671
0.096017726 -0.11220473 -0.253085 -0.07214683 -0.37238586 -0.09560832 -0.29680434 -0.11983344
-0.26084718 -0.41448098 0.16831398 0.22397576 0.32126307 0.0031288743 -0.09359145 -0.26727912
-0.17677122 -0.076810986 0.012282418 -0.1416785 -0.034422513 -0.30744874 -0.22017375 0.14113751
-0.091260076 0.21834096 -0.077864 -0.027018856 -0.08845036 -0.049429145 -0.040121675 -0.10402004
-0.07018408 -0.26941904 0.0836614 -0.035399172 -0.023903696 -0.3191197 -0.31202695 -0.056520212
-0.2668768 0.07686056 -0.07295823 -0.16944705 -0.0431304 0.13345446 -0.42049792 0.10976494
0.2385307 -0.3909645 -0.21707772 -0.12066639 -0.28536323 -0.07444751 -0.16057472 0.12581448
-0.04654662 -0.07495699 -0.18050186 -0.082108855 0.057573054 -0.17784335 0.09273293 0.29098463

bias f4 [256]
00000000: dbb4 7cbc a029 a9bc e7cb 0d3e 3060 1d3e
00000010: 12c2 8cbd 1823 8c3d 8dc1 b83d 950b 793d
00000020: ba51 8f3c 5690 963d fc9e b73c 9ccc 843c
00000030: 9d9a 7cbd 2755 5dbc 38e4 de3d 863e 183d
00000040: 6965 1d3e b265 24be 02ba a8bc f64e 8d3d
00000050: 7ac6 8e3d 74d4 033e aedd 7b3e 4156 c63d
00000060: 6a7e efbc 2415 e63d ae8f ce3d 9baf b3bd
00000070: f723 da3d 7afe cf3d 67ef 243d c206 e43d
00000080: c2a3 893e e179 21bd 3437 95bc c0fa 92bc
00000090: 5ef7 1a3e 6915 2e3e b13d e4bc f9a4 6e3d
000000a0: 4a89 733e 48c9 683e e82e b53e 33a5 31bd
000000b0: 614d 283e 7fdf 023d edd5 e83c c62e 323e
000000c0: 0030 a3bd a119 b03c a014 bd3d 9a06 5f3d
000000d0: fbb0 0e3e 792d 023e 4f64 babd 05c5 21bb
000000e0: 177f 873d 62ce 083e ec5a aabd c0ec 473d
000000f0: 64ba 74bd 177c 28bc 312e 92bd 2dde 86bd
00000100: d46c 6c3d c20f 113d a9ca 833d 7765 283e
00000110: 5aec 863c 810c 3c3a 0958 0e3d bba5 6f3d
00000120: f39b c4bc 3223 233e 7dd4 a43e 34a4 d53a
00000130: 31a6 e73d 971e d0bc e557 743e cd75 03bd
00000140: 27ae 103e 3246 fa3d 1e11 87bd 899c 103e
00000150: 0c69 ba3d f227 4dbe df86 243d f747 70bd
00000160: 1d12 e53d ebf3 2b3e e13c 453d cbcb 39bc
00000170: 984b e83c 2100 0c3e 67e8 4e3d 353d 59bd
00000180: 7d5e aebd 6f1c b5bc 3cfb 47bd dfbc e13d
00000190: aa9f 9b3e dbdc 893d 20c1 ac3c fd36 ec3d
000001a0: 6613 863e f5b4 db3d 5e74 cbbc c7a5 f73d
000001b0: b6de f13c 577d 74ba d1ca cb3d 434f 7b3e
000001c0: 9f8f 283d 4bd9 5f3b 4f67 f93d 1d0b e73d
000001d0: fb83 933c 6d1c 1e3d 57f3 5d3e ef84 be3d
000001e0: d5a4 013e a2ae 3cbc 804a 4b3e 8cf8 81bb
000001f0: f45d 763d 3583 3f3e 97f7 643c 64c7 783d
00000200: 6f80 673e 7263 9a3d 901a 583d ac7b 453e
00000210: d01a 463d 017e 6b3c 697d 0b3e 429b 92bc
00000220: 1911 c73d 5270 5a3e 9682 bebd 448c c7bc
00000230: 4be5 79bd 24d8 0abd 10e2 bfbb 4b34 c83e
00000240: c738 6c3e b5f1 1c3e 0aa3 723e 47f4 e03c
00000250: abfb 093e 1453 a03d d4c6 be3d 8bb6 323d
00000260: f305 4c3e 8921 8fbc e827 553d 8721 3f3e
00000270: 59b3 20bd 87b4 f13d f967 733d 76fa 843e
00000280: 7951 e13c 7b89 323d f621 f53d a7ca 563e
00000290: 4b2e f03d 7c70 b53b 6c7f 6dba 40e3 1abd
000002a0: 7682 de3d 6cd1 013e 8fad 4b3d 2f9b d3bc
000002b0: f5ea 04bd bf4b fdbd fdd7 0d3d 0d39 993e
000002c0: 7c19 913e 5eba 273d 6828 f03d 17c0 a4bd
000002d0: b339 193d 6cb9 d6bc d944 4dbd 3053 8f3d
000002e0: 31da e53b 715a bf3d 86be 933e 0008 66bd
000002f0: 0354 d73b 28bd 073d 9fc0 9cbd 58ca 71bd
00000300: 363f b2bd 698d 08bd cf2b 91bc b419 223d
00000310: 55e6 5d3e 2ee7 f13c 3cd1 9a3e 05a1 e53d
00000320: 8327 483e b41d bf3c ddef 6a3e 03f4 a23d
00000330: 1f00 293d d836 7cbc e92f 54ba da9e 213a
00000340: 780b 4b3c 5c50 1a3e c82e 18bb 74f0 283c
00000350: d1f2 173e 345b 21bd e3f9 21bd 6d4e 5bbd
00000360: bd54 933c dea4 85bd 4cd5 f73d 1783 5ebd
00000370: 410c 4dbd ab3c 263e 6310 653e f4df 1fbd
00000380: 34dd aa3d 984b cf3d aad2 4cbd b423 753d
00000390: ba4c a63d 1b26 48bd fd33 4d3c 5c86 153e
000003a0: 3608 2e3e cb6c 3d3d e158 80bd a512 9a3d
000003b0: 0dd2 4abd 8ce6 203c 573f f4bd fb08 bebd
000003c0: d4b5 8ebc 1f8a 6a3d c150 fe3b 7def cc3e
000003d0: 5217 683c 9fc1 e63d f455 bb3d 1748 dc3d
000003e0: 044b 253c 979b 903e 4b01 5fbd 1d50 ffbd
000003f0: 142b e0bb b988 b6bd f89e 4d3e caca ba3d
-0.015423979 -0.020649731 0.13847314 0.15368724 -0.068729535 0.06842631 0.09021292 0.06080206
0.017495025 0.07351749 0.022414677 0.016210847 -0.06167089 -0.013509071 0.10883373 0.037169002
0.15370716 -0.16054419 -0.020596508 0.06899826 0.0697145 0.12874013 0.24596283 0.096844204
-0.029235084 0.11234501 0.100859985 -0.087737285 0.10651391 0.101559594 0.040267374 0.111341015
0.2688275 -0.039422873 -0.0182148 -0.017941833 0.15133426 0.17000355 -0.027861448 0.0582628
0.2378284 0.22733033 0.3538735 -0.043370437 0.16435768 0.031951424 0.02842232 0.17400655
-0.0796814 0.021496596 0.092324495 0.054449655 0.139347 0.12712659 -0.091011636 -0.0024684083
0.06616037 0.13359979 -0.08318123 0.048809767 -0.05974807 -0.010283492 -0.071377166 -0.065853454
0.057720974 0.03541542 0.06435139 0.16444956 0.016470123 0.0007173494 0.034751926 0.058507662
-0.024000144 0.15931395 0.32193366 0.0016299547 0.11310995 -0.025405211 0.23861654 -0.032094765
0.14128934 0.1222042 -0.06595062 0.14122213 0.09102067 -0.20034769 0.040167686 -0.05866238
0.111850955 0.16792266 0.04815376 -0.011340092 0.028356358 0.13671924 0.050514605 -0.053036887
-0.08514116 -0.022108285 -0.04882358 0.110223524 0.30395252 0.06731578 0.021088183 0.11533926
0.26186675 0.10727874 -0.024835762 0.120921664 0.029525142 -0.00093265384 0.099507935 0.24541955
0.041152593 0.0034156616 0.12177908 0.112814166 0.01800727 0.038601328 0.21674858 0.09302699
0.12660535 -0.011516245 0.19852638 -0.0039663967 0.060148194 0.18702395 0.013975046 0.06073703
0.22607587 0.07538499 0.052759707 0.19285458 0.048365414 0.014373303 0.13622059 -0.017896298
0.09720058 0.2133191 -0.09302251 -0.024358876 -0.061009686 -0.033897534 -0.005855806 0.39102396
0.23068534 0.15326579 0.23695007 0.02746023 0.1347491 0.07828346 0.09315267 0.043631118
0.19924144 -0.017472045 0.05204001 0.18665133 -0.03923354 0.11802011 0.059425328 0.25972337
0.02750467 0.043588143 0.11969368 0.20975743 0.1172758 0.005537091 -0.000905982 -0.03781438
0.10864727 0.12677544 0.049726065 -0.025830833 -0.032450635 -0.12367963 0.03462981 0.2992634
0.28339756 0.040949218 0.11726457 -0.08044451 0.037408542 -0.026211463 -0.050114486 0.06998289
0.007014536 0.09343422 0.28856295 -0.056159973 0.0065712943 0.033139378 -0.07653927 -0.05903086
-0.08703463 -0.033337984 -0.017721085 0.039575294 0.21669896 0.02952918 0.30237758 0.11212353
0.19546323 0.023329593 0.22943063 0.07956698 0.04125988 -0.015393935 -0.00080942974 0.00061653333
0.012392871 0.15069717 -0.0023221243 0.010311235 0.14838721 -0.03939362 -0.03954495 -0.05354159
0.017984742 -0.065255865 0.1210123 -0.054324236 -0.050060514 0.1623408 0.22369532 -0.039031938
0.083429724 0.1012184 -0.050005592 0.059848502 0.08120103 -0.048864465 0.012524602 0.14602035
0.1699532 0.04624633 -0.06266952 0.075230874 -0.049516726 0.009820592 -0.119261436 -0.09279057
-0.017420687 0.05726063 0.0077610915 0.40026465 0.014165716 0.11267399 0.09147254 0.107559375
0.010088686 0.28243706 -0.054444592 -0.12466452 -0.006841073 -0.089127965 0.20080173 0.0912071

weight f4 [10, 256]
00000000: bc05 59be 55a5 b23d c2a0 fa3d 3435 4f3e
00000010: 087e 8f3b da49 88bd 7962 b5bd fc99 413e
00000020: d650 81be 9c84 bc3c 8c7e 0a3e 46b7 a53e
00000030: 5aff e23d 68a4 63be 7722 8c3d f1e4 533c
00000040: 1e67 e8ba fe44 163e 9fed b73e 41f1 923c
00000050: 366c 97be 9ad4 753c a5e4 c93d e51a 0a3e
00000060: bc6a a3bd 2880 883c c526 183d f43a 953d
00000070: 33e8 bc3e 4938 9ebd dbad 303e c80e ec3d
00000080: 7a92 08be ab94 9abc c688 b23d 8bb0 a1bc
00000090: 70eb 25be 544c d03d f456 693e 62d8 623d
000000a0: ab0e c53c 6089 f4bd 3b13 133b eb45 c3bd
000000b0: b4b1 373d 6d10 f5bd 3311 e4bb c45f e8bb
000000c0: d24c 9ebd 1cef bb3e e93e 0d3e 4326 47be
000000d0: 869c 743e fa55 94be b15a 51be 7ef0 b73e
000000e0: 35b6 36bd 71f5 c8bd 7e39 8d39 0a19 4a3d
000000f0: 6aa1 fbbd 536d 9c3c 543e fd3d 2637 083e
00000100: f26c 9fbe 55ba babd 8759 31be df6b 383e
00000110: d7c5 39be a525 d03e 629d 673e dcd4 db3d
00000120: aa57 de3c 64db 823d 4c8b 4b3c 3b94 8a3d
00000130: 49dd acbb bba7 613e 073d 33be ffd2 683d
00000140: 1542 423d dcb7 53be 3a89 b0bc ab5e 413e
00000150: 2f8b 1dbe a931 bcbd 9e9a 20be 3359 1bbe
00000160: b22a d0bd 8bee 3fbd b78d 443e 4d5b e4be
00000170: c85b c2be bd79 783d 7e58 babd 858e 333b
00000180: 2e58 e33d e430 223e 549d debc 6899 93bd
00000190: 131c 6dbd 3a6b b3be 724b 943d 833e ea3d
000001a0: 2d4e 0abe 35f0 853d 4b73 233e 36d5 243e
000001b0: 99db 873e 004d 1dbc b742 263e ec14 c13d
000001c0: f2bf 9c3e 5a24 92bd c6c0 e63d 396d 253e
000001d0: 02dd 94bc 9c3c 893d 239c dcbd 7ab3 193c
000001e0: 3c09 4d3c 815b 843e eec5 6b3e baba 85bd
000001f0: aad8 a5bd fef4 a9ba 79f5 8ebe dd34 59be
00000200: 5931 c63c 20a7 953d e685 683c 1e28 883e
00000210: 434e 783d 9c83 5fbe 1d63 1a3d 1f69 8dbe
00000220: 0d19 a93d 8cdf 073d 6075 12bc ca3b 09be
00000230: b6f9 0dbe 68df 3bbd 158a 5ebc adb9 8ebc
00000240: e119 4bbe 368c 01bd 2fa8 543e bfae 143d
00000250: 0606 5f3e bb77 483e c682 a1bd c265 cebd
00000260: e946 fa3d 3f51 d7bd b592 d3bd 221c f23e
00000270: 8bb7 e33d 4fd0 9c3d 04ce 68bc 4846 6c3e
00000280: 45c8 5d3e 04dc 1a3e 8ada 01be cee8 2fbd
00000290: 21d9 8c3d 5e50 b33d 6b96 16be 97a4 303d
000002a0: da50 6b3e 6e60 333e 8724 0b3e 9c8d 5abe
000002b0: e90e 4e3e b5e0 cc3d bbfd 2a3a 4b62 96bc
000002c0: 55e2 8a3d 5e9c 37bc d6d2 383c f1c8 013c
000002d0: 5119 e2bd 6197 f4bd b9fc 5fbd 1490 943c
000002e0: 7e7f 003e 19c0 a33e 7d21 24bd 4831 b7bd
000002f0: 4eb4 543e 3835 c93d 4678 2d3e fa89 a93d
00000300: 575c 553c 943c b2be 6db8 66be ef44 373c
00000310: 1115 103e 2277 25bd 0f15 ac3c 520e 28bd
00000320: e844 0fbd c55c cd3d 7e15 9dbd ad6a 0ebe
00000330: 5282 023e 2bec acbd a7bb 543e f9e7 373d
00000340: adf9 1d3e e7d6 0d3e 8138 f2bd 7f11 dfbd
00000350: 1085 833c 0d27 da3c 3c10 983c 3930 7b3e
00000360: f2d0 193e 714b 273e 3c90 e53d 5e23 b4be
00000370: 571c c1be 428e 74bd 11f6 9aba cf6e f0bd
00000380: 4b49 24be fd2e f9bd c197 033e c8b2 a1bd
00000390: be40 8b3d ac77 c9bd fee2 c63d 23b8 3e3e
000003a0: 7e82 f23d 684a d93c 49bd 03bd d94a 31be
000003b0: d10c a93d 2d85 b23d 17d2 05be 2a65 813d
000003c0: 76b6 373e 26ef f1bc eea6 2fbd 902b 98bd
000003d0: 05d7 c5be a8a4 82bd ed5d 803e b7d5 e63d
000003e0: 1725 b93d d82e e43d 5f33 63be d483 2fbc
000003f0: fc59 eebd da09 2abd a913 63be b55e e0bd
-0.21193594 0.08722941 0.12237693 0.20235139 0.004379038 -0.06654711 -0.08856673 0.18906397
-0.25256985 0.023012452 0.13524836 0.3236639 0.11083861 -0.22230685 0.06842511 0.012933002
-0.0017730927 0.14674756 0.35923478 0.017937304 -0.29574746 0.015004301 0.098580636 0.13486822
-0.07979342 0.016662672 0.03714635 0.07286635 0.36895904 -0.07725579 0.1725382 0.11526257
-0.13337126 -0.018869719 0.08717494 -0.019737503 -0.16203094 0.101708084 0.22787076 0.05538214
0.024054846 -0.11940265 0.0022441882 -0.0953482 0.044847205 -0.119660236 -0.006960058 -0.0070914943
-0.07729496 0.36705863 0.1379353 -0.1944819 0.23887834 -0.28971845 -0.20444752 0.35925668
-0.04460736 -0.09812439 0.0002693645 0.049340285 -0.12286647 0.019095099 0.12365404 0.13302287
-0.31137806 -0.09117571 -0.17319308 0.180099 -0.18141876 0.4065372 0.2261863 0.10733959
0.02714141 0.06389502 0.012423348 0.06766554 -0.0052754027 0.2203664 -0.17503749 0.056841847
0.047426302 -0.20675606 -0.02154981 0.18883769 -0.15385126 -0.091891594 -0.15683982 -0.15170746
-0.101643935 -0.04685835 0.19194685 -0.44600907 -0.3796065 0.060662974 -0.0909891 0.002739818
0.11100803 0.15838963 -0.02717463 -0.07206994 -0.0578881 -0.35042745 0.072409526 0.114377044
-0.13506384 0.065399565 0.1596195 0.16096959 0.26534727 -0.009600878 0.16236387 0.09427819
0.30615193 -0.0713584 0.11267237 0.16154946 -0.018171791 0.067010134 -0.10771968 0.009381169
0.012514409 0.25851062 0.23024723 -0.06529756 -0.08097966 -0.001296669 -0.27921656 -0.21211572
0.024193453 0.07307267 0.01419208 0.26593107 0.06062151 -0.21827549 0.037692178 -0.27619264
0.08256731 0.033172175 -0.008939117 -0.13401714 -0.13864788 -0.045867354 -0.013582726 -0.017422521
-0.19834091 -0.031627856 0.20767282 0.036299463 0.21779642 0.19576924 -0.07886271 -0.100780025
0.12220556 -0.10513543 -0.103307165 0.4728709 0.111189924 0.07656919 -0.014209274 0.23073685
0.21658428 0.15122992 -0.12681022 -0.04294663 0.068773516 0.08755563 -0.14705817 0.043125715
0.22980061 0.17517254 0.13588153 -0.21343082 0.20122875 0.10003797 0.0006522794 -0.018357417
0.06781451 -0.011206714 0.011280736 0.007921443 -0.11039985 -0.11942936 -0.054684374 0.018135108
0.12548634 0.31982496 -0.040071 -0.089449465 0.20771906 0.09824604 0.16940412 0.0827827
0.013022504 -0.34811842 -0.2253129 0.011185869 0.14070536 -0.040396817 0.021006135 -0.041029282
-0.034977823 0.1002746 -0.07670115 -0.13907881 0.12745026 -0.08443483 0.20774709 0.04489896
0.15427275 0.1385151 -0.118271835 -0.10892009 0.01605466 0.026629949 0.018562429 0.24530114
0.15021113 0.16337372 0.11209151 -0.35183233 -0.37716934 -0.05970598 -0.0011822601 -0.11739885
-0.16043584 -0.121671654 0.12850858 -0.07895428 0.06799458 -0.09837279 0.09711264 0.1862493
0.11841296 0.026524737 -0.03216294 -0.17313708 0.08254398 0.087168075 -0.13068424 0.06318124
0.17940697 -0.02953298 -0.042883806 -0.07430184 -0.3864061 -0.06379062 0.2507166 0.112712316
0.090402775 0.11141747 -0.22187565 -0.010712583 -0.11638257 -0.0415133 -0.22175469 -0.10955564

bias f4 [10]
00000000: 98b3 db3c 382a cabd fe45 76bd f622 21be
00000010: 643d 313e 37ba 823b d8fb e63d 30ca a1bd
00000020: cae9 edbd e03f 383e
0.026819035 -0.09871334 -0.060125344 -0.15735993 0.17308575 0.0039894837 0.11278504 -0.07899892
-0.11616857 0.17993116

stds f4 [10]
00000000: 1d5a 643e 1d5a 643e 1d5a 643e 1d5a 643e
00000010: 1d5a 643e 1d5a 643e 1d5a 643e 1d5a 643e
00000020: 1d5a 643e 1d5a 643e
0.223 0.223 0.223 0.223 0.223 0.223 0.223 0.223
0.223 0.223

obs_std f4 [28]
00000000: cdcc 4c3e cdcc 4c3e 0000 803f 0000 803f
00000010: 0000 803f 0000 003f 0000 003f 0000 003f
00000020: 0000 003f 0000 003f 0000 003f 0000 003f
00000030: 0000 003f 0000 003f 0000 003f 0000 8040
00000040: 0000 8040 0000 8040 0000 8040 0000 8040
00000050: 0000 8040 0000 8040 0000 8040 0000 8040
00000060: 0000 8040 0000 803f 0000 803f 0000 803f
0.2 0.2 1.0 1.0 1.0 0.5 0.5 0.5
0.5 0.5 0.5 0.5 0.5 0.5 0.5 4.0
4.0 4.0 4.0 4.0 4.0 4.0 4.0 4.0
4.0 1.0 1.0 1.0

obs_mean f4 [28]
00000000: 0000 0000 0000 0000 0000 0000 0000 0000
00000010: 0000 0000 0000 0000 0000 0000 cdcc 4cbe
00000020: 9a99 193f cdcc ccbe 0000 0000 0000 0000
00000030: cdcc 4cbe 9a99 193f cdcc ccbe 0000 0000
00000040: 0000 0000 0000 0000 0000 0000 0000 0000
00000050: 0000 0000 0000 0000 0000 0000 0000 0000
00000060: 0000 0000 0000 003f 0000 003f 0000 003f
0.0 0.0 0.0 0.0 0.0 0.0 0.0 -0.2
0.6 -0.4 0.0 0.0 -0.2 0.6 -0.4 0.0
0.0 0.0 0.0 0.0 0.0 0.0 0.0 0.0
0.0 0.5 0.5 0.5
