trained/h1_walk/actor_37799.pt (torch, 308593 bytes, 9 tensors)

weight f4 [256, 28]
00000000: e4e1 95bd b244 ad3d eb21 97be b8d3 ce3d
00000010: e1ce 65bb ebc0 fd3e d7a4 9e3d 2a79 a23d
00000020: 7998 2fbe 9641 dabd 996e 08be 320e 653d
00000030: 6276 36bd 884d d23c be7b 66bd 002a 6a3e
00000040: ebd1 243f ad7c 193e 5cc8 25be 1e30 afbe
00000050: 6192 1ebf f653 edbe e256 353e f4b2 4cbe
00000060: dbd0 33bf 30e8 593e 1eb0 0fbd 9522 b53e
00000070: 6f3f 66be ab5b b3bd 8d2a 183e 3ad4 c8be
00000080: 8ffe 6cbe e073 debc ee1c 4cbd 162f 193e
00000090: 5f3c 3fbe d3ad 443d 8f3b 87bc 20e0 43be
000000a0: 5fe2 ef3c 412f 5ebe 1d59 1e3e 776b 783e
000000b0: f5d7 c43e b0b0 f13e 8e8f 86bd 3a43 6f3e
000000c0: 83bc 07bf 4036 a2be d625 3ebe 1ba4 92bc
000000d0: d5fd 5dbe a3d3 9bbd e27f 41be 6f1f 0cbd
000000e0: 8abe b33d d59c 3b3d 226d 1e3e 2123 ddbe
000000f0: 967a bf3d f229 8dbe 9baa 813e d50c 55be
00000100: 9558 a03d a048 c13e 675d 773e 166f c3be
00000110: bffd 173f ca7d 5c3e 45be 083f b7f4 85be
00000120: 4b58 cc3e edc5 68bf 5921 d0be 2118 893e
00000130: 1a60 983d 92e2 acbc 2d7f eebe 499f e6bd
00000140: c866 91be 0501 91bd 0ad1 c83e b424 e63d
00000150: 7cf7 4d3e 47c8 273d 9538 5a3e ec36 83be
00000160: b6b0 58be 804c 673e 0889 153d fd03 3dbe
00000170: 647e 71bd 84bc 913e a26e 38be 5bbc 3d3e
00000180: 2e0a 15be 85d2 aebe cd95 623e 9803 6ebe
00000190: 2215 2ebf c50e e9be 3b93 193f 5108 f43e
000001a0: 2b01 843d 3a5e 86be 189e b7bd 2952 32be
000001b0: e920 19be da6e e8bd 8a5c 69be da0d c23e
000001c0: 2b51 e73c e5f3 2d3e 7550 75be 9ea1 8a3e
000001d0: ccb6 953d a0cd bd3e 04e9 ef3d e427 1b3f
000001e0: 8def 243e e2ff 39bf c141 9f3b 2d15 423e
000001f0: 0180 b0be 8fd1 81be 55f5 033e 2566 b63e
00000200: 6f74 3d3e d60e ee3e e797 ab3e 2c0d 15bf
00000210: 111e 1fbe 7ca6 b5be 1a5f f1bd eaea 8fbe
00000220: 990c 4e3e 123f 03be 2a62 143e 9ac9 67be
00000230: ed0e f83e 9865 94be 3a70 0abe bc68 8dbe
00000240: 21a5 a5be 1367 6bbe bb9f d13e 2d70 593d
00000250: b2e7 01bf be01 373e fd0e 7dbe 6922 e13e
00000260: ee98 95be 8f63 8fbd b7c2 ca3e 1c01 babe
00000270: ee11 6cbe 6216 a6be 062a 48be 9a1c 5f3e
00000280: e740 30bf 107a 313e d91f 3dbf 9766 2b3e
00000290: 7baa d43e 7c48 ebbd 284f 56bd 0a3d 683e
000002a0: e494 a9be 7701 9c3e e2b5 a83d 1eda 903c
000002b0: 6d83 a8be 898e 38be 4860 643e 1449 143d
000002c0: fd52 263e 2f0a 8f3d 8586 c9bd 392c 11bf
000002d0: a99f c2bd 3211 6b3e fc73 b53d c3f4 f2be
000002e0: dff8 79be b21a debd 5b56 653c a500 04bf
000002f0: a5b9 93be bb6a e9be 0c9d db3d 6629 473d
00000300: 4ae2 113f 0ed9 e73e 3c7a 283d 944c c0bc
00000310: 07bc bebe 4371 cb3d 4abf d53d 5926 bb3d
00000320: 3169 9f3d 8e1e 10bd b3f5 22be a50c a93e
00000330: f935 31be 4b8c 21bf da6b 913e b697 ff3b
00000340: 113a f13c 0e48 46bc ba68 693e 5fd4 153e
00000350: 702d 333e fb1d 413f ae9c c9bd 3e83 debe
00000360: 9e1d 2a3e 34e1 bf3c 1608 c73e 33a9 adbe
00000370: af6c a53e 82d5 b3bd a09d 683e d797 113e
00000380: 1060 e13d b790 12bb 2165 d73e 08fa 873e
00000390: 52b3 3fbe 4e52 b53d 37da d0be c2b1 6abf
000003a0: 6d84 13bc c9a6 2a3f 1249 6d3e 8e83 2f3f
000003b0: 46df 61be a2a3 8fbe 9e78 803e b720 ce3e
000003c0: 8344 23be 6c2f b2be 37de 563e c280 263e
000003d0: f10a c03e 5e21 f13d efa1 3e3e f209 05bd
000003e0: 8655 013f 867b 81be 52f9 83bd 7308 af3a
000003f0: d0df 3a3d 452d 953e 8a0c ce3d c8ad fa3c
-0.07318476 0.08460368 -0.29518065 0.10098976 -0.0035065936 0.49561247 0.077462845 0.079332665
-0.17148007 -0.10657041 -0.1332344 0.05592174 -0.044546492 0.025671735 -0.056270353 0.22867584
0.6438281 0.14988966 -0.16189712 -0.34216398 -0.61942106 -0.4635312 0.17708924 -0.1999014
-0.70240563 0.21279979 -0.035080068 0.35377946 -0.22485135 -0.08757719 0.14859982 -0.39224416
-0.23143981 -0.027154863 -0.049832277 0.14959368 -0.18675373 0.048017334 -0.016507892 -0.19128466
0.029282747 -0.21697713 0.15463682 0.24259745 0.38446012 0.47205114 -0.0657035 0.23365489
-0.5302202 -0.31682014 -0.18569121 -0.017900517 -0.2167886 -0.07608726 -0.1889644 -0.034209665
0.08776577 0.045803864 0.15471318 -0.43190864 0.09349553 -0.27571064 0.25325474 -0.20805676
0.07829396 0.3775072 0.24156724 -0.3817069 0.5937156 0.2153236 0.5341533 -0.26163265
0.39911112 -0.9092701 -0.40650442 0.2677622 0.07440205 -0.02110413 -0.46581402 -0.1126085
-0.28398728 -0.070802726 0.39221984 0.11237469 0.20113939 0.040962484 0.21310647 -0.2562784
-0.2116116 0.22587776 0.036507636 -0.18458553 -0.058958426 0.28464139 -0.18010953 0.18528883
-0.14554664 -0.3414499 0.22127457 -0.23243558 -0.68000996 -0.4551908 0.5999028 0.47662595
0.06445535 -0.26243764 -0.08965701 -0.17414154 -0.1495396 -0.11349268 -0.22789207 0.37901193
0.028236946 0.1698757 -0.23956473 0.2707643 0.07310256 0.37070942 0.11714366 0.60607743
0.16107006 -0.7265607 0.0048601334 0.1895339 -0.3447266 -0.25355193 0.12886555 0.35624805
0.18501447 0.46495694 0.3351433 -0.58223224 -0.15538813 -0.3547858 -0.11785717 -0.28108913
0.20121993 -0.12817028 0.14490572 -0.22635499 0.48448887 -0.2898376 -0.13519374 -0.27618968
-0.32352546 -0.22988538 0.40942177 0.053085495 -0.50744164 0.17871758 -0.24712749 0.43971565
-0.2921824 -0.07001411 0.3960168 -0.3632897 -0.23053715 -0.32438952 -0.1954728 0.21788254
-0.68849033 0.1733172 -0.7387672 0.16738354 0.41536316 -0.11488435 -0.052321583 0.22679535
-0.33121407 0.30469868 0.082378164 0.017682131 -0.3291277 -0.18023123 0.22302353 0.036202505
0.16242595 0.06984364 -0.09840111 -0.56708103 -0.09503109 0.22955778 0.08860013 -0.47452363
-0.24411343 -0.108449355 0.0139976395 -0.51563483 -0.28852573 -0.4558924 0.10723314 0.048623465
0.56985915 0.45282787 0.041132197 -0.023474015 -0.37252828 0.09933712 0.10436876 0.091381736
0.077837355 -0.03518539 -0.1591404 0.3301746 -0.17305745 -0.63104695 0.28402597 0.007800068
0.029446634 -0.01210214 0.22793856 0.14631794 0.17497802 0.7543637 -0.098443374 -0.43459505
0.1661286 0.023422815 0.38873357 -0.3391815 0.32309482 -0.08780958 0.22716379 0.14218079
0.110046506 -0.0022364089 0.42069343 0.26557946 -0.18720749 0.08853589 -0.40791485 -0.91677487
-0.009003741 0.66660744 0.23172405 0.6856011 -0.22057828 -0.2805453 0.25092024 0.40259334
-0.15944104 -0.34801805 0.20983206 0.16260055 0.37508348 0.117739424 0.1861646 -0.032480188
0.50521123 -0.25289553 -0.064440385 0.0013353958 0.0456236 0.291361 0.100609854 0.030600443

bias f4 [256]
00000000: b661 16be 6c32 af39 dc71 a2bd c1dd 51be
00000010: c9c5 833d 3abe 3dbd 71cd 47be c7db 45be
00000020: 8772 78bc 225b 1fbc 0a99 5abe 50c3 49be
00000030: ade3 5dbe 5b2b 5dbe 042a 39be c83b ca3d
00000040: 175b 01be c3fa 19be f674 6abc 5186 883c
00000050: f5f5 12bd e69d 46bd 0cce 22be 8924 b3bd
00000060: dc6b e8bd 0d96 5fbe a04e 8cbe 08d0 323d
00000070: ed16 8ebe f0be 103d cee7 01bd f592 b33d
00000080: ec20 99be 4d02 9f3d 8f07 b0bd 22a6 a0be
00000090: 2639 05be 517a dabd 98e7 abbc 00ba f2bd
000000a0: 4eba 4f3d bcf1 b23d 9eaf 0b3e 5b3e 3b3e
000000b0: eeca 31bd d9cc 15be aca8 c4bd 47dd 50be
000000c0: 5ce7 cc3d 07af 1ebe 87ab 7c3d 3144 adbd
000000d0: 5b7e 97be 9c32 873e f837 2ebd 0635 b43a
000000e0: be04 7a3d 1cd0 eabd 7cfb b1bd 046a 15be
000000f0: 2648 56be f2b6 44bd b2db 313e f7d6 babd
00000100: 7447 2bbd 1a4c f5bd 6038 55be 68e1 623b
00000110: 4e6d 1abe 05e5 46bd 3950 02be 954c dc3d
00000120: c331 1cbe 1fd9 193e 6c5a 5ebe 419e 18be
00000130: 7ea4 28be 57d1 6abd bc73 18be 8941 89bd
00000140: 221e 71be 2278 f33c 18eb 13bb 39ad 6cbe
00000150: fa06 90bd 925d 2bbe 129d 9fbd 702f 233e
00000160: c3c1 50bd a3b3 19be d86f 77bd 595f 50be
00000170: 269f 753d 40c6 61bd 12d0 dbbd 082b 9bbd
00000180: 85e7 b7bd b139 453e b226 51be 0e98 273d
00000190: 6e00 25bd 92ea 85bd da00 c3bd 9345 60be
000001a0: 376c dbbd 379b 8bbe 4d7d 22be fa00 75be
000001b0: e28a ffbc 1e0d 7ebe fe9d 20be 8a16 8b3d
000001c0: 0dc0 0d3e 558e 12be ae4c bb3c a976 87be
000001d0: 1f1e 91bb c404 cbbc 58b3 2cbe 799c b63c
000001e0: 55ec c2bd 22e9 04bc c878 b6bc f34e e1bd
000001f0: fd2b c9bd 6350 aebc d29f 393a 2d39 c13d
00000200: fa68 cfbd e34a 64be b097 95be 41c3 cabd
00000210: 3ede 5cbe a489 4c3d 0dbf 6fbe 6051 18be
00000220: 9261 4cbe b564 75be 55e4 43be 4630 a8bc
00000230: acc1 62be 337b 02be 9277 0fbe 7bb4 29be
00000240: f3bd 85bd bf0d 613b a418 003d ba43 04be
00000250: 0dc5 b53d afb3 a2bd 31d6 1b3c 178a 54be
00000260: 780c 013e 7bd1 ed3d 2cdc 3cbe bd1e 8dbe
00000270: 4dad 53bd 46a5 95be fdee 33be f267 8cbe
00000280: 0b59 12be 04c3 ecbc 7e6c 3bbd 3e34 ccbe
00000290: 1123 fabc f136 42be 94c8 debd dfd9 1fbe
000002a0: b975 37bd df05 003e 3d87 143e 087e e6bd
000002b0: ed25 2dbd 2571 1dbe c113 35be 1fdb 9dbb
000002c0: 8264 15be 15c7 d8bc 8057 85be ecbd 3abc
000002d0: d604 62bd 8964 36bd 232f f43c 5bcd 40bd
000002e0: 4003 8fbe bee3 b43c e1a8 b1bb 9c0b a93d
000002f0: c25a 3fbd 0509 9bbe 049a 933d 0117 2cbe
00000300: 86fb 983d ee0b 14be 17a5 56bd 0e55 fabd
00000310: 70e9 e13d 8acc f0bd aa19 b0be 8a40 3fbc
00000320: fc87 8fbd 1877 3ebe da24 07be 0334 90be
00000330: 2494 a4bc d689 62be 0b4a c6be 9284 aebd
00000340: d724 00be 118a d7bc 1af8 b13c cffb 97bc
00000350: 37c2 3abe b26d 76bd e027 65be 5784 d9bc
00000360: 946a bdbd b7d3 bcbd cef0 36be 8f2c 50be
00000370: 42c7 98be b50c f9bc 24e1 3b3e b2d4 93bd
00000380: 30a1 f2bd 7edd f6bd f3de 6bbe 3d8f 913d
00000390: 6a08 80bc 95a4 48bd b08f 86bd 459c 0b3e
000003a0: 9b4c 973c 2b3c 2c3e aaee 0ebd f87c 0f3e
000003b0: 405f d6bd 1b8e 97be 7679 193e e00e d73d
000003c0: f735 24bb 1bb2 10bd 50f8 e33d b482 3abc
000003d0: ca64 d4bd 076f 5f3d ea4e b7bc 91ed 5bbc
000003e0: 5e69 063d dd39 38be f4dc 4f3c de5f 88bd
000003f0: 65af 9b3d af20 02be 9dd6 1cbe 7f79 cabb
-0.14685711 0.00033416168 -0.07931873 -0.20494749 0.06434209 -0.046323992 -0.19511963 -0.1932212
-0.015164024 -0.009726318 -0.21347442 -0.19703412 -0.21668883 -0.2159857 -0.18082434 0.098746836
-0.12632404 -0.15037064 -0.014310112 0.01666561 -0.035879094 -0.048490427 -0.15898913 -0.08747203
-0.113486975 -0.21834584 -0.27403736 0.043655425 -0.27751866 0.035338342 -0.031715207 0.08768264
-0.2990793 0.07764111 -0.08595192 -0.3137675 -0.13010082 -0.10667861 -0.020984456 -0.11851883
0.050714783 0.087375134 0.13641211 0.18285505 -0.04340642 -0.14628924 -0.09602484 -0.2039691
0.10005066 -0.15496455 0.06168702 -0.08460272 -0.2958859 0.264058 -0.042533845 0.0013748712
0.06103968 -0.11465475 -0.08690545 -0.14591223 -0.2092596 -0.048026033 0.17368963 -0.091230325
-0.04181619 -0.11977406 -0.20822287 0.0034619216 -0.15080759 -0.048558254 -0.12725915 0.10756794
-0.15253358 0.15024231 -0.2171418 -0.14904119 -0.16468999 -0.05732855 -0.14887899 -0.06701953
-0.23546651 0.02972037 -0.0022570547 -0.23112954 -0.07032581 -0.16734913 -0.07793631 0.15936065
-0.050966036 -0.15009932 -0.060409397 -0.20348872 0.05996623 -0.055120707 -0.10733046 -0.07576567
-0.08979706 0.19260289 -0.20424917 0.040916495 -0.040283613 -0.06538881 -0.09521647 -0.2190154
-0.10714 -0.27266857 -0.15868111 -0.23926154 -0.031194154 -0.24809691 -0.15685269 0.06791408
0.13842793 -0.14312108 0.022863712 -0.26457718 -0.0044286395 -0.024782546 -0.16865289 0.022291409
-0.09517733 -0.008112224 -0.02227439 -0.110013865 -0.09822843 -0.021278566 0.0007081005 0.094347335
-0.101274446 -0.22294192 -0.2921729 -0.09900523 -0.21569154 0.04993595 -0.23412724 -0.14874792
-0.19959095 -0.23964198 -0.1913007 -0.020530831 -0.22144192 -0.1274231 -0.14010456 -0.16572754
-0.065303706 0.0034340469 0.0312735 -0.1291646 0.08875475 -0.07944428 0.009511516 -0.20755802
0.12602413 0.11612221 -0.18443364 -0.27562514 -0.051678944 -0.29227656 -0.17571636 -0.27423054
-0.1429178 -0.028901584 -0.045757763 -0.39883608 -0.0305343 -0.18966271 -0.10878101 -0.15610455
-0.044790003 0.1250224 0.14504714 -0.11254507 -0.042272497 -0.15375192 -0.17683317 -0.004817381
-0.14589122 -0.026462117 -0.2604332 -0.01139782 -0.055180393 -0.04452947 0.029807633 -0.047070842
-0.27932167 0.022081252 -0.0054217433 0.082541674 -0.046717413 -0.3028032 0.072071105 -0.1680565
0.07469849 -0.14457676 -0.052403536 -0.12223254 0.11030853 -0.11757763 -0.3439458 -0.011673102
-0.07008359 -0.18600118 -0.13197652 -0.28164682 -0.02009017 -0.22122893 -0.38728365 -0.085213795
-0.12514053 -0.026310952 0.02172475 -0.018552689 -0.1823815 -0.060163207 -0.22378492 -0.026552362
-0.09248844 -0.09220069 -0.17865297 -0.20329498 -0.29839522 -0.030401567 0.18347603 -0.07218303
-0.1184715 -0.12053965 -0.23034267 0.07107399 -0.015629012 -0.048985083 -0.06570375 0.13633831
0.018469146 0.16819827 -0.034895577 0.14012516 -0.10467386 -0.29600605 0.1498774 0.10500884
-0.002505658 -0.035326105 0.11131346 -0.011383701 -0.103707865 0.054549243 -0.022376496 -0.013423339
0.03281533 -0.17990823 0.012686957 -0.0665891 0.07601813 -0.1270778 -0.15316243 -0.0061790342

weight f4 [256, 256]
00000000: e5a5 93bd 0adb 7d3e c969 443d 3fdb 9a3d
00000010: c5bd a83d fbc3 5ebe 42b5 2dbe c3eb 50bd
00000020: d54c 93bd 10ef 80bd 02da 6c3d 3018 a1bd
00000030: dc9c c3bd 38f4 043e 10ed 783e f85e 45be
00000040: 6891 1a3d 9fe6 243d b5ab 083e b480 443e
00000050: f467 3fbe 5066 5cbe d3b3 793d 466d 773e
00000060: 125f 8dbe fb61 9fbc 5c52 833e 67c8 64be
00000070: 4a1e 983e 6828 9ebe 14d2 ab3e bcf7 84be
00000080: 5209 7c3e 8308 c1be 446e f0bc 8158 10be
00000090: e72d 9c3c 8e77 22be 273d 293e d47d bd3d
000000a0: 5bf5 97bd 357e 6dbe d14a 633e ee14 cf3d
000000b0: 7c28 8dbd 5c21 e3bd f5dd b73e 6b26 b1bd
000000c0: f337 a7bd 81d3 bb3d c2c8 bebe ad63 f2bd
000000d0: 266f fb3d 5415 99be a105 afbe f8d6 f6bc
000000e0: 45a3 93be 197d 5d3d e32d 363e 3891 84bd
000000f0: 705d f6bc a762 60be 1b70 48be b29a b3be
00000100: 22c9 ef3d 6ebf 7fbd 9c7e bc3d 6620 bbbd
00000110: bed9 d9bd 6de5 e7bd 6dba ebbe ebd2 6cbd
00000120: eb8a 21be 8548 fcbd 74fc 06be 1aae 0e3c
00000130: ab4e 6dbe f21c 433e 2141 c63d 707a d33d
00000140: 1dba bdbb 2b2b bbbe 6378 c3be 03da 37be
00000150: c54d 34be dc44 92bc 42f7 02be 6995 32be
00000160: 3555 1f3e c692 0d3c a0c8 0c3e e61d 16be
00000170: bfd9 0fbe 575e 1f3e 21c7 653e b4da 0a3e
00000180: fb97 51be 5c4b d9be 03ea 15be dcf0 4fbb
00000190: d8d8 3a3e ee27 553e 8ab1 40be 7b99 8fbe
000001a0: 7850 313e e26d 7abe a0bb c13d 1d08 38bd
000001b0: 35fc 383e 3ecf fd3b e2c7 20bd f4e8 2bbe
000001c0: 9646 cc3d 5bd6 fd3d af89 9fbe 8aba 34be
000001d0: 97ae 8b3e 00d5 573e 1bd4 5cbe 668e 72be
000001e0: c366 7bbe f719 2fbe 491d 82be ddb6 023e
000001f0: 6781 b7be 69ba 65be 4831 97be b4da b43e
00000200: 558a 52be ac14 6bbe 1809 4fbe 84b0 a63b
00000210: f020 36be e9fa 23be f469 3bbd 13c0 b13d
00000220: c9a3 73be 743c db3d 5e96 b43c 3899 3a3e
00000230: 6317 103e 4f7c 62bd 148c 9abe 9ab3 63be
00000240: 27e7 41bd f3fe bfbe 9bf6 043c c1b8 b3be
00000250: f30d 3cbe 77fb b5be 9dc9 0fbd cc2e e9bd
00000260: 2c5c b53b 84e0 27be 2945 5dbd ab81 1a3d
00000270: 403b 9cbe 977a ebbd 9832 a6be b655 3d3e
00000280: d844 cabd 3bf8 7fbd 27ab ecbb b095 353b
00000290: 6c2d 0bbe 46b4 0abe 5de7 c33d 158b 7fbd
000002a0: 0a4c e3be 651c 413d 7c73 c5be fd26 25be
000002b0: 7ea7 acbe 825b 2d3e fc13 543e 5ec2 26be
000002c0: 2bdb 93bc 4752 29be d4ae 99bd 6e58 ccbd
000002d0: 11e5 d6bd 22a7 343e 6c37 fdbe 8708 5dbd
000002e0: 7eb5 1cbe d178 a0be 0157 c9bd f561 16be
000002f0: a6d8 263d e0f0 05be 80c7 eabd 09d2 4b3d
00000300: bb2a 633d 306f ecbd 860d 81be dadb 97bd
00000310: 72a7 cebe 70e0 5abd 6011 99be a0b5 e1bd
00000320: d949 45be 51af d2be 9f6a 053e 63a1 5f3e
00000330: a785 943e 618e 9dbc 9d18 c3bd dd9f 81be
00000340: 9db0 36be 08ef 13be 4947 01bd 4d03 453c
00000350: ff06 173d 450f 95be 7a5c 71be 1f0c 0f3d
00000360: c0db 0ebe b2df 493e df67 96bd 48cf c0bc
00000370: 3df2 ccbd bd99 133d 833a 28bc 1c58 d0bd
00000380: fc51 adbd 5dc9 7ebe ac63 a43d eeb7 e03c
00000390: b36e b7bd 7155 99be b9c7 94be 8377 47bd
000003a0: acfd 88be 47df ef3d 40a0 83bd b2b3 9fbe
000003b0: ef8c 21bd 54b7 f83d 33e0 b3be 2715 a93d
000003c0: 1ca2 8f3e 2cb0 cebe 27ca 0cbe 3fcf 9ebd
000003d0: 5a17 92be 8183 f3bd 4f68 6abe c04e 9b3d
000003e0: 2669 b4bb e9e0 43be 7ee9 4abe 4f20 92bc
000003f0: defb fb3c 1185 35be 0d0e b73d 7d48 0a3e
-0.07209376 0.24790588 0.047952447 0.07561349 0.08239321 -0.21754448 -0.16963676 -0.05100609
-0.07192389 -0.062955976 0.057825096 -0.078659415 -0.09551403 0.12983787 0.24309182 -0.19274509
0.037736326 0.040259 0.13346751 0.19189721 -0.18691999 -0.21523404 0.06096251 0.24162778
-0.27611595 -0.0194559 0.25648773 -0.22342072 0.2971061 -0.30890203 0.33558714 -0.25970256
0.2461293 -0.37701806 -0.029349454 -0.14096262 0.019064857 -0.15865919 0.16527234 0.092525154
-0.07419845 -0.23192675 0.22196509 0.10111414 -0.068924874 -0.11090347 0.35911527 -0.08649906
-0.08164968 0.091712005 -0.3726254 -0.11835418 0.12277059 -0.29899085 -0.34183982 -0.030131802
-0.28835502 0.05407438 0.17790942 -0.06473011 -0.030073851 -0.21912633 -0.19574015 -0.3507896
0.11708285 -0.06243842 0.09203836 -0.09137039 -0.10637234 -0.11323056 -0.4604067 -0.057818335
-0.15775649 -0.123185195 -0.1318224 0.008708501 -0.2317454 0.1905401 0.09680391 0.103260875
-0.0057900087 -0.36556372 -0.38177785 -0.17954259 -0.17607792 -0.0178551 -0.12789634 -0.17439808
0.15559848 0.008640951 0.13748407 -0.14659843 -0.14047907 0.15563332 0.22439243 0.13559991
-0.20468132 -0.42440307 -0.1464005 -0.0031729257 0.18246782 0.20816013 -0.18817726 -0.28046784
0.17315853 -0.2445598 0.09459615 -0.044929612 0.1806496 0.0077456525 -0.039253123 -0.16788083
0.09974401 0.12394401 -0.31159732 -0.17649284 0.2728164 0.21077347 -0.21565287 -0.23687133
-0.24550919 -0.17099749 -0.25412968 0.1276507 -0.35840914 -0.22434391 -0.29529786 0.35323107
-0.20560582 -0.22957104 -0.20218313 0.0050869603 -0.17786002 -0.16013683 -0.04575534 0.086792134
-0.23792948 0.1070489 0.022044357 0.18222511 0.14071421 -0.05529433 -0.30184996 -0.22236481
-0.047339585 -0.37499198 0.008115436 -0.35101894 -0.18364696 -0.35543415 -0.035104383 -0.11385879
0.0055346694 -0.1639424 -0.054021034 0.037721317 -0.30513954 -0.114979915 -0.32460475 0.18489727
-0.09876412 -0.06249259 -0.0072225514 0.002770763 -0.13591546 -0.13545331 0.095656134 -0.0623885
-0.4439395 0.04714622 -0.3856467 -0.16128154 -0.33721536 0.16929439 0.20710748 -0.16285083
-0.018048843 -0.16535293 -0.07504049 -0.09977804 -0.1049291 0.17641881 -0.49456346 -0.05396321
-0.15303609 -0.31342176 -0.09831048 -0.14685805 0.040733956 -0.13080168 -0.11463833 0.049760852
0.055460673 -0.11544645 -0.2520563 -0.0741498 -0.40362126 -0.053436697 -0.2989607 -0.1102097
-0.19266452 -0.4114938 0.13028954 0.21838908 0.2900822 -0.01923293 -0.09526179 -0.25317279
-0.1784081 -0.14446652 -0.031562123 0.012024713 0.036871906 -0.29113212 -0.23570433 0.03492367
-0.13951015 0.19714239 -0.073440306 -0.02353634 -0.10007141 0.036035288 -0.0102678565 -0.101730555
-0.08462903 -0.24881501 0.080268234 0.027431455 -0.08956661 -0.29948 -0.29058626 -0.04869796
-0.26756036 0.11712509 -0.0642705 -0.31191784 -0.039441045 0.12144342 -0.35131988 0.082559876
0.28053367 -0.40368783 -0.1374899 -0.07754373 -0.2853344 -0.11890317 -0.22891353 0.0758338
-0.0055056987 -0.19128765 -0.19815633 -0.017837672 0.030759748 -0.17726542 0.08938227 0.13504215

bias f4 [256]
00000000: 1652 c83d 982f 1fbd 0c0b 183e fbf2 063e
00000010: eec4 86bd 7d9b 2d3c 5a4a 3b3c dadb c73d
00000020: 9998 033c a7ff 743d fc9e b73c 9ccc 843c
00000030: 0af6 6ebd 532c 9e3c 837c 023e 8749 4f3d
00000040: d169 1e3e f8ca ebbd 02ba a8bc 6942 e53d
00000050: e33a 903d c333 813d a4f7 5a3e 2f0b 463d
00000060: 6a7e efbc 0258 a93d a3b6 a13d 9baf b3bd
00000070: f723 da3d 581c 053e 82d5 013d 1fb4 523d
00000080: 9381 913e 40f8 c0bd 3437 95bc 77d5 46bd
00000090: 840a a33d 1548 333e ffa9 27bd b514 093d
000000a0: 342f 5c3e bd06 213e ecea bb3e 814e 64bd
000000b0: df40 263e 93d5 9d3c ef41 e93d 7fd8 3b3e
000000c0: 85fc abbd a119 b03c 4ac4 ab3d 44a2 523c
000000d0: 271b 2c3e ec26 483e ce16 d2bd 72ba c33a
000000e0: b9aa f63d 2b49 203e ec5a aabd c0ec 473d
000000f0: 64ba 74bd 2607 29bc 312e 92bd b4e0 94bd
00000100: 515d a13d cc2a e0bc 32e4 a73d 526f 193e
00000110: 1ddf ed3c a074 bd3b 28e2 043d 622a 5e3d
00000120: a627 e7bc 1548 c53d b659 a63e bb63 23bc
00000130: b42a 283e aee0 49bd 660f 5b3e 89a8 03bd
00000140: 008c ee3d 1865 043e 1e11 87bd 97bb 203e
00000150: 89a3 193e f227 4dbe df86 243d f747 70bd
00000160: 7750 9f3d 73f0 223e 6b9a 0a3e cbcb 39bc
00000170: 6524 743c 1b56 383e 885c ea3c 353d 59bd
00000180: 7d5e aebd 72e0 4e3d 9a73 9cbd 0e9a ca3d
00000190: a030 aa3e 786a 383d aa1d e43d 48dc d23d
000001a0: dcc9 313e 873b 423d e995 5dbd 4176 0b3e
000001b0: f9fc bd3b 577d 74ba 5f19 7c3d 5bec 883e
000001c0: 3593 ed3c 046b 79bc b71d 0d3e ec72 fb3d
000001d0: bcbb 9c3d ce35 153d 57a7 363e 135f c13d
000001e0: 30cd 3a3e a2ae 3cbc 2601 503e 8cf8 81bb
000001f0: 07f1 863d 6e2f 593e 97f7 643c 4272 723d
00000200: 9587 ae3e 7f47 823d 288b b33d e12b 2c3e
00000210: 9560 c03c 017e 6b3c 5763 2b3e ab6f adbc
00000220: c48f 013e 4b58 643e 9682 bebd f77f 70bc
00000230: 4be5 79bd a21e c93c 10e2 bfbb 21f1 c03e
00000240: 6eca 5b3e a07d 133e b8f2 3f3e 7451 173d
00000250: d646 263e 1453 a03d de7f bf3d 4a43 683d
00000260: 8045 1d3e 8921 8fbc 2adc b53d 18b7 703e
00000270: 5a6f 33bd 6969 bf3d 9ab4 8c3d 99ab a13e
00000280: 7951 e13c e28c df3d 2ec8 023e 1832 483e
00000290: 4c52 a73d 7c70 b53b 4684 b03c 2671 30bd
000002a0: f4c2 a93d 3b6e 0d3e c228 d93c 63e9 e3bc
000002b0: f5ea 04bd bf4b fdbd 37eb f73c d9f8 993e
000002c0: 8c83 823e 22bf d43d 3e9d 213e 17c0 a4bd
000002d0: 9a4a 90bd e635 e2bc d881 62bd 6d54 563d
000002e0: 7065 c13b 3469 bf3d eae2 b13e 0008 66bd
000002f0: 34ed d33b 28bd 073d 9189 a4bd c203 56bd
00000300: 6eb5 0fbd d7d6 37bd 2c9a 2dbd b419 223d
00000310: c656 7d3e de28 2dbd c8e5 a23e 7771 1d3e
00000320: 5cf9 593e 2a50 ba3c 5a81 043e 7260 8d3d
00000330: 7515 12bc b839 38bd 6d6a fbbb da9e 213a
00000340: 82d3 2a3c 28e1 3f3e c82e 18bb 74f0 283c
00000350: 7403 553e 108d 263d 7d50 42bd 4552 65bd
00000360: dc18 933c dea4 85bd 3758 ed3d 1783 5ebd
00000370: 410c 4dbd 008a eb3d 9b01 843e f4df 1fbd
00000380: 34dd aa3d 80a3 cf3c aad2 4cbd 7ade 813c
00000390: 823f b53d 1b26 48bd fd33 4d3c 1fc4 003e
000003a0: c715 023e 3aa1 1b3c e158 80bd fbe8 ed3d
000003b0: 6aed 6dbd 2ffd ee3b 573f f4bd fb08 bebd
000003c0: 803d 2fbc fc17 013e c150 fe3b c362 b53e
000003d0: 5217 683c 6759 cd3d 9379 a83d 502c fe3d
000003e0: a531 43bb 3bdf 963e 7156 1cbb 1d50 ffbd
000003f0: 0c2e 4fbc 7dd2 bebc 6eb6 463e 199b 873d
0.09781282 -0.03886375 0.14847964 0.13178627 -0.0658053 0.010596153 0.011431301 0.0975873
0.008031988 0.05981412 0.022414677 0.016210847 -0.05834011 0.019308245 0.1274281 0.05060723
0.15470053 -0.115133226 -0.020596508 0.11194307 0.07042482 0.06308701 0.2138353 0.04835051
-0.029235084 0.08268739 0.07896163 -0.087737285 0.10651391 0.12999094 0.031697758 0.051441308
0.2841917 -0.0942235 -0.0182148 -0.04854342 0.0796099 0.17507966 -0.040933605 0.033467013
0.21502382 0.15725227 0.3670267 -0.05573893 0.16235684 0.01926688 0.11389529 0.18344305
-0.08397774 0.021496596 0.083870485 0.01285607 0.16807233 0.19546098 -0.10258256 0.0014932884
0.120442815 0.15652911 -0.08318123 0.048809767 -0.05974807 -0.010316646 -0.071377166 -0.07269421
0.07879127 -0.027364157 0.08197822 0.14983872 0.029037053 0.005781725 0.032442242 0.05423964
-0.028217148 0.09632889 0.3249032 -0.009972508 0.1642254 -0.049286537 0.21392593 -0.03214315
0.11647797 0.12929189 -0.06595062 0.1569656 0.1500379 -0.20034769 0.040167686 -0.05866238
0.07779019 0.15912037 0.13535468 -0.011340092 0.014901255 0.18001597 0.028608575 -0.053036887
-0.08514116 0.050507016 -0.07639237 0.09892665 0.33240223 0.04502341 0.111384705 0.102959216
0.1736216 0.04742005 -0.054098044 0.13619329 0.005797979 -0.00093265384 0.061547633 0.26742825
0.029000858 -0.015223268 0.13780867 0.12277779 0.07652995 0.036428265 0.17837273 0.09441962
0.18242335 -0.011516245 0.20312938 -0.0039663967 0.06588941 0.21209499 0.013975046 0.059190996
0.34087816 0.06361293 0.08766776 0.16813613 0.023483554 0.014373303 0.16737114 -0.021171411
0.12652498 0.22299306 -0.09302251 -0.014678947 -0.061009686 0.02455074 -0.005855806 0.37683967
0.2146394 0.14403391 0.18744934 0.036942914 0.1623796 0.07828346 0.093505606 0.056704797
0.15358543 -0.017472045 0.088798836 0.23507345 -0.043807365 0.09346277 0.068703845 0.3157623
0.02750467 0.10915543 0.12771675 0.19550359 0.08169994 0.005537091 0.021547448 -0.043076657
0.082891375 0.13811581 0.026508693 -0.027821248 -0.032450635 -0.12367963 0.030263526 0.30072668
0.25490987 0.10388018 0.1578264 -0.08044451 -0.07045479 -0.027613591 -0.05529961 0.05232661
0.005901985 0.09346238 0.34743434 -0.056159973 0.006467486 0.033139378 -0.08034051 -0.052249677
-0.035085134 -0.04488262 -0.042383358 0.039575294 0.24740133 -0.042275302 0.31815934 0.15375315
0.2128653 0.022743303 0.12939969 0.06903161 -0.008916249 -0.04497692 -0.007672599 0.00061653333
0.010426404 0.18738234 -0.0023221243 0.010311235 0.20802099 0.04066187 -0.04744004 -0.05598666
0.01795619 -0.065255865 0.11589091 -0.054324236 -0.050060514 0.11500931 0.25782475 -0.039031938
0.083429724 0.025346518 -0.050005592 0.015853155 0.08850004 -0.048864465 0.012524602 0.12574814
0.1270362 0.009498889 -0.06266952 0.11616703 -0.058087744 0.0072933654 -0.119261436 -0.09279057
-0.010695815 0.12606806 0.0077610915 0.35426912 0.014165716 0.10026818 0.082263134 0.12410796
-0.002978423 0.29467186 -0.0023855234 -0.12466452 -0.012645256 -0.023293728 0.19405529 0.066213794

weight f4 [10, 256]
00000000: 6bad 09bd 46ad b13d 4ff4 3b3e 4a1e 323e
00000010: 0156 503c 8a7b 94bd 2317 cfbd 8d3f 743c
00000020: 52d6 80be cda6 043d 8c7e 0a3e 46b7 a53e
00000030: 6482 e23d 93b7 b5be 2dd3 9dbb 64a7 3bbd
00000040: 8288 483c e463 2b3e 9fed b73e ad17 fa3c
00000050: 1226 98be 313c d33d 04d0 1f3a 8d33 fa3d
00000060: bc6a a3bd d4d4 d3bc 761e b5bd f43a 953d
00000070: 33e8 bc3e e940 cfbd 2080 213e 0b36 083e
00000080: 0cc1 99be ebb0 a13b c688 b23d d782 a43b
00000090: 4b31 69be 383e 3c3e fd67 7f3e 2dc3 543c
000000a0: 02c2 52bc 48d4 19bd 5e6b 64bc b250 d0bd
000000b0: 8e5e d4bc 4737 84bd db90 babd 733d b3bb
000000c0: adc1 9dbd 1cef bb3e 777f 053e 8199 4fbe
000000d0: 0543 a1bc e75e 93be ae04 2ebe 6203 b83e
000000e0: b10a 4bbc b00b febd 7e39 8d39 0a19 4a3d
000000f0: 6aa1 fbbd 106a 9c3c 543e fd3d 8984 173e
00000100: b6c3 b9be 9a2a 0dbd 1645 13be 4d47 e53d
00000110: 741e 3ebe 8dd7 d23e a98a 6a3e 9c11 dd3d
00000120: 58f8 60bc 9a69 063d d628 133c 3f0c 853d
00000130: 9cd9 c8bb 26a2 c93d d0b4 5abe 95d2 683d
00000140: f882 c93d 0ada a2be 3a89 b0bc efaa 233d
00000150: 76fd 98bd a931 bcbd 9e9a 20be 3359 1bbe
00000160: 66f9 b3bd 8c0a 66bc ff47 333e 4d5b e4be
00000170: f3c9 9ebe 39f9 8bbd 767b d1bd 858e 333b
00000180: 2e58 e33d 2f4a cf3d adeb 81bd a55c 93bd
00000190: cba3 8ebc 2176 8bbe 603e ab3d b584 eb3d
000001a0: 4d68 423d 3ed5 e73c b990 d13d c22d 2b3e
000001b0: 1351 7b3e 004d 1dbc 787b 373e 2895 633d
000001c0: 79c9 183e decc 96bd ef0a 943d 291d 843d
000001d0: ccf6 883b 2fb0 893d 0f47 c2bd 03c9 cabd
000001e0: ece4 6e3c 815b 843e 9fb0 403e baba 85bd
000001f0: 8da8 a5bd 5fca 113c 79f5 8ebe 4cdb 59be
00000200: 6d0b 34bd ed01 c8bc fd10 d93d b20a 4d3e
00000210: 0afe 9b3d 9c83 5fbe d067 b03d 10fa 75be
00000220: bd29 a33d deae 5dbd 6075 12bc dee2 bdbc
00000230: b6f9 0dbe c055 b93d 158a 5ebc 921d 5ebc
00000240: 19f7 0ebe dfdd bebc 4886 233e be79 973d
00000250: b1dd 883e bb77 483e de6c a2bd 4217 68bd
00000260: ded5 3e3d 3f51 d7bd bd77 dabd 631a ce3e
00000270: 8710 de3d c72b 993d 2931 1fbe b6b9 7e3e
00000280: 45c8 5d3e 0cd4 553e ded1 80be 7d7c 9a3b
00000290: 86f8 f63d 5e50 b33d 4daa 39be 5ab9 01bb
000002a0: dfc4 783e cafc 233e 63fa 113e 639f 5abe
000002b0: e90e 4e3e b5e0 cc3d f639 743a e30d fabb
000002c0: 4e8b b03d 7bae 19bd cf14 35bd f1c8 013c
000002d0: bea3 16bd 45af f0bd ec52 5fbd f11c f43b
000002e0: 4c56 013e 8fb8 a33e 22c5 a9bc 4831 b7bd
000002f0: b27c 543e 3835 c93d fa0b 2d3e 88e1 ac3d
00000300: e105 563c 1de3 b0be 2370 65be ef44 373c
00000310: 7bbe 7f3e 1fb1 62bd 6f0e c1ba 90a7 a6bd
00000320: eac5 e73d d179 ce3d 47fe acbd e555 0fbe
00000330: 2c6e ef3d 1674 a0bc d669 593e f9e7 373d
00000340: 03d5 213e 2bfd d73d 8138 f2bd 7f11 dfbd
00000350: fd34 ad3d 99f2 a83b e381 5b3c 62f7 7a3e
00000360: ccce 193e 714b 273e 5059 e73d 5e23 b4be
00000370: 571c c1be d82a e3bd 44b9 5c3d cf6e f0bd
00000380: 4b49 24be 350e 2dbe c197 033e 2e80 85bd
00000390: 2591 763d ac77 c9bd fee2 c63d f6c3 133e
000003a0: b906 873d 439c 20bd 49bd 03bd e4c3 68bd
000003b0: 128c 873d 07bf b23d 17d2 05be 2a65 813d
000003c0: 2cc3 363e dc3c 133d eea6 2fbd 65d5 e6bc
000003d0: 05d7 c5be 7fa7 07bd 1942 1d3e 86d4 1ebd
000003e0: 5855 853d ebce aebc 57c1 68be d483 2fbc
000003f0: 0a0d eebd 57c4 3fbe 339c 96be 9147 acbd
-0.03361265 0.086756274 0.18354915 0.17394367 0.012715817 -0.07250126 -0.10111835 0.01490773
-0.25163513 0.032385636 0.13524836 0.3236639 0.11060026 -0.3549162 -0.004816434 -0.045813933
0.012239577 0.16737324 0.35923478 0.030528868 -0.29716545 0.10314215 0.00060963654 0.12216864
-0.07979342 -0.02585832 -0.088437006 0.07286635 0.36895904 -0.101198025 0.15771532 0.13301866
-0.30030096 0.0049344203 0.08717494 0.00502048 -0.2277271 0.1838311 0.24942012 0.012985987
-0.012863638 -0.037555963 -0.013941614 -0.101716414 -0.025923993 -0.06455856 -0.0910966 -0.005469972
-0.07702956 0.36705863 0.13036905 -0.20273401 -0.019685278 -0.28783342 -0.16993973 0.3594008
-0.012392686 -0.12404573 0.0002693645 0.049340285 -0.12286647 0.019093543 0.12365404 0.14796652
-0.36282128 -0.034464456 -0.14381823 0.1119524 -0.18566304 0.41180077 0.22904457 0.10794374
-0.013731085 0.032815553 0.008981904 0.064964764 -0.0061294567 0.098453805 -0.21358037 0.05684145
0.098394334 -0.31806976 -0.02154981 0.039957937 -0.07470219 -0.091891594 -0.15683982 -0.15170746
-0.08787803 -0.0140406005 0.17507933 -0.44600907 -0.3101345 -0.06834645 -0.102286264 0.002739818
0.11100803 0.10121571 -0.0634378 -0.07195405 -0.017412087 -0.27238563 0.083615065 0.11499921
0.04746275 0.028299924 0.10232682 0.16716674 0.24542646 -0.009600878 0.17918193 0.05556217
0.14920606 -0.07363294 0.07228648 0.06450874 0.004179811 0.067230575 -0.094862096 -0.09901621
0.014580946 0.25851062 0.18817376 -0.06529756 -0.08088789 0.008898347 -0.27921656 -0.21275061
-0.04395621 -0.02441498 0.105989434 0.20023611 0.076168135 -0.21827549 0.08613551 -0.24021173
0.07966945 -0.054121844 -0.008939117 -0.023179468 -0.13864788 0.09049559 -0.013582726 -0.013556855
-0.13961448 -0.023299156 0.15969193 0.07396267 0.26731637 0.19576924 -0.07930921 -0.056662805
0.04659068 -0.10513543 -0.106673695 0.40254506 0.10842996 0.07479053 -0.15546097 0.2487553
0.21658428 0.2088167 -0.25160116 0.004714547 0.12059121 0.08755563 -0.18131371 -0.0019794316
0.2429385 0.160144 0.14255671 -0.21349864 0.20122875 0.10003797 0.0009316498 -0.00763105
0.0862032 -0.037519913 -0.044209298 0.007921443 -0.03677725 -0.1175218 -0.05452244 0.007449739
0.12630576 0.31976745 -0.020723883 -0.089449465 0.20750692 0.09824604 0.168991 0.08441454
0.013062925 -0.34548274 -0.22406058 0.011185869 0.24975006 -0.055344697 -0.0014729033 -0.08137429
0.11317046 0.100818284 -0.08446937 -0.1399761 0.116909355 -0.019586604 0.2123178 0.04489896
0.15803914 0.10546335 -0.118271835 -0.10892009 0.08457372 0.005155873 0.013397667 0.24508432
0.15020293 0.16337372 0.11296332 -0.35183233 -0.37716934 -0.11092156 0.05388762 -0.11739885
-0.16043584 -0.16899951 0.12850858 -0.06518589 0.060197014 -0.09837279 0.09711264 0.14430222
0.06593079 -0.039211523 -0.03216294 -0.05682744 0.06618513 0.08727842 -0.13068424 0.06318124
0.1784789 0.035946712 -0.042883806 -0.028177926 -0.3864061 -0.03311872 0.15357246 -0.038776897
0.06510419 -0.0213389 -0.22730003 -0.010712583 -0.11623581 -0.18727241 -0.29416046 -0.08412088

bias f4 [10]
00000000: a2d1 123d 5b28 91bd cecd d2bc 6966 05be
00000010: ddba 323e fbe0 a93c 03c5 103d e6c6 1bbd
00000020: de49 e4bd 5ef1 043e
0.035844453 -0.07087775 -0.025732901 -0.13027348 0.17454095 0.020737162 0.035344135 -0.03803148
-0.111469015 0.129827

stds f4 [10]
00000000: 1d5a 643e 1d5a 643e 1d5a 643e 1d5a 643e
00000010: 1d5a 643e 1d5a 643e 1d5a 643e 1d5a 643e
00000020: 1d5a 643e 1d5a 643e
0.223 0.223 0.223 0.223 0.223 0.223 0.223 0.223
0.223 0.223

obs_std f4 [28]
00000000: cdcc 4c3e cdcc 4c3e 0000 803f 0000 803f
00000010: 0000 803f 0000 003f 0000 003f 0000 003f
00000020: 0000 003f 0000 003f 0000 003f 0000 003f
00000030: 0000 003f 0000 003f 0000 003f 0000 8040
00000040: 0000 8040 0000 8040 0000 8040 0000 8040
00000050: 0000 8040 0000 8040 0000 8040 0000 8040
00000060: 0000 8040 0000 803f 0000 803f 0000 803f
0.2 0.2 1.0 1.0 1.0 0.5 0.5 0.5
0.5 0.5 0.5 0.5 0.5 0.5 0.5 4.0
4.0 4.0 4.0 4.0 4.0 4.0 4.0 4.0
4.0 1.0 1.0 1.0

obs_mean f4 [28]
00000000: 0000 0000 0000 0000 0000 0000 0000 0000
00000010: 0000 0000 0000 0000 0000 0000 cdcc 4cbe
00000020: 9a99 193f cdcc ccbe 0000 0000 0000 0000
00000030: cdcc 4cbe 9a99 193f cdcc ccbe 0000 0000
00000040: 0000 0000 0000 0000 0000 0000 0000 0000
00000050: 0000 0000 0000 0000 0000 0000 0000 0000
00000060: 0000 0000 0000 003f 0000 003f 0000 003f
0.0 0.0 0.0 0.0 0.0 0.0 0.0 -0.2
0.6 -0.4 0.0 0.0 -0.2 0.6 -0.4 0.0
0.0 0.0 0.0 0.0 0.0 0.0 0.0 0.0
0.0 0.5 0.5 0.5
