trained/h1_walk/actor_29599.pt (torch, 308593 bytes, 9 tensors)

weight f4 [256, 28]
000000 78 a4 9e bc 6e 6d 13 3e 69 c1 bf be 54 f8 10 3e
       -0.019365534 0.14397213 -0.37452248 0.1415723
000010 88 e1 74 be e3 f7 da 3e 37 46 33 bd 7e 18 8c 3e
       -0.23914158 0.42767248 -0.043768134 0.27362436
000020 11 b8 82 be 8c 37 03 be 85 c1 10 be ee 57 c4 3c
       -0.25531057 -0.12814158 -0.14136322 0.02396771
000030 25 9f 82 3c 18 7f 4d bc 9d 8c 4f 3b 86 4d f2 3e
       0.015945027 -0.012542509 0.0031669505 0.4732477
000040 bd 03 2b 3f a8 5b ce 3d 6f 2e 45 3d d9 6a cd bd
       0.6680258 0.10076076 0.048139986 -0.10030145
000050 d4 79 3d be d4 bc dd be f6 42 1d 3d 32 70 2b bd
       -0.18503505 -0.43308127 0.038393937 -0.041855045
000060 54 06 a1 be cd 67 a9 3d c7 ac 1c 3e 37 1e 9f 3e
       -0.3145014 0.082717516 0.15300284 0.3107774
000070 f1 78 9c be 03 f7 93 bd a4 0d b3 3e 90 e8 c9 be
       -0.3056102 -0.07224848 0.34971344 -0.39435244
000080 4b 6d ef bd 72 a8 ba bb 9d 1c f8 bd bc fe 92 3b
       -0.11690768 -0.00569635 -0.121148326 0.004485933
000090 1b 34 5c be f3 4f d7 3d da 9a 39 bd a1 bc d4 bd
       -0.21504252 0.10513296 -0.045313694 -0.103875406
0000a0 6f db 25 3e 30 34 d8 be 96 05 96 3e d4 91 db 3d
       0.16196989 -0.42227316 0.29301137 0.10721174
0000b0 f2 78 22 3e dc 0e e4 3e da 96 07 be 7c 9a 5e 3e
       0.1586645 0.44542587 -0.13241139 0.21738619
0000c0 e3 7e 25 bf 55 dc 1b be 76 d7 e7 bd b3 8b ef 3d
       -0.6464674 -0.15220769 -0.11320393 0.116965674
0000d0 59 f8 9d bc 7f e8 71 3e bc 02 62 bd fe 0f b4 bd
       -0.01928346 0.23623846 -0.05517839 -0.08792113
0000e0 b8 1e 3d 3e c4 cd 7c 3d a7 da 8d bc 16 24 c9 be
       0.1846875 0.06171967 -0.017316176 -0.39285344
0000f0 f6 a9 8f bd 3c 25 93 be df b5 9e 3e b6 5c 44 be
       -0.07014839 -0.28739345 0.30998132 -0.19175991
000100 a1 28 cd 3d 38 c8 a2 3e 7a 6d 34 3d b3 0c f9 be
       0.10017515 0.3179338 0.044049717 -0.486425
000110 4a 96 d9 3e bc 03 b1 3e d9 94 dc 3e af c7 2d be
       0.42497474 0.34573162 0.43082312 -0.16970704
000120 e7 03 eb 3e 6b cf 1d bf bc 7d c3 be 30 d7 92 bb
       0.45901415 -0.6164462 -0.38181865 -0.0044812188
000130 2b a3 8a 3d 15 61 1a bd e5 94 d4 be 2d 0a 80 bd
       0.06769403 -0.03769024 -0.41519848 -0.06251941
000140 9b e0 69 be 23 71 94 bd 14 34 8a 3e 24 70 36 3d
       -0.22839586 -0.072481416 0.26992857 0.04454054
000150 f8 cf 86 3e 82 f5 39 be 77 dd 19 3e da dc 86 be
       0.26330543 -0.1816006 0.15025888 -0.2634037
000160 b4 db d6 be bf ee 88 3d a2 83 89 bd 6f ba 10 3d
       -0.41964495 0.06686162 -0.0671456 0.035334047
000170 84 19 0d bd a6 b7 0f 3e 68 12 74 be 72 e1 75 3d
       -0.03444816 0.140349 -0.23835146 0.060029455
000180 ad d0 89 3c dd 54 87 be 01 5a ee 3d 25 6a 60 be
       0.016823137 -0.26431933 0.11638261 -0.21915491
000190 d3 ee 13 bf 88 c4 c4 be aa ea bb 3e 86 16 eb 3c
       -0.5778629 -0.3843119 0.36702472 0.028697263
0001a0 26 50 33 3e 2e f7 8a be 0b 18 14 be 06 75 80 be
       0.17511043 -0.27141708 -0.14462297 -0.25089282
0001b0 f8 4c 35 be 20 6d 83 bd 02 17 52 be 0b 44 98 3e
       -0.17705142 -0.06417298 -0.2051659 0.29739413
0001c0 49 25 53 bd f6 ad 47 3e 8b 9d 2c be a0 a0 5c 3e
       -0.05154923 0.19499955 -0.16856973 0.21545649
0001d0 6b 20 07 3d a5 32 cd 3e 93 89 f8 3d 6a c5 ed 3e
       0.0329899 0.400777 0.12135615 0.46439677
0001e0 b6 09 46 3e 80 dc 2f bf 17 e7 5c 3d ff 3a ed 3d
       0.19339642 -0.6869583 0.053931322 0.11583518
0001f0 74 eb 8f be bf 6a 54 be 18 74 b0 3d 17 8b 86 3e
       -0.28109324 -0.20743845 0.08615893 0.26277992
000200 3c 88 dd 3d 6b 16 bd 3e 28 83 91 3e e6 25 04 bf
       0.10817 0.36931166 0.28420377 -0.5162033
000210 74 9e 95 be 47 0f db be 9a 62 b2 bd e9 42 a6 be
       -0.29222453 -0.42785093 -0.08710213 -0.32472923
000220 d7 9a 48 3e 1a fc a6 3d 7e 8e a9 3d d3 3c 7f be
       0.19590317 0.08153553 0.08279131 -0.24925546
000230 78 c0 fa 3e 7e 02 f6 be 4b 2f c2 3d 46 46 c1 be
       0.48974967 -0.48048776 0.09481677 -0.37748927
000240 45 64 7c be 56 a0 5c be 69 06 54 3e 74 76 8e 3e
       -0.24647625 -0.21545538 0.2070557 0.27824748
000250 f9 bd e1 be 6f e7 91 3d bb 84 49 be 91 7e 1b 3e
       -0.4409025 0.071242206 -0.19679539 0.15185
000260 93 01 f3 bd e5 0b cc bd 33 60 b4 3e 5b df c0 be
       -0.11865535 -0.09963206 0.35229644 -0.37670407
000270 9b 55 f2 be 2b cc 59 be 72 ff 5b be 9e 06 d1 3d
       -0.47330937 -0.2126929 -0.21484163 0.1020634
000280 95 38 35 bf 37 59 9c bd 9d 98 09 bf 66 21 8d 3e
       -0.7078946 -0.07634204 -0.53748494 0.27564543
000290 e9 f4 d3 3d 7c e8 f5 bd 5d 33 07 be b7 5d ef 3d
       0.10349447 -0.120072335 -0.13203187 0.116877966
0002a0 9e dd 44 be 21 9b 94 3e 5c 15 7f bd 7a 83 31 be
       -0.19225165 0.29024604 -0.06227623 -0.1733531
0002b0 47 3e ef be 71 22 9e be d6 a9 b8 3e b7 14 40 3e
       -0.467272 -0.30885652 0.36067075 0.18757902
0002c0 06 b9 ef 3d b2 41 ff 3d 4b 89 8c bd 6f 1b 26 bf
       0.11705212 0.12463702 -0.06862124 -0.6488561
0002d0 23 62 c0 ba 36 3a 66 3e 13 8c ce 3a 56 d8 ba be
       -0.0014677685 0.22483143 0.0015758298 -0.36493176
0002e0 69 08 56 be 92 17 f2 3d 3e 54 1a be 2d 25 f0 be
       -0.20901646 0.11820902 -0.15071198 -0.46903363
0002f0 5a 34 a1 be bd 26 38 be e0 bb 65 3e 5d 83 2d bd
       -0.31485254 -0.17983527 0.2243495 -0.042361606
000300 ad 7d 25 3f 32 cb b1 3d 8c 1d 48 3d f4 e8 8e bd
       0.6464489 0.086813346 0.048856303 -0.06978026
000310 3a d2 66 be 8e 77 8c 3c 68 c9 6e 3e 13 4f b5 3d
       -0.22541133 0.017146852 0.23319018 0.08852973
000320 cc 30 7a 3e 16 6f f8 bd 5a ba 45 be 0b c9 f8 3e
       0.24432677 -0.12130563 -0.19309369 0.48590884
000330 4d e7 4a be 60 7e 1f bf e7 e9 27 3e 1c 25 a0 bd
       -0.19814797 -0.6230221 0.1639782 -0.07819578
000340 f3 6d 4b bd 68 3d 89 3d 10 41 21 3e 94 be 46 3e
       -0.049665403 0.067011654 0.15747476 0.19408637
000350 c2 46 b0 3e 89 34 20 3f bc 3c 5e be 2d ed 86 bd
       0.34428984 0.6258016 -0.21702856 -0.065882064
000360 b4 6c 70 3e ba 30 8f 3e 83 60 73 3e 9c c4 93 be
       0.23478967 0.27966863 0.23767285 -0.2886094
000370 14 f9 6d 3e 47 96 2c be c8 03 0b be 60 2f bf 3d
       0.23239547 -0.16854201 -0.13575661 0.09335208
000380 af 29 34 be 21 bb 5a be 50 da db 3e 98 e2 98 bd
       -0.17594026 -0.21360447 0.42939997 -0.07465094
000390 e7 89 45 be ab 75 28 3e 5c 52 f1 be 60 65 62 bf
       -0.19290887 0.16451137 -0.47133148 -0.88435936
0003a0 03 0d eb 3d 01 58 f2 3e a1 20 70 3e 30 7f d9 3e
       0.11477091 0.47332767 0.23449947 0.4247985
0003b0 db 0e 19 bd 89 c7 ae be a6 96 84 3e 7f ea d4 3e
       -0.037367683 -0.34136608 0.25896186 0.41585156
0003c0 43 83 09 be ae 0d fc bd c2 92 81 3e e9 eb 04 3e
       -0.13428979 -0.12307297 0.2530728 0.12980618
0003d0 20 d9 31 3e 84 f8 9a 3d 35 52 fc 3e 94 b2 9c be
       0.17367983 0.07566932 0.4928147 -0.30604994
0003e0 51 a5 bf 3e 2e d7 64 3c 74 52 e7 3d 62 3e 6e 3d
       0.37430814 0.013967318 0.112950236 0.05816496
0003f0 38 63 ae 3e 76 2b 99 3e 43 13 86 3e 21 e9 35 3e
       0.34060073 0.2991597 0.2618657 0.17764713

bias f4 [256]
000000 6e 1a 00 be 68 35 bf 3c 6d 4e aa bd 83 37 0c be
       -0.12510082 0.023340896 -0.0831574 -0.13693051
000010 09 c5 1f 3d cb 71 35 3d 78 9c 20 be 7a 60 dc bd
       0.039006267 0.044297975 -0.15684688 -0.10760589
000020 8f e8 23 bc e3 40 b3 bd ea 46 36 be e1 4f 0a be
       -0.010004177 -0.087526105 -0.17800489 -0.13507034
000030 37 b7 50 be ec cc 3b be 1c f7 87 bd 1e fc e6 3d
       -0.20382391 -0.1833989 -0.06638929 0.11278556
000040 5c 1d 09 be 24 42 4e be 2e 08 7c 3b a1 6f 00 3d
       -0.13390106 -0.20142418 0.0038457024 0.031356458
000050 0e 22 4c bd 72 e8 03 3e 1d d4 65 bd 6a 41 fd bc
       -0.049837165 0.1288164 -0.05611049 -0.03091498
000060 5d 5a 88 3c c4 ff 3c be c3 63 c7 bd fd a8 5f bd
       0.016644651 -0.18456942 -0.09735825 -0.05460452
000070 a9 66 81 be 24 99 0f bc 91 ea ae 3d 08 5e 97 3d
       -0.25273636 -0.008764539 0.08540834 0.07390982
000080 80 2a 29 be 8a ec a6 bd 51 a7 d0 bc 2e aa 88 be
       -0.16520119 -0.08150585 -0.025470408 -0.26692337
000090 17 da fd bd da 4b 08 be fc bf 23 3e 9d 82 d7 bd
       -0.12395113 -0.13310185 0.15991205 -0.105229594
0000a0 8b 6b 7b 3d 17 c1 78 3d f0 22 90 3d 35 61 00 3e
       0.061381858 0.06073102 0.07037914 0.12537082
0000b0 2d 0f 82 bd 64 6d 2b be e8 2f 76 bd 2a 85 03 3c
       -0.06350551 -0.16740948 -0.06010428 0.008027354
0000c0 c3 60 31 3d cb d8 fd bd e3 00 c2 3b 63 1c 3b bd
       0.04330517 -0.123948656 0.005920516 -0.04568137
0000d0 fe 4e 66 be 0e c6 6e 3e 1b a1 7a bd 6a 47 2e 3e
       -0.2249107 0.2331774 -0.0611888 0.1701943
0000e0 29 9a 83 3d 61 74 37 be 83 26 06 be 66 b7 54 be
       0.06425888 -0.17915489 -0.13100629 -0.20773086
0000f0 6c c6 c9 bd 2e 92 63 bb c3 b3 ae 3c f3 8a 54 bd
       -0.09852299 -0.003472458 0.021325951 -0.051890325
000100 b8 e4 85 bd 0e bb 6a bd 4c 80 4a bd b8 98 5d 3b
       -0.06537765 -0.057307296 -0.04943876 0.0033812951
000110 31 77 1e be 3c bc 50 ba d0 2d 44 be 0b e3 0f 3e
       -0.15475155 -0.00079626194 -0.19158101 0.14051454
000120 24 35 89 bd 6a 7d 07 3e d7 5b 78 be c7 f8 09 be
       -0.06699589 0.13231435 -0.24253784 -0.13473807
000130 cf f1 6d bd d7 bc 78 bc 3f 0d 21 be a9 59 25 3d
       -0.058091935 -0.015181742 -0.15727709 0.04036871
000140 79 8a 05 be cd d1 06 bd f1 61 4f 3d 5a c5 36 be
       -0.13041104 -0.032914925 0.050630514 -0.17848721
000150 c7 0f 0f be 7b 8c 84 be e8 d5 9d bc 9a 3f 4b 3e
       -0.13970862 -0.25888428 -0.019267038 0.19848481
000160 b5 a4 4d 3c 22 dc d1 bd d1 70 a3 bd 77 3a 25 be
       0.012551476 -0.10247065 -0.079805024 -0.16135584
000170 b3 a2 04 3e b7 b9 3e be a5 f9 56 be d6 f2 89 bd
       0.1295269 -0.18625532 -0.2099367 -0.067357704
000180 b3 39 02 3d fa 7d 1e 3e da bd eb bd 5c ce 77 3c
       0.031793308 0.15477744 -0.11510821 0.0151248835
000190 5d 1d 8e bd 46 4e 16 be aa 8a 7a bd 2b d5 cb bd
       -0.06939194 -0.14678296 -0.061167397 -0.09952768
0001a0 d1 07 eb bd 72 45 4d be b2 23 d4 bd 0c 8b 23 be
       -0.114761 -0.20046023 -0.10358371 -0.15971011
0001b0 ba a2 8e bd fc 6b 08 be 87 22 74 3c 54 3c 04 bd
       -0.069646314 -0.13322443 0.01490081 -0.032284096
0001c0 a7 c9 59 bd b5 91 2d be d3 a8 da bc ab a9 23 bd
       -0.053170826 -0.16950114 -0.02669183 -0.03995673
0001d0 a2 bc ac 3c 22 3c 71 bc 6a c6 76 be 69 f0 b3 bb
       0.02108604 -0.014723809 -0.24099126 -0.0054913056
0001e0 30 96 86 bd d0 f4 a2 bd cb 8f b0 3d 54 af eb bd
       -0.06571615 -0.079568505 0.08621176 -0.115080506
0001f0 b5 87 bf bd 87 51 fa bc e0 48 c3 bc 55 bf a2 3d
       -0.09352056 -0.030556453 -0.02383846 0.0794665
000200 a9 85 8d bd d1 70 d3 bd 08 81 75 be 10 72 37 be
       -0.06910259 -0.103242524 -0.23975003 -0.17914605
000210 02 74 1f be ac 97 29 bc 86 a6 47 be 46 b0 9e bd
       -0.15571597 -0.010351103 -0.19497117 -0.07748465
000220 94 64 42 be 78 62 4b be f1 c4 41 be 5e bb 7f 39
       -0.1898368 -0.19861782 -0.18922783 0.00024388495
000230 56 05 78 be df 6e 52 be 33 11 ae bc b7 50 97 bd
       -0.24220785 -0.20550106 -0.021248436 -0.07388442
000240 78 d7 c5 bd 9d 49 b8 3c 94 b7 39 3e 14 08 68 3c
       -0.09660238 0.022496039 0.18136436 0.014162082
000250 c5 a1 1d 3e 93 fa cb bc b0 60 43 3d 7d c3 47 be
       0.15393741 -0.024899757 0.04769963 -0.19508167
000260 93 c8 cc 3d a1 46 b2 3d 55 d5 d0 bd 61 cf 56 be
       0.09999194 0.08704878 -0.1019694 -0.20977546
000270 f7 4d 81 bc b9 0d 0c be 54 1f f2 bd 3c 78 2b be
       -0.015784247 -0.1367711 -0.118223816 -0.16745085
000280 3b 43 be bd 52 32 0e ba ab c7 13 3b 2a f8 f5 be
       -0.09290167 -0.00054243684 0.0022549431 -0.48040897
000290 0e 02 a0 bc 52 74 7b be 77 c2 94 be 44 8b c1 bd
       -0.01953223 -0.24556091 -0.29054615 -0.09450391
0002a0 01 d7 08 be 05 e5 80 3d 2f 40 0d 3e 1f e2 8b bd
       -0.13363267 0.06293682 0.13794015 -0.068302386
0002b0 78 06 99 ba a3 7e 3b bd f3 0d ec bd 8d 7a 42 3c
       -0.0011674901 -0.045775067 -0.11526098 0.011870039
0002c0 98 b7 2f be 33 79 ab 3d 45 9d 0e be 5c f3 fa bd
       -0.17159879 0.08372726 -0.13927181 -0.12253448
0002d0 23 c2 8a bd 93 e4 8f 3c 90 14 99 bc c4 79 3b be
       -0.0677531 0.017565047 -0.018686563 -0.18308169
0002e0 01 6b 47 be 09 3f 9c bd 1c 05 a5 bc 71 b6 b8 3d
       -0.19474413 -0.076292105 -0.020144038 0.09019173
0002f0 bf 99 71 bd 22 44 62 be 7f 92 01 3c a9 d7 3a be
       -0.058984514 -0.22096303 0.007908463 -0.1824633
000300 e6 e6 b8 3d ee dd 1b be d0 6f 34 bb d9 35 ef bd
       0.090284154 -0.15221378 -0.0027532466 -0.116801925
000310 5e 76 7b 3d 49 71 52 bd 61 88 2d be 95 24 2f bc
       0.06139218 -0.05137757 -0.16946556 -0.010689874
000320 43 fc 89 bd 1d c0 e6 bd ff fd 39 be 2a 05 57 be
       -0.06737568 -0.112671115 -0.18163298 -0.20998064
000330 e8 b7 80 3d 46 4f 35 be 85 d5 15 be 17 c9 0e 3d
       0.06285077 -0.17706022 -0.14632232 0.034859743
000340 80 ce 36 bd a6 4d d5 bc 2b 4c 36 bd c2 39 e4 bd
       -0.044630527 -0.026038002 -0.044506233 -0.11143829
000350 ca 61 b1 bd 6a 45 e7 bd 9d 41 1d be ca 3e c1 bd
       -0.0866123 -0.112925366 -0.1535706 -0.09435804
000360 0d be 58 bd ee 64 7b bc 4c 2c ba bd 25 1b df bd
       -0.05291562 -0.015343888 -0.0909048 -0.10893849
000370 be de 4c be ef 66 3b 3c 2d 56 e1 3d 86 59 b8 bd
       -0.20006844 0.0114381155 0.11002765 -0.0900145
000380 90 b7 56 bd db fc 16 be 24 87 84 3a 02 75 72 3d
       -0.052421153 -0.14744894 0.0010111076 0.05919362
000390 d5 c9 06 3e 4d 6c 5a 3c 58 59 b8 bd 47 ac 4b 3e
       0.1316293 0.013331485 -0.09001416 0.19889937
0003a0 de 70 c7 3d 61 17 9d 3d a9 36 c2 3d ee 77 45 3d
       0.097383246 0.07670475 0.09483082 0.048210077
0003b0 3b 62 0a bd 42 e8 3e be 38 09 1b 3d eb 64 12 3d
       -0.033785086 -0.18643287 0.03785059 0.035740774
0003c0 88 8b 2b 3b 15 e3 4b 3d f8 df 9f 3d 2c 77 d3 bc
       0.0026175696 0.04977711 0.078063905 -0.025813662
0003d0 8d 77 03 be 30 15 3e 3d 6a 80 6e bb 8b 70 0f bd
       -0.12838574 0.046406925 -0.0036392459 -0.03501944
0003e0 52 a9 2e bd 8d 5d 23 be 72 7d d6 b9 12 85 0d be
       -0.042641945 -0.15953656 -0.00040910725 -0.13820294
0003f0 11 b7 0e 3c 36 83 02 bd eb 3f 9a be 78 e2 80 3c
       0.008710639 -0.031863414 -0.3012689 0.015732989

weight f4 [256, 256]
000000 61 87 91 bc 21 3f 7a 3e b5 bd 5b 3d 91 84 09 bd
       -0.017764749 0.24438144 0.053647716 -0.03357369
000010 ce 7b 2e 3d 97 7b 8f be a4 0e 89 bc 3f dc 41 bd
       0.042598538 -0.2802398 -0.016730614 -0.047329184
000020 2e 81 5c bd f8 79 00 be c9 bb b0 3b 92 a9 2b 3c
       -0.053834133 -0.12546527 0.0053934795 0.01047744
000030 d4 6d ee bd a8 64 d0 3d 03 0e c1 3d 1a 35 64 bd
       -0.11642042 0.10175449 0.09426501 -0.055714704
000040 c5 82 74 3d f5 0e de 3d 6f f5 ed 3d 58 54 48 3d
       0.059695024 0.108426966 0.11619078 0.04890856
000050 11 32 91 be c6 00 5d be 9a e0 10 3e 35 be ec 3d
       -0.2835851 -0.21582326 0.14148179 0.115597166
000060 7f 8b 9c bd a3 3d db bd de 08 93 3e 74 09 f1 bd
       -0.07643794 -0.10705116 0.28717703 -0.11769381
000070 d8 2a 7f 3e 33 f0 b0 be df 6b 8c 3e 33 ff 02 be
       0.24918687 -0.34558257 0.2742605 -0.12792663
000080 15 a7 3c 3e 83 f2 c2 be 3c f7 18 be 5d 9d c2 bd
       0.18423112 -0.38075647 -0.14938062 -0.09502671
000090 91 98 c3 3d 10 de 0c be 9c 53 4e 3e 9c 87 7c 3d
       0.09550584 -0.13756585 0.20149082 0.061652765
0000a0 c7 e1 49 bd 27 ed 75 be 28 c9 05 3e 5c 93 24 3d
       -0.049287584 -0.24016248 0.13065016 0.040179595
0000b0 7d 49 b6 bd 0b e9 e8 bd ff fb c8 3e a9 a1 de bd
       -0.089007355 -0.113725744 0.39254758 -0.10870678
0000c0 6b 37 4d be c7 05 99 3d b7 8e 66 be b2 07 3a be
       -0.20040672 0.07471805 -0.22515379 -0.18166998
0000d0 a8 d8 03 3e e6 36 79 be db fe b2 be de 76 6a 3d
       0.12875617 -0.24337348 -0.34960064 0.057242267
0000e0 64 fd 82 be c0 4d 27 bd 73 a0 49 3c 2f 18 70 bc
       -0.25583947 -0.040845633 0.0123063205 -0.014654203
0000f0 32 ab 65 bc 42 26 23 be b4 8c 54 be 2c 62 39 be
       -0.014017867 -0.15932563 -0.20756799 -0.18103856
000100 59 83 dc 3d e8 ce a2 bd f9 e7 12 3e 60 4d 9e be
       0.1076724 -0.079496205 0.14346303 -0.30918407
000110 b5 a4 60 bd 15 ee cd bd a5 b9 f3 be 53 b0 6a be
       -0.054844577 -0.10055176 -0.47602573 -0.22918825
000120 f9 8e 34 be b5 51 2c bd c8 d5 c9 bd 7e fd 61 3e
       -0.17632665 -0.04207011 -0.09855229 0.22069356
000130 f3 5f 37 be cd a3 a7 3e d5 1e b9 3d 1a f9 c8 3d
       -0.17907695 0.32742158 0.09039084 0.09813137
000140 9e fc 1e 3e c4 c4 62 be a6 42 a1 be 46 83 fd bd
       0.15526053 -0.22145373 -0.3149616 -0.12378554
000150 52 37 77 3d 01 99 5e 3c a6 2a 15 be 7f 96 ad be
       0.060355492 0.013586284 -0.1456705 -0.33903882
000160 12 e4 31 3e e7 3f aa 3c ef 11 e2 3d 7b 46 43 be
       0.17372158 0.020782424 0.11038577 -0.19069855
000170 b1 6c db bd 72 03 14 3e ac 36 8d 3e 3e 58 a6 bc
       -0.107140906 0.1445444 0.27580774 -0.020305749
000180 0a 85 17 be ed 46 22 be dd 27 e5 bd 47 99 85 bd
       -0.14796844 -0.15847369 -0.11189244 -0.06523376
000190 18 6c 3f 3e fd b7 2b 3e e7 ba 2b be 84 37 82 be
       0.18693578 0.16769405 -0.16770516 -0.2543298
0001a0 97 f1 82 3e 4f 06 7c be b3 a8 82 3c 84 98 93 bb
       0.25574943 -0.24611782 0.015949583 -0.0045042653
0001b0 28 3e 48 3e c9 56 38 3c 8e 3d 03 bd 8a 2d 05 be
       0.1955496 0.01125116 -0.032041125 -0.13005653
0001c0 51 9f ba 3b 8b ac c9 3d 7b f9 a4 be 53 f0 fc bd
       0.0056952615 0.09847363 -0.32221588 -0.12350526
0001d0 cb bf 46 3e c9 17 18 3e e7 cf 33 be 64 d4 32 be
       0.194091 0.14852823 -0.17559777 -0.17463833
0001e0 5f c4 f3 bd ec 99 88 be a5 17 9e be f4 a5 3d 3e
       -0.11902689 -0.26679933 -0.30877414 0.18520337
0001f0 18 a8 8c be 95 32 35 be 14 69 bc be 16 e7 37 3e
       -0.27471995 -0.17695077 -0.36798918 0.17959246
000200 f1 98 51 be cd aa 65 be db 47 9f bd d3 6b 93 3d
       -0.20468499 -0.22428437 -0.07777377 0.071983
000210 11 53 99 bd 57 da 17 be c9 c0 e2 bd 20 24 05 3e
       -0.07486547 -0.14829384 -0.11071927 0.13002062
000220 ab 42 8b be 5c 70 25 3e 04 36 b9 bd f0 1d 0a 3e
       -0.271993 0.16156143 -0.09043506 0.13487983
000230 66 ae 59 3e 7b 9e c1 bd 91 e3 a7 be 81 ff 57 be
       0.21257934 -0.09454056 -0.32790807 -0.21093561
000240 f2 5e 2a bd d4 e4 d1 be 7a 28 fd bc cb 48 76 bd
       -0.041594453 -0.40994895 -0.03090309 -0.060128015
000250 8d ca 23 be 98 2c ae be cc 0f d1 bd 87 bb 0b be
       -0.15995236 -0.34018397 -0.10208091 -0.13645755
000260 ff b6 3d 3d f4 ba 2d be 99 b3 89 ba fc 9d a2 3d
       0.046317097 -0.16965848 -0.0010505795 0.079402894
000270 f1 4a 27 be 5d ca 0f be e8 21 18 be f5 25 7b 3e
       -0.16337182 -0.14042039 -0.14856684 0.24526198
000280 e9 e6 56 bd 03 d6 1f bd 0a 0f d0 3d 4a b4 1e 3b
       -0.052466307 -0.039022457 0.101591185 0.0024216347
000290 cb ec 96 bd a1 ea 47 be 34 18 0c 3e 68 3f cb bd
       -0.073693834 -0.19523098 0.13681108 -0.09924203
0002a0 71 17 cd be 1e 92 40 3d fc c1 a1 be 83 90 c0 bd
       -0.40056947 0.04701435 -0.3159331 -0.094025634
0002b0 47 32 54 be 58 6f 27 3d 03 42 12 3e 59 63 3b be
       -0.20722304 0.04087767 0.14282994 -0.18299617
0002c0 e5 d9 b6 3d 5d 91 2c be b4 c4 3d bd b8 e3 f7 bd
       0.08928279 -0.16852327 -0.04633017 -0.12103981
0002d0 1d d1 40 be 0d 9b 2d 3e 0c 74 cd be 77 72 60 bd
       -0.1882977 0.16953678 -0.401276 -0.054796662
0002e0 38 de 2a be 5f 01 55 be a0 61 a9 bd 05 ce cf bd
       -0.16686332 -0.20801304 -0.082705736 -0.10146717
0002f0 91 1d ba 3d 89 61 48 be e1 fc 81 bd fb de 30 3d
       0.090876706 -0.19568457 -0.06347061 0.0431814
000300 70 c5 23 3d 6a 4b af bd 70 c6 80 be a6 5d c3 bd
       0.039983213 -0.08559306 -0.25151396 -0.095393464
000310 03 6e 93 be f6 ee 01 be ae f5 80 be bf 75 ff bd
       -0.2879487 -0.12688813 -0.2518744 -0.1247363
000320 3b 50 f5 bd 9e b2 bc be 82 15 34 3e a7 d2 92 3e
       -0.11978193 -0.36855024 0.1758633 0.2867634
000330 07 43 95 3e 0c a2 27 3e 40 89 8c bc c2 d1 2d be
       0.291527 0.1637041 -0.01715529 -0.16974548
000340 3c 75 56 be 00 88 ad bc 13 c1 35 3d 7c 4f 00 be
       -0.20943159 -0.021183014 0.044373583 -0.12530321
000350 37 80 fb 3c 4a 94 44 be 6a 52 60 be 4d cb d5 3d
       0.030700786 -0.19197193 -0.21906438 0.10439167
000360 47 f1 8c 3c 73 f0 81 3e af 8b ea bc d0 9f 41 3d
       0.017204894 0.2537876 -0.02863106 0.04727155
000370 e5 50 a5 bd 95 e2 58 be 0b b7 8a bc 49 39 c7 bd
       -0.0807207 -0.21180184 -0.016932985 -0.09727723
000380 92 9f b9 bd b7 8d 44 be cc d8 f1 3d 2b ed e1 ba
       -0.09063639 -0.19194685 0.11808929 -0.0017236819
000390 99 86 f1 3c b6 9e 74 bd 44 1b 89 be d8 7b a4 bd
       0.029483126 -0.05972167 -0.26778615 -0.08031434
0003a0 43 fe 8f be 2d 23 2c 3e 20 7f 1e 3c 97 d4 39 be
       -0.28123674 0.16810293 0.009673864 -0.18147503
0003b0 46 7e 3e be 1f 49 a8 3d 30 1d cb be 7c d0 3b 3e
       -0.18602857 0.08217072 -0.39670706 0.18341249
0003c0 24 2a a8 3d 4f 9f af be 16 52 b2 be 2a 0d b9 bd
       0.08211163 -0.3430123 -0.34828252 -0.09035714
0003d0 c1 4a 87 be b4 d4 62 bd 15 29 2a be a5 cb 1a 3e
       -0.2642422 -0.05537863 -0.16617234 0.15116747
0003e0 48 21 c7 3c 7f 41 8c 3c ec 43 b8 bd cb 43 33 bd
       0.024307862 0.017121075 -0.0899733 -0.043765824
0003f0 11 94 d5 3b e4 a6 c8 bd 0d f3 be 3d 35 35 57 3e
       0.006517895 -0.09797457 0.09323702 0.2101639

bias f4 [256]
000000 60 b8 56 bc 06 77 05 3c af ff b5 3d 8e cf 33 3e
       -0.013105482 0.008146053 0.088866584 0.17559645
000010 62 d5 8d bd 9f 3b 84 bc 35 60 73 3d c3 cb b5 3d
       -0.06925465 -0.01614171 0.059417922 0.08876755
000020 96 d6 ee 3d cc 9c 66 bb 78 a8 9d 3c ab 26 87 3c
       0.11662023 -0.0035188673 0.019245371 0.01649793
000030 65 39 a0 bc 03 a4 41 bd 79 14 c4 3d 23 ac 1c 3d
       -0.019558618 -0.047275554 0.09574217 0.0382501
000040 c4 fa f3 3d 4f fd 3c be 23 84 8a bc 6b 42 b5 3d
       0.11913064 -0.18456005 -0.01690871 0.08850559
000050 eb 61 e9 3d 68 10 8a 3d 96 32 8d 3e 5d 15 62 3c
       0.113956295 0.067414105 0.27577657 0.013799039
000060 fb 49 1d bd 0a df 9d 3c fe b4 08 3e 9b af b3 bd
       -0.03840063 0.019271392 0.13350293 -0.087737285
000070 34 a0 4d 3e 1a d6 da 3d a6 c4 52 bb f9 df 33 3e
       0.20080644 0.10685368 -0.0032160669 0.17565908
000080 86 55 77 3e d6 d8 e2 bc 34 37 95 bc 34 22 ed bc
       0.24153718 -0.027691286 -0.0182148 -0.028946973
000090 d6 8d 1c 3d 73 88 11 3e c1 3e 07 be b3 78 59 bd
       0.038221203 0.14212207 -0.13207532 -0.053093623
0000a0 ec 69 72 3e 75 c8 4f 3e d3 2a 8d 3e a0 83 37 bd
       0.23673218 0.20291312 0.27571735 -0.04480326
0000b0 8d 2d 52 3e bb 5f 09 3e 79 5a e4 3d 1c 28 5c 3e
       0.20525189 0.13415425 0.11150069 0.21499676
0000c0 67 2a 9e bd a1 19 b0 3c 04 85 25 3e 34 31 25 3d
       -0.07722931 0.021496596 0.16164023 0.040330127
0000d0 11 1f c3 3d d8 6b f4 3d 64 52 33 bd 73 e2 0f 3d
       0.0952741 0.11934632 -0.043779746 0.03512807
0000e0 a0 3d 82 3d 63 69 c7 3d ec 5a aa bd e6 9d 58 3d
       0.0635941 0.09736898 -0.08318123 0.05288496
0000f0 64 ba 74 bd 99 b2 49 bc 31 2e 92 bd 5a bf 2a bd
       -0.05974807 -0.012310647 -0.071377166 -0.041686393
000100 32 6c 5c 3d f7 da c2 bd e6 e4 33 bd 30 cf 3f 3e
       0.05381412 -0.095144205 -0.043919466 0.1873138
000110 66 23 3a 3c 5a 6d 5e 3c d0 69 d0 3d 74 e8 2f 3e
       0.011360979 0.013575876 0.10176432 0.17178518
000120 a3 3d 85 3d c8 7f ee 3d 93 35 79 3e c1 8a e2 3d
       0.06505897 0.11645466 0.24336843 0.110616215
000130 08 11 20 3e 83 98 92 bd 8f 8b 42 3e 6b 1a 11 bd
       0.15631497 -0.071579956 0.1899855 -0.035425585
000140 2d f0 c1 3d 7c 9e 92 3d 1e 11 87 bd 41 54 06 3e
       0.09469638 0.07159135 -0.06595062 0.13118078
000150 5e 04 bc 3d f5 bb 4a be f2 7d 90 3d 1a f7 74 bd
       0.091805205 -0.19798262 0.07055272 -0.059805967
000160 c3 f6 78 bc af 2f 4e 3e b6 90 c6 3d ea 5b 07 3d
       -0.015195551 0.20135377 0.0969557 0.03304664
000170 fa f1 38 3d 41 5d 91 3d 3d 73 49 3d cf 9c 36 bd
       0.04515264 0.07097865 0.049182165 -0.044583138
000180 2c 92 ae bd b4 b4 92 bc 67 83 c1 bd 25 12 19 3e
       -0.08523974 -0.017908432 -0.09448891 0.14948328
000190 ab 12 84 3e bb c3 9c bc c4 cb c0 3c a7 b7 1f 3e
       0.25795493 -0.0191363 0.023534663 0.15597402
0001a0 ff 57 e2 3d 03 e0 f0 3c fc c7 16 3d ff 05 e8 3d
       0.1105194 0.029403692 0.036811814 0.11329269
0001b0 93 be b5 3d 57 7d 74 ba 8f 11 70 3d 08 3d 6d 3e
       0.0887424 -0.00093265384 0.058610495 0.23167813
0001c0 e8 91 af bc f0 a9 55 bb f0 3f f3 bb 26 df bc 3d
       -0.021431878 -0.0032602511 -0.0074233934 0.0922225
0001d0 53 7a b9 3d 0d 6f e3 3d 5e ad 5a 3e 20 4f ab 3d
       0.090565346 0.11105166 0.21355197 0.08364701
0001e0 f9 be 3a 3e a2 ae 3c bc 1a 36 22 3e 8c f8 81 bb
       0.18236913 -0.011516245 0.1584095 -0.0039663967
0001f0 c3 5b 25 3d 47 bb 24 3e 97 f7 64 3c 78 d2 e4 3d
       0.040370714 0.16087066 0.013975046 0.11172956
000200 21 6f 84 3e 20 cf 46 3d 8b 8a 8c 3c 6a f4 13 3e
       0.25866035 0.048537374 0.017155906 0.14448705
000210 e9 7c 83 bd 01 7e 6b 3c f4 e5 df 3d 36 61 84 3d
       -0.06420309 0.014373303 0.10932532 0.06463854
000220 ea ce ca 3d 86 ac 0a 3e 96 82 be bd e4 6b ce bc
       0.09902747 0.13542375 -0.09302251 -0.02519793
000230 4b e5 79 bd 79 19 e8 bd 10 e2 bf bb 3b 6e 9b 3e
       -0.061009686 -0.113329835 -0.005855806 0.30357537
000240 65 61 5c 3e 6c 17 ee 3d 30 37 77 3e fd e5 9e 3d
       0.21521528 0.11625561 0.24142146 0.077587105
000250 9e 77 95 3d ba 8e 9f 3d 0a 08 ca 3d 95 00 37 3d
       0.07298206 0.07790895 0.098648146 0.04467829
000260 d2 ad 27 3e bd a5 a3 bc 92 f6 0f 3e d2 ef 37 3e
       0.16374901 -0.019976491 0.14058903 0.17962578
000270 08 14 b1 bc d8 01 35 3e b6 87 9c 3d 48 16 7d 3e
       -0.021615997 0.17676485 0.07643072 0.24715531
000280 f3 1b 32 3d 8a 76 34 3d 88 b2 9f 3d 01 89 4b 3e
       0.043483686 0.04405836 0.07797724 0.19876482
000290 91 18 37 3e 7c 70 b5 3b 92 7b 8a 3d 7c 5a 5e 3d
       0.17880465 0.005537091 0.067618504 0.05428551
0002a0 ec bb 44 3d 36 e5 2e 3e 7a 0c 96 3d eb 6d 51 3d
       0.04803078 0.17079625 0.073265985 0.051130217
0002b0 f5 ea 04 bd 0a 37 fc bd 40 24 1e 3d ba 91 9c 3e
       -0.032450635 -0.12315185 0.03860879 0.3057993
0002c0 67 66 86 3e 6e 23 03 3d 2a f2 8c 3d 16 3a a3 bd
       0.26250002 0.03201621 0.06882127 -0.079700634
0002d0 56 a9 26 3d 63 a1 94 bc 40 93 5d bd 94 54 ac 3d
       0.040688835 -0.018143361 -0.054095507 0.084145695
0002e0 65 93 30 3b 03 71 11 3e 64 4e 8b 3e 00 08 66 bd
       0.0026943323 0.14203267 0.27208245 -0.056159973
0002f0 03 54 d7 3b 93 1e 21 3d cd c8 29 3d 00 a0 72 bd
       0.0065712943 0.0393358 0.041451264 -0.05923462
000300 36 3f b2 bd 72 74 13 bd 12 ac 26 bd 30 b1 aa 3d
       -0.08703463 -0.035999723 -0.040691443 0.08334577
000310 28 6f 1c 3e 20 15 22 3c 78 85 5e 3e 03 24 dd 3d
       0.15276778 0.009892732 0.21730602 0.10797884
000320 3a 20 5d 3e db d4 44 3c 2a 82 40 3e f2 55 75 3d
       0.21594325 0.012013639 0.18799654 0.059896417
000330 8f 5c 18 3d 4a 11 4c 3d a2 99 2a bd da 9e 21 3a
       0.037197646 0.049821176 -0.041650422 0.00061653333
000340 d7 e5 5f 3d a7 4f 02 3e 00 f6 f5 ba d6 8b 60 3c
       0.05466255 0.12725697 -0.001876533 0.0137052145
000350 e4 dd 0f 3e 7b 04 25 bd dd 6d 0d bd 96 2e ce bb
       0.14049488 -0.040287476 -0.034528602 -0.0062921746
000360 e8 21 a6 3c c8 1b 81 bd 0c 0c 03 3e 17 83 5e bd
       0.02027984 -0.06304127 0.12797564 -0.054324236
000370 92 87 d9 bc d0 05 0c 3e da bf 13 3e 43 db 0e bd
       -0.026553903 0.13674092 0.14428654 -0.034877073
000380 34 dd aa 3d 8b 85 1e 3e aa d2 4c bd b4 29 0c 3d
       0.083429724 0.1548063 -0.050005592 0.03421946
000390 71 15 1e 3e c1 bc 3f bd 63 ef 61 3d 51 c3 0b 3e
       0.15437867 -0.04681087 0.055159938 0.13648726
0003a0 0c 5f 8e 3c 5e 4c df 3c e1 58 80 bd 2c 4d c9 3d
       0.017379306 0.027258094 -0.06266952 0.098291725
0003b0 2e e4 04 bd d2 75 3f 3c 61 fe f5 bd fb 08 be bd
       -0.03244417 0.011685805 -0.120114096 -0.09279057
0003c0 d4 b5 8e bc a1 f6 ba 3d c1 50 fe 3b fb 7b b8 3e
       -0.017420687 0.09129072 0.0077610915 0.3603209
0003d0 52 17 68 3c 6e 25 f1 3d ca ab 91 3d 00 13 f3 3c
       0.014165716 0.11774717 0.07112844 0.029672146
0003e0 1d 2c 94 3c 93 d7 5f 3e 4b 17 4d bd a2 55 01 be
       0.018087441 0.21859579 -0.050071042 -0.12630323
0003f0 bf 83 91 bb 85 08 8b 3c fc 91 51 3e cb 2f b2 3d
       -0.004440754 0.016971836 0.20465845 0.08700522

weight f4 [10, 256]
000000 49 01 63 be e5 06 cb 3d 5c 49 e3 3d 49 e6 78 3e
       -0.22168459 0.099134244 0.110979766 0.24306597
000010 f8 d5 87 3b 7b cb e1 3b 29 b4 b8 3b c2 f4 95 bd
       0.00414538 0.006890712 0.005636711 -0.073220745
000020 dc 6a 9c be 53 ee 59 3d f3 4e 0b 3e 92 3f a5 3e
       -0.30550277 0.0532058 0.13604335 0.32275063
000030 c6 21 89 3e 7b c1 d2 bd ba 22 fa 3d a6 e1 26 be
       0.2678358 -0.1029081 0.12213655 -0.16297016
000040 68 04 98 bb c4 dd e9 3c 2e 5a b8 3e 93 e0 8c 3d
       -0.004639197 0.028548129 0.36006302 0.06878772
000050 04 32 8a be 9e d8 55 3e 3c d6 ae 3c 65 a1 9e 3c
       -0.26991284 0.20883414 0.02134239 0.019364068
000060 95 cb ae bd c9 cf bd 3d 04 31 a1 bd f4 3a 95 3d
       -0.08534924 0.092681475 -0.07870677 0.07286635
000070 d6 6a c1 3e ad dd e5 bd ab 03 06 3d e0 0a 21 3d
       0.37776822 -0.11223922 0.03271834 0.03931701
000080 ef 44 a6 bd 8f 21 67 bc c6 88 b2 3d 80 e3 9b bc
       -0.08118617 -0.014107122 0.08717494 -0.019029379
000090 20 1f cd bd 20 5a 8f 3d 68 bf e0 3d aa e7 9c 3c
       -0.10015702 0.06999612 0.10974008 0.019153435
0000a0 b4 8d 69 3c 17 25 21 bc 1a 7c 4f bc c8 3e 14 be
       0.014254976 -0.009835503 -0.012663865 -0.14477074
0000b0 76 df a1 bb 8c 07 66 bd 93 94 ba 3d 3a 5d 35 bc
       -0.0049399687 -0.05615954 0.091103695 -0.01106959
0000c0 b3 fc b4 bd 1c ef bb 3e 1f d1 5e 3e 4f bd 6c be
       -0.08837261 0.36705863 0.21759461 -0.2311909
0000d0 f0 c2 f4 3c f0 31 8e be 9a 1e 47 be ea 8c 6a 3e
       0.02987811 -0.27772474 -0.19445267 0.22905317
0000e0 4d 41 38 bd 35 8a 35 be 7e 39 8d 39 44 c7 65 3d
       -0.04498415 -0.17728503 0.0002693645 0.056098238
0000f0 6a a1 fb bd db c2 9a 3c 54 3e fd 3d 8d 98 06 bd
       -0.12286647 0.018891742 0.12365404 -0.032860328
000100 23 00 f9 bd 19 03 56 3d 6f df 47 be ac 61 89 3d
       -0.12158229 0.052249048 -0.19518827 0.067080826
000110 01 6b 39 be d7 eb c8 3e 09 c6 50 3e b7 d5 79 3d
       -0.18107225 0.39242432 0.20388044 0.06099483
000120 7c 96 8d bb af 76 ef 3c 6d 8b 3d 3b 33 0e 3a bd
       -0.0043209177 0.029231397 0.0028922216 -0.045423698
000130 bc f0 37 bc 34 51 7b 3e cb 3a 8c bd b8 fe 6f 3d
       -0.011226829 0.24542695 -0.06847151 0.058592528
000140 59 13 c6 3d f7 a8 90 be 3a 89 b0 bc 38 d1 18 3e
       0.09671659 -0.2825391 -0.02154981 0.1492356
000150 de 7f b6 3d 01 7c c3 bd 85 eb 13 be 78 77 18 be
       0.089111075 -0.09545136 -0.14445312 -0.14889324
000160 cc 62 41 be e1 07 d2 bc b1 09 18 3e e5 e8 ea be
       -0.18885344 -0.025638523 0.14847447 -0.4588081
000170 c1 9d ee bd 1d 44 df 3c 4a b3 a6 bd 71 fd 26 3b
       -0.11651183 0.027254159 -0.081396654 0.0025480653
000180 59 cc e0 3d 55 12 24 3e ff d7 30 be 0d 8c 15 bd
       0.10976476 0.16022618 -0.17269896 -0.036510516
000190 28 72 1a bb a2 81 cb be 00 d8 9a 3d 27 1f 93 3d
       -0.0023566578 -0.3974734 0.0756073 0.07183676
0001a0 23 b3 cf bc 3b 4c 25 3d 4d a7 a3 bd 6a 77 58 3d
       -0.025353974 0.040355902 -0.079908945 0.052848257
0001b0 e1 50 63 3e 00 4d 1d bc 77 7d 74 3e 9e 4b 9e 3d
       0.22198822 -0.009600878 0.23875986 0.077292666
0001c0 d7 5f 72 3e 7b f0 93 bd 75 2a 66 3e e3 3c b3 3d
       0.23669372 -0.072236024 0.22477134 0.087518476
0001d0 f4 fb b6 bc 23 62 2a 3e a3 c6 45 be 67 80 0e be
       -0.022336937 0.16638999 -0.19314055 -0.13916169
0001e0 b3 00 27 3d 81 5b 84 3e 0a c4 2c 3e ba ba 85 bd
       0.04077215 0.25851062 0.16871658 -0.06529756
0001f0 6c 33 a2 bc a8 4f ff bb 79 f5 8e be b0 00 3f be
       -0.01979991 -0.007791478 -0.27921656 -0.18652606
000200 b1 36 30 3d 9b 74 b1 3b 49 d6 e2 3d 88 a7 41 3e
       0.043020908 0.005415512 0.11076028 0.18911564
000210 3d ea 9d 3d 9c 83 5f be b1 6d b3 3c b2 83 07 be
       0.07710693 -0.21827549 0.02190289 -0.13233832
000220 f0 28 2a be 7b 3d 0c bd 60 75 12 bc 82 83 09 be
       -0.16617179 -0.03423832 -0.008939117 -0.13429072
000230 b6 f9 0d be 25 41 11 3e 15 8a 5e bc d3 63 e0 3b
       -0.13864788 0.14185007 -0.013582726 0.0068478375
000240 0e 8d e3 3c 73 81 24 bd 4d dd 10 3e 69 a0 a7 bd
       0.027777221 -0.040162515 0.1414692 -0.08184893
000250 89 88 92 bd 64 16 45 3e 13 88 03 be 7b 54 ce bd
       -0.07154948 0.19246823 -0.12844877 -0.10074707
000260 c5 9a 5d 3e 9e c0 d6 bd e5 0c c3 bd fe e0 f0 3e
       0.21641071 -0.104859576 -0.09523944 0.47046655
000270 5a dc d4 3d 4a 9a af 3d d2 f2 a6 bd 92 09 23 3e
       0.10393591 0.0857435 -0.08151783 0.1592162
000280 b9 60 6a 3e fc f3 16 3e 09 84 29 be ce 3b b1 bd
       0.2288846 0.1474151 -0.16554274 -0.08653985
000290 b2 6f b0 bd 5e 50 b3 3d 02 11 81 bd fa 3e cb 3b
       -0.08615054 0.08755563 -0.06302072 0.0062025758
0002a0 cd a3 e9 3d 9f e1 54 3e 02 34 4b 3d c5 00 00 be
       0.11408196 0.20789193 0.049610145 -0.12500294
0002b0 e9 0e 4e 3e 87 fe cc 3d 3e 21 19 3a 28 09 2c bd
       0.20122875 0.10009485 0.000584144 -0.04200092
0002c0 bb 20 a5 bd 1a c4 b5 bd 04 30 e4 bd 84 cb fe 3b
       -0.080628835 -0.08875294 -0.11141971 0.007775726
0002d0 24 88 14 3e b2 2d f2 bd da 62 5c bd 29 0a f8 3d
       0.14505059 -0.11825122 -0.05380521 0.12111313
0002e0 33 fb ff 3d 53 94 89 3e 90 84 0f bd 48 31 b7 bd
       0.12499084 0.26870975 -0.03503853 -0.089449465
0002f0 4e b4 54 3e 6c 76 cc 3d af d5 18 3e d0 a8 a6 3d
       0.20771906 0.09983525 0.14925264 0.08137667
000300 57 5c 55 3c 50 1f b2 be d0 8c 5c be c9 1a ba bc
       0.013022504 -0.34789515 -0.2153809 -0.02271785
000310 98 f4 03 3e 5f 42 4d 3e 0a f4 7e 3c 6f d7 39 be
       0.12886274 0.2004485 0.015561113 -0.18148588
000320 4b 7b 11 bc 6b e9 cc 3d a2 0a c0 3d 35 06 af bd
       -0.008879493 0.100054584 0.09377028 -0.08546106
000330 b6 a3 92 bc 1c e5 05 bc 0c a2 71 3c f9 e7 37 3d
       -0.01790033 -0.0081723 0.014748108 0.04489896
000340 63 c3 0c 3e b9 db 66 bd ce 48 f2 bd 3b c2 de bd
       0.13746409 -0.056361888 -0.11830293 -0.1087689
000350 a6 ea 63 3d da cc 29 3c 33 a8 b1 3c 42 38 57 3e
       0.0556437 0.010363782 0.021686649 0.21017554
000360 21 d6 19 3e 67 70 27 3e cb 53 e6 3d 5e 23 b4 be
       0.1502309 0.16351472 0.11246451 -0.35183233
000370 84 46 c2 be ce 5f 67 bd bf 5a a6 bd 83 1e f1 bd
       -0.37944424 -0.05648785 -0.08122777 -0.11773398
000380 4b 49 24 be de ba 76 3c c1 97 03 3e bd 36 1a bd
       -0.16043584 0.015059201 0.12850858 -0.03764986
000390 11 c1 d1 3b d7 8b c9 bd 49 06 f6 3d 4c 83 72 3d
       0.006401189 -0.098411255 0.120129175 0.059207246
0003a0 c9 16 b5 3c 5e 7c b5 bd 49 bd 03 bd ae 49 1f be
       0.022105591 -0.08861612 -0.03216294 -0.1555545
0003b0 1c de c3 3d 12 6d b2 3d 4e ef 05 be 2a 65 81 3d
       0.095638484 0.0871221 -0.13079569 0.06318124
0003c0 76 b6 37 3e 09 3f c3 bd ee a6 2f bd 79 1a 14 bc
       0.17940697 -0.095335074 -0.042883806 -0.009039515
0003d0 05 d7 c5 be d9 8c 8c bd eb 22 82 3e b9 11 07 3e
       -0.3864061 -0.06862802 0.25417265 0.13190354
0003e0 2e bb 00 bc 0d fe 04 3e 49 c8 61 be f8 d1 33 bc
       -0.007857127 0.12987538 -0.22049059 -0.010975353
0003f0 a1 03 ee bd 90 09 f8 bc e2 77 72 bb 35 43 04 be
       -0.11621786 -0.030277997 -0.0036997725 -0.12916262

bias f4 [10]
000000 5f be 09 3d cd 3b b2 bd af 5d 97 bd b6 7e f5 bd
       0.033628818 -0.08702812 -0.073909156 -0.11987059
000010 d9 d8 1f 3e b2 72 98 3b 55 b6 d6 3d 20 0e da bd
       0.15610065 0.0046523446 0.10483996 -0.106472254
000020 cc 61 cd bd 7b 93 22 3e
       -0.10028419 0.15876572

stds f4 [10]
000000 1d 5a 64 3e 1d 5a 64 3e 1d 5a 64 3e 1d 5a 64 3e
       0.223 0.223 0.223 0.223
000010 1d 5a 64 3e 1d 5a 64 3e 1d 5a 64 3e 1d 5a 64 3e
       0.223 0.223 0.223 0.223
000020 1d 5a 64 3e 1d 5a 64 3e
       0.223 0.223

obs_std f4 [28]
000000 cd cc 4c 3e cd cc 4c 3e 00 00 80 3f 00 00 80 3f
       0.2 0.2 1.0 1.0
000010 00 00 80 3f 00 00 00 3f 00 00 00 3f 00 00 00 3f
       1.0 0.5 0.5 0.5
000020 00 00 00 3f 00 00 00 3f 00 00 00 3f 00 00 00 3f
       0.5 0.5 0.5 0.5
000030 00 00 00 3f 00 00 00 3f 00 00 00 3f 00 00 80 40
       0.5 0.5 0.5 4.0
000040 00 00 80 40 00 00 80 40 00 00 80 40 00 00 80 40
       4.0 4.0 4.0 4.0
000050 00 00 80 40 00 00 80 40 00 00 80 40 00 00 80 40
       4.0 4.0 4.0 4.0
000060 00 00 80 40 00 00 80 3f 00 00 80 3f 00 00 80 3f
       4.0 1.0 1.0 1.0

obs_mean f4 [28]
000000 00 00 00 00 00 00 00 00 00 00 00 00 00 00 00 00
       0.0 0.0 0.0 0.0
000010 00 00 00 00 00 00 00 00 00 00 00 00 cd cc 4c be
       0.0 0.0 0.0 -0.2
000020 9a 99 19 3f cd cc cc be 00 00 00 00 00 00 00 00
       0.6 -0.4 0.0 0.0
000030 cd cc 4c be 9a 99 19 3f cd cc cc be 00 00 00 00
       -0.2 0.6 -0.4 0.0
000040 00 00 00 00 00 00 00 00 00 00 00 00 00 00 00 00
       0.0 0.0 0.0 0.0
000050 00 00 00 00 00 00 00 00 00 00 00 00 00 00 00 00
       0.0 0.0 0.0 0.0
000060 00 00 00 00 00 00 00 3f 00 00 00 3f 00 00 00 3f
       0.0 0.5 0.5 0.5
