trained/h1_walk/actor_36599.pt (torch, 308593 bytes, 9 tensors)

weight f4 [256, 28]
00000000: 1152 99bd 8768 363e fe2d 91be d08b 823d
00000010: 015e dfbc cc75 e33e 0418 d53d c1e9 593c
00000020: 4d25 27be d97d b8bd d163 e5bd 3f71 df3a
00000030: 8b7d c9bd f4f7 033d 6e60 88bd 0770 9c3e
00000040: 3675 1f3f 1043 493e 29ad e1bd 1a5a 8ebe
00000050: 5610 1cbf 853a f9be 0e7d 2d3e 1a98 31be
00000060: aefb 1dbf 7325 5c3e 872d 393c 3c18 b73e
00000070: a696 94be 0ede 33bd acf5 3c3e 41b7 ddbe
00000080: 3d98 67be fd92 5dbd ea31 adbd aa6c 003e
00000090: d5cf 67be 459b ed3d 0517 fb3b ba19 1abe
000000a0: 25f7 643c 4ead 8abe 879a 5b3e bb9f 4f3e
000000b0: dc44 993e 2c0a f73e 0de3 5abd 004f 443e
000000c0: f0c2 f6be 2f04 9fbe cbc1 05be eaa9 963d
000000d0: d119 a6bd 69d5 95bc 52eb 1fbe bac0 30bd
000000e0: 2121 863d 9ecb ba3d d22d 073e fac0 d0be
000000f0: ed86 ae3d 56b9 d2be 7447 8e3e e5cc a1be
00000100: dc07 293e 0376 923e 7b3d 873e 94da a9be
00000110: 8c47 103f e608 873e a063 f43e c6c2 8dbe
00000120: 7e74 bf3e eec1 6abf e8f2 acbe 6da8 863e
00000130: 2163 20bc 9b49 9d3c 3ad4 ecbe b9cb fabd
00000140: cfe4 76be 80e4 05bd ba61 e93e 7098 b53d
00000150: 9eb4 063e 18d3 e43d 6694 413e 94fb 7ebe
00000160: e475 87be 354e 6c3e f22d 813d 9389 47be
00000170: 8991 d0bd c45b a63e bcd7 34be ecdd 553e
00000180: 7ec2 f2bd 3986 d0be 27b2 8b3e 8b26 48be
00000190: 5224 29bf f4cf f1be 9f3e 073f e367 b93e
000001a0: 4b2b 353d d44c 62be d78e bcbd c325 4bbe
000001b0: 190c 56bd 62f3 ddbc 7bde 24be 404a ce3e
000001c0: 9403 40bd 603a 3c3e 8d6d 37be 2a41 6f3e
000001d0: 8e65 be3d dcf6 b93e 0031 c63d d8ce 143f
000001e0: 9581 0a3e 9607 2dbf 5fee a9bd 565c 3a3e
000001f0: c757 a0be abb2 94be 8b8c 143e a1de cd3e
00000200: 5dc5 ee3d ce11 f13e 5880 9f3e e843 1cbf
00000210: 0b6e 3ebe 61fe e9be 4ddb 91bd 87ca a0be
00000220: 1eb7 433e e923 e1bd 9a8b 373e b533 48be
00000230: dfd0 033f 8b05 b0be f583 b0bd 18a8 a8be
00000240: 4371 a3be 4ca1 61be 48e5 e53e d7df 0d3e
00000250: b035 fcbe 3b96 063e bfb1 5ebe faf4 c93e
00000260: 5242 96be c901 f5bc c0e4 b43e bd7f abbe
00000270: dd59 8bbe ca77 8cbe 8aaa 87be 65be 633e
00000280: e7d3 31bf cf99 fb3d e0c4 25bf bca3 033e
00000290: cb6e c83e 41d0 19be 7cf2 efbd 08eb 283e
000002a0: 8e6a 8dbe 0da8 af3e 60b3 043d 4e98 ba3c
000002b0: 0f9c c3be 097b f6bd 0571 423e b044 183d
000002c0: f6a6 0f3e 6b23 bf3d 0ff3 bcbd 6c45 1bbf
000002d0: 080a 3abd bea1 353e 4af7 063e 4226 d4be
000002e0: db80 7abe f169 ffbd 9fbb 5c3d 5ab6 07bf
000002f0: 7957 7abe 8ac1 c8be 8ed6 123e 76f8 dfbb
00000300: 2184 213f 770c af3e 9460 203e 5755 abbb
00000310: b6fa 9fbe d044 633d 7bc4 3d3e 3a98 073d
00000320: 6546 1c3e 5415 59bd 9116 84be dac9 cd3e
00000330: 8944 40be 70db 1dbf d4cc a33e bf38 6cbc
00000340: d446 bd3d 59f4 e1bc 9f39 6f3e 1c2f 983d
00000350: edbc 363e 1b1d 553f ea0e 41be 0062 d3be
00000360: dc46 8c3d e8ed dabc 1f29 bc3e 9169 6dbe
00000370: d8fa 653e 01ab b3bd 9045 1c3e ba19 143e
00000380: e118 9f3d 69d8 15bd cf3c e13e 9c5b 213e
00000390: 01ab 6bbe f5dc fc3d c244 b5be 566d 52bf
000003a0: 2d51 d1bd 3b7b 3f3f 70fa 713e 3e09 273f
000003b0: bf6b 12be 30ed afbe 858d 953e f0dd d63e
000003c0: 2e3f 52be e4b0 90be fa4f 6b3e 0aa3 023e
000003d0: e3a1 cf3e 8de3 1f3d 7bc9 5a3e 828c 28bd
000003e0: ba8d f13e 2820 72be db4b 4fbd 0d49 653d
000003f0: 011f ce3d a368 843e 874d 493e 0d4b a5bc
-0.07486356 0.17813312 -0.28355402 0.06374323 -0.027266504 0.4442581 0.10404971 0.01330036
-0.16322823 -0.090083785 -0.11200679 0.00170473 -0.098383985 0.03221889 -0.066590175 0.3055422
0.62288225 0.19654489 -0.11019356 -0.27803117 -0.60962427 -0.4867746 0.16942236 -0.17343178
-0.6171216 0.2149866 0.0113023585 0.35760677 -0.29021186 -0.04391294 0.18453091 -0.43303874
-0.22616668 -0.054095257 -0.08456786 0.12541452 -0.22637875 0.11601881 0.0076626563 -0.15048876
0.0139749395 -0.27085346 0.21445666 0.20275776 0.29935348 0.48249948 -0.05343919 0.19170761
-0.481956 -0.3105788 -0.13062207 0.07356627 -0.08110393 -0.018290238 -0.15617111 -0.04315255
0.065492876 0.09120868 0.13201073 -0.4077223 0.08521829 -0.41157025 0.2778889 -0.31601635
0.16506904 0.2860566 0.26414093 -0.33174574 0.5635917 0.26373976 0.47732258 -0.27687663
0.37393564 -0.91702163 -0.33779073 0.26300374 -0.009789259 0.019200137 -0.46255666 -0.12245888
-0.24110721 -0.032688618 0.45582372 0.08866966 0.13154837 0.111730754 0.18904266 -0.24900657
-0.2645713 0.23076709 0.063075915 -0.19486074 -0.10184009 0.32491887 -0.17660421 0.20885438
-0.11853503 -0.40727404 0.27284357 -0.19545953 -0.66071045 -0.47228968 0.5282993 0.36212072
0.04423074 -0.2209962 -0.09206932 -0.19838624 -0.05225763 -0.027093593 -0.16100495 0.40291023
-0.046878412 0.18381643 -0.17912884 0.23364702 0.09296714 0.3632115 0.09677315 0.5812812
0.13525994 -0.675897 -0.08297419 0.18199286 -0.3131697 -0.29042563 0.14506738 0.40208915
0.11658738 0.47083896 0.31152606 -0.61041117 -0.18596666 -0.45701888 -0.071219064 -0.31404516
0.19112822 -0.109931774 0.17924348 -0.19550975 0.51490587 -0.3437923 -0.08618919 -0.32940745
-0.3192235 -0.22034186 0.4490149 0.1385492 -0.4925971 0.13143246 -0.21747492 0.39444715
-0.29347473 -0.029908078 0.35330772 -0.33495894 -0.27216998 -0.27435142 -0.26497298 0.22240598
-0.6946396 0.12285196 -0.6475353 0.12855428 0.39147028 -0.15020849 -0.11716172 0.16495907
-0.27620357 0.343079 0.032397628 0.022777703 -0.38205 -0.12035186 0.18988426 0.03717488
0.14028534 0.09332927 -0.09226047 -0.60652804 -0.045419723 0.17737481 0.13180271 -0.41435438
-0.24463217 -0.124713786 0.053889867 -0.5301262 -0.2444743 -0.3921016 0.14339659 -0.006835039
0.6309224 0.34189197 0.15661842 -0.005228679 -0.31245965 0.055485547 0.18531983 0.03310416
0.15261228 -0.052998856 -0.25798467 0.40193063 -0.18776144 -0.6166296 0.3199221 -0.014417826
0.09242025 -0.027582334 0.23361824 0.074308604 0.17845507 0.83247536 -0.18853346 -0.41285706
0.06849453 -0.02672477 0.36750123 -0.23184802 0.2245897 -0.08772851 0.15260911 0.14462939
0.07768417 -0.036583338 0.43991706 0.15757602 -0.23014452 0.12346832 -0.3540402 -0.82198083
-0.10220561 0.7479741 0.2363069 0.6524848 -0.14298914 -0.34360647 0.29209533 0.419662
-0.20531914 -0.28259957 0.22979727 0.12757507 0.40553197 0.03903537 0.21365921 -0.041149624
0.4717844 -0.23645079 -0.05060945 0.05597787 0.10064507 0.2586108 0.1965848 -0.020177389

bias f4 [256]
00000000: ec75 2ebe dc02 32bd a09a 06bd 21d7 7abe
00000010: 03a3 a73c 0341 a03c 42f9 59be 3a68 34be
00000020: 1acb 43bd c1d8 7fbc 1db7 2abe 8c44 50be
00000030: 5029 33be 6c86 81be 40a6 37be fd38 fa3d
00000040: 609b 19be 0a2b 07be d0be e03c 42a0 923b
00000050: 9e94 ccbc b977 19bd 0a05 02be 5e08 12be
00000060: aea5 83bd cac6 5cbe 531d 9abe 4fab 5d3d
00000070: 5bf9 83be 397e 8b3d c035 91bd effd 7c3d
00000080: 2bf2 93be 6000 5a3d 0d17 59bd 9ddd b3be
00000090: 86b0 d5bd 2244 a6bd ca43 22bd 9e7b b2bd
000000a0: 4bc9 b33d 14e5 cf3d 90db 123e c837 153e
000000b0: 6058 04bd 5b49 fcbd a285 e7bd 4a4b 75be
000000c0: 24c1 d53d c3d0 1abe d864 863c 4e3a bfbd
000000d0: a7bd 88be b2dd 863e 3473 1bbd 8821 ec3c
000000e0: 925b 8f3d 7d08 debd 0d6d 9abd a246 65be
000000f0: 4287 48be d528 8bbd b690 fd3d 215d 76bd
00000100: 6d6d 943c 1136 adbd a8d9 59be bfc6 d9bc
00000110: 4127 40be 2a48 8bbd e1af 19be 9aaa bb3d
00000120: 35d5 4fbe 204c 0a3e 1e5a 90be e716 dcbd
00000130: 2bae 44be d8b5 043b 2239 1dbe 982b adbb
00000140: b251 54be 6641 b9b9 9955 733a aed1 62be
00000150: b146 aebb 253d 0fbe 4007 72bd f3b2 ff3d
00000160: e8d3 b43c ce62 27be b95b 56bd a994 04be
00000170: ffdc 253d 964c 08bd 3057 eebd d16b b8bd
00000180: a12c 03bd c886 2d3e 2fc4 52be 0ba8 3d3d
00000190: 917e debc 0f5d a4bd 6a54 99bd 7370 1dbe
000001a0: 875c e1bd 8713 7ebe fe4f 40be 23f1 1fbe
000001b0: 2b0e 94bd 8502 5fbe 4651 e2bd 342e 6cbc
000001c0: 040a 143e 8150 51be 6b1d f8bc 8803 48be
000001d0: b2fc 643c 0bb0 acbd 91bb 4bbe ab41 e9bc
000001e0: ea1d dcbd f482 d0bc 5063 c63c 0752 07be
000001f0: 7b22 fbbd de96 72bc 4542 0e3d a497 b73d
00000200: 3f85 e2bd 8446 6dbe 1bd1 81be 4dcf 02be
00000210: ecf8 46be 1924 5e3d 771a 81be 9cf7 29be
00000220: e939 96be 2036 7ebe 8433 32be e0ca 90bd
00000230: e825 35be ca08 41be ba0c f2bd 4665 02be
00000240: f7d1 9bbc c543 303d b342 c13d 98a5 d6bd
00000250: b0cd 133d 2b07 91bd fceb e7bc 582c 3cbe
00000260: 0c05 0d3e 4966 013e 980e 36be 9c40 3bbe
00000270: 81af cebd 1153 8cbe c168 26be 6985 66be
00000280: 2483 c8bd 6b31 343c bb5d a2bd daf8 dbbe
00000290: 544c afbd 76f4 30be 3c70 9ebd 9ce3 51be
000002a0: e41c e7bd c49b 023e 1bdf dc3d 7f22 00be
000002b0: 5e87 d6bb 8ece edbd 9530 2dbe fadb 4abd
000002c0: 2969 7abe fe40 963d e26e 75be 5671 713c
000002d0: c2c3 6fbd efcd 4ebd 3d6c a13c 1116 97bd
000002e0: 0200 63be d74e ce3c 9bd2 a4bc a2db c73d
000002f0: 1634 3bbd a7b9 a2be bdec ab3c 12cc 3dbe
00000300: b13c 083e 5739 40be f337 14bd aeeb 0fbe
00000310: 05cb b93d 3a15 bdbd 6362 99be 87d2 65bb
00000320: bc83 83bd bc80 36be fc95 43be 943c 90be
00000330: 51ab 2f3d e88b 84be fc9b b3be 73fd 5abc
00000340: 8f86 debd 1eb9 dbbb a7ef 813b 3c1c 76bc
00000350: 8015 a0bd d765 70bc a5b8 68be 8d47 81ba
00000360: 9400 aebd 7dfa afbd 2884 c5bd ce65 44be
00000370: 84da a5be edf5 69bd ee59 3f3e b57b cbbd
00000380: 0831 d7bd 562b 1cbe f251 3dbe 7c38 d23d
00000390: 01c8 903d dacc 27bd a656 3fbd a513 0d3e
000003a0: 6ca0 51bd 2cd1 293e a027 22bd 4ae0 1c3e
000003b0: ebe3 bfbd 369e 8dbe 9e45 be3d 7952 dd3d
000003c0: 9b64 c83c 434c 5dbb 00c0 773d 2b44 48bd
000003d0: e296 1bbe 6c13 333d e0a0 1cbc 567d fcbc
000003e0: 59c6 743d 5441 7bbe 53c1 413b 5a47 84bd
000003f0: 4812 d93d bcf7 d3bd 8dca 29be bcc6 8b3c
-0.17037171 -0.04345976 -0.032862306 -0.24496128 0.020463472 0.01956225 -0.2128649 -0.17617884
-0.047801115 -0.015615643 -0.16671415 -0.20338649 -0.17496228 -0.25297868 -0.17934513 0.12217901
-0.15000677 -0.13200012 0.027434736 0.0044746706 -0.02497321 -0.037467692 -0.12697235 -0.14261004
-0.06428085 -0.21560207 -0.30100498 0.05411845 -0.2577618 0.068111844 -0.0709033 0.061765607
-0.28895697 0.053223014 -0.0530005 -0.35130015 -0.1043406 -0.08118464 -0.03961543 -0.08714984
0.08778628 0.10151115 0.14341569 0.1457206 -0.032310843 -0.12318679 -0.11304785 -0.23954502
0.10437229 -0.15118699 0.016405508 -0.093372926 -0.26707193 0.26341015 -0.037951663 0.028824583
0.069998875 -0.10841463 -0.07540331 -0.22390226 -0.19582847 -0.067948975 0.12381117 -0.06014741
0.018118585 -0.08457578 -0.21274436 -0.026584027 -0.18764974 -0.068008736 -0.15008499 0.09163399
-0.20296176 0.13505602 -0.28193754 -0.10746556 -0.19207065 0.002024999 -0.15353826 -0.005284738
-0.2073429 -0.00035334675 0.00092824694 -0.22150299 -0.0053184857 -0.13988169 -0.059088945 0.12485304
0.022073701 -0.16346285 -0.052333567 -0.12947334 0.04049396 -0.033276163 -0.116377234 -0.09004939
-0.032024983 0.16945946 -0.2058265 0.046302836 -0.027159961 -0.08025562 -0.07486804 -0.15374927
-0.11003976 -0.24812137 -0.18780515 -0.1561933 -0.07229265 -0.21778305 -0.11050658 -0.014415313
0.14456946 -0.20440866 -0.030287465 -0.19532597 0.013976263 -0.08432015 -0.1989577 -0.028473696
-0.10747893 -0.025453068 0.024217278 -0.13214885 -0.12262436 -0.014806477 0.03473117 0.0896447
-0.11060571 -0.23171431 -0.25354847 -0.12774391 -0.19430894 0.054233644 -0.25215504 -0.16598362
-0.29341057 -0.24825335 -0.17402464 -0.07069945 -0.17690241 -0.18851009 -0.11818834 -0.12733945
-0.019021017 0.04303338 0.0943655 -0.10480803 0.03608483 -0.07081445 -0.028310768 -0.18376291
0.13771456 0.12636675 -0.17779005 -0.18286365 -0.100920685 -0.27407125 -0.16250898 -0.2251183
-0.09790638 0.01099811 -0.07928034 -0.42963296 -0.0855948 -0.17280754 -0.07736251 -0.20496982
-0.11284807 0.12754732 0.107847415 -0.12513159 -0.0065468987 -0.11611663 -0.16913064 -0.049526192
-0.24454178 0.07336615 -0.2396808 0.014736494 -0.0585363 -0.050489362 0.019704932 -0.07377256
-0.22167972 0.025184078 -0.020119956 0.097586885 -0.04570397 -0.31782266 0.020986909 -0.18534878
0.13304402 -0.18771873 -0.03618617 -0.14054748 0.09071926 -0.09232564 -0.29957876 -0.003506811
-0.06421611 -0.17822546 -0.19100183 -0.28171217 0.04288799 -0.2588799 -0.35079944 -0.013366091
-0.10865509 -0.0067054173 0.0039653364 -0.01502138 -0.07816601 -0.014672718 -0.22726686 -0.0009863243
-0.08496204 -0.08592699 -0.096443474 -0.1917946 -0.32393277 -0.0571193 0.18686649 -0.099357046
-0.10507399 -0.15250906 -0.18488291 0.1026468 0.07069398 -0.040966846 -0.046713494 0.13777025
-0.05117838 0.16583699 -0.03958857 0.15319934 -0.09369644 -0.27659768 0.09290622 0.10806746
0.024462035 -0.003376738 0.06048584 -0.048893135 -0.15194276 0.043719694 -0.00955984 -0.030821484
0.05975947 -0.2453664 0.0029564693 -0.06458922 0.1059919 -0.10349986 -0.16581173 0.017062537

weight f4 [256, 256]
00000000: fe50 a7bd aad7 943e c784 3f3d 344e 973d
00000010: 0407 683c 206a 92be f4b2 e4bd 5618 14bc
00000020: c5e1 89bd 7b99 bbbd 9389 8d3d 82af bbbd
00000030: 3e00 c3bd 0bc7 8a3d 03b0 363e 0a45 5bbe
00000040: 5638 92bb ae5a 5a3d 1c90 003e 4eac 1d3e
00000050: d239 3dbe 5cf0 5cbe 1feb 8a3d c6eb 273e
00000060: 12af 79be 9e54 8dbd 73c4 573e b11d 8bbe
00000070: 7144 923e 3ced 8ebe b364 ac3e fad8 40be
00000080: 4ede 733e dd65 b5be 1fee fcbd df0c 15be
00000090: d4e4 ca3c 2927 18be 537d 2c3e 3019 043e
000000a0: 6b08 95bd bbba 92be 4db9 333e febd b63d
000000b0: 12e4 e6bd c649 e7bd 8c47 c43e 9f01 0ebe
000000c0: 770a fcbd 2ead a93d 53ca c0be 18e3 54be
000000d0: 0abb 083e 76bc 95be 1eb1 b8be d077 dabc
000000e0: 270e 59be 3750 103b 6da7 dd3c 8899 81bd
000000f0: 52ee d73c d790 78be be27 47be c249 96be
00000100: 7876 9d3d 7171 44bd d1ec a53d b9ef 7abe
00000110: 97fe 87bd 9739 81bd 3225 e9be 8c00 c1bd
00000120: 1383 1dbe 5942 91bd 0934 06be 64dc d23d
00000130: 59bf 78be 9e14 233e 9f54 5f3d 4159 9c3d
00000140: 4422 81ba 893e aabe 0e72 c2be 9ca8 17be
00000150: 44df 0abe b056 323d 188a bdbd ae82 77be
00000160: c6eb 213e 00fc 203b d986 143e 3faf 89be
00000170: f17f cfbd 3426 f43d 9c98 753e f978 953d
00000180: 6fde 29be ad0e 9cbe 4243 27be f309 0cbd
00000190: 605a 213e 2812 ea3d 052c 33be c3e0 92be
000001a0: f960 133e 4582 90be d5c3 f23c 609e 1cbd
000001b0: 15a3 803e f43e 10bc 1279 19bd 6517 a9bd
000001c0: 3ced 733d bf86 033e 75d6 cdbe 0dcf 2fbe
000001d0: 63b3 8d3e d5c5 f53d f29b 65be 2937 44be
000001e0: 8d5d 5ebe 4cb5 0fbe 77a6 a7be 7426 eb3d
000001f0: 3372 b5be feac 4bbe fa39 92be 98f8 a73e
00000200: 492b 64be 8453 6bbe 95b9 43be 4e2a c4bd
00000210: 2711 0fbe b8a3 71be 82ae 5cbd 6ed9 0d3e
00000220: 8ce7 87be 773c 413e d448 9ebd be3b e63d
00000230: 96d7 5f3e 7608 d0bd 50de 78be 86bd 44be
00000240: f2c9 0abd eb10 d3be 6958 f43b d9a5 76be
00000250: d917 3dbe 3c51 bcbe b675 9abd de63 25be
00000260: 9b35 2abc f4ac 1cbe 9495 a6bb 240a 483d
00000270: d5ce 99be 5b24 d8bd d4a7 96be fc19 9b3e
00000280: c86d 8dbd f228 a8bd de8e 883d cf36 6f3a
00000290: 4334 fbbd 386b 40be 7b21 d13d f46d bb3c
000002a0: ea0b d2be 37ba a03d 5ed4 aabe 87aa 0fbe
000002b0: b4f6 99be dbc3 353e c085 3d3e faa1 41be
000002c0: bc55 18bc bf45 2abe 5a03 91bd e5fd e1bd
000002d0: 3cdf 0fbe 5044 3e3e ffc1 00bf 1e7a 67bd
000002e0: 0180 17be 3e2f 83be c92d aabd 004b 17be
000002f0: bf50 383d b08a 13be 0df4 f0bd d620 633c
00000300: 2c1d 763d 2c9e edbd 5b94 81be 0d8c bbbd
00000310: 7179 cabe fc96 f4bd 25ec 98be abcb f3bd
00000320: 0fb1 81be afa8 d1be 6561 323e 30de 553e
00000330: d92f 983e 1930 943c 9e95 c3bd b8b2 86be
00000340: f81a 36be c5d1 babd 9451 e9bc 2667 16be
00000350: c03e 2d3c a1ac a2be 8b44 73be 0f1a 033e
00000360: 8604 c8bd ecd1 503e 3497 81bd df20 c5bc
00000370: 2ba7 c3bd 9c41 79bd 4230 01bd c7c6 d3bd
00000380: ed06 afbd 5967 89be 8d89 a53d 65d8 28bd
00000390: 9b94 50bd ce1f 9fbe 4ad9 b6be 3260 26bd
000003a0: 9e11 89be e37f ec3d 425e 97bd e980 3dbe
000003b0: 925f 10bd e0c5 193e e518 d4be 4057 e93d
000003c0: 0f31 643e 02fa bbbe 2e92 4cbe 7d62 febd
000003d0: c99a 92be 7695 e2bd e8f2 3dbe 13a0 113e
000003e0: 202c dcbc e01c f1bd 0d6e 3cbe b057 1fbd
000003f0: 0200 503d d92a 36be 9571 bf3d cc30 903e
-0.08169745 0.2907079 0.046757486 0.07387963 0.014161829 -0.28596592 -0.11166945 -0.009039005
-0.06732515 -0.091601335 0.06911006 -0.09164335 -0.095215306 0.06776246 0.1784058 -0.21413055
-0.004462282 0.053309135 0.12554973 0.1539776 -0.18479088 -0.21576065 0.06783127 0.16398534
-0.2438319 -0.06900905 0.21071033 -0.2717109 0.28567842 -0.2791537 0.33670577 -0.1883277
0.23815271 -0.35429278 -0.123501055 -0.14555691 0.024767317 -0.14858688 0.16844682 0.12900233
-0.07276996 -0.2865809 0.17551155 0.08922957 -0.1127397 -0.11293368 0.38335836 -0.13867806
-0.123066835 0.082849845 -0.3765436 -0.20789754 0.133526 -0.29245347 -0.3607263 -0.02666846
-0.21196805 0.0022020468 0.027057374 -0.06328112 0.026358757 -0.24274002 -0.19448754 -0.29353148
0.07688612 -0.04795975 0.0810181 -0.2450551 -0.06640356 -0.063098125 -0.4553619 -0.094239324
-0.15382032 -0.07092733 -0.13105787 0.102959424 -0.24291743 0.15925834 0.05452406 0.07634211
-0.0009852131 -0.33250836 -0.37977642 -0.14810413 -0.13561732 0.043539703 -0.09254855 -0.24170944
0.15812597 0.0024564266 0.14504565 -0.26891515 -0.10131825 0.11921349 0.23983997 0.07298464
-0.16588758 -0.30479947 -0.1633425 -0.034189176 0.15757132 0.11429244 -0.17497261 -0.28687105
0.14392461 -0.28224388 0.029634396 -0.038236976 0.25124422 -0.008804072 -0.037468977 -0.08256415
0.059552416 0.1284437 -0.4020268 -0.17168827 0.27675924 0.12000624 -0.2242277 -0.19161667
-0.21715374 -0.14034003 -0.3274419 0.11481944 -0.3543869 -0.1989021 -0.28559858 0.3280685
-0.22282137 -0.22981077 -0.19113763 -0.095783815 -0.13971387 -0.2359761 -0.05387736 0.13852474
-0.26543844 0.18870722 -0.077287346 0.11241864 0.21859583 -0.10157864 -0.24303555 -0.19212922
-0.033883996 -0.41223845 0.0074568284 -0.24086703 -0.18466128 -0.36780727 -0.07541983 -0.16151378
-0.010388757 -0.15300351 -0.005083749 0.048837796 -0.30040613 -0.10553809 -0.29424918 0.30293262
-0.06905705 -0.08210935 0.06667875 0.00091252936 -0.122658275 -0.187909 0.10211464 0.022879578
-0.41024715 0.07848018 -0.33365148 -0.14029895 -0.30071032 0.17750494 0.18508053 -0.18909445
-0.009297784 -0.16628169 -0.070807174 -0.11034755 -0.14050001 0.18580747 -0.50296015 -0.056512944
-0.14794923 -0.2562198 -0.08309514 -0.14774704 0.04499888 -0.14408374 -0.11765299 0.013862809
0.060086414 -0.116024345 -0.253085 -0.09157572 -0.39545777 -0.119428605 -0.29867664 -0.11904081
-0.25330397 -0.40949008 0.17419966 0.20885539 0.29724005 0.018089341 -0.095500216 -0.26308227
-0.17783725 -0.091220416 -0.028481282 -0.14687786 0.010574043 -0.3177233 -0.23756616 0.1280291
-0.09766488 0.20392579 -0.06327668 -0.024063526 -0.09553369 -0.060853586 -0.031540163 -0.10340648
-0.08546243 -0.2683666 0.08082876 -0.041221995 -0.05092297 -0.31078953 -0.35712653 -0.040619083
-0.26771253 0.1154783 -0.07391025 -0.18506207 -0.035247393 0.1501689 -0.41425243 0.11393595
0.2228434 -0.36714178 -0.19977638 -0.12421129 -0.28633717 -0.11063664 -0.18549693 0.1422122
-0.02687651 -0.117730856 -0.18401356 -0.038901985 0.050781257 -0.17789783 0.09347836 0.2816223

bias f4 [256]
00000000: 48c7 463d aee3 23bd 6d1f 003e 0e13 5a3e
00000010: e937 89bd f52a 963c 5a4a 3b3c 0454 d13d
00000020: 84e8 143c 3d8d 783d fc9e b73c 9ccc 843c
00000030: 0af6 6ebd ab2b 52bb 4b80 0a3e 1f42 963d
00000040: fe9b 383e f232 e1bd 02ba a8bc 25b5 da3d
00000050: e33a 903d 0c2f 8f3d 6a79 793e 1397 973d
00000060: 6a7e efbc 2112 d33d 0c92 ea3d 9baf b3bd
00000070: f723 da3d d473 d03d 7db0 893d 70a5 613d
00000080: 7236 953e e79d a2bd 3437 95bc 2b56 22bd
00000090: 36d4 a93d 9ef6 313e feb1 f339 19ac b4bb
000000a0: a107 523e 86c7 4c3e c4f8 b13e 1a56 6abd
000000b0: fbb8 303e 2fbb 6f3d 65b9 ac3d e55b 3c3e
000000c0: c3da a7bd a119 b03c e5c9 bb3d 7183 e13c
000000d0: a87f 333e da63 083e e4c3 c6bd 141b 04bc
000000e0: 0b7e ab3d f5fb fb3d ec5a aabd c0ec 473d
000000f0: 64ba 74bd 177c 28bc 312e 92bd 6e3f 3bbd
00000100: 60bd 883d 3f35 87bc 6e1f c63d d88a 383e
00000110: 4cae 9a3c 6edb ef3b 8969 f53c 55ab 6f3d
00000120: b1ee d1bd a9bb 203e 0bb0 a43e e299 81bc
00000130: 4f38 2f3e ecc1 0fbc 99dd 623e 89a8 03bd
00000140: f5a7 123e 2a49 023e 1e11 87bd 26cb 193e
00000150: 2cc0 143e f227 4dbe df86 243d f747 70bd
00000160: 9101 c03d b774 2d3e 2dd2 d63d cbcb 39bc
00000170: bd27 693d 57b6 173e 1f74 843c 353d 59bd
00000180: 7d5e aebd ebf2 00bc babc 94bd a7fa c93d
00000190: adcd a03e 1030 983d 84fa 513d d48c e73d
000001a0: 6799 593e 9a8d 853d 1e8d d0bc e678 003e
000001b0: aa21 f63c 577d 74ba 4dba 313c 045f 8b3e
000001c0: d56b a83c c799 74bb 26a6 a93d 9f5c 0c3e
000001d0: 8b6a e73d 9201 163d f57d 613e ac95 943d
000001e0: 89ef 183e a2ae 3cbc 222b 5d3e 8cf8 81bb
000001f0: f45d 763d c08e 313e 97f7 643c 64c7 783d
00000200: 0e02 8c3e 00ef 6c3d 61b1 a73d f45c 4a3e
00000210: 6484 d33c 017e 6b3c 7b97 ea3d 70f0 083c
00000220: 1317 c73d 7334 473e 9682 bebd 2007 8a3c
00000230: 4be5 79bd 90bc 923c 10e2 bfbb d5e8 b73e
00000240: 4f13 183e 0ac2 023e 6d9c 483e 7e88 723d
00000250: 68ca 313e 1453 a03d d4c6 be3d 417d 2a3d
00000260: 53ff 593e 8921 8fbc 6867 8d3d e9f3 423e
00000270: 5a6f 33bd dd42 bf3d a193 9d3d b34e 963e
00000280: 7951 e13c 9d7f 123e 58bc d13d f145 3b3e
00000290: fd37 9f3d 7c70 b53b 6c5e 4ebc 95c3 b93a
000002a0: 0341 cf3d ffcd 153e c228 d93c 63e9 e3bc
000002b0: f5ea 04bd bf4b fdbd 5d7d 023d f1d8 993e
000002c0: 93a3 813e c79a e03d 57c7 203e 17c0 a4bd
000002d0: 5b46 5fbc 9548 d5bc d881 62bd a469 233d
000002e0: 7065 c13b 2268 bf3d 846a ad3e 0008 66bd
000002f0: 34ed d33b 28bd 073d 9189 a4bd 1a85 6abd
00000300: 363f b2bd 39e6 03bd 46ce 06bd b419 223d
00000310: 2279 6a3e 9b31 f1bb 2dac 9b3e af10 333e
00000320: f86e 6b3e b41d bf3c a816 113e 7260 8d3d
00000330: fff5 f339 5222 88bc c933 00bc da9e 213a
00000340: 841d 2f3c 0a86 2b3e c82e 18bb 74f0 283c
00000350: dfe6 3a3e b0fa bf3b 18b5 2abd 5e57 65bd
00000360: bd54 933c dea4 85bd dadc fb3d 1783 5ebd
00000370: 410c 4dbd 08ad ee3d e566 7c3e f4df 1fbd
00000380: 34dd aa3d 8bcb 053d aad2 4cbd 4e52 5d3d
00000390: 51dd b73d 1b26 48bd fd33 4d3c 0397 e03d
000003a0: c715 023e 3aa1 1b3c e158 80bd 5191 023e
000003b0: 0fbe 54bd 8ce6 203c 573f f4bd fb08 bebd
000003c0: cf36 69bc 762d a53d c150 fe3b 84af b63e
000003d0: 5217 683c cc52 fb3d b329 8b3d 54c7 ea3d
000003e0: eb8c 023c 60b9 8c3e cd2d b3bc 1d50 ffbd
000003f0: 4edb e1bb 6e6f c5bd 977b 633e d2c9 4a3d
0.048529893 -0.040012054 0.12511988 0.21296331 -0.06700117 0.01833103 0.011431301 0.10221103
0.009088639 0.06068157 0.022414677 0.016210847 -0.05834011 -0.0032069485 0.13525502 0.0733683
0.18028256 -0.10996045 -0.020596508 0.10679082 0.07042482 0.06991395 0.24362722 0.07401862
-0.029235084 0.10306192 0.114536375 -0.087737285 0.10651391 0.101783425 0.067231156 0.055089414
0.291431 -0.07940274 -0.0182148 -0.039632957 0.08292429 0.17379233 0.00046481186 -0.0055136797
0.20510723 0.19997987 0.34760106 -0.05721102 0.17258064 0.05852812 0.08433799 0.1839443
-0.08196022 0.021496596 0.09169368 0.027528496 0.17529166 0.1331934 -0.09705332 -0.008063097
0.0837365 0.12303916 -0.08318123 0.048809767 -0.05974807 -0.010283492 -0.071377166 -0.04571479
0.066767454 -0.016504882 0.096739635 0.18021715 0.01888194 0.007319859 0.02995755 0.058513004
-0.10250605 0.15696587 0.3216556 -0.015820447 0.17111324 -0.008774262 0.22154845 -0.03214315
0.14321883 0.12723222 -0.06595062 0.15018901 0.14526433 -0.20034769 0.040167686 -0.05866238
0.09375299 0.16939054 0.104893066 -0.011340092 0.056922663 0.14815651 0.016168652 -0.053036887
-0.08514116 -0.007870416 -0.07262559 0.09862261 0.31406918 0.07431042 0.0512643 0.11306158
0.21249925 0.06521149 -0.025457915 0.12546119 0.03004535 -0.00093265384 0.01084764 0.2722093
0.02055923 -0.0037323104 0.082836434 0.13707207 0.11299618 0.03662259 0.22020705 0.0725511
0.14935125 -0.011516245 0.21598485 -0.0039663967 0.060148194 0.17339611 0.013975046 0.06073703
0.27345318 0.057845116 0.08188129 0.19762021 0.025819965 0.014373303 0.11454674 0.008358106
0.09721198 0.19453602 -0.09302251 0.0168491 -0.061009686 0.01791218 -0.005855806 0.35919824
0.14851116 0.12769333 0.19590922 0.0592122 0.17362368 0.07828346 0.09315267 0.041623358
0.21288805 -0.017472045 0.06904489 0.19038357 -0.043807365 0.09338925 0.076941736 0.29356918
0.02750467 0.14306493 0.10241002 0.182884 0.07774351 0.005537091 -0.012595754 0.0014172668
0.10119822 0.14629363 0.026508693 -0.027821248 -0.032450635 -0.12367963 0.031857837 0.30048326
0.2532011 0.109670214 0.15701042 -0.08044451 -0.013627614 -0.026035586 -0.05529961 0.03989567
0.005901985 0.09346034 0.33870327 -0.056159973 0.006467486 0.033139378 -0.08034051 -0.05725584
-0.08703463 -0.03220198 -0.03291156 0.039575294 0.22897771 -0.0073606498 0.30404797 0.17486833
0.2299155 0.023329593 0.14168799 0.06903161 0.00046531853 -0.016617928 -0.007824847 0.00061653333
0.010688189 0.1675035 -0.0023221243 0.010311235 0.18252133 0.0058587417 -0.04167661 -0.055991523
0.017984742 -0.065255865 0.122979835 -0.054324236 -0.050060514 0.11654097 0.24648626 -0.039031938
0.083429724 0.032664817 -0.050005592 0.05403357 0.0897776 -0.048864465 0.012524602 0.10966303
0.1270362 0.009498889 -0.06266952 0.12750746 -0.051939066 0.009820592 -0.119261436 -0.09279057
-0.014234259 0.080653116 0.0077610915 0.35680783 0.014165716 0.122716516 0.06795063 0.114638
0.007968168 0.2748518 -0.021872425 -0.12466452 -0.0068925982 -0.09640394 0.22215115 0.049508877

weight f4 [10, 256]
00000000: 59b8 7bbe 745d b23d 85b7 833e fbb9 443e
00000010: 62ee 8f3b 131e a3bd 2317 cfbd 4b58 203e
00000020: 6808 81be 081b 043d 8c7e 0a3e 46b7 a53e
00000030: 6482 e23d 098d 7bbe 07d3 513c ce94 fbbc
00000040: faad d43c 0f0d 333e 9fed b73e 5961 913c
00000050: 1226 98be 88de 363d 7a31 8d3d e4a5 c83d
00000060: bc6a a3bd 4119 b3bd a008 a8bb f43a 953d
00000070: 33e8 bc3e 5768 44be 3f32 403e f8db da3d
00000080: b557 5cbe f816 c0bc c688 b23d b688 6ebd
00000090: b4ec 54be 211c 213e 9228 893e c4a2 963d
000000a0: ccf2 b4bc 2e2b 30be c90c fd3b df5d cabd
000000b0: 20db 033d 71fb 20bd 25c3 97bd e910 94bc
000000c0: 5e4a 9fbd 1cef bb3e 3b7c 013e b62a 4fbe
000000d0: b5d9 133e 85e8 94be c673 29be b938 b73e
000000e0: 98a0 2abd 9dbf 0bbe 7e39 8d39 0a19 4a3d
000000f0: 6aa1 fbbd 536d 9c3c 543e fd3d 6a92 f03d
00000100: b38d a3be 808b 68bc d36a 16be 6fd7 673e
00000110: 8bdc 3abe 0db3 d23e d2fa 693e dcd4 db3d
00000120: f97a 4a3d 2778 e53d a66f a53c 90c6 903d
00000130: a24f 163d 688a f03d cded 6ebe 95d2 683d
00000140: 4f6b 873d 680d 81be 3a89 b0bc 5546 d43c
00000150: 11a5 cdbd a931 bcbd 9e9a 20be 3359 1bbe
00000160: aaa0 a7bd 726c 7bbd e268 743e 4d5b e4be
00000170: 9773 c3be 601c 2fbc 675e e4bd 858e 333b
00000180: 2e58 e33d 6b15 fc3d f5ae 51bd ca59 93bd
00000190: 50c6 a4bc af07 8dbe c8ce db3d 9af6 e83d
000001a0: 7864 11be 1e0d 8d3b 75a9 ff3d 0511 353e
000001b0: 0263 7e3e 004d 1dbc 7780 3d3e 418f a93d
000001c0: c82d 243e 919b 91bd 4ff4 103d 1163 b23d
000001d0: 3a4b 44bd a43e 7d3d 4c1a e0bd 501a a4b9
000001e0: 80bf b93b 815b 843e 64f3 7e3e baba 85bd
000001f0: aad8 a5bd 1fe4 dcbb 79f5 8ebe dd34 59be
00000200: 3467 c3bd cf42 4a3d b1d3 143d 3ffe 5e3e
00000210: 37ad a03d 9c83 5fbe 40d4 f13d 398c 72be
00000220: 899b a23d 0647 46bd 6075 12bc a802 abbc
00000230: b6f9 0dbe beb8 e53c 158a 5ebc 5b85 cebc
00000240: a2a1 18be 0886 db3c bb3c 1e3e 996b 6c3d
00000250: 2c6f 993e bb77 483e c682 a1bd a6cb cebd
00000260: 2ce4 a23d 3f51 d7bd 68f6 d4bd fbc5 f13e
00000270: 8710 de3d c479 963d cd17 adbd 3b4c 693e
00000280: 45c8 5d3e 4152 733e 1932 6bbe 2018 71bb
00000290: 58bc ec3d 5e50 b33d 8a0a 13be ae0f 293d
000002a0: 822a 863e 61bb 8e3e 63fa 113e 639f 5abe
000002b0: e90e 4e3e b5e0 cc3d 29a2 d739 e071 6abc
000002c0: 81dd 933d 4547 d13a 13c9 09be f1c8 013c
000002d0: cc05 f63c ed9e f0bd ec52 5fbd 2edb 2e3c
000002e0: 4c56 013e 02c0 a33e 1c93 a5bc 4831 b7bd
000002f0: b27c 543e 3835 c93d fa0b 2d3e 3a7b aa3d
00000300: 575c 553c 5a67 b2be e54e 6bbe ef44 373c
00000310: beba 0d3e cc43 9dbd 8969 883c 17fa 72bd
00000320: fd49 943d c55c cd3d 8c7d c1bd e555 0fbe
00000330: bf4c 063e 7cf6 eebc fd84 583e f9e7 373d
00000340: 85e0 213e 8934 323e 8138 f2bd 7f11 dfbd
00000350: 4d32 433d f21d b2bc 42f1 883c d2f7 7a3e
00000360: f2d0 193e 714b 273e 43f1 e63d 5e23 b4be
00000370: 571c c1be c270 e6bd eee8 243e cf6e f0bd
00000380: 4b49 24be 0f01 2bbe c197 033e f55d cabd
00000390: 2785 773d ac77 c9bd fee2 c63d ed59 253e
000003a0: b906 873d 439c 20bd 49bd 03bd de63 88bd
000003b0: f3b0 ac3d 2d85 b23d 17d2 05be 2a65 813d
000003c0: 1ff8 383e f321 003e eea6 2fbd 8521 cabc
000003d0: 05d7 c5be 1861 8abb c7a1 0c3e f815 403c
000003e0: a78a 793d e987 01bd d4bf 54be d483 2fbc
000003f0: 055e eebd d1da a3bd 5609 99be 72d1 b5bd
-0.24582042 0.08709231 0.25725952 0.19211571 0.004392431 -0.079647206 -0.10111835 0.15658681
-0.25201726 0.03225234 0.13524836 0.3236639 0.11060026 -0.2456552 0.0128066605 -0.030710604
0.025961865 0.1748545 0.35923478 0.017746614 -0.29716545 0.044645816 0.068942025 0.09797266
-0.07979342 -0.08745051 -0.0051279813 0.07286635 0.36895904 -0.19180427 0.18769167 0.10686487
-0.21517833 -0.023448452 0.08717494 -0.058235846 -0.2079342 0.15733387 0.26788765 0.07355264
-0.02208843 -0.17203972 0.0077224714 -0.09881186 0.032191396 -0.039302293 -0.07410268 -0.01807447
-0.07777856 0.36705863 0.12645046 -0.20231137 0.14438517 -0.29083648 -0.1654807 0.35785463
-0.04165706 -0.13647313 0.0002693645 0.049340285 -0.12286647 0.019095099 0.12365404 0.11746676
-0.31944045 -0.014193416 -0.14689188 0.22640775 -0.18248193 0.4115223 0.22849587 0.10733959
0.049433682 0.11204558 0.02019484 0.07069123 0.036697038 0.11745149 -0.23332901 0.05684145
0.06612264 -0.2520554 -0.02154981 0.025912443 -0.100412495 -0.091891594 -0.15683982 -0.15170746
-0.08184941 -0.06138272 0.23868135 -0.44600907 -0.38174126 -0.0106879175 -0.11150818 0.002739818
0.11100803 0.12308773 -0.051192243 -0.0719486 -0.020114094 -0.27544925 0.107328 0.113751605
-0.14198482 0.004304542 0.12483493 0.17682274 0.24842456 -0.009600878 0.18506037 0.08279277
0.16033089 -0.0710975 0.03538924 0.08710302 -0.047923304 0.061827317 -0.10942516 -0.00031300122
0.0056685805 0.25851062 0.24897534 -0.06529756 -0.08097966 -0.0067410613 -0.27921656 -0.21211572
-0.09541169 0.04938012 0.036334697 0.21776675 0.07845538 -0.21827549 0.118080616 -0.23686303
0.07939822 -0.048407577 -0.008939117 -0.02087529 -0.13864788 0.028042194 -0.013582726 -0.025210073
-0.14905408 0.02679731 0.15452854 0.0577198 0.2996763 0.19576924 -0.07886271 -0.100974366
0.079536766 -0.10513543 -0.10398561 0.4722136 0.10842996 0.07347444 -0.08451805 0.22782986
0.21658428 0.23761846 -0.2296833 -0.0036788061 0.11559361 0.08755563 -0.14359489 0.04127472
0.26204306 0.27877334 0.14255671 -0.21349864 0.20122875 0.10003797 0.00041128814 -0.0143093765
0.07219983 0.0015966675 -0.1345561 0.007921443 0.030032061 -0.11749063 -0.05452244 0.010672374
0.12630576 0.31982428 -0.020211749 -0.089449465 0.20750692 0.09824604 0.168991 0.08324285
0.013022504 -0.34844476 -0.22979315 0.011185869 0.13840768 -0.07678947 0.016651886 -0.059320536
0.07240675 0.1002746 -0.09447774 -0.1399761 0.13115214 -0.029170267 0.21144481 0.04489896
0.15808304 0.17402853 -0.118271835 -0.10892009 0.047655392 -0.021742795 0.016716603 0.24508598
0.15021113 0.16337372 0.11276486 -0.35183233 -0.37716934 -0.112519756 0.1610448 -0.11739885
-0.16043584 -0.16699623 0.12850858 -0.09881202 0.06042972 -0.09837279 0.09711264 0.16147585
0.06593079 -0.039211523 -0.03216294 -0.06659673 0.08432188 0.087168075 -0.13068424 0.06318124
0.180634 0.1251295 -0.042883806 -0.024674186 -0.3864061 -0.0042230003 0.13733588 0.011723988
0.060923245 -0.031623755 -0.20776302 -0.010712583 -0.116390266 -0.0800072 -0.29889935 -0.08877839

bias f4 [10]
00000000: 4e98 053d 7c54 b6bd 5297 57bd a5c2 11be
00000010: c8f4 0e3e 0a5d bf39 cea1 ae3d 81ac afbd
00000020: c1eb f6bd ec23 113e
0.032615952 -0.08902833 -0.052634545 -0.14234407 0.13960564 0.00036499678 0.085269555 -0.085778244
-0.12056685 0.1417386

stds f4 [10]
00000000: 1d5a 643e 1d5a 643e 1d5a 643e 1d5a 643e
00000010: 1d5a 643e 1d5a 643e 1d5a 643e 1d5a 643e
00000020: 1d5a 643e 1d5a 643e
0.223 0.223 0.223 0.223 0.223 0.223 0.223 0.223
0.223 0.223

obs_std f4 [28]
00000000: cdcc 4c3e cdcc 4c3e 0000 803f 0000 803f
00000010: 0000 803f 0000 003f 0000 003f 0000 003f
00000020: 0000 003f 0000 003f 0000 003f 0000 003f
00000030: 0000 003f 0000 003f 0000 003f 0000 8040
00000040: 0000 8040 0000 8040 0000 8040 0000 8040
00000050: 0000 8040 0000 8040 0000 8040 0000 8040
00000060: 0000 8040 0000 803f 0000 803f 0000 803f
0.2 0.2 1.0 1.0 1.0 0.5 0.5 0.5
0.5 0.5 0.5 0.5 0.5 0.5 0.5 4.0
4.0 4.0 4.0 4.0 4.0 4.0 4.0 4.0
4.0 1.0 1.0 1.0

obs_mean f4 [28]
00000000: 0000 0000 0000 0000 0000 0000 0000 0000
00000010: 0000 0000 0000 0000 0000 0000 cdcc 4cbe
00000020: 9a99 193f cdcc ccbe 0000 0000 0000 0000
00000030: cdcc 4cbe 9a99 193f cdcc ccbe 0000 0000
00000040: 0000 0000 0000 0000 0000 0000 0000 0000
00000050: 0000 0000 0000 0000 0000 0000 0000 0000
00000060: 0000 0000 0000 003f 0000 003f 0000 003f
0.0 0.0 0.0 0.0 0.0 0.0 0.0 -0.2
0.6 -0.4 0.0 0.0 -0.2 0.6 -0.4 0.0
0.0 0.0 0.0 0.0 0.0 0.0 0.0 0.0
0.0 0.5 0.5 0.5
