trained/h1_walk/critic_34799.pt (torch, 299198 bytes, 7 tensors)

weight f4 [256, 28]
-0.062126014 -0.004815309 0.13762368 -0.37360352 0.30570623 -0.28915828 -0.110798016 0.029856158
0.2752172 -0.3123662 0.07816726 -0.07916122 0.09374283 -0.15036207 0.35951123 0.31299922
0.007656725 1.2512352 0.6240756 0.08616146 0.4960833 0.04502212 -2.4915988 -1.3477151
-0.10435563 -0.024581218 -0.056550022 0.4561825 -0.02527485 -0.10016609 -0.2502779 0.5210608
0.082315914 0.5974879 0.08225294 -0.1650626 0.1277052 -0.20730913 0.01306378 0.13530986
-0.054439038 -0.23229842 0.21668425 0.31217965 0.3634228 1.5313072 0.8269203 0.046297375
-0.01371162 -0.12350819 -0.0038553898 -0.037406154 -0.03447193 0.35755107 0.05566492 0.08384907
1.5981289 -0.57117766 0.950717 -0.5436088 -0.18962818 0.15996961 0.3551773 0.6137254
0.025541771 0.6224633 -0.22114283 2.7634037 -0.069963604 -0.0064728595 0.3607947 -0.12075164
0.24542348 0.14945178 0.08249006 0.12858696 -0.5086014 2.247862 -1.5171155 -1.1227169
0.29336783 -0.08531893 0.2671941 0.3344965 -0.005496651 -0.13020018 -0.11448295 0.42550677
-0.015370155 -0.029954135 0.5263564 -0.6630179 -0.8509331 -0.65256274 -0.19978994 0.48501915
-0.050477874 0.31641382 0.02134214 0.14270665 -0.37190208 0.23070534 0.23868482 -0.034426827
-0.014102863 -0.11014928 0.52731 0.1276438 0.07853624 0.24794063 0.107199654 0.101951785
0.020036172 -0.17487298 0.08117854 -0.16533664 0.04219123 0.2833144 -0.48206493 0.0386929
-0.035736 -0.30912557 -0.05535752 0.2130491 0.16878134 0.39077836 0.18199977 0.0071266177
0.025926167 -0.18609092 -0.08191232 -0.041189305 0.06408491 0.02207122 -0.35282364 -0.17461579
-0.09387312 -0.15965663 0.39846674 0.33752093 0.036343474 -0.12604283 -0.11063012 0.14547805
-0.04113768 0.37883446 -0.5546329 0.13126099 0.12590358 0.0028434698 -0.050793298 1.1646789
-0.014152772 0.076258816 0.14379248 -0.14240399 -0.09523206 -0.4025126 -0.232182 -0.16038923
0.1175881 -0.08403752 0.8288438 0.6368665 0.10915319 -0.44206345 -0.016050385 -0.22693598
-0.10249078 0.202091 0.048993252 0.36010194 -0.06641609 0.08591711 -0.8588142 -0.12541823
0.15933952 -0.1659218 0.25402635 0.14772409 -0.5437904 -0.39445624 0.18097599 -0.19140595
-0.0818879 0.43536678 0.089079626 0.04186242 -0.013573531 -0.04313271 0.14777267 0.03203116
0.09213279 -0.35846686 0.5129006 0.026538651 0.014871453 0.05043057 0.3808328 0.3759319
-0.011487832 -0.09298404 -1.2795808 -0.5783046 -0.438391 -0.17837663 -0.30554911 0.73150194
0.5858357 0.54212815 -0.39510325 -0.07450438 0.9569287 1.1001253 0.2675121 0.2730188
0.10001663 0.060417622 -0.1155961 0.026218433 -0.12018302 0.6000309 -0.02545769 -0.24176756
0.037030045 -0.060413167 0.059195783 1.0695624 -0.039327268 0.034264214 0.40249807 -0.3916866
-0.07219025 -0.20373291 0.11412569 -0.33185863 -0.05031641 1.3816327e-05 -0.18458617 0.5599532
-0.26745734 2.3665078 0.9921158 -0.009501457 -0.5836923 0.63102525 0.94126886 0.6568521
0.12471086 0.038972948 0.15749398 -0.0495917 0.19427475 0.034947503 -0.13154364 -0.014939564
00000000: d977 7ebd bdc9 9dbb 39ed 0c3e f648 bfbe
00000010: 8785 9c3e 8e0c 94be 12ea e2bd e794 f43c
00000020: 45e9 8c3e 76ee 9fbe 2816 a03d 471f a2bd
00000030: 3efc bf3d 84f8 19be db11 b83e 6f41 a03e
00000040: 44e5 fa3b 7a28 a03f 6bc3 1f3f 6b75 b03d
00000050: a1fe fd3e 1d69 383d 5b76 1fc0 ee81 acbf
00000060: 68b8 d5bd 8d5e c9bc ffa0 67bd c190 e93e
00000070: 340d cfbc e123 cdbd 6d24 80be 3e64 053f
00000080: 3f95 a83d f8f4 183f 3b74 a83d 2c06 29be
00000090: 27c5 023e d848 54be 7709 563c ab8e 0a3e
000000a0: 78fb 5ebd a3df 6dbe 7ae2 5d3e 03d6 9f3e
000000b0: 8e12 ba3e e001 c43f 0cb1 533f 51a2 3d3d
000000c0: b4a6 60bc ddf1 fcbd b5aa 7cbb 3237 19bd
000000d0: 7032 0dbd ef10 b73e e600 643d 10b9 ab3d
000000e0: 7d8f cc3f b338 12bf 3062 733f f229 0bbf
000000f0: e42d 42be 13cf 233e cdd9 b53e 1c1d 1d3f
00000100: fa3c d13c c159 1f3f 4473 62be 9bdb 3040
00000110: 1449 8fbd 481a d4bb 15ba b83e a34c f7bd
00000120: 4b50 7b3e e309 193e 8cf0 a83d 4dac 033e
00000130: b433 02bf f9dc 0f40 d730 c2bf 30b5 8fbf
00000140: 4f34 963e b1bb aebd aacd 883e 2043 ab3e
00000150: 401d b4bb 3253 05be 0976 eabd 06dc d93e
00000160: 1ad3 7bbc 6062 f5bc 4bbf 063f 8bbb 29bf
00000170: c0d6 59bf 5a0e 27bf bc95 4cbe 6e54 f83e
00000180: e3c1 4ebd fe00 a23e b6d5 ae3c b121 123e
00000190: f369 bebe 053e 6c3e cb69 743e 2503 0dbd
000001a0: b20f 67bc f295 e1bd cafd 063f 0eb5 023e
000001b0: 9cd7 a03d 26e4 7d3e 7e8b db3d 19cc d03d
000001c0: e622 a43c e711 33be ef40 a63d 024e 29be
000001d0: b6d0 2c3d 960e 913e 37d1 f6be 727c 1e3d
000001e0: e95f 12bd b545 9ebe 91be 62bd 8b29 5a3e
000001f0: 04d5 2c3e 1a14 c83e 265e 3a3e 6786 e93b
00000200: 1d63 d43c 9e8e 3ebe a5c1 a7bd 1eb6 28bd
00000210: f33e 833d b4ce b43c 4da5 b4be 7bce 32be
00000220: 8d40 c0bd 077d 23be d503 cc3e 8bcf ac3e
00000230: e5dc 143d 5f11 01be 0b92 e2bd 33f8 143e
00000240: fc7f 28bd 97f6 c13e 6cfc 0dbf 4869 063e
00000250: deec 003e 8259 3a3b a20c 50bd 3314 953f
00000260: 07e1 67bc 952d 9c3d 563e 133e 5ad2 11be
00000270: 0709 c3bd 2216 cebe 1ec1 6dbe 133d 24be
00000280: 08d2 f03d dd1b acbd 1b2f 543f af09 233f
00000290: b58b df3d 2456 e2be 197c 83bc e861 68be
000002a0: b0e6 d1bd f1f0 4e3e 26ad 483d 485f b83e
000002b0: 2905 88bd 4ff5 af3d 3fdb 5bbf a36d 00be
000002c0: e629 233e 68e7 29be be0f 823e fc44 173e
000002d0: d935 0bbf 2bf6 c9be c551 393e ecff 43be
000002e0: d8b4 a7bd 65e8 de3e 616f b63d ee77 2b3d
000002f0: 8463 5ebc edab 30bd b851 173e 1b33 033d
00000300: 1eb0 bc3d f888 b7be 744d 033f 9667 d93c
00000310: 65a7 733c 4990 4e3d 84fc c23e 257a c03e
00000320: 7637 3cbc 6b6e bebd 4ec9 a3bf c50b 14bf
00000330: c974 e0be 5da8 36be ef70 9cbe b643 3b3f
00000340: 54f9 153f e9c8 0a3f f94a cabe c195 98bd
00000350: 47f9 743f e8d0 8c3f 59f7 883e 1fc9 8b3e
00000360: 85d5 cc3d 7878 773d a6bd ecbd 0ac8 d63c
00000370: 8422 f6bd a09b 193f a58c d0bc ea91 77be
00000380: d1ac 173d cc73 77bd 4777 723d 6ce7 883f
00000390: a115 21bd a258 0c3d 3a14 ce3e 258b c8be
000003a0: 7bd8 93bd 5c9f 50be bbba e93d 60e9 a9be
000003b0: 9418 4ebd accc 6737 2804 3dbe 1859 0f3f
000003c0: 2bf0 88be dd74 1740 4dfb 7d3f 00ac 1bbc
000003d0: dc6c 15bf df8a 213f fff6 703f 7627 283f
000003e0: 6868 ff3d 19a2 1f3d 1a46 213e ab20 4bbd
000003f0: f6ef 463e 1d25 0f3d 60b3 06be 13c5 74bc

bias f4 [256]
-0.29382998 -0.24151298 -0.74432725 -0.021765724 -0.42379025 -0.23767228 -0.2968355 -0.24970223
0.4545071 -0.0028749635 0.23687015 -0.36774766 0.11759026 -0.637889 -1.1398234 -0.67135495
-0.6266327 0.031501956 -0.33043972 -0.10934135 -0.52352154 -0.3316811 -0.021199724 0.42072845
0.18516974 0.05162958 -0.31915325 0.48952153 -0.23713396 -0.37673154 -0.24634308 0.3125117
-0.19161013 0.1330079 -0.37223595 -0.027953759 -0.3581284 -0.32781014 -0.055667672 -0.365175
0.39663836 -0.3718639 0.39392835 -0.29714108 0.27438623 0.12875395 -0.26970452 -0.49881548
-0.0054574665 -0.9735767 -0.6550035 -0.3029891 -0.90109426 -0.29009947 -0.39043412 0.28082258
0.04760313 -0.31301937 -0.328963 -0.5271109 -0.48706377 0.21787639 -0.678114 -0.43188047
-0.098232836 -0.020103851 -0.4952451 -0.5502853 -0.68510693 -0.35852823 -0.9404609 -0.3845409
-0.16255715 -0.23355272 0.28714263 -0.4993267 -0.26255676 0.18930542 0.47339857 0.07537742
0.27306253 -0.05038444 -0.38262254 0.4343846 -0.15475698 -0.5041716 -0.46613973 0.55304384
0.10276242 -0.013639824 -0.5984513 -0.11260501 -0.08667823 -0.3610818 -0.25776896 -0.5353419
-0.007157277 -0.5145875 -0.2162464 -0.39868495 0.058103707 -0.6953126 0.24850558 -0.7596021
-0.36772498 -0.099723145 -0.47659713 -0.12260986 -0.23690617 -0.30540532 0.08447994 -0.17978242
-0.67617047 -0.1591246 0.7080794 -0.71656096 0.07166795 -0.31595257 -0.31564224 0.37275976
0.29401675 -0.37711388 -0.7895569 -0.3092521 0.19367592 -0.008107351 -0.26872206 -0.46910772
0.30368906 -0.40218782 -1.4619209 -0.6219909 0.60857254 -0.20551354 -0.18356451 -0.25710344
0.1729543 -0.0048394436 -0.33957303 0.46618447 -0.35159898 -0.24075648 0.20339029 -0.2878284
-0.19460155 -0.21045001 -0.54077166 -0.124522015 -0.47348133 -0.14805837 -0.56307465 -0.79252917
-0.3849393 -0.2762499 -0.29862255 -0.59385544 -0.34846598 -0.8562347 -0.1560791 0.019999785
-0.6418795 0.39304507 -0.23619452 -0.08589208 0.054956205 -0.30018443 0.37648022 -0.038665496
-0.16459703 -0.48409203 -0.59387237 -0.36558113 -0.028977918 -0.15812883 0.0906496 -0.40307865
-0.13684995 0.2564274 -0.805841 -0.114844725 0.09438629 0.104164794 0.26358524 -1.0950059
-0.91869855 -0.098085776 -0.5635172 0.1565159 -0.01530779 -0.1686831 -0.15241641 0.10340974
-0.1524071 -0.20831648 -0.24981223 -0.17976056 0.09999874 0.33221424 -0.09087989 -0.9283179
0.14791699 -0.024605734 -0.47985226 -0.48035222 -1.0941099 -0.28844345 0.72978175 0.16010638
-0.4454214 0.08629835 -0.10380147 -0.35947868 -0.09719591 -0.28281182 -0.52309805 -0.34567133
-0.8108536 -0.067447394 1.1224296 -0.62741995 -0.41888496 0.076008916 -0.5407351 -0.9471109
0.0014249405 -0.42859876 0.3102656 -0.2563032 -0.18464771 -0.46549752 0.009303384 0.11219341
-0.30528665 -0.10261011 -0.266983 -0.29688552 -0.4742 -0.11518038 -0.5725957 -0.62070245
0.44759414 -0.4089145 -0.046955787 0.2159392 -0.88219357 0.31115207 -0.21049117 0.59116465
-0.023893863 0.39003095 -0.30541736 -0.5554634 -0.035322867 -0.6331091 -0.20666124 -0.65353996
00000000: e270 96be 2e4f 77be 3b8c 3ebf 084e b2bc
00000010: 09fb d8be 5d60 73be d3fa 97be f1b1 7fbe
00000020: 28b5 e83e e269 3cbb 178e 723e 6c49 bcbe
00000030: 2ad3 f03d b24c 23bf bce5 91bf ebdd 2bbf
00000040: 006b 20bf 3208 013d 652f a9be 5cee dfbd
00000050: 8205 06bf 1bd2 a9be 0bab adbc b869 d73e
00000060: 239d 3d3e 8a79 533d 0e68 a3be 91a2 fa3e
00000070: 3fd3 72be f5e2 c0be 5c41 7cbe 8901 a03e
00000080: 7235 44be 3933 083e b695 bebe 48ff e4bc
00000090: 9b5c b7be bbd6 a7be c903 64bd 38f8 babe
000000a0: 2f14 cb3e f264 bebe fab0 c93e e022 98be
000000b0: 5a7c 8c3e 13d8 033e b616 8abe be64 ffbe
000000c0: 8cd4 b2bb 533c 79bf 4fae 27bf 6321 9bbe
000000d0: 1dae 66bf eb87 94be fbe6 c7be fac7 8f3e
000000e0: 80fb 423d 1344 a0be d76d a8be bdf0 06bf
000000f0: 6c60 f9be fd1a 5f3e e198 2dbf 701f ddbe
00000100: 4c2e c9bd d5b0 a4bc c490 fdbe 7fdf 0cbf
00000110: 2b63 2fbf 0391 b7be 0cc2 70bf 8be2 c4be
00000120: 6275 26be 7228 6fbe 5c04 933e c0a7 ffbe
00000130: d76d 86be 48d9 413e 4c61 f23e 7a5f 9a3d
00000140: dace 8b3e ea5f 4ebd 1ae7 c3be a967 de3e
00000150: 9d78 1ebe 6411 01bf dea9 eebe 4894 0d3f
00000160: 1b75 d23d 9279 5fbc 1b34 19bf 759d e6bd
00000170: 5b84 b1bd b7df b8be 4bfa 83be 2b0c 09bf
00000180: 9787 eabb 02bc 03bf b26f 5dbe 6f20 ccbe
00000190: 27fe 6d3d 0200 32bf 3f78 7e3e 4975 42bf
000001a0: 7346 bcbe a63b ccbd 8a04 f4be e11a fbbd
000001b0: 8897 72be 165e 9cbe d203 ad3d e218 38be
000001c0: 8219 2dbf 8ff1 22be b144 353f 8a70 37bf
000001d0: a5c6 923d 89c4 a1be dc9b a1be 5eda be3e
000001e0: 5d89 963e 1215 c1be 6720 4abf 4b56 9ebe
000001f0: fb52 463e b2d4 04bc f095 89be e32e f0be
00000200: 227d 9b3e 90eb cdbe 3920 bbbf cc3a 1fbf
00000210: 69cb 1b3f 2472 52be 56f8 3bbe 10a3 83be
00000220: ef1a 313e 3294 9ebb 84dc adbe bbaf ee3e
00000230: c804 b4be de88 76be 8b45 503e 3e5e 93be
00000240: a145 47be 3580 57be 0370 0abf 6605 ffbd
00000250: 256c f2be 9d9c 17be a925 10bf 31e3 4abf
00000260: c416 c5be a070 8dbe 0ee5 98be e906 18bf
00000270: 226a b2be 3332 5bbf 33d3 1fbe 97d6 a33c
00000280: 3752 24bf 343d c93e fadc 71be 30e8 afbd
00000290: c219 613d c6b1 99be 04c2 c03e b65f 1ebd
000002a0: 208c 28be e9da f7be 0508 18bf 732d bbbe
000002b0: 1963 edbc 86ec 21be 7fa6 b93d 5360 cebe
000002c0: 6522 0cbe 744a 833e 994b 4ebf b633 ebbd
000002d0: 994d c13d 5a54 d53d a5f4 863e 2729 8cbf
000002e0: d42f 6bbf 32e1 c8bd aa42 10bf b445 203e
000002f0: 86cd 7abc 43bb 2cbe 0c13 1cbe 7cc8 d33d
00000300: 9b10 1cbe ea50 55be c7ce 7fbe 2713 38be
00000310: 24cc cc3d fc17 aa3e 3c1f babd 3ea6 6dbf
00000320: 8d77 173e f791 c9bc 32af f5be baf0 f5be
00000330: cb0b 8cbf dcae 93be fad2 3a3f edf2 233e
00000340: 460e e4be 30bd b03d dd95 d4bd 970d b8be
00000350: a60e c7bd b6cc 90be c1e9 05bf d5fb b0be
00000360: 1a94 4fbf dc21 8abd c6ab 8f3f 989e 20bf
00000370: 1778 d6be 90aa 9b3d 9e6d 0abf dc75 72bf
00000380: 12c5 ba3a 4c71 dbbe 22db 9e3e 2c3a 83be
00000390: 4a14 3dbe b155 eebe 396d 183c a9c5 e53d
000003a0: 884e 9cbe 4025 d2bd ffb1 88be 6101 98be
000003b0: 58ca f2be b1e3 ebbd a295 12bf 5be6 1ebf
000003c0: 0f2b e53e 3e5d d1be b654 40bd 2a1f 5d3e
000003d0: 70d7 61bf 534f 9f3e ff8a 57be 9156 173f
000003e0: 10bd c3bc 23b2 c73e aa5f 9cbe d932 0ebf
000003f0: b6ae 10bd 7013 22bf 019f 53be 654e 27bf

weight f4 [256, 256]
-0.08447007 0.07693457 -0.12439615 -0.35050565 0.12284631 0.22067137 -0.26795503 -0.40660882
0.020136211 -0.18155017 0.056717176 0.55155677 0.021723194 -0.54428583 0.06725825 0.14018975
0.09592409 -0.21359712 -0.049383543 0.3652392 0.30849722 0.24313653 -0.049094357 0.23979367
0.06943146 0.046111617 -0.07339678 -0.017552294 0.05416049 0.13113897 0.1629146 0.12906916
-0.46285152 -0.12833175 0.09641805 0.13251515 -0.36218488 0.18603078 -0.26024726 -0.33487102
0.13029352 -0.29902694 0.17808345 0.10822251 -0.1662674 0.16166896 0.30817917 0.18491304
0.20356384 0.7065641 -0.052612785 -0.11742582 -0.13868202 0.07150908 0.20078726 -0.4906159
0.39769873 0.17787121 0.14504015 -0.42700234 0.085656695 -0.03859502 -0.35549834 0.153289
-0.08081665 0.096382424 0.10569742 0.025072316 -0.20016047 0.02431215 0.23014067 -0.5706536
0.2389647 0.39141017 -0.5666235 0.35226858 -0.12755604 0.18173176 0.080295034 -0.1341892
-0.07783976 0.11790833 0.37890568 -0.23818916 -0.25343347 0.19885673 -0.16869885 0.11776895
-0.33181566 -0.6585472 -0.013002998 0.18555446 0.21188562 0.35074696 -0.018166184 0.04975541
0.025479093 0.06825043 -0.11615196 0.29612693 0.21028963 -1.2626882 0.42600304 -0.15916754
0.024154376 0.11095387 -0.21928824 -0.20788725 0.060664937 -0.39199626 -0.20124504 0.13040313
-0.3731154 0.10413029 -0.045603592 0.202839 0.014201346 -0.17250824 -0.034444463 0.4163635
0.37426552 0.32981545 -0.35108632 0.24187896 0.243803 -0.16893974 0.056486946 0.18770908
-0.089327626 -0.12907466 -0.28069618 -0.22440612 0.007652143 1.1479036 0.47468606 0.32845256
0.26510513 0.04987447 -0.21698901 0.12549624 0.40227464 -0.091928616 0.26534724 -0.13378586
0.2808624 -0.111109726 0.51795053 -0.0057195774 0.043571755 -0.14454111 0.07845595 -0.50167006
0.08261076 0.1807825 -0.1941008 0.5629539 -0.3679998 -0.2029447 0.60324144 0.24983332
-0.12961505 -0.3067864 -0.020940466 -0.42389816 0.062056404 -0.431981 -0.13290054 0.047643423
0.25870234 -0.049028087 -0.18842947 0.1548598 0.14078902 0.03697734 0.026203586 -0.25119457
-0.017410938 0.25865018 0.14242609 -0.17628856 -0.07531752 -0.13306697 0.2403698 -0.17255847
-0.9908772 0.08813868 -0.006318075 -0.20262349 -0.06703881 -0.084055714 0.18214636 0.09343243
-0.4830643 0.17520496 0.6001507 -0.45150447 -0.65770984 0.20697689 0.48482227 -0.24170864
0.22768095 -0.053760763 0.07646715 0.018099993 0.034802876 0.20833293 0.21917768 -0.16672781
-0.85795546 -0.43623185 -0.16911389 -0.0097018005 -0.17086653 0.3132241 0.077468306 -0.025439586
0.035505842 -1.2782422 -0.66087 0.13499922 0.014316535 -0.3143458 -0.05988768 -0.09347365
0.21889457 -0.3235214 0.41215393 -0.24849541 0.4087217 0.07281147 -0.020341648 -0.0234086
0.1720358 -0.54044336 -0.26063022 0.48320228 0.06756148 -0.08132572 -0.12390388 -0.021248143
0.22859195 0.13487491 -0.32705718 0.18199296 -0.1615616 -0.022395339 -0.7491424 0.29834354
-0.16038615 0.19303334 -0.10837239 -0.20255792 -0.14729805 0.003507131 0.097361654 -0.27338904
00000000: a5fe acbd df8f 9d3d 69c3 febd 7a75 b3be
00000010: d996 fb3d adf7 613e 6731 89be 082f d0be
00000020: b2f4 a43c 4ae8 39be 4550 683d d332 0d3f
00000030: d7f4 b13c 5156 0bbf b2be 893d e78d 0f3e
00000040: d973 c43d 34b9 5abe 6646 4abd a200 bb3e
00000050: 59f3 9d3e c8f8 783e 2a17 49bd 798c 753e
00000060: 1532 8e3d 89df 3c3d 0d51 96bd d4c9 8fbc
00000070: 64d7 5d3d 4b49 063e 16d3 263e b52a 043e
00000080: e0fa ecbe 6669 03be d476 c53d 0db2 073e
00000090: 4c70 b9be da7e 3e3e 213f 85be 3774 abbe
000000a0: aa6b 053e 0f1a 99be 825b 363e c3a3 dd3d
000000b0: 0042 2abe 8c8c 253e a9c9 9d3e d859 3d3e
000000c0: 0a73 503e 63e1 343f 8180 57bd f37c f0bd
000000d0: a902 0ebe 5a73 923d 2d9b 4d3e 0232 fbbe
000000e0: 2b9f cb3e df23 363e 6885 143e 0da0 dabe
000000f0: c76c af3d d015 1ebd e103 b6be cbf7 1c3e
00000100: 3383 a5bd 2664 c53d e477 d83d 7564 cd3c
00000110: def6 4cbe 462a c73c ffa9 6b3e 5b16 12bf
00000120: 2ab3 743e ea66 c83e 3d0e 11bf 8c5c b43e
00000130: 0d9e 02be e417 3a3e b971 a43d e568 09be
00000140: 746a 9fbd ec79 f13d edff c13e dce7 73be
00000150: 08c2 81be 19a1 4b3e 64bf 2cbe d930 f13d
00000160: bee3 a9be 8d96 28bf 870a 55bc fd01 3e3e
00000170: 8bf8 583e 1b95 b33e 40d1 94bc 54cc 4b3d
00000180: 88b9 d03c e2c6 8b3d 14e1 edbd f39d 973e
00000190: 2a56 573e c49f a1bf 121d da3e d1fc 22be
000001a0: 66df c53c c83b e33d 198d 60be 65e0 54be
000001b0: cc7b 783d bcb3 c8be 2e13 4ebe 6688 053e
000001c0: fb08 bfbe 4342 d53d d5ca 3abd 07b5 4f3e
000001d0: c3ac 683c 00a6 30be a315 0dbd 992d d53e
000001e0: bb9f bf3e 92dd a83e 96c1 b3be 1eaf 773e
000001f0: 7ea7 793e 8afe 2cbe db5e 673d cf36 403e
00000200: 67f1 b6bd 262c 04be 69b7 8fbe b8ca 65be
00000210: d4be fa3b 81ee 923f 0d0a f33e ef2a a83e
00000220: dcbb 873e 2c49 4c3d 5e32 5ebe 1682 003e
00000230: f1f6 cd3e 1245 bcbd 98db 873e 29ff 08be
00000240: 32cd 8f3e 7f8d e3bd 6898 043f 4b6b bbbb
00000250: 4c78 323d 9602 14be 83ad a03d 736d 00bf
00000260: d52f a93d 0c1f 393e 5cc2 46be bf1d 103f
00000270: 786a bcbe bcd0 4fbe 086e 1a3f 4ed4 7f3e
00000280: cfb9 04be 1b13 9dbe 578b abbc 2e09 d9be
00000290: db2e 7e3d 9d2c ddbe 1417 08be c025 433d
000002a0: a274 843e add1 48bd a8f3 40be 9193 1e3e
000002b0: ff2a 103e 8d75 173d e7a8 d63c 939c 80be
000002c0: 62a1 8ebc cc6d 843e 25d8 113e fd84 34be
000002d0: 1240 9abd b542 08be 8023 763e 2bb3 30be
000002e0: 21aa 7dbf 0d82 b43d db07 cfbb 887c 4fbe
000002f0: a54b 89bd 6725 acbd 9384 3a3e 8059 bf3d
00000300: 3454 f7be ee68 333e 7aa3 193f 982b e7be
00000310: ac5f 28bf c0f1 533e a03a f83e 7882 77be
00000320: 3225 693e 3f34 5cbd cf9a 9c3d 7046 943c
00000330: 768d 0e3d 3a55 553e 1d70 603e b2ba 2abe
00000340: f8a2 5bbf c859 dfbe 312c 2dbe 4df4 1ebc
00000350: a3f7 2ebe e95e a03e b4a7 9e3d ae66 d0bc
00000360: 936e 113d 719d a3bf c72e 29bf 3c3d 0a3e
00000370: e68f 6a3c eff1 a0be c94c 75bd 1d6f bfbd
00000380: e625 603e 99a4 a5be d705 d33e 9575 7ebe
00000390: f843 d13e 2e1e 953d 87a3 a6bc 64c3 bfbc
000003a0: 272a 303e 7f5a 0abf 5371 85be 4a66 f73e
000003b0: ac5d 8a3d 198e a6bd 51c1 fdbd 9610 aebc
000003c0: 0214 6a3e a61c 0a3e 0a74 a7be 5d5c 3a3e
000003d0: 6770 25be 6e76 b7bc ccc7 3fbf 7cc0 983e
000003e0: 443c 24be 88aa 453e 58f2 ddbd 586b 4fbe
000003f0: 4dd5 16be e5d7 653b 8c65 c73d a6f9 8bbe

bias f4 [256]
0.14370714 0.5471738 1.1841905 -0.31368965 0.20438862 -0.0146761425 0.6232371 1.1925366
0.841163 0.63132626 0.10994543 0.91085947 1.262754 -0.6034838 -0.50461847 -0.49046794
1.0706875 -0.5810347 0.8272047 0.6571315 0.9805235 1.1530265 -0.015573595 -0.6771492
0.9223409 0.8089504 1.2206265 0.79827446 0.03879148 0.5548229 1.0260504 0.80800515
0.82738554 1.147491 0.73140156 0.7575297 -0.7374799 0.403378 1.0560554 -0.052718315
0.8447845 0.67709684 1.0680985 -0.33639947 0.5529551 1.0816206 0.44977868 1.0957224
-0.17796156 1.2134947 0.6791034 0.14496975 1.0445656 0.60221326 0.9589034 0.58873945
1.069846 0.76745427 0.4827126 1.1069231 0.10851445 -0.597504 0.8679847 0.99048674
1.0857857 -0.012904969 1.0109943 0.054162852 1.0623426 1.0689254 0.620009 0.9623337
-0.39797178 0.7497282 1.1002251 -0.40475723 -0.45040762 -0.44878665 1.1114072 0.17274688
0.6360236 0.12395477 -0.05804261 1.3230116 -0.5950661 -0.6494483 1.0856836 0.099897824
-0.4551269 0.6343636 -0.64298636 0.6444537 0.78062004 1.2477672 0.89996773 -0.57208604
-0.37052506 -0.5430265 1.0731097 -0.041165322 -0.24554689 -0.28780586 0.49316892 0.09538297
0.4849533 1.0314745 0.049374785 1.2713815 0.6180897 -0.584668 -0.43253717 0.6370174
-0.04966532 -0.0001135297 0.73959035 -0.04283171 0.6038254 -0.3336672 0.7180965 -0.12441298
1.2256888 -0.31824994 1.2532998 0.008205713 0.083288856 0.4018957 0.079272196 0.37720868
-0.4406424 1.056214 0.8418617 -0.29808247 -0.1947327 1.1020081 1.087303 1.1952344
0.7829632 0.87581676 -0.3607528 0.95706993 -0.37242728 1.1960975 -0.6366565 -0.43322942
-0.33016613 1.163752 1.0186992 1.0894945 -0.18246157 0.60305685 0.36700124 -0.06824321
1.0223471 1.222322 -0.61570334 1.0761936 0.013566228 0.71743524 0.27334744 0.63791466
1.226129 -0.050214443 0.5788538 0.08411089 0.8123829 0.42520908 -0.11692817 1.0716456
1.2830572 0.75157607 1.0279249 0.82812506 -0.5140811 -0.32261562 1.1251656 1.3448509
1.1670974 0.22846882 -0.040562123 -0.3049579 0.81560373 1.0922028 -0.40234056 0.61140424
1.078647 0.68197143 0.6624185 -0.22626306 1.0859503 0.8089125 -0.42034727 -0.18833137
1.1280535 0.10579833 -0.097213656 0.6586416 1.0957404 0.7949822 0.8059467 1.2936571
1.2368591 0.63646734 -0.43673614 -0.42862678 0.006808245 -0.11658167 -0.26027116 1.0063044
1.0336161 -0.44921926 -0.45826867 0.6108999 0.6638456 1.2022555 -0.5422942 0.66955113
-0.40733156 0.59914833 -0.6099558 0.23447867 0.94875175 1.2486331 0.7755105 0.672209
0.6220133 0.66357064 0.7016638 1.1256304 -0.30832636 1.0475887 0.7940764 1.1046784
0.7663458 0.6911337 1.0728474 -0.17744747 0.101906836 0.90929276 0.13730554 -0.43580428
0.7340454 -0.49651226 -0.3848597 -0.17727944 -0.072997175 -0.15701032 -0.8320939 1.062952
0.7922854 1.2153699 -0.08967987 0.2613956 1.0753977 0.3697321 -0.5494098 0.48537868
00000000: f727 133e 9513 0c3f 8e93 973f ee9b a0be
00000010: 404b 513e 3474 70bc 778c 1f3f 0aa5 983f
00000020: 7556 573f 999e 213f 122b e13d 162e 693f
00000030: eca1 a13f ea7d 1abf ad2e 01bf 9d1e fbbe
00000040: 4a0c 893f b1be 14bf b0c3 533f c539 283f
00000050: 9703 7b3f 5f96 933f 6428 7fbc a659 2dbf
00000060: 891e 6c3f 6017 4f3f 7d3d 9c3f b75b 4c3f
00000070: d1e3 1e3d e008 0e3f 9f55 833f 6dd9 4e3f
00000080: 8acf 533f fce0 923f 223d 3b3f 77ed 413f
00000090: 7ccb 3cbf 9087 ce3e d32c 873f 29ef 57bd
000000a0: cc43 583f 3856 2d3f 74b7 883f 8d3c acbe
000000b0: 778e 0d3f 8b72 8a3f 6449 e63e a240 8c3f
000000c0: 8e3b 36be cb53 9b3f b8d9 2d3f f372 143e
000000d0: 53b4 853f a62a 1a3f b17a 753f a1b7 163f
000000e0: b7f0 883f e277 443f 1b26 f73e a8af 8d3f
000000f0: d33c de3d 06f6 18bf 3f34 5e3f 8a90 7d3f
00000100: 07fb 8a3f 5d6f 53bc 4368 813f ded9 5d3d
00000110: d8fa 873f 8cd2 883f e9b8 1e3f 805b 763f
00000120: f5c2 cbbe 30ee 3f3f 2dd4 8c3f 573c cfbe
00000130: d49b e6be 5dc7 e5be 9742 8e3f 8fe4 303e
00000140: 71d2 223f 00dc fd3d 16be 6dbd 7258 a93f
00000150: 4056 18bf 3e42 26bf aef7 8a3f 3b97 cc3d
00000160: 6506 e9be a765 223f c19a 24bf ebfa 243f
00000170: b7d6 473f d6b6 9f3f 4964 663f 3b74 12bf
00000180: 76b5 bdbe c903 0bbf a95b 893f f89c 28bd
00000190: a570 7bbe 4a5b 93be a380 fc3e 2658 c33d
000001a0: cd4b f83e 5b07 843f 373d 4a3d a1bc a23f
000001b0: 203b 1e3f cdac 15bf 8375 ddbe 9313 233f
000001c0: dd6d 4bbd cb16 eeb8 cb55 3d3f 4e70 2fbd
000001d0: 4d94 1a3f 6dd6 aabe 2cd5 373f 3ccc febd
000001e0: 5fe3 9c3f a8f1 a2be 216c a03f 4171 063c
000001f0: 5993 aa3d 46c5 cd3e 7659 a23d 7f21 c13e
00000200: e19b e1be 0532 873f 4084 573f 449e 98be
00000210: 0268 47be 9a0e 8d3f bf2c 8b3f 71fd 983f
00000220: 4770 483f 8735 603f 97b4 b8be 8902 753f
00000230: caae bebe b919 993f ecfb 22bf 3fd0 ddbe
00000240: 890b a9be d3f5 943f bc64 823f 8e74 8b3f
00000250: 35d7 3abe ef61 1a3f 96e7 bb3e 19c3 8bbd
00000260: 45dc 823f 0c75 9c3f bc9e 1dbf b6c0 893f
00000270: e244 5e3c d6a9 373f 32f4 8b3e 604e 233f
00000280: ccf1 9c3f a9ad 4dbd c32f 143f 5542 ac3d
00000290: 53f8 4f3f 01b5 d93e 0978 efbd af2b 893f
000002a0: 383b a43f 4a67 403f 0b93 833f 0100 543f
000002b0: d29a 03bf e02d a5be 6d05 903f 1324 ac3f
000002c0: 7363 953f bbf3 693e 7824 26bd 7123 9cbe
000002d0: 68cb 503f 4dcd 8b3f 95ff cdbe fd84 1c3f
000002e0: 1b11 8a3f ae95 2e3f 4294 293f 81b1 67be
000002f0: 6b00 8b3f e414 4f3f c237 d7be f0d9 40be
00000300: 0f64 903f cbac d83d f417 c7bd bc9c 283f
00000310: 3941 8c3f f483 4b3f 8652 4e3f 8e96 a53f
00000320: 6651 9e3f 86ef 223f e19b dfbe f874 dbbe
00000330: b317 df3b 5fc2 eebd 4342 85be 95ce 803f
00000340: 884d 843f 1100 e6be 31a2 eabe f063 1c3f
00000350: c9f1 293f 82e3 993f cbd3 0abf b467 2b3f
00000360: c38d d0be c961 193f 1026 1cbf 2d1b 703e
00000370: 65e1 723f 36d3 9f3f db87 463f e415 2c3f
00000380: 433c 1f3f c4df 293f 3da0 333f a814 903f
00000390: f4dc 9dbe 6317 863f 9748 4b3f 1a66 8d3f
000003a0: 3d2f 443f 23ee 303f 1053 893f cab4 35be
000003b0: 88b4 d03d 69c7 683f d399 0c3e bd21 dfbe
000003c0: 66ea 3b3f db36 febe 550c c5be be88 35be
000003d0: 8b7f 95bd 50c7 20be 1b04 55bf d00e 883f
000003e0: 37d3 4a3f 3e91 9b3f 14aa b7bd a5d5 853e
000003f0: a2a6 893f 874d bd3e 1fa6 0cbf 8e83 f83e

weight f4 [1, 256]
-0.80660766 0.49885872 0.4864132 -0.57129985 4.075971 -0.8085374 0.35181844 0.3947522
0.4798217 0.681217 -1.1088433 -5.51075 0.6505739 -0.46761367 -0.80763096 -0.9931429
0.27729663 -0.88703954 0.20924373 0.25114673 0.1785038 0.60596275 -1.5202643 -0.5396376
0.29191756 0.26237828 0.4242287 0.17649004 -1.2723758 1.006611 0.46497992 0.14472999
0.19726415 0.24914919 0.12445764 0.6142922 -0.543931 -1.6068947 0.44361225 -0.8929813
0.34035346 0.1521646 0.81634086 -0.7507261 -1.6305375 0.679852 -2.161934 0.3599968
-0.688387 0.48327276 -2.5743258 2.5030687 0.70112634 0.55309665 -4.0607886 0.5989369
0.44249988 0.2458679 0.87114394 0.56761104 -2.4054935 -0.6810978 0.3196865 0.27682018
0.28163332 -1.9998542 0.29661536 -1.8988365 0.9220658 0.24746038 -0.95779896 0.28166857
-0.53373045 0.4146542 0.7883409 -1.2302907 -1.7918761 -0.5730279 0.25542855 -0.641689
0.76974183 -0.51507264 -1.1030718 0.5644964 -0.48502982 -0.34738082 0.21950422 -2.016883
-0.8884579 0.31195846 -0.3802259 0.5593432 -3.7105215 0.43945307 0.6023503 -0.5836191
-0.73455966 -0.91028666 0.48443848 -1.5550495 -0.8563496 -0.8087376 -0.78449106 -0.8434747
1.1734241 0.15033981 -1.6908046 0.62621915 0.41853708 -0.49859408 -0.7224412 0.9635373
-0.84599924 -2.1486225 -4.021876 -0.2686411 -3.1704764 -0.26219335 0.3985291 -1.2011478
0.48826915 4.9279704 0.47399753 -0.6977506 -0.692299 0.7055834 -1.7690866 -1.7676228
-1.0219917 0.6534564 0.7373099 -0.5512125 -0.4696303 0.53806853 0.6851354 0.4520944
0.092162296 0.44179633 -0.97707593 -5.5347223 -0.88529795 0.5266115 -0.352444 -0.81570154
-0.81195617 0.51136476 0.25872144 0.6879683 -0.67790407 -4.6579113 -3.2994163 -0.5216651
0.46424285 0.45298976 -0.6162841 0.2319523 -2.0650637 0.123850144 2.7893322 0.51109207
0.5328064 -1.4485211 0.26355717 -1.5697069 0.14027792 -3.4641101 -0.92398256 0.3831223
0.4221488 -4.509943 0.2930776 0.31640252 -1.1647427 -0.65407467 0.44519478 0.5428736
0.50951326 -2.5278547 -0.65797806 -0.6069869 0.18320873 0.3699019 -1.1557584 -1.8747466
0.59783864 1.1473217 0.25445402 -0.7067998 0.7118208 0.20195135 -1.0707047 -1.1786256
0.62958837 -2.170718 -0.44826305 0.36112 0.82091874 0.093488455 0.11931517 0.61154294
0.4519697 0.18728621 -0.8727961 -1.1835015 -1.1531552 -1.1360241 -0.6030556 0.19909506
0.23440279 -0.60838753 -0.5450471 0.7034085 -3.0369568 0.4220383 -0.6927367 -3.9815423
-1.4850568 -3.5179293 -1.6340723 1.5047084 -6.233763 0.31116933 0.31390208 0.55293655
0.61838174 0.67687976 -3.7513387 0.25790605 -0.8566753 0.10768838 0.45497704 0.26627752
0.24557321 0.83082294 0.7427692 -1.2844266 -1.6150938 0.07001807 -2.0716221 -1.1430032
0.4270357 -0.72804207 -1.4459325 -1.3409997 -0.9214221 -0.9486584 -0.48440403 0.65324765
0.4963394 0.40822655 -1.034932 -1.4489032 0.33486766 -1.6397966 -1.5189451 -2.2397344
00000000: d77d 4ebf 696a ff3e 270b f93e b540 12bf
00000010: 5b6e 8240 4ffc 4ebf 8c21 b43e f61c ca3e
00000020: 31ab f53e 3d64 2e3f 94ee 8dbf 1058 b0c0
00000030: 038c 263f 0f6b efbe e7c0 4ebf 9d3e 7ebf
00000040: d3f9 8d3e 0615 63bf fd43 563e 4e96 803e
00000050: b3c9 363e 6020 1b3f 0598 c2bf b125 0abf
00000060: 3876 953e 7256 863e 8134 d93e ceb9 343e
00000070: 36dd a2bf a1d8 803f d911 ee3e 1934 143e
00000080: 9dff 493e f720 7f3e a6e3 fe3d 4142 1d3f
00000090: 103f 0bbf baae cdbf 2521 e33e 6c9a 64bf
000000a0: cf42 ae3e 09d1 1b3e b7fb 503f 962f 40bf
000000b0: 74b5 d0bf c80a 2e3f 205d 0ac0 8051 b83e
000000c0: 213a 30bf 876f f73e c1c1 24c0 4732 2040
000000d0: 047d 333f be97 0d3f fbf1 81c0 ee53 193f
000000e0: 588f e23e cbc4 7b3e 4a03 5f3f f54e 113f
000000f0: 9bf3 19c0 6d5c 2ebf f3ad a33e 60bb 8d3e
00000100: 3e32 903e 39fb ffbf f8dd 973e 130d f3bf
00000110: 810c 6c3f 4166 7d3e 5032 75bf dd36 903e
00000120: 8fa2 08bf 8e4d d43e b6d0 493f 2a7a 9dbf
00000130: 325c e5bf f5b1 12bf 88c7 823e bb45 24bf
00000140: cd0d 453f cddb 03bf 7531 8dbf d682 103f
00000150: d455 f8be e6db b1be b7c5 603e 9c14 01c0
00000160: fa71 63bf 05b9 9f3e f8ac c2be 1e31 0f3f
00000170: 2f79 6dc0 feff e03e a133 1a3f 1068 15bf
00000180: 1a0c 3cbf 8c08 69bf 5208 f83e dd0b c7bf
00000190: ba39 5bbf 6d09 4fbf 68d4 48bf f5ed 57bf
000001a0: c332 963f aef2 193e 496c d8bf e64f 203f
000001b0: 7e4a d63e b947 ffbe e8f1 38bf 61aa 763f
000001c0: 6893 58bf 0883 09c0 35b3 80c0 548b 89be
000001d0: 16e9 4ac0 353e 86be 020c cc3e 36bf 99bf
000001e0: 6afe f93e efb1 9d40 ceaf f23e c99f 32bf
000001f0: 823a 31bf 1da1 343f 6e71 e2bf 7741 e2bf
00000200: a0d0 82bf eb48 273f 57c0 3c3f 431c 0dbf
00000210: 6273 f0be dcbe 093f 0965 2f3f eb78 e73e
00000220: 96bf bc3d 2133 e23e a621 7abf 721c b1c0
00000230: e3a2 62bf 03d0 063f 8a73 b4be d1d1 50bf
00000240: 5cdc 4fbf cde8 023f 2377 843e b11e 303f
00000250: 1f8b 2dbf 9c0d 95c0 a329 53c0 d88b 05bf
00000260: 3db1 ed3e 46ee e73e cbc4 1dbf e784 6d3e
00000270: 012a 04c0 25a5 fd3d 6b84 3240 eed6 023f
00000280: 0066 083f 2469 b9bf f7f0 863e 28ec c8bf
00000290: 04a5 0f3e fbb3 5dc0 1f8a 6cbf 9b28 c43e
000002a0: e323 d83e 7451 90c0 440e 963e 83ff a13e
000002b0: 4a16 95bf 7071 27bf 92f0 e33e c4f9 0a3f
000002c0: 766f 023f 5fc8 21c0 4071 28bf 7e63 1bbf
000002d0: 129b 3b3e c863 bd3e e4ef 93bf b2f7 efbf
000002e0: f40b 193f 70db 923f cc47 823e d5f0 34bf
000002f0: e339 363f 56cc 4e3e da0c 89bf 34dd 96bf
00000300: b42c 213f 0bed 0ac0 bc82 e5be b8e4 b83e
00000310: bb27 523f e076 bf3d 835b f43d 148e 1c3f
00000320: 9368 e73e f5c7 3f3e 916f 5fbf fa7c 97bf
00000330: 979a 93bf 3d69 91bf da61 1abf 93df 4b3e
00000340: 4907 703e 49bf 1bbf 3588 0bbf 9412 343f
00000350: 805d 42c0 6715 d83e 3157 31bf 97d1 7ec0
00000360: 5716 bebf c125 61c0 4829 d1bf 499a c03f
00000370: fd7a c7c0 9651 9f3e c6b7 a03e 408d 0d3f
00000380: 444e 1e3f fe47 2d3f ef15 70c0 430c 843e
00000390: 134f 5bbf ba8b dc3d c0f2 e83e 8755 883e
000003a0: 8b77 7b3e d0b0 543f 1f26 3e3f 1768 a4bf
000003b0: 65bb cebf a265 8f3d 7595 04c0 ee4d 92bf
000003c0: 6ca4 da3e f760 3abf 5114 b9bf e1a5 abbf
000003d0: 52e2 6bbf 47db 72bf ce03 f8be 3d3b 273f
000003e0: 3320 fe3e 1203 d13e a778 84bf a975 b9bf
000003f0: c673 ab3e dbe4 d1bf cb6c c2bf cf57 0fc0

obs_std f4 [28]
0.2 0.2 1.0 1.0 1.0 0.5 0.5 0.5
0.5 0.5 0.5 0.5 0.5 0.5 0.5 4.0
4.0 4.0 4.0 4.0 4.0 4.0 4.0 4.0
4.0 1.0 1.0 1.0
00000000: cdcc 4c3e cdcc 4c3e 0000 803f 0000 803f
00000010: 0000 803f 0000 003f 0000 003f 0000 003f
00000020: 0000 003f 0000 003f 0000 003f 0000 003f
00000030: 0000 003f 0000 003f 0000 003f 0000 8040
00000040: 0000 8040 0000 8040 0000 8040 0000 8040
00000050: 0000 8040 0000 8040 0000 8040 0000 8040
00000060: 0000 8040 0000 803f 0000 803f 0000 803f

obs_mean f4 [28]
0.0 0.0 0.0 0.0 0.0 0.0 0.0 -0.2
0.6 -0.4 0.0 0.0 -0.2 0.6 -0.4 0.0
0.0 0.0 0.0 0.0 0.0 0.0 0.0 0.0
0.0 0.5 0.5 0.5
00000000: 0000 0000 0000 0000 0000 0000 0000 0000
00000010: 0000 0000 0000 0000 0000 0000 cdcc 4cbe
00000020: 9a99 193f cdcc ccbe 0000 0000 0000 0000
00000030: cdcc 4cbe 9a99 193f cdcc ccbe 0000 0000
00000040: 0000 0000 0000 0000 0000 0000 0000 0000
00000050: 0000 0000 0000 0000 0000 0000 0000 0000
00000060: 0000 0000 0000 003f 0000 003f 0000 003f
