trained/h1_walk/critic_31899.pt (torch, 299198 bytes, 7 tensors)

weight f4 [256, 28]
000000 98 5d 1e be fe 4b 8d bd 96 88 73 3d 5a 20 9a be
       -0.1546539 -0.0689926 0.05945643 -0.30102807
000010 f6 b3 9a 3e 19 dc 53 be e6 47 5c 3b c4 f6 fa 3c
       0.30215424 -0.2068943 0.003361219 0.030635245
000020 70 16 93 3e c2 64 a3 be 25 1c d2 bd 53 34 02 3e
       0.28728056 -0.3191281 -0.102592744 0.12715273
000030 9d eb 2f 3e dc 66 24 be fc ec dd 3e cf 58 a8 3e
       0.17179723 -0.16054863 0.43344867 0.32880256
000040 fc 1d 21 3a ef 57 a0 3f 54 04 1f 3f 47 37 6f 3d
       0.00061461306 1.2526835 0.6211598 0.058402326
000050 4c 96 1b 3f 63 e0 01 bc 05 59 13 c0 93 ea a1 bf
       0.6077621 -0.007927033 -2.3023083 -1.2649711
000060 25 98 d6 bd 62 85 83 bd fe 96 af bd 07 fc c4 3e
       -0.10478238 -0.06421925 -0.08573721 0.38473532
000070 b1 5a 82 3c 74 e2 75 bc bc 59 6e be 00 67 0b 3f
       0.015912386 -0.015007604 -0.23276418 0.5445404
000080 33 03 91 3d 6c e0 a9 3e 87 a6 67 bd 71 0a 7c be
       0.07080688 0.33179033 -0.056555297 -0.24613358
000090 05 37 05 3e 91 91 7a be 04 2f b6 3c 22 30 12 3e
       0.1300927 -0.24469592 0.022239216 0.14276174
0000a0 ff 5f b3 bd cd 46 37 be 8e 3a 61 3e f4 8b 7e 3e
       -0.08758544 -0.17898102 0.21994993 0.24858075
0000b0 83 ef 86 3e 06 9e c5 3f f4 6f 55 3f f9 b6 a3 3d
       0.26354608 1.543885 0.8337395 0.07993884
0000c0 16 da be ba f4 91 46 be ae b6 67 bc 01 19 61 bd
       -0.0014560844 -0.19391614 -0.014142675 -0.054955486
0000d0 83 09 d9 bd db 82 7b 3e 0d b2 ad 3d 84 e9 12 3d
       -0.10597517 0.24561636 0.08481226 0.03586723
0000e0 5b ba c3 3f 53 bc 12 bf 91 48 41 3f 66 8b fb be
       1.5291246 -0.5731861 0.7550135 -0.4912979
0000f0 fe 0d 56 be 58 07 31 3e b7 73 4d 3e 61 ac 1a 3f
       -0.20903775 0.17287958 0.20063673 0.6041928
000100 3e 4b a7 ba 15 36 19 3f 54 db a5 be 32 6a 29 40
       -0.0012763513 0.5984815 -0.32393897 2.6471066
000110 ca a9 3b bd df a4 13 bc f6 d3 d9 3e 8d 9a ba bd
       -0.04581622 -0.009011476 0.42544526 -0.091115095
000120 ef f6 44 3e 33 fe 0a 3e 11 47 15 3e 0a d2 de 3d
       0.19234823 0.13573532 0.14577891 0.108799055
000130 c8 3a 10 bf a2 fb fc 3f ef 21 c9 bf 64 af 8a bf
       -0.56339693 1.9764292 -1.5713481 -1.0834775
000140 46 5f 4f 3e cf c8 16 be 9f 5e 8d 3e 8f 7c 91 3e
       0.20251188 -0.1472504 0.27611253 0.28415343
000150 1e 54 e7 3d 2f 21 21 be ac c2 31 be c5 a5 c6 3e
       0.11295341 -0.15735315 -0.17359418 0.38798347
000160 83 35 22 3d ef 6b 4e be 0f fc 08 3f 37 09 f9 be
       0.039601814 -0.20158361 0.5350961 -0.48639843
000170 08 0a 4d bf 39 a1 2b bf a6 a4 0e 3e 8e 14 7c 3e
       -0.8009343 -0.6704288 0.13929996 0.24617216
000180 ee 87 91 3d b7 8b 98 3e 93 08 a0 bd 0f fa 9f 3c
       0.07106005 0.29794094 -0.078141354 0.019528417
000190 9e ca b4 be fd 40 64 3e 38 70 03 3e 20 da f0 bd
       -0.35310835 0.22290416 0.12835777 -0.11760354
0001a0 92 18 8a 3b 8f 4f 87 bd c9 cd 09 3f 92 0a cf 3d
       0.004214355 -0.066069715 0.5382963 0.10109438
0001b0 aa e1 26 3e 7c d2 ca 3e 22 cd 57 3e fd 83 ac 3d
       0.16297022 0.39613712 0.21074346 0.08423612
0001c0 f0 ce c5 bc 0f 98 14 be 8b 04 02 3e 0e f7 9a be
       -0.024146527 -0.14511131 0.12697046 -0.30266613
0001d0 34 c5 bc 3d f2 7e b5 3e ce fb 15 bf 74 e3 d6 3c
       0.09217301 0.35448414 -0.5858735 0.026231505
0001e0 5d 29 1c bb bc fd ad be c1 7f 79 be 99 ec 6c 3e
       -0.0023828365 -0.33982646 -0.2436514 0.2313713
0001f0 31 6c 82 3e 3b b6 a5 3e 4b bb 09 3e 0e 3d c8 3d
       0.25473168 0.32365593 0.13450353 0.0977727
000200 f6 4e 49 bb 00 b0 2a be 0b 25 ae 3d b4 f9 6d be
       -0.003071723 -0.16668701 0.08503159 -0.23239785
000210 76 9d 3e 3e 18 47 b6 3b 4b c3 97 be d0 32 ce bd
       0.18614754 0.0055626743 -0.29641184 -0.100682855
000220 2a aa 2d 3c f8 30 fd bd 48 b3 01 3f d0 b1 68 3e
       0.010599652 -0.12362856 0.50664186 0.2272408
000230 cd 74 a8 3d e6 f7 d5 3b 40 9f f9 bd f8 87 1a 3e
       0.08225403 0.006529796 -0.12188578 0.1509093
000240 19 ec cd bd 72 c4 ce 3e 90 24 1a bf 46 c3 7e 3e
       -0.10054798 0.4038425 -0.6021204 0.24879178
000250 a1 da 8d 3d 24 04 8d b7 e7 ae 48 be b4 21 92 3f
       0.06926466 -1.6810438e-05 -0.1959797 1.1416535
000260 a2 95 33 be 6d 0f ab 3d 47 a0 1b 3e 4c 8f 1d be
       -0.17537549 0.083525516 0.1519786 -0.15386695
000270 2d 53 f1 bd 06 89 e3 be 95 2d 79 be b1 29 20 be
       -0.11783443 -0.44440478 -0.24333794 -0.15640904
000280 1c 18 46 3d 1b 4c ec ba 71 44 4e 3f 07 31 16 3f
       0.048362836 -0.0018028052 0.80573183 0.5866856
000290 ae 9d 06 3e e0 e0 c2 be df 69 ad 3c f0 0c 44 be
       0.13146088 -0.3806219 0.021168647 -0.1914556
0002a0 d9 ef 46 be 2c 55 a1 3d 38 24 e9 3c e3 26 90 3e
       -0.19427432 0.07877573 0.028459653 0.28154668
0002b0 b5 57 55 bd ae b4 96 bc f7 65 5a bf f7 10 68 bd
       -0.052085597 -0.018396702 -0.85311836 -0.056656804
0002c0 9f 92 6d 3e 6b 1b 9c be 23 f8 00 3f 36 da e6 bd
       0.23200463 -0.30489668 0.50378627 -0.11272089
0002d0 77 12 1f bf b1 e4 ae be 1c a3 4a 3e a7 b5 14 be
       -0.6213755 -0.34158853 0.19788784 -0.1452242
0002e0 75 33 00 bc b3 d4 ef 3e be 7d bc 3d 0b d9 55 bd
       -0.007824768 0.46841964 0.09203671 -0.05220894
0002f0 2e 14 1f bc 46 54 28 3d f3 2e 85 3d ca eb 6a 3d
       -0.009709401 0.041095994 0.065030955 0.057353772
000300 26 ff ea 3d c0 a4 d9 be 10 36 a1 3e 32 c8 f2 bd
       0.11474447 -0.42508507 0.3148656 -0.118545905
000310 1b 2e be 3d fb fa 7e 3d a8 52 bd 3e 09 75 97 3e
       0.09286138 0.062251072 0.36977124 0.29581478
000320 df c1 49 3d e3 4a 52 be e4 6e ac bf ba 44 21 bf
       0.049257156 -0.2053638 -1.3471341 -0.62995493
000330 fd 1c dc be 08 16 1a be dc 4d 3d be 09 5a 17 3f
       -0.42990866 -0.15047467 -0.18486732 0.5912176
000340 56 b8 14 3f d3 9e 06 3f 22 83 bb be a2 9d 5d 3c
       0.58093774 0.52586097 -0.36623484 0.013526352
000350 6b e5 65 3f 6d 97 82 3f cd aa 2c 3e b4 42 b3 3e
       0.8980319 1.0202461 0.1686203 0.35011828
000360 ad de 23 3d f1 f7 09 be 6a 8c 0e be 2d 26 9d bd
       0.040007282 -0.13473488 -0.13920751 -0.07673297
000370 4f 26 01 bd e1 12 fd 3e 00 e7 f8 3c a3 12 61 be
       -0.031530675 0.49428466 0.030383587 -0.21979766
000380 70 8c 31 3d 8a aa 21 bd 5e c8 36 3d 7d 78 85 3f
       0.043346822 -0.03946928 0.04462468 1.0427395
000390 7b 3b 92 bb 4e 80 5c 3a aa d7 80 3e 15 6b 9e be
       -0.004462657 0.0008411453 0.2516454 -0.30941072
0003a0 2e 9a 22 be 1b 23 05 be 89 33 e7 3d bf 27 94 be
       -0.15879127 -0.13001673 0.112891264 -0.28936574
0003b0 f8 d8 41 bc 78 39 c8 bc b1 5b a5 bd 6b 0a 10 3f
       -0.011831515 -0.024441466 -0.080741294 0.56265897
0003c0 f6 aa 52 be 2a 6f 12 40 6e 1e 7a 3f d8 bc 49 bb
       -0.20573029 2.288035 0.9770268 -0.0030782726
0003d0 09 34 0c bf 3d ee 1b 3f eb de 78 3f 71 03 26 3f
       -0.547669 0.609104 0.97215146 0.64849
0003e0 c3 51 61 3d 7a 04 82 3d d9 67 b0 3d 04 ac 46 3d
       0.055009615 0.0634851 0.08613557 0.04850389
0003f0 fc 08 73 3e 47 fe 29 3e 60 a6 6c be 24 75 67 bc
       0.23733896 0.16600905 -0.23110342 -0.01412705

bias f4 [256]
000000 fd 5d 7f be ba 94 37 be de 1f 2b bf 94 b9 58 3c
       -0.24938197 -0.17927828 -0.668455 0.013227839
000010 4a 23 c6 be c4 00 53 be 1b 70 3a be 2b 24 8d be
       -0.38698798 -0.20605761 -0.18206827 -0.27566656
000020 45 11 d2 3e 71 81 e0 3c 49 b6 7a 3e 36 2d b1 be
       0.410288 0.027405472 0.24483599 -0.34604806
000030 03 30 ea 3d 2a 8f 1c bf 72 43 90 bf 64 e1 27 bf
       0.11434939 -0.6115595 -1.1270583 -0.65578294
000040 8a 43 14 bf 42 de 24 3d 7f a7 af be a7 cb d3 bd
       -0.57915556 0.040251024 -0.34307477 -0.10341578
000050 d4 20 e4 be f3 11 ac be 34 70 48 bd 38 d3 e1 3e
       -0.44556296 -0.33607444 -0.04893513 0.4410646
000060 52 55 0c 3e 8b f9 c4 bc 26 ab b2 be a0 99 16 3d
       0.13704422 -0.024044773 -0.348962 0.036767602
000070 85 88 61 be d3 62 ce be db f0 93 be af 48 b2 3e
       -0.22024734 -0.40309772 -0.28894696 0.34821078
000080 a2 8c a6 bd 41 db 10 3d 1d a7 a9 be 38 ac 4f bd
       -0.08132292 0.035365347 -0.3313531 -0.05070135
000090 be fb a3 be ca c6 83 be 0e 78 3f bd 50 a6 96 be
       -0.32028002 -0.25737602 -0.046745352 -0.2942376
0000a0 39 c9 c1 3e 23 6c 94 be cb 6f b9 3e 4e 73 ad be
       0.37848833 -0.28988752 0.36218104 -0.33877033
0000b0 a4 49 87 3e 58 2f 33 3e 6a 01 84 be ad 77 01 bf
       0.2642337 0.17498529 -0.2578233 -0.50573236
0000c0 72 b6 6b 3c 61 99 70 bf 0d 1f 18 bf 7e a7 69 be
       0.01438676 -0.9398404 -0.5942238 -0.228178
0000d0 80 8c 43 bf d9 8b 2f bd d2 5f c3 be db 25 a7 3e
       -0.7638626 -0.04285798 -0.38159043 0.3264607
0000e0 f2 72 3c 3d fc d5 8a be df da 4e be c7 d4 14 bf
       0.046008058 -0.27116382 -0.2020068 -0.5813717
0000f0 fe ad bd be d3 ca 75 3e 4e d6 20 bf a6 a9 a5 be
       -0.37046808 0.24003153 -0.62827003 -0.32355994
000100 61 c8 a2 bd 48 64 df bc b4 53 05 bf 0a 5c 04 bf
       -0.079483755 -0.027269498 -0.52080846 -0.5170294
000110 7f 06 2e bf 58 6a b4 be 55 36 66 bf c3 60 b2 be
       -0.6797866 -0.35237384 -0.89926654 -0.34839448
000120 61 56 71 be 1b 98 aa bd f2 a7 a3 3e 27 3f e1 be
       -0.23568107 -0.08329793 0.3196407 -0.43993494
000130 d9 ee 41 be c0 25 82 3e ae 0b e8 3e cb d7 75 3d
       -0.1893877 0.25419426 0.4532141 0.06002025
000140 35 54 92 3e 90 60 07 3a 85 96 7b be dc 7a e7 3e
       0.2857987 0.000516423 -0.24569137 0.45210922
000150 50 eb 5a be eb f7 c6 be 7b 73 f9 be f9 c6 02 3f
       -0.21378827 -0.3886102 -0.48720917 0.5108486
000160 60 8d 54 3e 4f 4c 64 be 3d 65 03 bf c8 7d 93 bc
       0.20757055 -0.22294734 -0.5132635 -0.018004313
000170 0f 2c 8a bd a1 f6 9b be 8f a3 77 be de ea ef be
       -0.06746685 -0.304616 -0.24183486 -0.46858877
000180 7d 24 35 3d 89 ee e8 be c1 8b 08 be 06 99 a3 be
       0.04422425 -0.45494488 -0.13334562 -0.31952685
000190 fb 8c c7 3d f7 b6 14 bf 1b 27 63 3e 34 d5 30 bf
       0.09743687 -0.5809168 0.22182886 -0.6907532
0001a0 bc c8 b1 be e1 61 2e be 8d 1f ea be b7 45 b1 bd
       -0.3472346 -0.17029525 -0.45727196 -0.08655875
0001b0 ae d6 a2 be 32 2d 93 be 25 ad 59 3d 78 2e b1 bd
       -0.31804413 -0.2874542 0.05314364 -0.08651441
0001c0 a9 68 16 bf 43 b1 1f be 77 d3 2d 3f 3b 91 34 bf
       -0.5875345 -0.15594964 0.67900795 -0.70534104
0001d0 24 52 04 3e f9 cc 87 be af ee 8d be e2 67 d2 3e
       0.12921959 -0.2652357 -0.27721164 0.4109488
0001e0 17 ed 87 3e 31 0e b4 be 4d 1f 4c bf 33 e7 96 be
       0.26548073 -0.35167077 -0.7973526 -0.29473266
0001f0 3c ad 37 3e 59 78 72 3c e6 69 96 be b9 f1 d0 be
       0.17937177 0.014799201 -0.2937767 -0.4080942
000200 e0 c5 9c 3e 8e ed df be 05 65 a5 bf 97 f6 12 bf
       0.30619717 -0.43735927 -1.2921454 -0.57407516
000210 4a ac 14 3f f8 97 1b be 3a af 10 be 5d 6f 3c be
       0.5807539 -0.1519469 -0.14129344 -0.18401857
000220 74 50 31 3e 48 98 b1 3d 32 c3 92 be 5f d0 e0 3e
       0.17315847 0.086716235 -0.28664547 0.43908975
000230 b9 d0 b2 be 32 75 49 be 74 0d 73 3e 6a 58 a2 be
       -0.34924868 -0.19673613 0.237356 -0.3170808
000240 ab 4b ff bd b3 7d 3e be 9f 0e 0d bf 61 38 0d be
       -0.124656044 -0.18602638 -0.55100435 -0.13791038
000250 50 14 e6 be 10 76 21 be 7c 45 14 bf 7b 9f 4b bf
       -0.44937372 -0.15767694 -0.57918525 -0.7954022
000260 13 c3 c8 be ba 95 1b be c0 ad 87 be 7e c7 09 bf
       -0.3921133 -0.15193835 -0.26499748 -0.53820026
000270 8d c9 56 be 43 06 47 bf 96 b3 e9 bd 17 ff 9e bb
       -0.20975323 -0.7774393 -0.114112064 -0.0048521864
000280 30 31 15 bf 47 e8 a8 3e c2 32 83 be 12 9f e4 bd
       -0.5827818 0.32989714 -0.25624663 -0.11163153
000290 52 66 b4 3d 26 2d 7f be ea 87 d6 3e 7c e9 73 3c
       0.088085786 -0.24919567 0.4190057 0.01488721
0002a0 fa 54 1c be a2 06 cf be f6 9f 12 bf e5 04 c4 be
       -0.15266791 -0.40434748 -0.5727533 -0.38284984
0002b0 4f 90 9b 3b c3 99 e6 bd 9d 87 af 3d 86 37 ce be
       0.0047474275 -0.112597965 0.08570788 -0.40276736
0002c0 fe e7 6d bd 16 8a 75 3e c5 65 3e bf 45 19 d3 bd
       -0.058082573 0.23978457 -0.7437404 -0.10307554
0002d0 a6 c0 ca 3d 2d 66 d2 3d b7 ed 8a 3e 49 0e 80 bf
       0.09900026 0.10273395 0.27134487 -1.000436
0002e0 e7 a3 64 bf 64 69 ab bd ac 66 ec be e7 3e 18 3e
       -0.89312595 -0.08369711 -0.46172082 0.14867745
0002f0 9a 5f b9 3d 49 4a 11 be 1f 4f 30 be 0b c2 8b 3d
       0.09051438 -0.14188494 -0.17217682 0.0682412
000300 5f 08 f2 bd 22 a5 45 be f2 f9 54 be 0c a5 25 be
       -0.11818003 -0.19301274 -0.20798472 -0.16176242
000310 eb 0c 68 3d 92 f5 a3 3e 8b 9c c9 bd 8b 59 4f bf
       0.056652945 0.32023293 -0.09844311 -0.80996007
000320 8c b9 79 3d 8d 43 af bd 74 f4 cf be 6a a3 ed be
       0.060967967 -0.08557806 -0.4061619 -0.46413738
000330 4f 48 6e bf fe ba 69 be bd a8 23 3f 10 aa 73 3e
       -0.93079084 -0.22825238 0.6392935 0.23795342
000340 60 bd c5 be 62 4f 91 3d f3 99 06 be 87 c1 a2 be
       -0.38621044 0.07095219 -0.13144664 -0.31788275
000350 0e 0f 3c bd 12 07 71 be ad a3 e0 be 5f f3 8f be
       -0.045912795 -0.23537853 -0.43874875 -0.28115365
000360 5c 36 41 bf 13 c3 80 bd 00 b7 8d 3f 53 29 29 bf
       -0.7547357 -0.062872075 1.1071472 -0.6607868
000370 18 2b c3 be 71 22 97 3d b5 e6 01 bf d2 6c 4d bf
       -0.38118815 0.07379616 -0.50742656 -0.8024417
000380 20 c0 b0 3d 55 3c ca be 83 de 9e 3e 74 6a 82 be
       0.08630395 -0.39499155 0.31029138 -0.25471842
000390 25 07 f6 bd da d5 fc be fb 60 ca 3c 83 ec 06 3e
       -0.120130815 -0.49381906 0.024704447 0.1317616
0003a0 88 2b 7e be 2f 01 13 be 9a 1d c0 be 70 3c 59 be
       -0.24821293 -0.1435592 -0.37522584 -0.21214461
0003b0 64 c4 08 bf e2 a4 3f be 42 30 1b bf a8 32 0c bf
       -0.5342467 -0.18715242 -0.6062051 -0.54764795
0003c0 c9 a8 14 3f 55 11 df be 9d 30 47 bd d2 12 5c 3e
       0.58070046 -0.4356791 -0.048630346 0.21491554
0003d0 9c a4 4c bf ec 4c 92 3e 2f 0a 1b be a1 a4 2a 3f
       -0.79938674 0.28574312 -0.15140603 0.66657454
0003e0 eb 26 73 3c 82 ae ac 3e 8c d3 91 be 5f 17 08 bf
       0.014840822 0.3372689 -0.2848171 -0.5316066
0003f0 42 60 f1 bd 7c 24 10 bf 32 fc 4f be 3f cf 01 bf
       -0.11785938 -0.5630567 -0.20311049 -0.5070686

weight f4 [256, 256]
000000 63 23 ce bd 6f c9 00 3e 5f c2 92 be 5c ae 8f be
       -0.10065343 0.12576841 -0.28663918 -0.28062713
000010 c2 58 27 3b 3e 47 64 3e 1f 5a ae be 56 a7 b9 be
       0.0025535082 0.22292802 -0.34053132 -0.3626048
000020 21 c3 9e bc 6f fc 59 be c1 e9 e7 bc 04 7e 06 3f
       -0.019380154 -0.21287702 -0.028309705 0.52536035
000030 2a 6b 89 3d 9f bc 04 bf d9 1b a1 3d e0 9a 23 3e
       0.06709893 -0.5185031 0.0786664 0.15977049
000040 c0 d5 59 3e 99 f5 0a be cf 77 d5 3c f3 cb 9b 3e
       0.21272945 -0.1357025 0.026058106 0.30429038
000050 20 ad 95 3e 0c 60 5c 3e 0d d7 c1 3a de cd 4b 3e
       0.29233646 0.21521014 0.0014788822 0.19902751
000060 b9 4d bf 3d 8f a5 7b bd 14 5e 72 bb 0f 21 c7 bd
       0.09340996 -0.061437186 -0.0036982344 -0.09723102
000070 af bd d2 3c f2 b9 5b 3d a5 d0 52 3e a6 7f b1 3c
       0.025725214 0.05364413 0.20587404 0.021667313
000080 89 35 bb be f7 d2 32 be 66 b3 0b 3e a7 c1 8e 3d
       -0.36564282 -0.17463289 0.13642654 0.0697053
000090 a5 ad a7 be 72 cd 08 3e 27 25 3a be f4 90 d8 be
       -0.32749668 0.13359621 -0.18178235 -0.4229809
0000a0 0d e8 29 3e 9b 33 a7 be f9 ee e2 3d ab bc 86 3d
       0.16592427 -0.3265656 0.11080737 0.06578954
0000b0 7e 4c 79 be 1e 5c 85 3d f4 95 9c 3e df c4 47 3d
       -0.24345586 0.065117106 0.30583155 0.048771735
0000c0 9e c9 71 3e f9 00 28 3f 61 70 a8 bd 39 a1 b1 bd
       0.23612067 0.65626484 -0.082245596 -0.08673329
0000d0 e9 54 24 be fa fe 77 bd fb f0 c6 3d 7e ad 09 bf
       -0.16048016 -0.0605459 0.09713932 -0.53780353
0000e0 33 54 ab 3e 37 16 78 3e b5 fd 54 3d b7 e0 c4 be
       0.33462676 0.24227224 0.051999766 -0.38452694
0000f0 6c c0 83 3d f1 18 63 bd f9 62 d9 be d2 c8 1c 3e
       0.06433186 -0.055443708 -0.42458323 0.15310982
000100 89 18 74 be 7c 62 a0 3d 08 f9 13 3e a9 5a 0e bd
       -0.23837484 0.078312844 0.14450467 -0.03475443
000110 66 02 46 be 92 91 70 3d ab 7b c5 3d 07 4b f1 be
       -0.19336852 0.058732577 0.096427284 -0.47127554
000120 e1 a4 3f 3e db 34 e5 3e 47 ef f2 be 4d 83 7c 3e
       0.1871524 0.44766888 -0.4744818 0.24659462
000130 e7 ba f2 bc 62 85 61 3e 2b 42 db 3c d1 19 9e bd
       -0.029630138 0.22023538 0.02676495 -0.07719768
000140 60 37 d9 bd 02 9c 96 3d c5 c5 79 3e 53 b8 40 be
       -0.10606265 0.07353975 0.2439185 -0.18820314
000150 93 e3 74 be 28 81 96 3e 8d cd 76 be 35 5e b9 3d
       -0.23914938 0.29395413 -0.24101849 0.09051172
000160 9a 98 ae be b1 b7 3c bf 38 51 64 3d eb e2 40 3e
       -0.341008 -0.7371779 0.05574152 0.18836562
000170 63 a4 9e 3d c2 7e d2 3e 19 44 22 3d a6 8e 99 3d
       0.07746198 0.41112334 0.039615724 0.07497911
000180 89 29 80 3d b3 3f 04 3d 79 d9 2b be f1 be 86 3e
       0.06257922 0.03228731 -0.16782178 0.26317552
000190 af 19 07 3e 2b b4 95 bf 90 be d1 3e 3e 63 dd bd
       0.13193391 -1.1695608 0.409657 -0.108099446
0001a0 f4 f0 19 3d 1f 2a 6e 3d a2 5d 09 be 01 5f 6d be
       0.037583306 0.05814564 -0.13414624 -0.23180772
0001b0 25 7e 58 3d bf 1d d6 be fc d2 4f be 28 93 86 3c
       0.052854676 -0.4181957 -0.20295328 0.016427591
0001c0 42 9e 97 be c0 f9 cb 3d da 5b 97 bd 16 b7 39 3e
       -0.2961293 0.099597454 -0.07390566 0.18136248
0001d0 e3 27 71 3c 16 63 4f be db fd 97 bc 36 70 db 3e
       0.014718982 -0.20252642 -0.018553665 0.42859048
0001e0 fe b5 9e 3e cd ef aa 3e 21 50 a0 be 61 67 68 3e
       0.30998224 0.33386078 -0.31311134 0.22695686
0001f0 0f f2 98 3e c3 c3 2b be 59 4d 19 3d 94 e7 11 3e
       0.29872176 -0.16773896 0.03742728 0.14248496
000200 b8 89 3d bd 2d 6e ce bd 0c 0d 7b be f6 d4 89 be
       -0.046273917 -0.10079608 -0.24516696 -0.2692029
000210 19 9c 31 bd 21 84 8a 3f a8 96 d9 3e 9a b8 75 3e
       -0.043361757 1.0821573 0.42497754 0.23996201
000220 d3 65 84 3e a3 6b 09 3b 50 ec 73 be e3 55 cb 3d
       0.25858936 0.0020968697 -0.23820615 0.09928491
000230 21 cb b2 3e 0d ae 6e be 87 1f 98 3e 68 dc 87 be
       0.349206 -0.23308583 0.29711553 -0.26535344
000240 e6 14 89 3e c6 64 9c be af 93 f9 3e b4 78 af bc
       0.26773757 -0.30545634 0.48745486 -0.02141986
000250 ec 1b fd 3a e9 07 38 be 46 df 6a 3d 11 6d d7 be
       0.001931069 -0.17971767 0.057341836 -0.420754
000260 65 a0 b2 3d 5a 99 5d 3e 5f 70 a0 be c0 0a e9 3e
       0.08721999 0.2164053 -0.31335732 0.45516014
000270 86 e9 e4 be 91 69 13 be 18 af 14 3f 5c 43 54 3e
       -0.44709414 -0.14395739 0.5807967 0.2072882
000280 d3 c5 c7 bc 11 a6 89 be c2 90 53 bd d4 06 c3 be
       -0.024386322 -0.2688451 -0.051651724 -0.38091147
000290 3d 7b 2d bb c7 79 df be 33 14 01 be da 1e a0 3c
       -0.002647116 -0.43647596 -0.12605362 0.019545961
0002a0 d4 55 8e 3e 6d 51 ab bd 04 28 2b be 74 74 2a 3e
       0.27799857 -0.0836514 -0.16714483 0.16645986
0002b0 88 dd 05 3e 2a 52 1b 3d 38 b2 14 3d f9 c8 0b be
       0.13072789 0.037920155 0.036302775 -0.13650884
0002c0 67 a9 22 bd aa 5c 70 3e 7e c5 0e 3e 41 3e 17 be
       -0.039712336 0.23472849 0.13942525 -0.14769842
0002d0 de 57 bd bd 83 3c 48 be 62 d2 6f 3e 3b ac 03 be
       -0.09245275 -0.19554333 0.23420098 -0.1285867
0002e0 06 f9 8b bf e6 df e2 3d 0d ad 30 bc c1 fb 87 be
       -1.0935371 0.110778615 -0.010783446 -0.2655926
0002f0 2c 76 bc bd e8 b8 83 bd 9d ff 93 3d d6 39 97 3d
       -0.09202227 -0.064317524 0.07226489 0.07384078
000300 67 0c da be 36 21 8b 3e 09 22 04 3f d2 e5 ad be
       -0.42587587 0.27173775 0.51614434 -0.339644
000310 fd f4 ee be 6a 31 55 3e 87 49 11 3f 94 dd a2 be
       -0.46671286 0.20819631 0.5675282 -0.31809676
000320 9a 36 20 3e 5c a2 8c 3d 16 f5 20 3e e9 7b cc 3c
       0.15645829 0.06866905 0.15718493 0.024961429
000330 c6 72 23 3e 45 f9 76 3e 5c d6 fc 3d c9 23 02 be
       0.15961751 0.24118526 0.12345573 -0.12708963
000340 a2 4c 49 bf c5 bd d0 be 72 9d 06 be 4b c8 01 3c
       -0.7863256 -0.40769783 -0.13145998 0.007921289
000350 87 0f f1 bd 0e a2 d3 3e 78 ba 05 3e 3f 5c d7 bb
       -0.1177054 0.41334575 0.13059413 -0.006572276
000360 7a 2a 9a bd 93 93 9d bf 8c fc 86 be 0d aa e7 3d
       -0.07527633 -1.2310661 -0.26364553 0.113117315
000370 05 9a 04 3b 5e 8f 79 be 11 08 11 be d1 9d 00 bd
       0.0020233404 -0.24371096 -0.14163233 -0.031400505
000380 20 1d 29 3e 42 24 f2 be 7f a3 c6 3e a2 71 bf be
       0.16515017 -0.47293288 0.38796613 -0.37391382
000390 d6 bd 01 3f 55 9a 39 bc 6e 73 72 bc 2c a6 ba bd
       0.5068029 -0.0113282995 -0.014798028 -0.09113726
0003a0 4e 20 b9 3d 00 7f 27 bf 41 74 32 be f4 25 db 3e
       0.09039365 -0.6542816 -0.1742716 0.42802393
0003b0 10 06 a8 3c 3e 45 1e bd 28 3a d1 bd 87 18 ff bd
       0.020510703 -0.038640253 -0.102161705 -0.1245585
0003c0 e6 13 66 3e 26 01 1c 3e e3 ba a8 be 02 d5 04 3e
       0.22468528 0.15234813 -0.32955083 0.12971881
0003d0 09 f3 df bc 64 9f e6 bd 12 fd 34 bf 56 97 80 3e
       -0.027337568 -0.1126087 -0.70698655 0.2511546
0003e0 7a b4 0b be 6e 88 32 3e 1c ea 57 be 94 0d 82 be
       -0.13643065 0.17434856 -0.210854 -0.25400984
0003f0 4e 90 03 be f1 08 f3 bc e0 9c c1 bc c6 60 a2 be
       -0.12848017 -0.02966735 -0.023634374 -0.31714457

bias f4 [256]
000000 d1 9e be 3d e1 84 00 3f 67 c8 95 3f 6d d6 84 be
       0.093076356 0.5020276 1.1701783 -0.25944844
000010 80 67 a2 3d 7a 83 b7 bd 24 92 17 3f 4d 88 99 3f
       0.07929897 -0.08960624 0.5920737 1.1994721
000020 f3 74 4d 3f e0 99 18 3f 25 e6 87 3d 00 81 53 3f
       0.80256575 0.59609795 0.066356935 0.82618713
000030 f4 68 9d 3f d5 c5 13 bf c3 7d ec be ce 48 d9 be
       1.2297654 -0.5772374 -0.461897 -0.42438358
000040 af ce 87 3f 96 32 07 bf 56 4f 5b 3f bf 55 2d 3f
       1.060995 -0.52811563 0.8566793 0.67708963
000050 67 ea 7f 3f 14 17 90 3f 80 83 52 bd e5 36 16 bf
       0.99967045 1.1257043 -0.05139494 -0.5867751
000060 be ef 5e 3f f0 6b 4e 3f 62 7a 95 3f 8e d2 41 3f
       0.8708457 0.8063345 1.1677973 0.75711906
000070 17 37 21 3c 2e 2a 07 3f fb 7c 81 3f 07 5f 44 3f
       0.009839795 0.52798736 1.0116266 0.767075
000080 66 9c 4a 3f 2d 7f 90 3f 93 3d 38 3f d9 15 38 3f
       0.79144895 1.1288811 0.71968955 0.71908337
000090 d3 b2 33 bf 54 4e af 3e 7c 54 85 3f a4 80 0d be
       -0.7019474 0.34239447 1.0416408 -0.13818604
0000a0 fb d2 54 3f cb 2b 2c 3f 34 6a 83 3f 57 c8 8a be
       0.8313443 0.6725432 1.0266786 -0.27105972
0000b0 fb c3 f6 3e 77 42 85 3f 0b bc 85 3e 6a 19 87 3f
       0.48196396 1.0410908 0.26120028 1.0554631
0000c0 37 4d 01 be 17 a6 98 3f 15 c8 0e 3f 4b 6b e7 3d
       -0.12627111 1.1925687 0.5577405 0.112997614
0000d0 11 2f 87 3f bf 1d 16 3f fe 9b 87 3f 0d ca 0f 3f
       1.0561239 0.5863914 1.059448 0.5616768
0000e0 c1 86 84 3f ca 2a 3f 3f 0c 1d e1 3e 5c 9b 8a 3f
       1.0353624 0.74674666 0.43967474 1.0828662
0000f0 99 fe 95 bd 3c 69 14 bf 14 9e 63 3f df 6f 6f 3f
       -0.07323951 -0.57973075 0.88913083 0.93530077
000100 4d 0b 8a 3f 0d c7 05 bc 86 45 80 3f ca eb 79 3b
       1.0784699 -0.008165133 1.0021217 0.0038134926
000110 af 09 84 3f fd ec 86 3f 24 4b 1a 3f 30 47 70 3f
       1.0315455 1.0541073 0.60270905 0.93858624
000120 b2 5a c1 be dd 7f 2c 3f c2 95 8b 3f 6f c9 ec be
       -0.37764508 0.67382604 1.0905077 -0.46247432
000130 6b e9 da be f0 c3 d9 be 88 48 8c 3f ad 43 4e 3d
       -0.4275621 -0.425323 1.0959635 0.05035751
000140 80 6c 1a 3f e6 4c b7 3c 39 2b 1d bd ab 65 a6 3f
       0.6032181 0.022375535 -0.0383713 1.2999777
000150 8c b0 15 bf 19 14 1e bf 92 00 88 3f 3e 30 0b 3e
       -0.58472514 -0.61749417 1.0625174 0.13592622
000160 03 ea db be c6 8f 15 3f 81 30 18 bf 5a ce 30 3f
       -0.42951974 0.58422506 -0.5944901 0.6906487
000170 33 bf 30 3f a1 1c 9a 3f 43 5e 59 3f 38 5a 17 bf
       0.69041747 1.2039987 0.84909457 -0.5912204
000180 77 4e cb be 1d a4 06 bf bf da 85 3f 3d d9 c7 bd
       -0.397083 -0.52594167 1.0457381 -0.09758232
000190 68 85 43 be 2d 75 89 be 69 50 0a 3f 75 4f 10 3e
       -0.19093859 -0.2684721 0.54028946 0.1409281
0001a0 81 b4 cb 3e f2 ef 81 3f a7 5f 08 3c b9 b0 9b 3f
       0.3978615 1.015135 0.008323587 1.2163306
0001b0 32 69 0d 3f 8f 33 0a bf f4 67 b5 be 69 64 1d 3f
       0.5523864 -0.5398492 -0.35430872 0.6148134
0001c0 67 e1 bc bb 3c c7 b5 3d fb e7 46 3f 50 2c 1d bd
       -0.0057641747 0.088758916 0.77697724 -0.038372338
0001d0 64 66 f4 3e a5 68 ae be 83 89 34 3f 10 23 48 be
       0.47734368 -0.34064212 0.70522326 -0.19544625
0001e0 94 d8 99 3f 73 43 ee be 13 db 9c 3f d6 d9 6f 3d
       1.2019219 -0.46535835 1.2254356 0.058557354
0001f0 12 1b 02 3c a6 0c be 3e a4 70 90 3d 3c 08 a8 3e
       0.007941024 0.37119025 0.070527345 0.32818782
000200 39 a6 d5 be 42 8c 86 3f 1a 69 4b 3f e1 44 86 be
       -0.4172838 1.0511553 0.7945725 -0.26224425
000210 97 fd 7a be ab 2e 8c 3f e1 1e 85 3f 37 08 95 3f
       -0.245108 1.0951742 1.0400048 1.1643132
000220 53 98 3d 3f 32 e2 55 3f 9b bf a4 be 70 a0 4a 3f
       0.74060553 0.8354827 -0.32177433 0.7915106
000230 0b dd d2 be ca ab 93 3f ed 31 15 bf e2 a3 bf be
       -0.41184267 1.1536801 -0.58279306 -0.3742972
000240 ce 14 b0 be 8b 30 8f 3f 95 e4 84 3f 34 71 87 3f
       -0.34390873 1.1186689 1.0382258 1.0581422
000250 35 d7 3a be 37 33 ea 3e c9 b6 e1 3e 19 c3 8b bd
       -0.18246157 0.457422 0.44084767 -0.06824321
000260 21 3f 7e 3f 78 b5 95 3f 14 6b 13 bf 57 e1 85 3f
       0.9931508 1.1696005 -0.57585263 1.0459393
000270 3d a7 e8 bc 1e db 29 3f 8c c6 3d 3e 5e 20 19 3f
       -0.028400058 0.6634997 0.18532771 0.59815013
000280 b2 5a 9a 3f e7 e3 cb 3c 83 e4 1f 3f 3b b5 61 3d
       1.2058928 0.024888946 0.62458056 0.055104475
000290 a1 da 3f 3f fb e3 b3 3e ab a3 e0 bd 9d 06 86 3f
       0.74942976 0.35134873 -0.10968717 1.0470768
0002a0 bf b2 a1 3f 55 99 42 3f 70 ef 82 3f 2a d9 46 3f
       1.2632674 0.76015216 1.022932 0.77675116
0002b0 63 d5 08 bf 5f 92 92 be d3 f4 89 3f c8 c1 a2 3f
       -0.534506 -0.28627297 1.077784 1.2715387
0002c0 75 bd 8c 3f e0 63 95 3e 78 24 26 bd 5c 02 7c be
       1.0995318 0.2917776 -0.040562123 -0.24610275
0002d0 5e 6a 54 3f f0 8f 87 3f d8 59 c4 be 0b 21 11 3f
       0.82974803 1.0590801 -0.38349795 0.56691045
0002e0 5d f9 84 3f 88 18 1d 3f 44 6d 29 3f b8 ec 62 be
       1.03886 0.61365557 0.6618235 -0.22160614
0002f0 47 80 87 3f b2 e4 40 3f 34 1f cd be f0 d9 40 be
       1.0586022 0.7534896 -0.4006287 -0.18833137
000300 4a dc 89 3f 2b 0d 94 3d d4 03 ce bd 5e c9 19 3f
       1.0770352 0.07229074 -0.10059324 0.60072887
000310 07 33 87 3f e1 76 3f 3f be c7 40 3f d6 cd a1 3f
       1.0562447 0.7479077 0.7530478 1.2640941
000320 a5 07 9a 3f e5 74 26 3f 8b b9 fc be cc 41 cd be
       1.2033583 0.65022117 -0.49360308 -0.40089262
000330 1d 39 83 bd 58 2f a2 bd b2 7a 8e be 2f a3 7b 3f
       -0.06407378 -0.07919186 -0.27827984 0.98295873
000340 f2 aa 82 3f 6a 79 ca be 42 55 ce be b8 9f 1a 3f
       1.0208418 -0.39545757 -0.40299422 0.6039996
000350 57 78 e4 3e 97 82 94 3f 64 6e 04 bf 58 10 1c 3f
       0.44623062 1.1602353 -0.5173094 0.6096244
000360 bf 88 c9 be a4 c5 1b 3f c8 82 13 bf c3 78 43 3e
       -0.3936214 0.6084845 -0.5762143 0.19089036
000370 52 65 5c 3f 39 ef 99 3f 65 bf 3a 3f 01 e6 28 3f
       0.860921 1.202613 0.72948295 0.6597596
000380 95 f3 25 3f 5a ed 29 3f 24 e5 1a 3f 7a ae 88 3f
       0.648248 0.66377795 0.6050589 1.0678246
000390 1e 67 be be c4 a2 86 3f fc 03 55 3f 9c 5b 8c 3f
       -0.37188047 1.0518422 0.83209205 1.0965457
0003a0 82 63 38 3f 67 d7 16 3f 42 a2 85 3f 75 41 33 be
       0.72026837 0.5892243 1.0440142 -0.17505439
0003b0 a5 22 d1 3d 96 17 63 3f d3 99 0c 3e 40 dc d1 be
       0.10211686 0.88707864 0.13730554 -0.4098835
0003c0 61 48 37 3f a9 75 f3 be 0b 24 a5 be be 88 35 be
       0.71594816 -0.47550705 -0.3225406 -0.17727944
0003d0 8c 94 16 be 9e 94 e9 bd af a6 58 bf 14 03 83 3f
       -0.14705104 -0.114052996 -0.8462934 1.0235314
0003e0 3b 43 43 3f ff e5 99 3f 30 27 df bd 7a 0e 4c 3e
       0.7627446 1.2023314 -0.10896146 0.19927397
0003f0 f3 90 84 3f ee 97 ac 3e 04 af 13 bf cf f8 ca 3e
       1.0356735 0.33709663 -0.5768893 0.3964295

weight f4 [1, 256]
000000 67 c6 79 bf 78 05 1f 3f 03 5d 07 3f d4 86 02 bf
       -0.9756836 0.6211772 0.528763 -0.5098698
000010 3b 68 7e 40 0e a6 2e bf 93 9d 8c 3e cf aa e1 3e
       3.9751117 -0.6822213 0.2746397 0.4407563
000020 ee 36 16 3f 97 8d 4c 3f a3 14 98 bf e4 dd a7 c0
       0.58677566 0.7990355 -1.1881298 -5.2458363
000030 d3 24 32 3f d0 f3 06 bf de e3 5e bf c7 9f 85 bf
       0.6958744 -0.5271578 -0.8706645 -1.0439385
000040 82 c5 a9 3e 50 6f 69 bf 27 7d 9c 3e 20 6e d6 3d
       0.331585 -0.91185474 0.30564234 0.104702234
000050 3e 52 74 3e 20 6d 22 3f 9e be 86 bf fd 56 08 bf
       0.23859498 0.6344776 -1.0526922 -0.53257734
000060 81 3a 98 3e 19 52 ad 3e 1e d6 f0 3e fa f7 1d 3e
       0.29732135 0.33851698 0.47038358 0.15426627
000070 56 38 ae bf ba b9 84 3f 7e 61 f4 3e 42 13 2d 3e
       -1.3610942 1.0369179 0.4773063 0.16901878
000080 e6 cf 54 3e fa 38 9f 3e 9b 98 ee 3d bf 56 ba 3e
       0.20782432 0.31098157 0.11650201 0.36394307
000090 f2 3b 0f bf 5a 1f d6 bf b1 6f f6 3e 9c df 72 bf
       -0.55950844 -1.6728318 0.4813209 -0.9487245
0000a0 12 40 d0 3e ee ed 02 3e cf d6 55 3f 87 bc 49 bf
       0.40673882 0.12786075 0.83530897 -0.78803295
0000b0 5d 0b db bf ef 22 34 3f 5a 96 01 c0 c8 02 cb 3e
       -1.7112843 0.70365804 -2.0248017 0.3965056
0000c0 7f c8 49 bf 06 be 07 3f c3 28 1b c0 93 a9 1b 40
       -0.7882156 0.5302433 -2.424363 2.432225
0000d0 cf 55 3f 3f f0 f1 b3 3e f7 ce 81 c0 6d 07 c7 3e
       0.7474031 0.3514552 -4.0565143 0.38872853
0000e0 57 40 e9 3e 0a 49 45 3e 9c d7 71 3f 9f af 1d 3f
       0.455569 0.19266143 0.9446962 0.615961
0000f0 66 f3 15 c0 cc 40 3e bf 05 11 a6 3e 10 61 9c 3e
       -2.3429809 -0.7431762 0.3243486 0.30542803
000100 cb 2f b2 3e 12 df fd bf cc 69 bf 3e 83 7e fa bf
       0.34802088 -1.9833701 0.37385404 -1.9569858
000110 1d 41 7c 3f 37 89 99 3e 98 98 2c bf 35 47 ac 3e
       0.98536855 0.299875 -0.6742034 0.33648077
000120 a8 0d 00 bf b2 3d cc 3e 44 68 4a 3f e5 a3 a5 bf
       -0.5002084 0.3989082 0.79065347 -1.2940642
000130 9c 5a f2 bf fb e4 0a bf 43 58 93 3e 98 26 43 bf
       -1.8933902 -0.54255646 0.28778276 -0.76230764
000140 07 74 27 3f 99 2a 13 bf 54 95 9a bf fc a4 18 3f
       0.6541142 -0.57486874 -1.2076821 0.59626746
000150 4d 0a 0a bf 75 b7 cf be f7 3b 81 3e c6 71 f9 bf
       -0.5392197 -0.40569654 0.25241062 -1.9487846
000160 97 84 6f bf 92 0f 9a 3e 26 cd dd be fb 35 23 3f
       -0.9356169 0.30090004 -0.43320578 0.6375424
000170 e9 aa 66 c0 c5 5f f9 3e dd 59 18 3f 8b 30 0c bf
       -3.6041815 0.4870588 0.5951212 -0.5476157
000180 3e 0b 4a bf 20 de 7a bf f0 25 0d 3f 0c 62 c8 bf
       -0.78923404 -0.97995186 0.55136013 -1.5654922
000190 d4 8e 60 bf 50 5a 55 bf 09 3d 23 bf 71 7e 4d bf
       -0.8771794 -0.8334093 -0.6376501 -0.8027106
0001a0 b8 d1 96 3f cb b7 6b 3e d0 57 d6 bf ad a6 1f 3f
       1.1782751 0.2301933 -1.6745548 0.623637
0001b0 9c e0 02 3f 09 08 d6 be 90 0e 41 bf 55 71 4a 3f
       0.51123977 -0.41803005 -0.75412846 0.7907918
0001c0 77 66 52 bf 2a 2b 09 c0 28 94 7d c0 3f e5 88 be
       -0.821876 -2.1432595 -3.9621677 -0.267374
0001d0 6d 9e 3a c0 36 77 86 be 9d 96 c6 3e b2 20 a0 bf
       -2.9159195 -0.26262826 0.38786784 -1.2509978
0001e0 01 dd 05 3f c7 cc 95 40 04 e1 01 3f f8 18 46 bf
       0.5229035 4.681247 0.5073397 -0.7738185
0001f0 83 48 58 bf 2c 73 5a 3f a4 f0 de bf 67 9f e1 bf
       -0.84485644 0.8533199 -1.7417188 -1.7626771
000200 01 be 7a bf 50 01 2b 3f 2c 62 3b 3f 1c e1 14 bf
       -0.9794617 0.6679888 0.73196673 -0.5815599
000210 b4 33 9c be ec 57 15 3f 75 ad 34 3f 37 23 05 3f
       -0.30508196 0.58337283 0.70577174 0.5200686
000220 c6 14 e5 3d 60 6d d0 3e ee 49 6f bf 2e af a9 c0
       0.11185603 0.40708447 -0.9347218 -5.3026342
000230 92 c4 59 bf 91 8b 0e 3f 61 dd c2 be 38 91 5e bf
       -0.8506557 0.5568171 -0.38059524 -0.86940336
000240 31 99 5b bf 3e aa 0b 3f 86 db aa 3e ff 39 35 3f
       -0.85780627 0.54556644 0.33370608 0.7079162
000250 1f 8b 2d bf 70 72 8d c0 af c9 50 c0 d8 8b 05 bf
       -0.67790407 -4.4202194 -3.2623098 -0.5216651
000260 69 a2 ea 3e 44 0c eb 3e 62 b4 1c bf 13 e2 8d 3e
       0.45827034 0.45907795 -0.6121274 0.27711543
000270 67 96 fe bf 93 96 e8 3d 36 fc 26 40 91 6c 11 3f
       -1.9889649 0.11356845 2.6091437 0.56806284
000280 3a 1d 0d 3f 56 df b6 bf ca 18 02 3e b8 ee cc bf
       0.5512272 -1.4286907 0.12704769 -1.6010351
000290 ab 8b 0e 3e 0a 1f 5e c0 56 98 6c bf 70 04 e8 3e
       0.13920467 -3.4706445 -0.92419946 0.45315886
0002a0 03 96 e6 3e 9b 92 8f c0 aa 96 97 3e fa 43 a0 3e
       0.45036325 -4.486646 0.29607135 0.31301862
0002b0 3d 8c 97 bf 9a a8 2a bf ae 4c ec 3e e5 7e ff 3e
       -1.1839672 -0.66663516 0.46152252 0.499015
0002c0 c5 9d f9 3e 96 d9 1b c0 40 71 28 bf 34 01 33 bf
       0.4875318 -2.4351554 -0.65797806 -0.6992371
0002d0 73 08 68 3e 41 73 dd 3e a3 17 96 bf 3f e1 e8 bf
       0.22659473 0.43251994 -1.1725963 -1.819374
0002e0 ea b4 1a 3f b3 8b 55 3f 19 dc 2a 3e 7a ec 20 bf
       0.604323 0.8341629 0.16685523 -0.62860835
0002f0 e9 48 42 3f 5c 1c 2b 3e a3 65 8f bf 34 dd 96 bf
       0.758925 0.16710037 -1.1202892 -1.1786256
000300 96 74 26 3f b5 88 04 c0 53 7c 1d bf e4 56 91 3e
       0.65021646 -2.070844 -0.6151783 0.28386605
000310 a2 32 50 3f 30 91 df 3d db fe e7 3d ab 0b 21 3f
       0.8132726 0.10916364 0.11327907 0.6290843
000320 29 4f f3 3e 6e f9 f0 3d 46 b2 4d bf 72 81 99 bf
       0.47521332 0.11766325 -0.8035015 -1.1992629
000330 a9 52 80 bf a0 3e 8e bf 35 4a 04 bf d0 cd 88 3e
       -1.0025226 -1.1112862 -0.5167573 0.26719522
000340 07 4c 93 3e 8a 8d 2c bf 05 40 09 bf 0b c4 06 3f
       0.28768942 -0.6740347 -0.5361331 0.5264289
000350 60 8c 1d c0 61 01 ee 3e 88 ad 2f bf 15 92 71 c0
       -2.4616928 0.46485427 -0.6862416 -3.7745411
000360 92 48 ce bf 57 2a 61 c0 33 67 dc bf d4 9f c0 3f
       -1.6115897 -3.5182092 -1.7218994 1.5048776
000370 6f 40 c1 c0 8b 2b c2 3e 32 03 91 3e 46 63 c4 3e
       -6.0391154 0.37923846 0.2832275 0.3835699
000380 70 7b 06 3f d0 04 12 3f 5f 69 5c c0 9b 99 a6 3e
       0.525321 0.57038593 -3.4439313 0.32539067
000390 2f 8a 6c bf 5e 51 46 3e 83 2a 01 3f 61 2e be 3e
       -0.9239835 0.19366977 0.5045549 0.3714476
0003a0 b2 33 2d 3e 19 b1 51 3f 7d 29 3f 3f c1 72 a0 bf
       0.16914251 0.81910855 0.7467268 -1.253502
0003b0 65 bb ce bf d8 19 10 3e 75 95 04 c0 5f 79 90 bf
       -1.6150938 0.14072359 -2.0716221 -1.128704
0003c0 bf bf 03 3f 3b ad 52 bf 27 1d ad bf e1 a5 ab bf
       0.51464456 -0.8229558 -1.3524522 -1.3409997
0003d0 e8 dc 7a bf c7 29 52 bf f9 df be be 61 c2 29 3f
       -0.97993326 -0.82095 -0.37280253 0.66312224
0003e0 6c 0e 03 3f 7e c8 db 3e 14 95 6b bf 8d d0 b0 bf
       0.5119388 0.429264 -0.9202435 -1.3813645
0003f0 86 29 bf 3e 2a 64 d7 bf 16 7e c6 bf b6 9f 0e c0
       0.37336367 -1.6827443 -1.5507228 -2.228498

obs_std f4 [28]
000000 cd cc 4c 3e cd cc 4c 3e 00 00 80 3f 00 00 80 3f
       0.2 0.2 1.0 1.0
000010 00 00 80 3f 00 00 00 3f 00 00 00 3f 00 00 00 3f
       1.0 0.5 0.5 0.5
000020 00 00 00 3f 00 00 00 3f 00 00 00 3f 00 00 00 3f
       0.5 0.5 0.5 0.5
000030 00 00 00 3f 00 00 00 3f 00 00 00 3f 00 00 80 40
       0.5 0.5 0.5 4.0
000040 00 00 80 40 00 00 80 40 00 00 80 40 00 00 80 40
       4.0 4.0 4.0 4.0
000050 00 00 80 40 00 00 80 40 00 00 80 40 00 00 80 40
       4.0 4.0 4.0 4.0
000060 00 00 80 40 00 00 80 3f 00 00 80 3f 00 00 80 3f
       4.0 1.0 1.0 1.0

obs_mean f4 [28]
000000 00 00 00 00 00 00 00 00 00 00 00 00 00 00 00 00
       0.0 0.0 0.0 0.0
000010 00 00 00 00 00 00 00 00 00 00 00 00 cd cc 4c be
       0.0 0.0 0.0 -0.2
000020 9a 99 19 3f cd cc cc be 00 00 00 00 00 00 00 00
       0.6 -0.4 0.0 0.0
000030 cd cc 4c be 9a 99 19 3f cd cc cc be 00 00 00 00
       -0.2 0.6 -0.4 0.0
000040 00 00 00 00 00 00 00 00 00 00 00 00 00 00 00 00
       0.0 0.0 0.0 0.0
000050 00 00 00 00 00 00 00 00 00 00 00 00 00 00 00 00
       0.0 0.0 0.0 0.0
000060 00 00 00 00 00 00 00 3f 00 00 00 3f 00 00 00 3f
       0.0 0.5 0.5 0.5
