trained/h1_walk/critic_36899.pt (torch, 299198 bytes, 7 tensors)

weight f4 [256, 28]
000000 d5 bf a1 bd ae c4 73 bd 09 41 ce 3d 3e 60 c6 be
       -0.07897917 -0.05951374 0.10070998 -0.38745302
000010 5f 56 b1 3e 7a 3b 9a be 06 a8 92 bd 27 4f 26 bc
       0.34636208 -0.30123502 -0.07160954 -0.010150707
000020 19 f0 9b 3e 58 b5 ae be 84 48 6c 3e ea 13 a1 bd
       0.30456617 -0.3412273 0.23074538 -0.078651264
000030 b1 84 12 3e 66 33 1f be d3 fe 81 3e 17 d6 b9 3e
       0.1430843 -0.1554695 0.25389728 0.3629615
000040 a2 f9 3e 3d 78 cf 99 3f 03 f4 27 3f e1 49 bf bc
       0.046624787 1.201644 0.6560671 -0.023350658
000050 55 61 ee 3e c8 d9 e2 3c d8 74 26 c0 ab c3 b1 bf
       0.46558633 0.027691737 -2.6008816 -1.3887838
000060 ef 68 42 be a2 4e 35 bd 89 66 2b bd 81 66 e4 3e
       -0.18985341 -0.044264443 -0.041845832 0.44609454
000070 d1 28 1c 3d 3d 22 98 bd ea 9d 74 be 5e b7 10 3f
       0.038124863 -0.074284054 -0.23888364 0.56529796
000080 b3 54 fe 3d e1 41 58 3f f3 82 c6 3d 2d 51 fb bd
       0.12418499 0.84475523 0.09692945 -0.122713424
000090 61 99 1a 3e 7a ab 70 be 83 45 8d 3d 11 b6 51 3d
       0.15097572 -0.23502913 0.06898024 0.051199023
0000a0 31 62 03 be cf e0 55 be 68 9d 3a 3e ab 01 a2 3e
       -0.12830426 -0.20886539 0.18224108 0.31641898
0000b0 77 d8 ba 3e d1 b3 bf 3f 97 fa 4e 3f b8 c1 80 3d
       0.36493275 1.4976751 0.8085112 0.06286949
0000c0 02 e5 a8 3c 9e 35 17 bd 93 d8 79 bb 8d ab e1 3c
       0.020617012 -0.036916368 -0.0038123473 0.027547622
0000d0 b7 5d 45 3c 60 df 8b 3e 7d 7a e3 3d f3 c6 f9 3d
       0.012046269 0.2731886 0.11107347 0.1219615
0000e0 fb 83 dc 3f 84 ed f5 be 5e c4 7a 3f 74 a8 f6 be
       1.7227777 -0.48032773 0.9795588 -0.48175395
0000f0 51 ad 34 be 75 d2 f3 3d 19 d3 ee 3c 83 b8 09 3f
       -0.1764424 0.11905376 0.029153394 0.5379717
000100 9b 5e c8 3d c2 f2 19 3f 4e 0a 14 3d 06 9c 2a 40
       0.097836696 0.60136044 0.03614264 2.665773
000110 ad d9 94 be 64 20 66 3d 5c f6 a9 3e 08 af 87 bd
       -0.29072323 0.056183234 0.3319577 -0.066251814
000120 f5 e0 90 3e 08 af f2 3d 8d 3a 1b 3d b5 e2 93 3d
       0.2829663 0.11849791 0.037897635 0.07220975
000130 24 d8 03 bf 58 d4 16 40 2c 98 cf bf 07 0f 90 bf
       -0.5150168 2.3567104 -1.6218314 -1.1254586
000140 9d b7 9b 3e 1d 74 e3 bd e6 9b ae 3e 99 7f 8d 3e
       0.30413523 -0.11106131 0.34103316 0.27636412
000150 91 89 95 bc 13 62 c4 bd 09 71 84 bd 7c cb cb 3e
       -0.018254073 -0.09589019 -0.06466872 0.39803684
000160 49 e6 01 bd 05 82 90 3d 9d 2b ec 3e 06 e3 f9 be
       -0.031713758 0.07056049 0.46127024 -0.48806018
000170 7d 8c 70 bf 44 f3 28 bf 7f 21 04 be ec 2c 15 3f
       -0.9396437 -0.65996194 -0.12903403 0.5827167
000180 79 9b b0 bd 16 79 8b 3e 2b 9a 26 3e 62 4d 05 3e
       -0.08623404 0.2724082 0.16269748 0.130178
000190 bf a7 c4 be fc 42 be 3e 82 fb ff 3d 69 02 12 bb
       -0.3840923 0.3716048 0.12499143 -0.0022279269
0001a0 53 c3 ef bd a2 da b3 bd 43 91 da 3e 27 71 4d 3e
       -0.11707177 -0.08781935 0.4268895 0.20062695
0001b0 25 76 8f 3d 4f 03 be 3e f0 f4 33 3c 46 84 29 3e
       0.07004956 0.371119 0.010983691 0.16554365
0001c0 8d 47 45 3d a9 f7 ee bd 68 94 54 3c e6 be 92 be
       0.04816394 -0.11668331 0.012974836 -0.2866127
0001d0 89 d6 62 3d 03 38 c5 3e a4 69 fb be 73 93 06 bd
       0.055380378 0.38519296 -0.49104035 -0.032855462
0001e0 29 d0 e4 bd 6d 25 5d be bd 71 32 be aa 81 b2 3e
       -0.11172516 -0.21596308 -0.174262 0.3486455
0001f0 21 0a 60 3d ed 07 be 3e 4f 34 66 3e 14 61 01 3d
       0.05469716 0.37115422 0.22480892 0.03158672
000200 20 85 71 3d be 6f 04 be 1b 06 04 3d 17 1c 1e be
       0.05896485 -0.12933251 0.032232385 -0.15440403
000210 0a bf 8a 3d b6 0d e0 3d 95 41 d0 be a4 db b3 3d
       0.06774719 0.10940115 -0.40675035 0.087821275
000220 16 a0 71 be 63 e6 6c be 27 17 f8 3e 66 00 9b 3e
       -0.23596224 -0.2313476 0.48455164 0.3027374
000230 0f 43 90 3d 35 08 a1 bd fd 04 1a be c9 7f 8a 3d
       0.070440404 -0.078628935 -0.15040965 0.06762654
000240 87 9b bf bd e3 8c eb 3e a9 ff 20 bf e9 ae 11 3e
       -0.09355836 0.46005926 -0.62890106 0.14226879
000250 db 53 3c 3d 8f dc e9 3d ee fa 85 bd 29 0a 94 3f
       0.04597841 0.11419021 -0.06542002 1.1565601
000260 ac 5f c5 bd 06 65 96 3d ba c2 76 3e 03 e6 91 bd
       -0.096373886 0.073434874 0.2409772 -0.071239494
000270 95 9f 75 be 73 39 b0 be 9e df 33 be 91 b8 ff bd
       -0.23986657 -0.3441883 -0.17565772 -0.12486375
000280 a7 ff 1b 3d f0 10 bf bd 13 43 6d 3f 42 90 2e 3f
       0.038085606 -0.093294024 0.9268047 0.6818887
000290 6f e3 ec 3c 22 14 e0 be de 2e 51 bc 86 e7 8b bd
       0.028917043 -0.4376536 -0.012767522 -0.06831269
0002a0 78 57 25 be ea 72 6f 3e df 3c 8e 3d f3 f0 c2 3e
       -0.16146648 0.2338368 0.06945204 0.38074455
0002b0 b6 e2 ff bd 94 e5 cf bd b5 a3 0e bf c9 ee ef bd
       -0.124944136 -0.101512104 -0.5571855 -0.117154665
0002c0 a0 72 44 3e 66 11 97 be 35 9e ac 3e c0 7a 56 3e
       0.19184351 -0.2950546 0.33714452 0.20945263
0002d0 1a 73 17 bf c9 58 c2 be c5 4b 22 3e d5 e0 68 be
       -0.59160006 -0.37958363 0.15849216 -0.22742017
0002e0 38 06 12 be 6b d0 dc 3e 04 dc c8 3d ad 17 0e 3e
       -0.14260185 0.4312776 0.0980759 0.13876219
0002f0 89 a7 19 be 22 fa 97 3b 22 05 41 3e 10 76 92 bb
       -0.15005316 0.0046379725 0.18849614 -0.0044696406
000300 ed 34 6e 3e 20 08 03 bf 50 5b e2 3e 3c d1 09 bc
       0.23262377 -0.5118427 0.4421029 -0.008411702
000310 1c ff c0 3d 81 bf b7 bc 7b 07 d9 3e 1b 62 da 3e
       0.09423658 -0.022430183 0.4238852 0.42652974
000320 8b 3f 73 3d 7b ba ac bc 15 7d 97 bf bc 4c 12 bf
       0.05938677 -0.021085015 -1.1835047 -0.5714834
000330 b5 7f e1 be da 7a e1 bd c4 c5 5b be 93 48 0e 3f
       -0.44042745 -0.1100976 -0.2146216 0.5557949
000340 1e c2 2a 3f 0e 90 08 3f 49 12 c6 be d3 51 a3 bd
       0.6670245 0.5334481 -0.38685825 -0.07974591
000350 47 c9 5c 3f 55 23 94 3f 8b 7e 95 3e 13 8c 7e 3e
       0.86244625 1.1573282 0.29198107 0.24858122
000360 7a cc a9 3d 10 b9 e3 3c c8 a9 02 bd d9 d1 ab bd
       0.08290954 0.027798206 -0.031900197 -0.08389635
000370 36 56 a3 bd 08 d9 19 3f 15 3f 9d 3c d7 d9 b2 be
       -0.07975428 0.6009679 0.019195119 -0.34931824
000380 e8 66 f6 3c c1 69 35 bd 6e bc 90 3d d3 b3 8a 3f
       0.030078366 -0.044290308 0.0706719 1.0836128
000390 14 2f 05 bd 5d ff 86 3d 83 7a d1 3e ab 7e d1 be
       -0.0325156 0.065916754 0.40913782 -0.40916952
0003a0 bf 58 0a bd e3 e5 5d be 02 d0 17 3e 99 6f a9 be
       -0.03377604 -0.21669726 0.14825442 -0.33092955
0003b0 90 14 be bd cf c8 10 3d 55 14 4f be 31 38 0d 3f
       -0.09281266 0.035347756 -0.202226 0.55163866
0003c0 5f be a1 be b7 36 17 40 8d 1e 80 3f f0 41 c3 bd
       -0.31590554 2.3627145 1.0009323 -0.09534061
0003d0 68 1a 13 bf 68 83 13 3f a2 f3 78 3f 10 f3 17 3f
       -0.5746217 0.57622385 0.97246754 0.5935526
0003e0 b1 26 41 3e 9b bf 42 3d d0 40 39 3e a2 c3 9b 3c
       0.18862416 0.04754601 0.1809113 0.019014183
0003f0 20 4f 36 3e 57 23 4b 3d ce c4 1b be d6 57 80 bd
       0.17803621 0.04959425 -0.15211794 -0.062667534

bias f4 [256]
000000 d7 9d 99 be 7a cd 9b be 1d e6 3a bf 4a 9e b1 bd
       -0.30003235 -0.30430204 -0.73007375 -0.08672769
000010 eb 45 cb be 32 a0 9b be e7 62 6e be 23 6d 88 be
       -0.3970178 -0.30395657 -0.23279916 -0.26645765
000020 31 6c eb 3e 4c cf d4 3b f1 a3 91 3e 82 b1 dd be
       0.4598098 0.0064944383 0.2844539 -0.4329949
000030 b0 89 24 3e 97 2b 26 bf 04 e6 97 bf 74 b5 3b bf
       0.16068149 -0.6491026 -1.186707 -0.7332375
000040 fa e4 26 bf 12 6b 96 bc e7 69 a3 be c7 57 02 be
       -0.6519314 -0.018361602 -0.31916735 -0.12728797
000050 43 bb 0b bf 45 23 dc be b7 9c 5a 3d 42 d1 d8 3e
       -0.54582614 -0.4299566 0.05337211 0.4234715
000060 2b 2b 57 3e 4d 5d d4 bc 45 03 c4 be 61 59 08 3f
       0.21012561 -0.025923396 -0.38283744 0.5326138
000070 cd f1 77 be 6b ce c5 be dd 82 7a be 19 49 bf 3e
       -0.24213333 -0.38634047 -0.24463983 0.37360457
000080 42 f5 9a bd 7e 4f 88 3d 26 e6 e5 be 24 f9 48 bd
       -0.075663105 0.06655787 -0.44902152 -0.049065724
000090 13 82 e8 be 68 e7 d6 be 49 d3 30 bd 27 36 b9 be
       -0.4541174 -0.41973424 -0.043170247 -0.36174127
0000a0 82 83 d7 3e 07 f4 e9 be cf ba d7 3e c7 b2 bc be
       0.4209252 -0.4569399 0.4213471 -0.36855146
0000b0 7b 1a 84 3e dc 75 ed 3d d9 af 82 be ff b8 01 bf
       0.25801453 0.115947455 -0.25524786 -0.50672907
0000c0 b2 12 2d bd 0e f2 77 bf 6b 2e 4d bf 39 6f 84 be
       -0.042254157 -0.9685372 -0.80148953 -0.25866106
0000d0 ac f0 7b bf 70 0f af be 45 b3 d4 be a1 84 8f 3e
       -0.9841411 -0.34191465 -0.41543022 0.28030875
0000e0 b2 09 28 3c 81 f5 7d be ac b4 87 be 7b 0b 0c bf
       0.010256218 -0.24800684 -0.2650503 -0.5470502
0000f0 1e c9 04 bf cb fb 65 3e 9a bb 22 bf 35 fb cf be
       -0.5186938 0.22459333 -0.6356751 -0.40621343
000100 e8 d9 ea bd 58 72 e0 bb 14 a4 03 bf 2d 93 04 bf
       -0.114673436 -0.0068495683 -0.5142224 -0.5178707
000110 bc 8e 2e bf db 34 ba be 78 2d 67 bf be 14 d6 be
       -0.68186545 -0.3636845 -0.90303755 -0.418127
000120 32 7c 25 be d9 32 77 be ff 69 36 3e eb ca 01 bf
       -0.16160658 -0.2414049 0.17813872 -0.50700253
000130 a8 70 ae be 18 cf 40 3e d2 e5 eb 3e 00 99 6d 3d
       -0.34070325 0.18829 0.46073776 0.05800724
000140 63 8a 8b 3e 5f 68 87 bd f4 b6 e0 be f0 2a a3 3e
       0.27254018 -0.06611704 -0.43889582 0.31868696
000150 b6 c0 8e be 8d 03 09 bf dc 1a 11 bf c3 c4 1c 3f
       -0.27881402 -0.53521043 -0.5668161 0.61237735
000160 0b a8 89 3d b8 0d b5 bd 74 18 2b bf 98 db e9 bd
       0.06721505 -0.08840507 -0.6683419 -0.11418837
000170 84 00 72 be b0 ab e8 be 88 8b b2 be e7 ff 1c bf
       -0.23633009 -0.45443487 -0.3487208 -0.61327976
000180 b9 d7 f7 3c 4d c5 f7 be 88 bc 8b be 95 63 00 bf
       0.030254232 -0.48392716 -0.27292275 -0.5015195
000190 b5 03 23 bd 45 05 31 bf af fa 96 3e 3d 9e 45 bf
       -0.039798457 -0.69148666 0.2948813 -0.7719458
0001a0 ad 41 b3 be a0 23 ef bd 86 21 ea be 0b f4 1e be
       -0.35011044 -0.11676717 -0.457287 -0.15522783
0001b0 24 79 86 bd 7e 2b e2 be c3 19 5c 3d 11 6a 84 be
       -0.065660745 -0.44173807 0.053735506 -0.25862172
0001c0 62 8d 3f bf 18 ac 35 be f8 95 3c 3f 3f c9 4a bf
       -0.7482511 -0.1774143 0.73666334 -0.7921333
0001d0 fa 7b f9 3c 78 d4 92 be bf d9 ac be df bd c8 3e
       0.030454624 -0.28677726 -0.33759877 0.3920736
0001e0 21 a8 b2 3e 31 4b cd be 78 0d 65 bf 3d b2 b8 be
       0.34893897 -0.4009643 -0.89473677 -0.36073485
0001f0 9e 71 86 3e 0f 88 ce bc 14 49 b8 be d0 95 fd be
       0.26258558 -0.025211362 -0.35993254 -0.4952836
000200 22 60 7c 3e fb fe e5 be ae ea d0 bf fa b4 36 bf
       0.24646047 -0.44921097 -1.6321619 -0.713699
000210 9f 8b 21 3f f2 cd 37 be c0 eb 51 be 8d c8 6c be
       0.6310367 -0.17949656 -0.20500088 -0.23123379
000220 eb 9c 4a 3e 00 35 86 3d 71 83 9a be 2c 3e ff 3e
       0.19786422 0.06553078 -0.30178407 0.4985212
000230 49 ab cd be d2 45 9b be 82 f0 82 3e c8 27 87 be
       -0.40169743 -0.30326706 0.25574118 -0.26397538
000240 ea de 12 be 32 37 4e be 93 a2 0e bf 3e af cc bd
       -0.14342847 -0.20138243 -0.5571682 -0.09994362
000250 c0 b0 0e bf e1 3a d2 bc 9d a9 20 bf 24 1e 4b bf
       -0.5573845 -0.025662841 -0.6275881 -0.79342866
000260 3a cd df be 81 1d 94 be ca 61 d0 be 1f 4a 08 bf
       -0.43711263 -0.2892876 -0.40699607 -0.532381
000270 c3 30 b6 be 2a 04 50 bf 87 6e 78 be 1d a9 2e bc
       -0.35584077 -0.81256354 -0.24260913 -0.010660437
000280 bc 56 37 bf 4f 62 d7 3e 9e 63 7b be 3a 6b c6 bd
       -0.7161672 0.4206719 -0.2454972 -0.096884206
000290 ce 49 0f 3e e7 46 a8 be 14 9f bd 3e 00 a3 17 be
       0.13992998 -0.32866594 0.3703543 -0.14808273
0002a0 a0 2e 48 be 07 51 eb be a9 02 28 bf 0f 1f da be
       -0.19549036 -0.45960256 -0.6562906 -0.4260182
0002b0 e3 5a 44 bd 20 c3 0c be bd a7 e4 3d e2 a8 f4 be
       -0.04793824 -0.1374631 0.11164806 -0.47785097
0002c0 aa 17 2c be f6 af a6 3e 0f 50 71 bf e0 87 ed bd
       -0.16805902 0.32556123 -0.94262785 -0.11598182
0002d0 bd 1d 10 3c 88 b0 d7 3d c3 4b 98 3e 21 55 8f bf
       0.008796153 0.105317175 0.29745302 -1.1197854
0002e0 61 b4 83 bf 67 03 b7 bd 8f f4 09 bf 11 87 1b 3e
       -1.0289422 -0.08936196 -0.5388879 0.15188242
0002f0 48 da 78 3c db 4a 36 be 16 0b 4d be c5 18 96 3d
       0.015188761 -0.17801993 -0.2002376 0.07328943
000300 10 01 e8 bd 57 30 03 be c3 6b 88 be 1a ac 38 be
       -0.11328328 -0.12811409 -0.26644716 -0.18034402
000310 2f 4e 5e bc 5a 1f a8 3e e2 3b c6 bd ee d9 83 bf
       -0.013568445 0.3283642 -0.096793905 -1.0300882
000320 1c 30 08 3e 6f f2 4a bd f0 e3 19 bf ac 1c 02 bf
       0.13299602 -0.04954761 -0.6011343 -0.50825
000330 19 25 89 bf 95 18 9c be 31 7f 4d 3f 30 1a 0a 3e
       -1.0714446 -0.30487505 0.80272204 0.13486552
000340 92 5e e3 be ee 90 ab 3d ba e4 0a be 91 2c aa be
       -0.4440809 0.083772525 -0.13563815 -0.33237126
000350 8b 5d a2 bd 56 bd 92 be c8 e2 16 bf e6 09 e7 be
       -0.07927998 -0.28660077 -0.5893979 -0.4512474
000360 5d fc 5c bf e9 0b 1b be 6f 89 8f 3f 0f 76 31 bf
       -0.86322576 -0.15141262 1.1213816 -0.6932077
000370 7a 60 d7 be 12 2e 9a 3d 56 43 0b bf dc 2e 71 bf
       -0.42065793 0.075283185 -0.5439962 -0.94212127
000380 cf e5 21 bd 1e 30 02 bf 14 d2 9e 3e 1a ef 8b be
       -0.039525803 -0.5085467 0.31019652 -0.27330858
000390 32 05 5e be 33 6b 04 bf df f7 75 bd 4a c7 d0 3d
       -0.2168167 -0.51726073 -0.06005084 0.10194261
0003a0 d3 b4 91 be d6 f5 13 be 2d 49 d0 be 80 e2 88 be
       -0.2845827 -0.14449248 -0.4068083 -0.26735306
0003b0 d9 8c 07 bf fb 22 da bd e5 3e 19 bf 31 c8 16 bf
       -0.5294929 -0.10651203 -0.59861594 -0.5889922
0003c0 08 c9 05 3f 37 3c d3 be a2 02 a6 bd d0 a8 4e 3e
       0.52259874 -0.41256878 -0.08105971 0.20181584
0003d0 a8 36 64 bf 8c 32 89 3e 30 24 43 be 20 aa 11 3f
       -0.891459 0.26796377 -0.19056773 0.56900215
0003e0 35 74 5d bc fa b6 dd 3e 83 a7 b0 be cd fa fd be
       -0.013516475 0.43303663 -0.345028 -0.49605408
0003f0 1b 7a d0 bd 4c e8 2b bf 63 92 92 be a0 6f 28 bf
       -0.1017954 -0.6715133 -0.2862731 -0.65795326

weight f4 [256, 256]
000000 dd 9f 1e be 46 08 5b 3d 9e 7a 40 be 12 c8 d5 be
       -0.1549067 0.053474687 -0.18796775 -0.41754204
000010 74 fe 1e 3e 9e 67 90 3e a2 48 94 be 89 17 e2 be
       0.15526754 0.28204054 -0.28961664 -0.4415858
000020 92 67 aa 3c 7f de 2c be a0 c6 40 3d d5 8a de 3e
       0.02080134 -0.1688175 0.047064424 0.43465295
000030 a5 8b 23 3d f4 27 14 bf 9b 5e 6c bd 87 20 50 3e
       0.039928097 -0.57873464 -0.05770741 0.20324908
000040 86 33 ba 3d a5 74 8c be b6 e9 39 bd 93 c9 9f 3e
       0.090918586 -0.27432743 -0.0453889 0.31208476
000050 53 c8 80 3e 02 cf 5c 3e f3 76 19 bd a6 1b 67 3e
       0.25152835 0.21563342 -0.037466954 0.22569141
000060 6c e3 2e 3c f6 b9 d1 3d 41 bc 16 be 68 45 35 bd
       0.010674339 0.10240547 -0.1472025 -0.044255644
000070 31 05 09 3c f7 25 19 3e 2a b9 29 3e 89 d9 b3 3d
       0.008363054 0.14955889 0.1657454 0.08781726
000080 64 79 0e bf 22 2b 3b be 9b da ae 3d be 22 1d 3e
       -0.5565398 -0.18278173 0.085377894 0.15345284
000090 e0 b1 c4 be b1 4f 2b 3e 16 55 8e be be 8b 5b be
       -0.38416958 0.16729619 -0.2779929 -0.21440026
0000a0 a6 e9 e5 3d 48 08 ab be 11 64 42 3e 19 3e 0d 3e
       0.112262055 -0.33404756 0.18983485 0.1379322
0000b0 e8 a8 34 be f5 a7 43 3e 8c 6f a1 3e 21 dc c5 3d
       -0.17642558 0.1910704 0.31530416 0.09661127
0000c0 c3 d1 25 3e c5 1c 31 3f fe 71 8c bd 9f 22 1d bd
       0.16193299 0.69184524 -0.0685768 -0.038363095
0000d0 3b cd 84 bd 9b 31 e1 3d 88 67 3d 3e 39 90 ff be
       -0.06484457 0.109957896 0.18496525 -0.4991472
0000e0 24 bd bd 3e bb be 21 3e 8c 54 2c 3e 95 d0 d9 be
       0.37058365 0.15795414 0.16829127 -0.42541948
0000f0 59 cf 07 3e 31 c0 e6 bc e1 92 e1 be 60 2d ff 3d
       0.1326269 -0.028167816 -0.44057372 0.124598265
000100 47 c2 0c be 47 ac a8 3d 56 65 fb 3d 51 70 88 bd
       -0.13745986 0.08235984 0.12275188 -0.06662048
000110 48 b4 7f be 96 22 06 3d 94 4f 73 3e af 89 1b bf
       -0.24971116 0.032747827 0.23760825 -0.60756963
000120 c0 1d 69 3e 93 ac b7 3e f3 c3 06 bf 8f 5d 9e 3e
       0.22765255 0.3587385 -0.52642745 0.30930755
000130 c1 9d c0 bd a3 75 68 3e b6 a6 96 3d 7d d1 11 be
       -0.09405089 0.22701125 0.07356016 -0.1424007
000140 21 5e b7 bd b6 d7 94 3d c6 44 b3 3e ba ef 42 be
       -0.089535005 0.07267706 0.35013407 -0.19036761
000150 90 1e 9b be 82 15 13 3e 3c 28 3f be 83 00 d2 3d
       -0.30296755 0.14363673 -0.18667692 0.10254004
000160 88 68 c5 be db 93 2d bf 58 3c d9 bd 4c 51 2a 3e
       -0.38556314 -0.67803735 -0.10607213 0.16632575
000170 06 51 5d 3e 98 32 b5 3e 50 12 31 be b3 a5 51 3d
       0.21612939 0.35390162 -0.17292142 0.051183414
000180 49 78 af bb bd 33 92 bd fa 42 36 be 20 d4 89 3e
       -0.0053549153 -0.071387745 -0.17798987 0.2691965
000190 61 98 46 3e 00 04 a7 bf f8 e1 ce 3e f7 dc 46 be
       0.19394065 -1.3048096 0.40406775 -0.19420229
0001a0 11 86 35 3c 36 ac f2 3d aa ec 15 be a4 64 22 be
       0.011079327 0.11849253 -0.14641061 -0.15858704
0001b0 8d d9 61 3e 0e b9 e3 be ea 58 4e be 2f 3a d0 3d
       0.22055645 -0.44477123 -0.20151106 0.10167348
0001c0 02 fa fd be aa 8e f5 3d b5 18 8d bb e3 65 1d 3e
       -0.49604803 0.11990102 -0.004305924 0.15370898
0001d0 2f ac d1 3c f5 22 28 be 2d da 97 bd db ee ef 3e
       0.025594799 -0.16419585 -0.074146606 0.4686192
0001e0 b3 d9 cc 3e fb 56 bf 3e 9f 4c b5 be 24 f1 48 3e
       0.4000984 0.37371048 -0.3541002 0.19623238
0001f0 84 d5 88 3e 36 5a 41 be e9 08 ff 3c b5 36 6a 3e
       0.267254 -0.18882069 0.031132178 0.22872432
000200 96 0a a6 bc 44 66 3e be 53 30 73 be 88 60 39 be
       -0.02026872 -0.18593699 -0.23748903 -0.1810323
000210 fc 9f b3 bc 7f e8 90 3f ee 2b e6 3e 2f c7 a2 3e
       -0.021926872 1.1320952 0.4495539 0.3179259
000220 7f 9a 97 3e 77 60 d2 bc 16 5e 8c be 85 b8 f5 3d
       0.2961006 -0.025680764 -0.27415532 0.11998085
000230 af 89 e1 3e a6 a8 dc bd 29 08 98 3e 08 1d 08 be
       0.44050357 -0.10774355 0.29693726 -0.13292325
000240 60 a2 c2 3e 31 6f 33 be cc 79 06 3f 3e 2e ad 3a
       0.38014507 -0.17522885 0.525296 0.0013212634
000250 5a 6a 71 3c ed 36 a8 bd fd 62 09 3e 3f a4 2a bf
       0.014734829 -0.08213601 0.13416667 -0.6665687
000260 fc c0 b9 3d 7a 75 35 3e 93 f3 7d be c7 2d f3 3e
       0.09070012 0.17720595 -0.24799947 0.47495863
000270 00 15 cf be 22 9c 18 be 08 17 06 3f a5 04 a1 3e
       -0.4044571 -0.1490331 0.5237889 0.31448856
000280 e4 37 27 be cb 39 70 be dc 40 a3 bd 9b 70 12 bf
       -0.16329914 -0.23459546 -0.07971355 -0.5720307
000290 5e 24 0b 3d 41 59 0e bf b6 61 ad bd f2 e5 ea 3d
       0.03397023 -0.5560494 -0.084659025 0.1146964
0002a0 08 9a 44 3e b5 6d cd 3b a9 45 68 be 05 84 3a 3e
       0.19199383 0.0062691816 -0.22682823 0.18214424
0002b0 85 11 e3 3d f7 52 0c 3d 35 e9 f8 3b ea 8c df bd
       0.11087326 0.03425881 0.00759616 -0.10915549
0002c0 e7 ad af 3b 74 d5 70 3e ca 93 1f 3e 5d f2 63 be
       0.005361307 0.23518926 0.15583721 -0.22260423
0002d0 24 43 ae bd c4 32 1c be db dc 83 3e 2e 8f 93 bd
       -0.085089 -0.1525374 0.25754437 -0.07205044
0002e0 b5 71 6f bf 07 03 0d bc f5 81 f9 3c e7 1e 35 be
       -0.9353288 -0.008606679 0.030457476 -0.1768757
0002f0 bb 37 b0 3b cd 70 c8 bb ce 43 5f 3e f3 75 94 3d
       0.0053777373 -0.0061169625 0.21803209 0.072490595
000300 1e e4 e1 be 1f 19 42 3e 03 8d 1e 3f 99 05 07 bf
       -0.44119352 0.18954895 0.61933917 -0.52742916
000310 5c 6e 41 bf 35 c1 52 3e 3c 3b f7 3e 66 8f a9 be
       -0.7555902 0.20581515 0.4828738 -0.33117217
000320 cd aa 7a 3e 29 cc fb bd 86 3e 5a 3d 6d 2d 0d 3d
       0.24479218 -0.122948 0.053282283 0.03446715
000330 b3 f7 3e 3d c8 2e 31 3e cc e6 69 3e b6 3a 5e be
       0.046622943 0.17303002 0.22841948 -0.21702084
000340 49 f4 5c bf 7f 04 ea be 92 56 45 be 32 f8 e9 bd
       -0.8631025 -0.45706555 -0.19271305 -0.114242926
000350 5a 80 16 be b0 5f 8b 3e 53 ba 98 3d 6f fd c3 bd
       -0.146974 0.2722144 0.074574135 -0.09569823
000360 25 7d 02 3d 48 e5 a5 bf 03 27 0a bf bf d6 d3 3d
       0.03185763 -1.2960596 -0.5396578 0.10343694
000370 e8 bd 7c 3a 92 63 91 be da cd 8e bd 7c 57 e5 bd
       0.00096413353 -0.2839628 -0.06972857 -0.11198327
000380 c3 60 35 3e a4 e4 b6 be fd 57 dc 3e b6 4a 13 be
       0.17712693 -0.35721314 0.4303588 -0.14383969
000390 46 dd b0 3e 94 69 90 3a bf 35 69 bd 82 4d ac 3d
       0.34543818 0.0011017793 -0.056936022 0.08413221
0003a0 8b 00 5b 3e 9e 63 19 bf c3 eb a3 be 64 60 12 3f
       0.21386926 -0.5991763 -0.3201581 0.5717833
0003b0 db d8 de 3d 60 7d cf bd e3 ab f1 bd 67 94 a4 bd
       0.10881206 -0.10131335 -0.11800363 -0.08036118
0003c0 00 1f 8b 3e a2 18 13 3e 0c d6 af be ab 42 2a 3e
       0.2717209 0.14364865 -0.34342992 0.16626994
0003d0 42 0d ed bd bf 69 47 bd 02 0b 49 bf c4 ba 8f 3e
       -0.11574794 -0.04868483 -0.7853242 0.28072178
0003e0 bb 11 2a be 50 fb 55 3e 2a e0 5a bd bf 39 2f be
       -0.16608326 0.2089665 -0.053436436 -0.17111872
0003f0 9d c1 e1 bd 06 f5 17 3d 35 42 e7 3d b4 43 8b be
       -0.11023257 0.037098907 0.11291925 -0.2720009

bias f4 [256]
000000 d8 47 09 3e 6d b4 0e 3f 3b 74 9c 3f 30 39 af be
       0.13406312 0.5574406 1.2222971 -0.34223318
000010 4a 4a 88 3e f2 85 94 3c 9f ee 1c 3f 83 a9 99 3f
       0.26619178 0.018130276 0.61301607 1.2004856
000020 4c 1c 5d 3f 5c 9d 23 3f 4d 6d 01 3e e1 c4 83 3f
       0.863713 0.63911986 0.12639351 1.0294458
000030 93 fa a4 3f 77 60 24 bf 09 76 09 bf b3 d3 03 bf
       1.2888969 -0.64209694 -0.5369573 -0.514949
000040 8f c2 8a 3f db cc 1e bf 5f 91 55 3f 44 02 39 3f
       1.0840625 -0.62031335 0.83424944 0.7226908
000050 9a 92 78 3f cf ec 95 3f 97 cd a4 3d a7 d2 37 bf
       0.97098696 1.1712893 0.08047026 -0.71805805
000060 71 7c 70 3f cb c3 4b 3f 8b a2 9c 3f 1e a3 56 3f
       0.9393988 0.7959563 1.2237104 0.8384265
000070 af 9c 54 3d dd 55 15 3f 8d 26 87 3f e6 69 53 3f
       0.051907238 0.5833414 1.055864 0.82583463
000080 54 9a 54 3f bd 81 92 3f 78 44 3e 3f e9 c6 49 3f
       0.83047986 1.1445843 0.74323225 0.7881914
000090 9d c0 41 bf 02 17 dc 3e 59 42 86 3f 8c a3 88 bd
       -0.7568453 0.42986304 1.0488998 -0.06671819
0000a0 46 3d 59 3f 53 ab 31 3f b0 e9 8a 3f 33 75 b8 be
       0.8485912 0.69402045 1.0852566 -0.36026916
0000b0 c2 3a 17 3f ad f0 8e 3f 2e 67 f3 3e df 75 8e 3f
       0.5907403 1.1167198 0.47539657 1.1129721
0000c0 eb 80 2a be b5 a1 9e 3f a6 18 25 3f 9b 4b 2d 3e
       -0.16650741 1.2393099 0.64490736 0.16923372
0000d0 fa e6 88 3f 81 f6 23 3f 2e 24 80 3f ef d2 22 3f
       1.0695488 0.6404801 1.0011041 0.6360311
0000e0 b9 21 8a 3f 5e 6e 45 3f 89 b0 0d 3f f5 6d 91 3f
       1.0791541 0.7712153 0.55347496 1.1361681
0000f0 39 3f 21 3e f2 e8 23 bf b5 bd 66 3f d2 9c 78 3f
       0.15746774 -0.6402732 0.9013322 0.9711429
000100 63 89 8c 3f 6b f2 3e 3d 8e fd 7f 3f fb 2d 7f 3d
       1.0979427 0.046617907 0.9999627 0.06229971
000110 fd 0c 89 3f e7 69 8d 3f 66 0b 29 3f bd 86 77 3f
       1.0707089 1.1047944 0.6603302 0.9668997
000120 d8 d2 da be 24 a8 40 3f 9c 7e 8f 3f ad 5b d5 be
       -0.42738986 0.7525656 1.1210513 -0.41671506
000130 5f 9a ed be d9 55 ed be 26 b4 8f 3f d9 75 34 3e
       -0.46406838 -0.4635456 1.1226852 0.1762308
000140 0c d9 31 3f 9d f7 f0 3d 1c 6d b5 bd 0d 46 ac 3f
       0.6947181 0.117659785 -0.088587016 1.3458878
000150 01 43 17 bf 15 8d 34 bf e0 dd 8c 3f ce 8d d9 3d
       -0.59086615 -0.70527774 1.1005211 0.1062275
000160 54 b3 fe be 77 39 2b 3f 1b d3 2c bf 4b 08 23 3f
       -0.49746192 0.6688456 -0.6750962 0.6368453
000170 a3 af 52 3f 8f cc a2 3f 2d d1 6e 3f 89 a1 0f bf
       0.8229925 1.2718676 0.93287927 -0.5610586
000180 51 d3 d6 be f2 0d 14 bf 23 b6 8c 3f 47 71 9e bd
       -0.41958097 -0.5783378 1.0993084 -0.0773645
000190 fb bb 8d be 2e 0d a6 be cf 04 f7 3e 1a 9e 95 3d
       -0.2768248 -0.3243193 0.48245856 0.07305546
0001a0 e5 83 06 3f 26 57 82 3f df a4 55 3d 6f 67 a7 3f
       0.52545005 1.0182846 0.052159186 1.307844
0001b0 f2 f5 18 3f f8 66 0f bf 69 97 e5 be 1d 4a 28 3f
       0.5975028 -0.5601649 -0.4484208 0.6573809
0001c0 83 63 93 bd 77 f7 e9 bc 43 f5 40 3f 02 b8 32 bd
       -0.07196715 -0.028560383 0.7537424 -0.043632515
0001d0 e6 1e 2b 3f 30 d2 a3 be a7 c1 3a 3f 1d 00 fd bd
       0.6684402 -0.31996298 0.7295174 -0.12353537
0001e0 aa 8b 9d 3f 5f c3 3e be ce 2d a4 3f de c7 9c b9
       1.2308247 -0.18629216 1.2826478 -0.0002990355
0001f0 14 45 c1 3d 40 93 c3 3e b9 4d c3 3d 50 37 e1 3e
       0.09437004 0.3819828 0.09536309 0.43987513
000200 0f 2f ee be 34 ca 89 3f e6 cc 5c 3f 5b 17 aa be
       -0.46520278 1.0764832 0.8625015 -0.33220944
000210 e8 a7 62 be 89 27 8f 3f 37 57 8d 3f 94 f5 9c 3f
       -0.22134364 1.118394 1.1042241 1.2262444
000220 28 cf 4a 3f db 0d 65 3f 95 61 ce be a2 78 83 3f
       0.79222345 0.89474267 -0.40308824 1.0271189
000230 13 55 9c be 36 00 9c 3f fd d6 28 bf b3 9f ec be
       -0.30533656 1.2187564 -0.65953046 -0.4621559
000240 63 d2 a2 be 06 55 97 3f db d1 82 3f 74 0e 8d 3f
       -0.31801137 1.1822822 1.0220293 1.1020036
000250 35 d7 3a be d6 08 26 3f 38 cb c6 3e 19 c3 8b bd
       -0.18246157 0.6485723 0.3882692 -0.06824321
000260 bb 8e 84 3f 15 c5 a2 3f 19 af 2a bf 27 fd 8a 3f
       1.0356058 1.2716395 -0.6667343 1.0858506
000270 e4 35 64 3d db 88 36 3f d2 b5 97 3e 08 bc 2e 3f
       0.055715457 0.71302575 0.29630905 0.6825566
000280 f9 b6 9f 3f 7a a9 a9 bd b7 24 1c 3f a5 93 e6 3d
       1.2477714 -0.08284278 0.6099352 0.1125863
000290 11 23 5a 3f 52 fb f8 3e 09 78 ef bd 16 c0 89 3f
       0.8520976 0.48629242 -0.11692817 1.0761745
0002a0 5a 0b a9 3f 87 76 3b 3f 1c ce 85 3f 29 2a 5e 3f
       1.3206589 0.73227733 1.0453525 0.8678308
0002b0 72 1c 05 bf 7d 66 bc be da 55 93 3f 38 9a b1 3f
       -0.5199653 -0.36796942 1.1510575 1.3875189
0002c0 28 66 98 3f 50 47 4a 3e 78 24 26 bd 76 06 a5 be
       1.1906176 0.19753766 -0.040562123 -0.32231492
0002d0 3d 5d 5a 3f e7 ec 8e 3f 1d 73 d3 be 64 01 34 3f
       0.8529852 1.1166047 -0.41298762 0.7031462
0002e0 de 1f 8d 3f 40 d9 38 3f 04 c1 2f 3f 8c 54 1d be
       1.102535 0.722065 0.68653893 -0.15364283
0002f0 4c 6f 8e 3f c8 1b 57 3f c6 b3 dd be f0 d9 40 be
       1.1127715 0.84026766 -0.4330122 -0.18833137
000300 28 09 94 3f b8 a8 13 3e 19 f0 6f bd 3a 88 27 3f
       1.1565294 0.1441983 -0.058578584 0.6544224
000310 ea 52 91 3f 79 f0 4e 3f 4b 62 56 3f 59 09 a9 3f
       1.1353428 0.8083568 0.83743733 1.3205978
000320 8d c4 a0 3f 14 cf 1d 3f 20 e6 d3 be bd 79 e4 be
       1.2559983 0.616441 -0.4138651 -0.4462413
000330 c3 89 dc 3c 03 2b 19 be 1d 6a 93 be 5b 57 7e 3f
       0.026921159 -0.14957814 -0.28791896 0.99352044
000340 e8 13 83 3f 5b 7b f9 be b6 fb e9 be d8 92 26 3f
       1.024045 -0.48726925 -0.45699853 0.65067816
000350 8f 30 1c 3f ef 09 9c 3f b7 65 12 bf a2 ca 34 3f
       0.61011595 1.2190531 -0.57186455 0.70621693
000360 0b 1f d8 be c9 61 19 3f dc 37 23 bf 34 1c 8f 3e
       -0.42211184 0.59914833 -0.6375711 0.27951205
000370 bc 2f 84 3f 99 fd 9e 3f 89 57 4d 3f d4 98 31 3f
       1.0327067 1.2421142 0.80211693 0.6937382
000380 e7 f7 20 3f fb 82 30 3f 5e c3 3a 3f 98 a2 91 3f
       0.6287827 0.6894986 0.72954357 1.1377745
000390 d2 77 a1 be 50 aa 87 3f cb 19 55 3f 7f c8 8f 3f
       -0.31536728 1.059885 0.8324248 1.1233062
0003a0 29 c3 43 3f b0 bc 36 3f d2 bc 8e 3f 72 7e 1e be
       0.76469666 0.71381664 1.1151373 -0.15477923
0003b0 d8 52 d0 3d c9 54 68 3f d3 99 0c 3e ad ab f0 be
       0.10172051 0.9075437 0.13730554 -0.47005978
0003c0 eb c0 38 3f 9a ac 06 bf 9e e2 c2 be be 88 35 be
       0.7216937 -0.5260712 -0.3806352 -0.17727944
0003d0 db a3 94 bd 9d 05 1b be d8 9e 5d bf 82 81 8d 3f
       -0.072578155 -0.1513886 -0.865705 1.1055148
0003e0 6c 4c 52 3f 7f d0 a0 3f 35 68 b5 bd b1 c9 8d 3e
       0.8214786 1.2563628 -0.088577665 0.2769294
0003f0 d0 6a 8c 3f 24 d4 dc 3e 1e 3e 0a bf be cf 03 3f
       1.0970097 0.431306 -0.54001033 0.51488864

weight f4 [1, 256]
000000 c7 b1 39 bf 79 fe dd 3e a1 1e e7 3e 33 10 12 bf
       -0.7253689 0.4335821 0.45140556 -0.5705597
000010 10 d4 86 40 0b 05 ba bf 15 41 e3 3e 74 32 b5 3e
       4.2133865 -1.4532789 0.4438559 0.35390055
000020 f3 1b e5 3e df 40 2a 3f 17 47 90 bf d4 c4 b6 c0
       0.44747886 0.66505235 -1.1271695 -5.711527
000030 ee 0a 20 3f 73 78 e3 be 08 32 46 bf 8b 9c 7a bf
       0.6251668 -0.44427833 -0.7742009 -0.97895116
000040 3a 64 75 3e 5f 0b 6f bf 6a 29 31 3e 04 14 c0 3e
       0.23964015 -0.93376726 0.17300954 0.3751527
000050 a0 28 17 3e 75 1f 17 3f 83 79 f4 bf 15 96 10 bf
       0.14761591 0.59032375 -1.9099582 -0.56479007
000060 5c a5 95 3e 0b bb 6f 3e d8 ac c8 3e 46 47 2c 3e
       0.29227722 0.23411195 0.3919437 0.16824064
000070 12 36 9d bf 37 64 88 3f f4 67 e9 3e 07 41 d6 3d
       -1.2282126 1.0655583 0.45587122 0.10461622
000080 05 2d 1b 3e 9e 47 58 3e 5e 84 4d 3e d2 08 2b 3f
       0.15153892 0.2112107 0.20070025 0.66810334
000090 07 1a 05 bf 1a e7 c3 bf a2 7f dd 3e 7b 0c 5d bf
       -0.5199284 -1.5304902 0.4326144 -0.8634717
0000a0 d4 66 a2 3e 7f 8b 33 3e 08 2e 4d 3f 67 50 51 bf
       0.31719077 0.17533682 0.80148363 -0.8176331
0000b0 ea 33 cb bf 0d a5 28 3f 55 8f 16 c0 be dc ac 3e
       -1.5875218 0.6587685 -2.3524983 0.33762163
0000c0 9e 50 3c bf 56 e0 eb 3e 20 59 24 c0 9e 5c 23 40
       -0.7356051 0.46069592 -2.5679398 2.552528
0000d0 1b 73 33 3f c0 eb 2a 3f 34 c9 83 c0 a4 2c 2c 3f
       0.7009751 0.66765976 -4.118311 0.67255616
0000e0 6b 1d d5 3e 5b 50 9c 3e ef d9 63 3f 3d 8a 09 3f
       0.41624007 0.30530056 0.89004415 0.5372656
0000f0 ee 3f 18 c0 e7 72 1f bf 7d 55 9e 3e 5f d5 95 3e
       -2.378902 -0.622847 0.30924597 0.29264352
000100 3f bc 67 3e 67 da 04 c0 12 28 87 3e ba de f7 bf
       0.22630404 -2.0758302 0.2639776 -1.9364846
000110 d5 c5 5c 3f 88 41 56 3e b7 56 9f bf fd 5b 87 3e
       0.8623937 0.20923436 -1.2448338 0.2643737
000120 44 f1 06 bf ab 84 d6 3e 7d d2 48 3f 5e 19 9c bf
       -0.5271189 0.41898093 0.7844618 -1.2195241
000130 9a 45 d8 bf 12 58 18 bf e9 0a 6b 3e 70 29 2b bf
       -1.6896241 -0.59509385 0.2295338 -0.66860104
000140 64 f7 5c 3f 60 0d 02 bf 7f 75 81 bf a7 be 07 3f
       0.8631499 -0.5080166 -1.0113982 0.5302529
000150 6b 9e 01 bf f3 70 b8 be 83 2d 60 3e 29 22 01 c0
       -0.5063235 -0.36023673 0.21892361 -2.01771
000160 18 d2 55 bf 69 cc 99 3e f9 ff b5 be ad 3c 0f 3f
       -0.835237 0.30038765 -0.35546854 0.5595196
000170 df 6d 6a c0 e7 cf ce 3e 28 3f 15 3f 2f ca 22 bf
       -3.662956 0.40392992 0.58299494 -0.6358976
000180 86 0a 39 bf 84 ee 60 bf 97 be e2 3e a9 80 cb bf
       -0.7228168 -0.87863946 0.44286034 -1.5898639
000190 c7 b6 4b bf fc 2b 4c bf da b0 60 bf 7d fa 4b bf
       -0.7957577 -0.79754615 -0.87769854 -0.7967909
0001a0 af 1d 96 3f d2 d4 f0 3d a9 d7 d6 bf b3 a8 22 3f
       1.1727809 0.11759342 -1.6784564 0.63538665
0001b0 81 9e 2d 3f 0f e8 05 bf dd 85 30 bf 06 c2 85 3f
       0.6781998 -0.5230722 -0.6895426 1.0449836
0001c0 a6 a5 4f bf 2f 02 05 c0 59 77 81 c0 4f 7b 89 be
       -0.81112134 -2.0782583 -4.045819 -0.2685189
0001d0 00 bd 50 c0 02 48 ae be 5c cf b7 3e fc 19 a2 bf
       -3.2615356 -0.34039313 0.3590039 -1.266418
0001e0 79 72 eb 3e 77 1f a3 40 c4 94 ed 3e c7 50 27 bf
       0.45985773 5.097591 0.46402562 -0.6535763
0001f0 52 24 26 bf f2 d8 36 3f 81 38 eb bf 2d e9 ce bf
       -0.6489917 0.7142478 -1.8376619 -1.616491
000200 78 b4 7c bf 22 d2 25 3f 6d 23 41 3f 6c 7a 03 bf
       -0.98712873 0.6477376 0.7544468 -0.51358676
000210 e6 6b 04 bf a1 5e 06 3f f9 a8 29 3f f2 3e d5 3e
       -0.5172714 0.5248814 0.66273457 0.41649586
000220 af 75 f4 3d 0a a8 dc 3e f9 f6 81 bf b5 d8 b6 c0
       0.11936509 0.43096954 -1.0153495 -5.7139535
000230 55 03 70 bf 42 40 ff 3e f4 80 b0 be 1b c7 42 bf
       -0.93755084 0.49853712 -0.34473383 -0.7608506
000240 5a 25 51 bf 3e ef fa 3e fd f4 4a 3e be 43 2a 3f
       -0.8169762 0.49010652 0.19820018 0.66509616
000250 1f 8b 2d bf 94 39 96 c0 2c fa 54 c0 d8 8b 05 bf
       -0.67790407 -4.6945286 -3.3277693 -0.5216651
000260 38 aa dc 3e 65 8d e8 3e 3b fa 1a bf 58 4e 46 3e
       0.43098617 0.45420375 -0.6053807 0.19365823
000270 14 63 04 c0 db 85 81 3e f6 f0 3a 40 9b 15 fa 3e
       -2.0685472 0.25297436 2.920957 0.4884461
000280 f6 8d 04 3f b2 b8 b2 bf 58 59 ea 3e 19 57 c9 bf
       0.51779115 -1.3962615 0.4577129 -1.5729705
000290 ce 99 0b 3e 91 6d 69 c0 1f 8a 6c bf 4f ea aa 3e
       0.1363289 -3.6473124 -0.92398256 0.33381888
0002a0 60 29 cc 3e 35 18 90 c0 e8 45 8e 3e fa df 87 3e
       0.39875317 -4.502955 0.2778771 0.26538068
0002b0 25 2d 93 bf 4e 18 20 bf 20 e9 df 3e e2 81 10 3f
       -1.1498152 -0.62537086 0.43732548 0.56448185
0002c0 18 02 05 3f 91 27 1d c0 40 71 28 bf c6 53 37 bf
       0.5195632 -2.45554 -0.65797806 -0.71612203
0002d0 73 64 31 3e ed 4a a8 3e 28 36 90 bf 36 25 02 c0
       0.17323475 0.32869664 -1.1266527 -2.0335212
0002e0 1f c6 18 3f d6 1f 7e 3f 12 25 91 3e 26 b0 43 bf
       0.5967731 0.9926733 0.28348595 -0.76440656
0002f0 a9 73 2f 3f bd 84 56 3e f7 f6 85 bf 34 dd 96 bf
       0.6853586 0.20949073 -1.0465993 -1.1786256
000300 37 75 1b 3f a2 3b 0c c0 87 78 00 bf f2 60 14 3f
       0.6072573 -2.1911397 -0.5018391 0.57960427
000310 79 aa 53 3f 14 4a bb 3d 7f e6 f4 3d a8 88 19 3f
       0.82681996 0.09144989 0.11958026 0.59974146
000320 aa dc e0 3e 9a 62 c6 3e 1b 41 6b bf 23 d8 8e bf
       0.43918353 0.38747102 -0.9189622 -1.115971
000330 b1 2f a7 bf 22 04 8a bf 1d e4 1f bf 61 ab 33 3e
       -1.3061429 -1.0782511 -0.6245745 0.17545845
000340 9d b3 53 3e 9f 63 29 bf 6a 33 1d bf 1c 75 3c 3f
       0.20673986 -0.66167635 -0.61406577 0.73616195
000350 e2 e8 44 c0 b8 e8 c9 3e f5 3c 32 bf 5e f5 83 c0
       -3.076714 0.39435363 -0.69624263 -4.123702
000360 7f 68 b0 bf c1 25 61 c0 1d 50 c4 bf b0 a1 bf 3f
       -1.378189 -3.5179293 -1.5336949 1.4971218
000370 ce dc c8 c0 7d 71 87 3e 3e f9 99 3e 26 22 1e 3f
       -6.2769537 0.26453772 0.3007297 0.61770856
000380 2e 4a 0b 3f 46 61 31 3f 75 ec 78 c0 4e 90 60 3e
       0.54410064 0.6928905 -3.8894322 0.21930048
000390 06 41 67 bf 8b 78 96 3d aa 28 e0 3e 9b 43 3f 3e
       -0.9033359 0.073472105 0.43781024 0.18678133
0003a0 7d 2c 66 3e b5 1a 28 3f 0a 7f 3c 3f 52 e8 a8 bf
       0.22477908 0.6566575 0.73631346 -1.3195899
0003b0 4c bb ce bf fc ff b8 3d 75 95 04 c0 73 70 95 bf
       -1.6150908 0.090332 -2.0716221 -1.1674942
0003c0 5d d7 cb 3e 9b 92 27 bf 1e 5b c6 bf e1 a5 ab bf
       0.39812747 -0.6545808 -1.5496557 -1.3409997
0003d0 5d 09 76 bf 46 9b 8c bf 0e 91 ef be da 9b 26 3f
       -0.9610804 -1.0984886 -0.46790355 0.6508156
0003e0 d9 35 f7 3e a8 16 ca 3e 83 dd 8f bf 4b 50 b7 bf
       0.4828327 0.3947041 -1.1239475 -1.4321378
0003f0 a9 ad a9 3e 8c 00 db bf 30 59 be bf 9e 10 09 c0
       0.33140305 -1.7109542 -1.4870968 -2.1416392

obs_std f4 [28]
000000 cd cc 4c 3e cd cc 4c 3e 00 00 80 3f 00 00 80 3f
       0.2 0.2 1.0 1.0
000010 00 00 80 3f 00 00 00 3f 00 00 00 3f 00 00 00 3f
       1.0 0.5 0.5 0.5
000020 00 00 00 3f 00 00 00 3f 00 00 00 3f 00 00 00 3f
       0.5 0.5 0.5 0.5
000030 00 00 00 3f 00 00 00 3f 00 00 00 3f 00 00 80 40
       0.5 0.5 0.5 4.0
000040 00 00 80 40 00 00 80 40 00 00 80 40 00 00 80 40
       4.0 4.0 4.0 4.0
000050 00 00 80 40 00 00 80 40 00 00 80 40 00 00 80 40
       4.0 4.0 4.0 4.0
000060 00 00 80 40 00 00 80 3f 00 00 80 3f 00 00 80 3f
       4.0 1.0 1.0 1.0

obs_mean f4 [28]
000000 00 00 00 00 00 00 00 00 00 00 00 00 00 00 00 00
       0.0 0.0 0.0 0.0
000010 00 00 00 00 00 00 00 00 00 00 00 00 cd cc 4c be
       0.0 0.0 0.0 -0.2
000020 9a 99 19 3f cd cc cc be 00 00 00 00 00 00 00 00
       0.6 -0.4 0.0 0.0
000030 cd cc 4c be 9a 99 19 3f cd cc cc be 00 00 00 00
       -0.2 0.6 -0.4 0.0
000040 00 00 00 00 00 00 00 00 00 00 00 00 00 00 00 00
       0.0 0.0 0.0 0.0
000050 00 00 00 00 00 00 00 00 00 00 00 00 00 00 00 00
       0.0 0.0 0.0 0.0
000060 00 00 00 00 00 00 00 3f 00 00 00 3f 00 00 00 3f
       0.0 0.5 0.5 0.5
