trained/h1_walk/critic_31799.pt (torch, 299198 bytes, 7 tensors)

weight f4 [256, 28]
0	0xbe095f9e	-0.13415381
1	0xbd7f768d	-0.06236892
2	0x3d92104d	0.071320154
3	0xbe990c52	-0.29892212
4	0x3e903975	0.28168836
5	0xbe5fcf98	-0.21856534
6	0xbc4d24e2	-0.012521001
7	0x3c7effaf	0.015563889
8	0x3e9a4598	0.3013122
9	0xbea5d3d3	-0.32388172
10	0xbdf3e6b6	-0.11909239
11	0x3da5c74f	0.08094656
12	0x3e24a3ad	0.16078062
13	0xbe183530	-0.1486404
14	0x3ed4c6f9	0.41558054
15	0x3eab0dab	0.33408865
16	0xbc1afd12	-0.009459751
17	0x3fa193e6	1.262326
18	0x3f1f9fd3	0.6235325
19	0x3d9c6294	0.0763599
20	0x3f13d689	0.5774923
21	0xbd45ec24	-0.048320904
22	0xc0135bb0	-2.3024712
23	0xbfa26d85	-1.2689673
24	0xbdd3b985	-0.103381194
25	0xbdc4b1d4	-0.096042305
26	0xbd9949e9	-0.074848
27	0x3ebef941	0.3729954
28	0xbc0a062a	-0.008424321
29	0xbcf4c894	-0.0298808
30	0xbe4cde1b	-0.20006602
31	0x3f0ad548	0.5423169
32	0x3d749c28	0.059719235
33	0x3eb4bbf8	0.3529966
34	0xbd2cbc97	-0.04217204
35	0xbe907ec0	-0.28221703
36	0x3e2b83da	0.16749516
37	0xbe8cad37	-0.27475902
38	0x3ca349b6	0.019932609
39	0x3df8c2da	0.1214654
40	0xbd6ce337	-0.057833876
41	0xbe1f5e09	-0.15563215
42	0x3e49016a	0.19629446
43	0x3e7aa8d5	0.24478467
44	0x3e592948	0.21207154
45	0x3fc4da6c	1.5379157
46	0x3f5c5665	0.8606933
47	0x3dd2058d	0.10254965
48	0xbc8166bc	-0.015796058
49	0xbe5ec9b8	-0.21756637
50	0xbd510d9a	-0.051038362
51	0xbd7bdd2a	-0.061490215
52	0xbd4a8062	-0.04943884
53	0x3e91b14f	0.28455588
54	0x3da7d7fc	0.081954926
55	0xbc5faa62	-0.013651462
56	0x3fc1605a	1.5107529
57	0xbf0bcaa3	-0.54606074
58	0x3f41cf1e	0.7570666
59	0xbef92582	-0.4866143
60	0xbe500aaf	-0.20316575
61	0x3e134492	0.14381626
62	0x3e3a9daa	0.18224207
63	0x3f0d1a5e	0.5511836
64	0xbccdcc63	-0.025121873
65	0x3f22e4e1	0.6363049
66	0xbebd128f	-0.36928222
67	0x402d5a69	2.7086432
68	0xbdb7b2aa	-0.08969624
69	0xbcd14925	-0.025547573
70	0x3ee7b914	0.4525839
71	0xbde3a067	-0.11114579
72	0x3e2100db	0.15722983
73	0x3e1993e4	0.14997822
74	0x3dfcc1e8	0.12341672
75	0x3dd0e5a3	0.1020005
76	0xbf0fc72f	-0.56163305
77	0x3ffa1395	1.9537226
78	0xbfcace4a	-1.5844204
79	0xbf8942cc	-1.072351
80	0x3e66afab	0.2252795
81	0xbe14cc75	-0.14531119
82	0x3e9d1f49	0.3068793
83	0x3e7e4e65	0.24834593
84	0x3dff9772	0.12480058
85	0xbe25f853	-0.1620801
86	0xbe43f993	-0.19138174
87	0x3ed08d78	0.40732932
88	0x3c951dad	0.018202627
89	0xbe21e166	-0.15808639
90	0x3f0d80e6	0.5527481
91	0xbefba320	-0.49147892
92	0xbf45292e	-0.7701596
93	0xbf3251cd	-0.6965607
94	0x3dec6ab4	0.115437895
95	0x3e7c5a34	0.24643785
96	0x3d5ff503	0.05467702
97	0x3eaceb44	0.33773243
98	0xbde35e55	-0.11101977
99	0x3c3f3288	0.011669762
100	0xbeb262ea	-0.3484109
101	0x3e501649	0.20321001
102	0x3e04d97b	0.12973587
103	0xbdeb79bf	-0.114978306
104	0xbbc2707c	-0.0059338193
105	0xbc52e5ea	-0.012872199
106	0x3f046901	0.51722723
107	0x3de4f887	0.11180215
108	0x3e2bc551	0.16774489
109	0x3ed9dc38	0.42550826
110	0x3e2a3aac	0.16623944
111	0x3d8549d9	0.06508226
112	0x3ce01407	0.0273533
113	0xbe07dd3e	-0.13267991
114	0x3e01b52f	0.12666772
115	0xbe8e8f06	-0.27843493
116	0x3e09903a	0.13433924
117	0x3e94a832	0.29034573
118	0xbf27eff0	-0.6560049
119	0x3d5bc34c	0.053653046
120	0xbc9ff407	-0.019525541
121	0xbeaa08c6	-0.3320982
122	0xbe81cb43	-0.2535039
123	0x3e80f16e	0.25184196
124	0x3e635da7	0.22203694
125	0x3ea7e185	0.32789245
126	0x3e1813b7	0.1485127
127	0x3dcaa3b5	0.09894506
128	0x3d167c29	0.036739502
129	0xbe4a5fbd	-0.19763084
130	0x3db6be79	0.089230485
131	0xbe6cc306	-0.2312127
132	0x3e2d716e	0.16937801
133	0x3ccec2fd	0.025239462
134	0xbea2ec55	-0.31820932
135	0xbd92e82d	-0.0717319
136	0xba920782	-0.0011141154
137	0xbe125f68	-0.14294207
138	0x3ef158f8	0.4713819
139	0x3e74ff9b	0.23925631
140	0x3db53174	0.08847323
141	0x3ad7b790	0.0016457904
142	0xbdd8884a	-0.1057287
143	0x3e0992f3	0.13434963
144	0xbdb4a88e	-0.08821212
145	0x3ede7bf4	0.43453944
146	0xbf27b1f9	-0.6550594
147	0x3e6bdddc	0.23033851
148	0x3dcaf810	0.099105954
149	0xbc874778	-0.016513571
150	0xbe3ecc71	-0.18632676
151	0x3f935228	1.1509447
152	0xbe2ca2a2	-0.16858914
153	0x3dbd1ad0	0.0923363
154	0x3e04f524	0.12984139
155	0xbe28a565	-0.16469343
156	0xbdffaa80	-0.12483692
157	0xbee0f023	-0.4393321
158	0xbe67ac77	-0.22624384
159	0xbe1a1fc0	-0.15051174
160	0x3d617b2f	0.055049118
161	0xbbe99ff9	-0.007129666
162	0x3f4f63a9	0.81011444
163	0x3f150215	0.582063
164	0x3deb09b3	0.11476459
165	0xbec159d9	-0.3776386
166	0x39c4256b	0.00037411912
167	0xbe60786c	-0.21920937
168	0xbe1fed31	-0.15617825
169	0x3dd0b17e	0.10190104
170	0x3d11f687	0.035635497
171	0x3e8055cf	0.25065467
172	0xbda4ec04	-0.08052829
173	0xbc0cdbf9	-0.008597367
174	0xbf6ac893	-0.917123
175	0xbd99471b	-0.074842654
176	0x3e6fa2b0	0.23401904
177	0xbe9a5c92	-0.3014875
178	0x3f0542a5	0.52054816
179	0xbdf49c44	-0.11943868
180	0xbf1c448f	-0.6104211
181	0xbeadc51d	-0.33939448
182	0x3e3b124f	0.18268703
183	0xbe17dfa5	-0.14831407
184	0xbc8b79a9	-0.017025786
185	0x3f022516	0.5083784
186	0x3d8e7791	0.06956399
187	0xbcfb9d52	-0.030714665
188	0xbbebbf75	-0.0071944543
189	0x3d276569	0.040868197
190	0x3d87bb14	0.06627479
191	0x3dbe59e8	0.09294492
192	0x3df9695f	0.12178301
193	0xbecdc92d	-0.40192547
194	0x3e962182	0.2932244
195	0xbe0cf0e6	-0.1376377
196	0x3e086fc1	0.1332388
197	0x3de432ce	0.11142503
198	0x3eb90f81	0.3614464
199	0x3e9d7d31	0.30759576
200	0x3d867be9	0.06566603
201	0xbe1c7ae8	-0.1528126
202	0xbfa75e1e	-1.3075597
203	0xbf2a2d0c	-0.66474986
204	0xbedb005b	-0.4277371
205	0xbe0abb0b	-0.13547914
206	0xbe490c64	-0.19633633
207	0x3f166728	0.58751154
208	0x3f0e92d5	0.556928
209	0x3f086acf	0.53287977
210	0xbec243df	-0.37942407
211	0xbc82f3e9	-0.015985446
212	0x3f6cd7f1	0.92517
213	0x3f7f7142	0.9978219
214	0x3e553434	0.20820695
215	0x3eb30e61	0.34971908
216	0x3cfddd72	0.030989382
217	0xbe0451c9	-0.12921824
218	0xbe2676d2	-0.16256264
219	0xbd3cbd6a	-0.046079077
220	0xbd202f3e	-0.039107554
221	0x3ef0a71d	0.47002497
222	0x3ce3957e	0.027781244
223	0xbe54cde1	-0.20781662
224	0x3cedea74	0.02904246
225	0xbd3461c1	-0.044038538
226	0x3d6e0aef	0.058115896
227	0x3f86081b	1.0471224
228	0x3bd5e444	0.0065274555
229	0x3c0a56cf	0.008443548
230	0x3e97e140	0.2966404
231	0xbea15700	-0.31511688
232	0xbe2d9430	-0.1695106
233	0xbde2405c	-0.11047432
234	0x3de7b465	0.113137044
235	0xbe835e04	-0.25657666
236	0x3d283326	0.041064404
237	0xbd2d7ffc	-0.042358384
238	0xbdac9c1b	-0.08428212
239	0x3f118c8e	0.56855094
240	0xbe612e53	-0.21990328
241	0x401150c9	2.2705557
242	0x3f7aac83	0.9791948
243	0xbc6a2a20	-0.01429227
244	0xbf083ea3	-0.53220576
245	0x3f17149d	0.5901583
246	0x3f78b2d6	0.9714788
247	0x3f272709	0.6529394
248	0x3d1b1ba5	0.03786816
249	0x3d716974	0.05893846
250	0x3dd63fa1	0.10461355
251	0x3d371ee5	0.044707198
252	0x3e59c4a7	0.21266423
253	0x3e1f52eb	0.15558974
254	0xbe579d1d	-0.21056028
255	0xbcd35662	-0.025798026

bias f4 [256]
0	0xbe76e305	-0.24110039
1	0xbe0e8340	-0.13917255
2	0xbf2aeec3	-0.6677057
3	0x3d2e2f53	0.0425256
4	0xbecf4bd3	-0.40487537
5	0xbe4b09be	-0.19827935
6	0xbe4d6565	-0.2005821
7	0xbe8bc7f3	-0.27300987
8	0x3ed0b24f	0.4076104
9	0x3d4db0b9	0.050217364
10	0x3e88ed07	0.26743338
11	0xbeb482d8	-0.35256076
12	0x3e23a823	0.15982108
13	0xbf1cf4f9	-0.613113
14	0xbf8f2b43	-1.1185077
15	0xbf287dd8	-0.6581702
16	0xbf18a08a	-0.59619963
17	0xbb85e6d1	-0.0040863534
18	0xbeafff79	-0.34374598
19	0xbdcb1ce8	-0.09917623
20	0xbee57b29	-0.44820526
21	0xbe9bdff2	-0.30444294
22	0xbd13116d	-0.03590529
23	0x3ee0d274	0.43910563
24	0x3e0c1906	0.1368142
25	0xbcbd78a0	-0.023128808
26	0xbeb38bc3	-0.35067567
27	0x3b864c1e	0.0040984293
28	0xbe5318c2	-0.20614913
29	0xbed8d5ac	-0.4235052
30	0xbe825abd	-0.25459853
31	0x3eabf447	0.33584806
32	0xbdc798f6	-0.09745972
33	0x3d718152	0.05896122
34	0xbeafb9c7	-0.34321424
35	0xbd307e6c	-0.043089315
36	0xbe9f467c	-0.31108463
37	0xbe8a21d5	-0.26978937
38	0xbd246eed	-0.04014485
39	0xbea2eb6b	-0.31820235
40	0x3ec075e1	0.37589934
41	0xbe9ec4e2	-0.31009585
42	0x3ec45359	0.3834484
43	0xbea91726	-0.33025473
44	0x3e823317	0.25429603
45	0x3e15c573	0.14626102
46	0xbe819cec	-0.25315034
47	0xbef659e4	-0.48115456
48	0x3ce2b276	0.027672987
49	0xbf6f3eab	-0.93455
50	0xbf1610d2	-0.58619416
51	0xbe7291f2	-0.23688486
52	0xbf4509f3	-0.76968306
53	0xbd6f216c	-0.058381483
54	0xbed7c8a6	-0.4214527
55	0x3eaad3f9	0.33364847
56	0x3cf1936a	0.029489238
57	0xbe89ae23	-0.26890668
58	0xbe63ef94	-0.2225936
59	0xbf1a568c	-0.6028831
60	0xbebefd16	-0.37302464
61	0x3e702f6a	0.23455587
62	0xbf265942	-0.64979947
63	0xbea620d2	-0.32446915
64	0xbd7e3d10	-0.062069952
65	0xbd53facd	-0.051752854
66	0xbefe77df	-0.4970083
67	0xbf04f46c	-0.5193546
68	0xbf287cba	-0.6581532
69	0xbeb6b5c3	-0.35685548
70	0xbf658fc0	-0.8967247
71	0xbeb02f1d	-0.34410945
72	0xbe670e68	-0.2256409
73	0xbddca456	-0.10773532
74	0x3ea778f4	0.32709467
75	0xbed9cc4b	-0.42538676
76	0xbe4aec77	-0.19816767
77	0x3e846359	0.25857046
78	0x3ee57e16	0.44822758
79	0x3daf4f9a	0.08560105
80	0x3e8e9e5e	0.278552
81	0xbc013f34	-0.007888604
82	0xbe6e11a7	-0.23248921
83	0x3edeb956	0.43500775
84	0xbe433ad5	-0.19065411
85	0xbeccf1ac	-0.4002813
86	0xbefba901	-0.49152377
87	0x3f011c83	0.5043413
88	0x3e42aceb	0.19011275
89	0xbe6eb7cb	-0.23312299
90	0xbeff0c47	-0.49814054
91	0xbcf68c62	-0.030096237
92	0xbc94459e	-0.018099602
93	0xbe9b269f	-0.30302903
94	0xbe2b63bb	-0.16737263
95	0xbef03056	-0.46911877
96	0x3d816fb8	0.06320137
97	0xbef72f02	-0.48278052
98	0xbe21486e	-0.15750286
99	0xbe9bfc63	-0.30465993
100	0x3d9a471a	0.07533093
101	0xbf1ccf3a	-0.612537
102	0x3e6afdf2	0.22948435
103	0xbf2c792e	-0.67372406
104	0xbeb5a96d	-0.35480824
105	0xbe13fe60	-0.14452505
106	0xbeecceb4	-0.46251452
107	0xbda9eb27	-0.08296805
108	0xbe97067f	-0.29497144
109	0xbe94cc15	-0.29061952
110	0x3d8b9e25	0.06817273
111	0xbe0dec5d	-0.13859697
112	0xbf126a6e	-0.5719365
113	0xbe18b816	-0.14913973
114	0x3f2efe0c	0.68356395
115	0xbf3882b9	-0.72074467
116	0x3e008aab	0.12552898
117	0xbe94bbbd	-0.29049483
118	0xbe8af333	-0.2713867
119	0x3eca2fbc	0.39489543
120	0x3e8a8790	0.2705655
121	0xbeba14f0	-0.363441
122	0xbf4e98aa	-0.80701697
123	0xbe844859	-0.25836447
124	0x3e24e4d5	0.16102917
125	0x3c26ccb0	0.010180637
126	0xbeacc925	-0.3374721
127	0xbeccca12	-0.39997917
128	0x3e96761c	0.29386985
129	0xbed71f84	-0.42016232
130	0xbfa1bb78	-1.2635336
131	0xbf1b3074	-0.6062081
132	0x3f14bee5	0.5810378
133	0xbdfe9eaf	-0.1243261
134	0xbe135e95	-0.14391549
135	0xbe33553b	-0.17512982
136	0x3e2bd7f0	0.16781592
137	0x3d998b85	0.07497314
138	0xbea0653d	-0.3132724
139	0x3edddac1	0.43330958
140	0xbeb1b6a4	-0.34709656
141	0xbe3969cf	-0.18106769
142	0x3e73c520	0.23805666
143	0xbe8bfd08	-0.27341485
144	0xbe1de9bd	-0.15421195
145	0xbe330726	-0.17483196
146	0xbf0b9aed	-0.54533273
147	0xbe0868b4	-0.13321191
148	0xbed2d06f	-0.41174647
149	0xbdf1b769	-0.11802561
150	0xbf167d1b	-0.58784646
151	0xbf4512e6	-0.7698196
152	0xbec9a67f	-0.3938484
153	0xbe0cd66f	-0.13753675
154	0xbe66f565	-0.22554548
155	0xbf11015f	-0.5664272
156	0xbe6c675f	-0.23086308
157	0xbf48a68d	-0.78379136
158	0xbe1cefa4	-0.1532579
159	0x3cccf0ec	0.025017224
160	0xbf10e1b2	-0.56594384
161	0x3eb2b655	0.34904733
162	0xbe77f2ab	-0.24213664
163	0xbd87cd0a	-0.06630905
164	0x3dd7dcbb	0.10540148
165	0xbe6c7706	-0.23092279
166	0x3ed646cd	0.41850892
167	0x3c8dd397	0.017312808
168	0xbe2e592e	-0.17026207
169	0xbec73158	-0.38904834
170	0xbf1167cb	-0.56799
171	0xbecaacba	-0.39584905
172	0xbb53dc17	-0.0032327229
173	0xbddc179d	-0.107466914
174	0x3db0a367	0.086249165
175	0xbed5f128	-0.4178555
176	0xbd49b19c	-0.049241647
177	0x3e6131bb	0.21991627
178	0xbf3c4ecc	-0.73557734
179	0xbdbefd09	-0.093256064
180	0x3ddaea14	0.10689178
181	0x3dbd5287	0.092442565
182	0x3e8bd9d4	0.27314627
183	0xbf7f4cd3	-0.997266
184	0xbf66c8e3	-0.9015028
185	0xbdb86704	-0.09004024
186	0xbefab9d7	-0.4896991
187	0x3e1afed7	0.15136276
188	0x3d3050cc	0.043045804
189	0xbddaf516	-0.10691278
190	0xbe359ae2	-0.17734864
191	0x3d8efdd9	0.06982011
192	0xbe023425	-0.12715204
193	0xbe5fef21	-0.21868564
194	0xbe3d3077	-0.18475519
195	0xbe37bd25	-0.17943247
196	0x3dab7b95	0.08373181
197	0x3ea05864	0.31317437
198	0xbdd1d387	-0.10245424
199	0xbf5344d5	-0.82526904
200	0x3d8a05a9	0.06739361
201	0xbd4d565b	-0.050131183
202	0xbebe934c	-0.37221754
203	0xbeecb189	-0.462292
204	0xbf6c707c	-0.9235914
205	0xbe5fb1ac	-0.2184512
206	0x3f211e23	0.6293661
207	0x3e76f253	0.24115877
208	0xbeb5db8a	-0.35519058
209	0x3d84140d	0.06449137
210	0xbdfac278	-0.12244123
211	0xbe96bdfb	-0.2944182
212	0xbd2394ea	-0.039936937
213	0xbe6cf52f	-0.23140405
214	0xbee07d1d	-0.43845454
215	0xbe8a453e	-0.27005953
216	0xbf4555b7	-0.77083915
217	0xbd8960d7	-0.06707924
218	0x3f8a470e	1.0802934
219	0xbf2a6335	-0.6655763
220	0xbec6d25b	-0.38832363
221	0x3d774e30	0.0603773
222	0xbefc2076	-0.49243516
223	0xbf42ca99	-0.7609039
224	0x3db9500a	0.09048469
225	0xbeb84acc	-0.35994565
226	0x3ea2dd7c	0.31809604
227	0xbe7ed4c0	-0.24885845
228	0xbe0bbb7a	-0.13645735
229	0xbeec6e58	-0.46177936
230	0x3d485c47	0.048916128
231	0x3e100e21	0.1406789
232	0xbe7c6337	-0.24647222
233	0xbe131b62	-0.14365914
234	0xbed30a50	-0.41218805
235	0xbe50bb32	-0.2038391
236	0xbf0d77a2	-0.5526067
237	0xbe2aa4d9	-0.16664447
238	0xbf1c3430	-0.6101713
239	0xbf096898	-0.5367522
240	0x3f18e326	0.597216
241	0xbee7e402	-0.45291144
242	0xbd7d230a	-0.061800994
243	0x3e410c4e	0.1885235
244	0xbf51a180	-0.81887054
245	0x3e8e5b67	0.2780411
246	0xbe0aa086	-0.13537797
247	0x3f27a227	0.654818
248	0x3d16816c	0.03674452
249	0x3ea45fb9	0.3210428
250	0xbe8577a3	-0.26067838
251	0xbf0515fd	-0.51986676
252	0xbe1fd0c3	-0.1560698
253	0xbf152c23	-0.5827047
254	0xbe3f6bbb	-0.1869344
255	0xbf02f48e	-0.5115441

weight f4 [256, 256]
0	0xbdc09bbd	-0.09404705
1	0x3e0974b7	0.1342343
2	0xbe97ee8a	-0.29674178
3	0xbe988f5f	-0.29796883
4	0x3c8df1e7	0.017327262
5	0x3e5ac039	0.2136239
6	0xbeb115be	-0.345869
7	0xbeb3532b	-0.3502439
8	0xbc5b102c	-0.013370555
9	0xbe4da0dc	-0.20080894
10	0xbc9fcd01	-0.019506933
11	0x3f067fb5	0.52538615
12	0x3d810b88	0.063010275
13	0xbf0afca8	-0.5429177
14	0x3dd26b48	0.102743685
15	0x3e28440e	0.16432211
16	0x3e76c6a8	0.24099219
17	0xbe16ddc7	-0.14733039
18	0x3cb6abcd	0.022298718
19	0x3e9afe6e	0.3027224
20	0x3e951abf	0.29121968
21	0x3e6619e6	0.22470817
22	0xbc22c1fe	-0.009933947
23	0x3e43dc09	0.19126906
24	0x3da4c37e	0.080451
25	0xbd0921ba	-0.03347943
26	0xbcd38f31	-0.025825115
27	0xbdc4bebf	-0.096066944
28	0x3cbd894d	0.02313676
29	0x3d290fc9	0.04127482
30	0x3e5da3c8	0.21644509
31	0x3c892e94	0.016745843
32	0xbeb8f3aa	-0.361234
33	0xbe254f76	-0.16143593
34	0x3e13ec0d	0.14445515
35	0x3d6f2fbf	0.058395144
36	0xbea12afc	-0.31478107
37	0x3df8f0da	0.12155314
38	0xbe486244	-0.19568735
39	0xbed3cb88	-0.4136622
40	0x3e320b12	0.17387035
41	0xbea6d775	-0.32586256
42	0x3dd860c4	0.105653316
43	0x3da23f67	0.07922249
44	0xbe7d20ae	-0.24719498
45	0x3d84bbf2	0.0648116
46	0x3e9e48de	0.30914968
47	0x3d7fd96c	0.06246321
48	0x3e754523	0.23952155
49	0x3f2b6d63	0.66963786
50	0xbd975630	-0.07389486
51	0xbdc667f4	-0.09687796
52	0xbe1a665b	-0.15078108
53	0xbd81e638	-0.06342739
54	0x3d904598	0.07044524
55	0xbf083f5e	-0.5322169
56	0x3eab46df	0.33452508
57	0x3e6c2fe8	0.2306515
58	0x3dc8248f	0.09772598
59	0xbec73b04	-0.38912213
60	0x3d18a16d	0.037263323
61	0xbd682b11	-0.056681696
62	0xbee130f1	-0.43982652
63	0x3e0207a1	0.12698223
64	0xbe63a6c3	-0.22231583
65	0x3daaf796	0.083480045
66	0x3e0c6279	0.1370944
67	0xbd12b38f	-0.03581577
68	0xbe5b8207	-0.2143632
69	0x3d84a99b	0.06477662
70	0x3de4fade	0.111806616
71	0xbef0233e	-0.46901888
72	0x3e2b6693	0.16738348
73	0x3ee52021	0.44751075
74	0xbeed7c71	-0.46384004
75	0x3e82d69f	0.25554368
76	0xbd15a237	-0.036531653
77	0x3e779dac	0.24181241
78	0x3cbf0435	0.023317436
79	0xbd9e268d	-0.07722197
80	0xbde3aaf0	-0.11116588
81	0x3d9008c7	0.07032924
82	0x3e73e6e3	0.23818545
83	0xbe41e1b4	-0.18933755
84	0xbe783b5c	-0.24241394
85	0x3e93653d	0.28788176
86	0xbe76cb02	-0.24100879
87	0x3dbb2482	0.09137823
88	0xbea4d5bb	-0.32194313
89	0xbf3d4ab5	-0.7394212
90	0x3d8fd6a8	0.07023364
91	0x3e4c87b6	0.19973645
92	0x3daf0ab6	0.08546965
93	0x3ed1cf4d	0.4097847
94	0x3d8af60c	0.06785211
95	0x3d381803	0.044944774
96	0x3d43eb07	0.04783156
97	0x3d3af797	0.045646276
98	0xbe26d667	-0.16292726
99	0x3e805c96	0.25070637
100	0x3e12a91c	0.14322323
101	0xbf95de27	-1.170842
102	0x3ed58eb6	0.41710442
103	0xbdd515bd	-0.10404537
104	0x3c320f48	0.010867901
105	0x3d4f2441	0.050571684
106	0xbe1c1fc0	-0.15246487
107	0xbe62d6d9	-0.2215227
108	0x3d45cbad	0.048289943
109	0xbed66c32	-0.4187942
110	0xbe5473f8	-0.20747364
111	0x3c2acd19	0.010424876
112	0xbe8b64ae	-0.2722525
113	0x3db2dae4	0.08733156
114	0xbd9893fc	-0.07450101
115	0x3e4bc73e	0.19900224
116	0x3c0b47d3	0.008501011
117	0xbe4827ad	-0.19546385
118	0xbcd5bdf6	-0.026091557
119	0x3edaed47	0.42759153
120	0x3ea40a3d	0.3203906
121	0x3eb29798	0.34881282
122	0xbe931e7f	-0.28734204
123	0x3e676891	0.22598483
124	0x3e923c74	0.28561747
125	0xbe3a2a70	-0.18180251
126	0xbbabccef	-0.005242936
127	0x3de554a7	0.11197787
128	0xbd6dd36c	-0.058062956
129	0xbde1de93	-0.11028781
130	0xbe695b33	-0.22788696
131	0xbe841633	-0.25798187
132	0xbd284024	-0.041076794
133	0x3f8c1232	1.0943053
134	0x3ed74cba	0.42050725
135	0x3e7c3a68	0.24631655
136	0x3e84175a	0.25799066
137	0x3a69357a	0.0008896213
138	0xbe6c750c	-0.23091525
139	0x3dd27891	0.102769025
140	0x3ead1daa	0.33811694
141	0xbe676be8	-0.22599757
142	0x3e9f71d0	0.3114152
143	0xbe7c688d	-0.24649258
144	0x3e89f587	0.26945135
145	0xbe8ff45a	-0.28116113
146	0x3ef35ae0	0.4753027
147	0xbcd00d1f	-0.025396882
148	0xbb90c857	-0.0044184136
149	0xbe3c7237	-0.18402945
150	0x3d182d46	0.03715255
151	0xbed44cc6	-0.41464823
152	0x3db0a600	0.08625412
153	0x3e551d29	0.20811905
154	0xbea7e7cd	-0.32794037
155	0x3ef07f4e	0.46972126
156	0xbee5e94d	-0.44904557
157	0xbe085ebb	-0.13317387
158	0x3f0deb8d	0.55437547
159	0x3e514943	0.20438103
160	0xbca0b79d	-0.019618804
161	0xbe8ce650	-0.27519464
162	0xbd3533cd	-0.044238854
163	0xbeb5db5c	-0.3551892
164	0xbbec4392	-0.0072102034
165	0xbee64756	-0.449763
166	0xbe0c6f50	-0.13714337
167	0x3ca1d3ba	0.01975428
168	0x3e9eb378	0.309963
169	0xbda7e343	-0.081976436
170	0xbe28579b	-0.16439669
171	0x3e334008	0.17504895
172	0x3e0ee6ba	0.13955203
173	0x3cf3cfe3	0.029762214
174	0x3d066bdd	0.03281771
175	0xbe03b170	-0.12860656
176	0xbd6ada3d	-0.057337034
177	0x3e6bed5b	0.23039763
178	0x3e0a9ab1	0.13535573
179	0xbe05cb66	-0.13065872
180	0xbda32a1e	-0.079670176
181	0xbe477aac	-0.1948039
182	0x3e71989e	0.23593375
183	0xbe1169de	-0.14200541
184	0xbf877b58	-1.0584517
185	0x3de4a4b6	0.111642286
186	0x3b844c66	0.0040374277
187	0xbe8852e6	-0.26625746
188	0xbd71ab8e	-0.059001498
189	0xbd7199ea	-0.058984675
190	0x3d6f6542	0.058446176
191	0x3d92678b	0.071486555
192	0xbed8fa6c	-0.42378557
193	0x3e8e43a2	0.27785975
194	0x3f01d02b	0.50708264
195	0xbeabc78a	-0.33550674
196	0xbeef3ad9	-0.46724585
197	0x3e500de7	0.20317803
198	0x3f1808b3	0.59388274
199	0xbe942b1c	-0.2893914
200	0x3e1891f0	0.1489942
201	0x3c8b1c36	0.016981225
202	0x3e259ffd	0.16174312
203	0x3d063068	0.032761008
204	0x3e24b6db	0.16085379
205	0x3e758d50	0.23979688
206	0x3e06969f	0.13143395
207	0xbe1418be	-0.14462563
208	0xbf497f81	-0.7871018
209	0xbed0ee96	-0.40807027
210	0xbe0ab35e	-0.13544986
211	0xbc9137d6	-0.01772682
212	0xbe04c190	-0.12964463
213	0x3ee2e0d2	0.4431215
214	0x3e11446e	0.1418626
215	0xbcac84b9	-0.02105938
216	0xbd9d2719	-0.07673473
217	0xbf9c56cd	-1.221399
218	0xbe771015	-0.24127229
219	0x3df846b0	0.121228576
220	0x3c42e6e1	0.011895866
221	0xbe7eccd7	-0.24882828
222	0xbe1d5a2b	-0.15366428
223	0xbcec17d5	-0.028819958
224	0x3e411d40	0.18858814
225	0xbeecd5da	-0.46256906
226	0x3ecab0ed	0.3958811
227	0xbedf86ec	-0.43657625
228	0x3ef64a33	0.48103485
229	0xbc4954eb	-0.012288312
230	0x3c6cede5	0.014461015
231	0xbda108b3	-0.07862987
232	0x3d901077	0.070343904
233	0xbf238a56	-0.6388296
234	0xbe27ce73	-0.16387348
235	0x3ee9ffc7	0.45702955
236	0x3ca3bd1d	0.019987637
237	0xbc8d904d	-0.017280722
238	0xbdb4fd75	-0.088374056
239	0xbe11c2b6	-0.14234433
240	0x3e66397d	0.22482868
241	0x3e2b51ae	0.16730377
242	0xbea33560	-0.3187666
243	0x3e0b7a67	0.13620912
244	0xbcb99887	-0.022655739
245	0xbdd09b8d	-0.10185919
246	0xbf3e9dd2	-0.74459565
247	0x3e86442e	0.26223892
248	0xbe11178a	-0.14169136
249	0x3e231167	0.15924607
250	0xbe4d9580	-0.20076561
251	0xbe7e6f3e	-0.24847123
252	0xbe0fa38d	-0.14027233
253	0xbd535c43	-0.05160166
254	0xbce0a5f2	-0.027422879
255	0xbea14399	-0.31496885

bias f4 [256]
0	0x3dc28b27	0.094991975
1	0x3ef8d1b5	0.48597494
2	0x3f94ebf1	1.1634504
3	0xbe80c3ef	-0.25149485
4	0x3d9fc163	0.078005575
5	0xbdb7837a	-0.08960624
6	0x3f1cc6c5	0.612408
7	0x3f995344	1.1978536
8	0x3f516a38	0.818027
9	0x3f170f50	0.5900774
10	0x3d803a99	0.062611766
11	0x3f4ed8d0	0.8079958
12	0x3f9cdae5	1.2254301
13	0xbf12e6e5	-0.5738357
14	0xbeeabf63	-0.4584914
15	0xbed71382	-0.4200707
16	0x3f86a5d0	1.0519352
17	0xbf045f17	-0.51707596
18	0x3f5a9dd7	0.85397094
19	0x3f28cdfe	0.6593932
20	0x3f7fd559	0.9993492
21	0x3f8f6edf	1.120571
22	0xbdc101c8	-0.09424168
23	0xbf1446e7	-0.5792069
24	0x3f5cd422	0.8626119
25	0x3f4cd6d2	0.8001529
26	0x3f955f08	1.1669626
27	0x3f40dfcd	0.7534149
28	0xbc7f54ab	-0.015584151
29	0x3f0aae13	0.54171866
30	0x3f81140a	1.008424
31	0x3f42fa8f	0.7616357
32	0x3f493ced	0.7860859
33	0x3f9064ec	1.1280799
34	0x3f369310	0.7131815
35	0x3f3602b6	0.71097887
36	0xbf337f18	-0.70115805
37	0x3eb6a477	0.35672352
38	0x3f85c9ed	1.0452248
39	0xbe054d0a	-0.1301767
40	0x3f52efac	0.8239696
41	0x3f2a6da4	0.6657355
42	0x3f83b2c3	1.0288929
43	0xbe8a4832	-0.27008206
44	0x3f015157	0.5051474
45	0x3f853155	1.040568
46	0x3e90a1be	0.282484
47	0x3f86b7d0	1.0524845
48	0xbdf3c087	-0.11901956
49	0x3f98af9e	1.1928594
50	0x3f0f3f44	0.5595591
51	0x3dbd75c3	0.09250977
52	0x3f86f163	1.0542415
53	0x3f1e9524	0.6194632
54	0x3f861164	1.0474057
55	0x3f13e266	0.5776733
56	0x3f832cda	1.0248063
57	0x3f3ed2c5	0.7454036
58	0x3ee4117c	0.4454459
59	0x3f8a565b	1.0807604
60	0xbdb186cf	-0.08668291
61	0xbf14f964	-0.5819304
62	0x3f633bde	0.88763225
63	0x3f6ad292	0.91727555
64	0x3f8a4ee1	1.0805322
65	0xbc02b34f	-0.007977321
66	0x3f807c27	1.0037888
67	0xbb769b75	-0.003762928
68	0x3f84144a	1.0318692
69	0x3f86e423	1.0538372
70	0x3f19379b	0.5985047
71	0x3f6bed96	0.921594
72	0xbec95d7d	-0.39329138
73	0x3f2789b7	0.6544451
74	0x3f8b4ac1	1.0882188
75	0xbee8545f	-0.4537687
76	0xbed37c48	-0.41305757
77	0xbed6c3d3	-0.41946277
78	0x3f8a5b12	1.0809042
79	0x3d6bb5d6	0.05754646
80	0x3f191893	0.5980312
81	0x3c352ec0	0.011058509
82	0xbd2d396e	-0.042291097
83	0x3fa5d7f5	1.295653
84	0xbf0ea049	-0.55713326
85	0xbf1cd2a3	-0.61258906
86	0x3f875c2a	1.0575001
87	0x3dc72431	0.097237
88	0xbed661e9	-0.41871575
89	0x3f1600dc	0.5859506
90	0xbf17fd7c	-0.5937116
91	0x3f302af3	0.68815535
92	0x3f2d7abc	0.677654
93	0x3f9984b6	1.1993625
94	0x3f57beb0	0.8427534
95	0xbf16ccef	-0.58906454
96	0xbec86499	-0.3913925
97	0xbf070bc6	-0.5275234
98	0x3f84cef4	1.0375657
99	0xbda60f33	-0.08108368
100	0xbe38dda4	-0.18053299
101	0xbe899745	-0.26873222
102	0x3f0c7678	0.5486827
103	0x3e13434c	0.1438114
104	0x3ecd660f	0.40116927
105	0x3f81b2b8	1.0132666
106	0x3cf8143f	0.030283092
107	0x3f9a3443	1.2047199
108	0x3f1a3f75	0.6025308
109	0xbf0e2bfe	-0.55535877
110	0xbeb51dd5	-0.35374323
111	0x3f1d6b7c	0.61492133
112	0xbc93a47c	-0.018022768
113	0x3dcb9f5a	0.09942503
114	0x3f4ca22a	0.7993494
115	0xbd1d2c50	-0.038372338
116	0x3efd1151	0.49427274
117	0xbeb02e98	-0.34410548
118	0x3f34ab8a	0.7057425
119	0xbe5bcb17	-0.21464191
120	0x3f9a0b59	1.2034713
121	0xbef6668b	-0.4812511
122	0x3f9b874b	1.2150663
123	0x3d8704b4	0.06592694
124	0x3cd90416	0.026491206
125	0x3ec29f3f	0.3801212
126	0x3da34ed9	0.07974023
127	0x3e97a960	0.2962141
128	0xbecede6c	-0.4040407
129	0x3f862da8	1.0482683
130	0x3f4b68f4	0.7945702
131	0xbe850f02	-0.25988013
132	0xbe6e09d5	-0.23245938
133	0x3f8c120c	1.0943007
134	0x3f84a4aa	1.0362751
135	0x3f94ab66	1.1614807
136	0x3f3d8d33	0.7404358
137	0x3f5723fa	0.8403927
138	0xbe9d8d31	-0.30771783
139	0x3f4ffbed	0.81243783
140	0xbec54aae	-0.3853354
141	0x3f93494d	1.1506745
142	0xbf146cbc	-0.57978415
143	0xbebc4425	-0.3677074
144	0xbeb5ebe2	-0.35531527
145	0x3f8e7fba	1.1132729
146	0x3f84cc56	1.0374858
147	0x3f86a947	1.0520409
148	0xbe3ad735	-0.18246157
149	0x3ef547ab	0.4790624
150	0x3ee5e982	0.44904715
151	0xbd8bc319	-0.06824321
152	0x3f7d4bd5	0.98943835
153	0x3f949f26	1.1611068
154	0xbf123e9c	-0.57126784
155	0x3f8582be	1.0430524
156	0xbc56ed10	-0.013118044
157	0x3f2a82e8	0.66606
158	0x3e1a6acc	0.15079802
159	0x3f1df3d1	0.6170016
160	0x3f992f1f	1.1967505
161	0x3d094703	0.033514988
162	0x3f1edb35	0.62053233
163	0x3d38c740	0.045111895
164	0x3f3e8b34	0.7443116
165	0x3eac4d1f	0.3365259
166	0xbde0a3ab	-0.10968717
167	0x3f85bf52	1.0449011
168	0x3fa175ea	1.261411
169	0x3f490de3	0.78536814
170	0x3f822918	1.0168791
171	0x3f479333	0.77958983
172	0xbf0923fd	-0.5357054
173	0xbe90fecd	-0.28319398
174	0x3f88dc4c	1.0692229
175	0x3fa1a15f	1.2627372
176	0x3f8bb3b3	1.0914215
177	0x3e999f40	0.3000431
178	0xbd262478	-0.040562123
179	0xbe722733	-0.23647766
180	0x3f52ca52	0.82339966
181	0x3f8700aa	1.0547078
182	0xbec4c649	-0.3843253
183	0x3f14139d	0.5784243
184	0x3f83f9f5	1.0310656
185	0x3f2baf89	0.6706472
186	0x3f291c16	0.6605848
187	0xbe74a55c	-0.23891205
188	0x3f8721f4	1.0557237
189	0x3f3ec147	0.7451367
190	0xbec935f2	-0.3929897
191	0xbe40d9f0	-0.18833137
192	0x3f891353	1.0709022
193	0x3db0beb7	0.08630126
194	0xbdc4b81e	-0.0960543
195	0x3f1b05ef	0.6055593
196	0x3f8626a5	1.0480543
197	0x3f3fa368	0.74858713
198	0x3f415d42	0.75532925
199	0x3fa11e45	1.2587363
200	0x3f99966d	1.1999031
201	0x3f23628f	0.63822263
202	0xbef42f59	-0.47692373
203	0xbece859d	-0.40336314
204	0xbd415855	-0.04720338
205	0xbd96538e	-0.073401555
206	0xbe88bbfb	-0.26705918
207	0x3f7c6423	0.98590297
208	0x3f830721	1.023655
209	0xbec40223	-0.3828288
210	0xbed15e0d	-0.40892068
211	0x3f110f7d	0.5666426
212	0x3ee95734	0.45574343
213	0x3f93ce8e	1.154741
214	0xbf044e88	-0.5168233
215	0x3f17dc53	0.59320563
216	0xbecdf133	-0.40223083
217	0x3f1bc5a4	0.6084845
218	0xbf12cf5e	-0.5734767
219	0x3e5c3426	0.21504268
220	0x3f581bab	0.8441722
221	0x3f996e68	1.1986818
222	0x3f3d521d	0.7395342
223	0x3f28857b	0.65828675
224	0x3f2650c9	0.6496702
225	0x3f2c10f4	0.6721337
226	0x3f1b6252	0.606969
227	0x3f89994e	1.074991
228	0xbebf18fb	-0.37323746
229	0x3f86649f	1.0499457
230	0x3f559600	0.83432007
231	0x3f8c4d1f	1.0961035
232	0x3f37cfa8	0.71801233
233	0x3f199119	0.59987026
234	0x3f849e5e	1.036083
235	0xbe35e804	-0.17764288
236	0x3dd122a5	0.10211686
237	0x3f61a276	0.8813852
238	0x3e0c99d3	0.13730554
239	0xbeccb242	-0.3997975
240	0x3f34b53b	0.70589036
241	0xbeef94ed	-0.4679331
242	0xbea98a5f	-0.3311338
243	0xbe3588be	-0.17727944
244	0xbe14e26e	-0.14539501
245	0xbe01f02c	-0.12689275
246	0xbf5707d3	-0.83996314
247	0x3f82614e	1.0185945
248	0x3f44951d	0.7679003
249	0x3f98453b	1.1896127
250	0xbdecff44	-0.115721256
251	0x3e628234	0.22119981
252	0x3f83b96f	1.0290965
253	0x3ea2d7dc	0.31805313
254	0xbf115726	-0.567736
255	0x3ec989ab	0.39362845

weight f4 [1, 256]
0	0xbf7e2acc	-0.9928405
1	0x3f22a45e	0.63532054
2	0x3f0684f4	0.5254662
3	0xbf026e0a	-0.50949156
4	0x407f4b6f	3.988979
5	0xbf2ea60e	-0.6822213
6	0x3e88567c	0.26628482
7	0x3ede2ee3	0.43395147
8	0x3f14de31	0.5815154
9	0x3f4c8461	0.79889494
10	0xbf94f6b4	-1.1637788
11	0xc0a785c6	-5.23508
12	0x3f30e2ce	0.69096076
13	0xbf0883f3	-0.5332634
14	0xbf61259c	-0.8794801
15	0xbf87ba7d	-1.0603787
16	0x3ea827c1	0.3284283
17	0xbf6b9555	-0.9202474
18	0x3e96e808	0.294739
19	0x3dc36c46	0.09542136
20	0x3e6ab23c	0.22919554
21	0x3f229806	0.6351322
22	0xbf7fec52	-0.9996997
23	0xbf0be631	-0.5464812
24	0x3e94f1a4	0.29090607
25	0x3ea6a618	0.32548594
26	0x3eecbbcc	0.46237028
27	0x3e1a7a53	0.15085725
28	0xbfac27ea	-1.3449681
29	0x3f83b236	1.0288761
30	0x3ef1336b	0.4710954
31	0x3e26d1f9	0.16291036
32	0x3e512518	0.20424306
33	0x3e9f82f3	0.31154594
34	0x3de623d0	0.112372994
35	0x3eb557fb	0.35418686
36	0xbf0c03b4	-0.5469315
37	0xbfd86901	-1.6907045
38	0x3ef77024	0.48327744
39	0xbf772a53	-0.96548957
40	0x3ecd6722	0.40117747
41	0x3e01771d	0.12643094
42	0x3f53d860	0.8275204
43	0xbf4b45a0	-0.79403114
44	0xbfdbf306	-1.718354
45	0x3f34cb35	0.7062257
46	0xc001d56e	-2.0286517
47	0x3eca042a	0.39456302
48	0xbf4cf733	-0.80064696
49	0x3f06009c	0.5234468
50	0xc01b3717	-2.4252374
51	0x401c0a74	2.438138
52	0x3f3eb972	0.7450172
53	0x3ebf81ba	0.3740366
54	0xc081bfe1	-4.0546727
55	0x3ecc83d1	0.39944318
56	0x3eedb0dd	0.46423998
57	0x3e39bd76	0.1813868
58	0x3f71262f	0.9419889
59	0x3f1bfa77	0.60929054
60	0xc010e076	-2.2637
61	0xbf3f31aa	-0.74685156
62	0x3ea43d3f	0.32077977
63	0x3e975fc2	0.29565245
64	0x3eadceb7	0.33946773
65	0xbffdea4f	-1.983713
66	0x3eba901d	0.36438075
67	0xbff96e9a	-1.9486878
68	0x3f7b3c02	0.9813844
69	0x3e983fdd	0.29736224
70	0xbf2c1290	-0.67215824
71	0x3ea85611	0.32878163
72	0xbeff7172	-0.4989124
73	0x3ec4aac7	0.38411543
74	0x3f4a6fe3	0.79076976
75	0xbfa3e52f	-1.2804316
76	0xbff49ebc	-1.9110942
77	0xbf0d0928	-0.55092096
78	0x3e8f02d9	0.2793186
79	0xbf440108	-0.76564074
80	0x3f232031	0.63720995
81	0xbf10ced9	-0.56565624
82	0xbf9c23c5	-1.2198416
83	0x3f16e8af	0.58948797
84	0xbf0bf20c	-0.5466621
85	0xbed315f6	-0.41227692
86	0x3e7c19e7	0.24619256
87	0xbff4bb19	-1.9119598
88	0xbf6f773c	-0.9354131
89	0x3e95a2bb	0.29225716
90	0xbee11d77	-0.43967792
91	0x3f27c11f	0.65529054
92	0xc0628cf9	-3.5398543
93	0x3ef50439	0.47854784
94	0x3f17b012	0.59253037
95	0xbf04390f	-0.51649565
96	0xbf4dc0f5	-0.80372554
97	0xbf7c69f9	-0.985992
98	0x3f0b3e9c	0.5439241
99	0xbfc710c7	-1.5551995
100	0xbf60c07c	-0.8779371
101	0xbf5871f1	-0.8454886
102	0xbf1916dd	-0.5980051
103	0xbf486185	-0.78273803
104	0x3f9623ae	1.1729639
105	0x3e652a73	0.22379474
106	0xbfd6d4cc	-1.678369
107	0x3f1e6e96	0.6188749
108	0x3f007891	0.5018397
109	0xbec9ee71	-0.3943973
110	0xbf410598	-0.7539916
111	0x3f4e801d	0.80664235
112	0xbf50d7c6	-0.81579244
113	0xc0087ff8	-2.1328106
114	0xc07e2d0f	-3.9715002
115	0xbe88e53f	-0.267374
116	0xc03c9553	-2.946614
117	0xbe8a6b1e	-0.2703485
118	0x3ec40db7	0.38291714
119	0xbf9f1622	-1.2428629
120	0x3f048071	0.51758486
121	0x4095446c	4.6646023
122	0x3f00455d	0.5010584
123	0xbf4361ae	-0.7632092
124	0xbf5ba883	-0.85804003
125	0x3f5b59fd	0.85684186
126	0xbfdee90d	-1.7414871
127	0xbfdf633f	-1.7452163
128	0xbf7eebe4	-0.9957869
129	0x3f2b5a39	0.66934544
130	0x3f3c2002	0.7348634
131	0xbf17286d	-0.5904606
132	0xbe9ec016	-0.31005925
133	0x3f15e3c5	0.58550674
134	0x3f3399c0	0.7015648
135	0x3f041751	0.5159808
136	0x3de2b828	0.11070281
137	0x3ed124a3	0.40848264
138	0xbf738e85	-0.9513934
139	0xc0a9c75d	-5.3055863
140	0xbf526c92	-0.82196915
141	0x3f0ea99c	0.55727553
142	0xbec60fd4	-0.3868395
143	0xbf628a9a	-0.8849274
144	0xbf5be506	-0.8589634
145	0x3f0c98e8	0.54920816
146	0x3ea52ce0	0.322608
147	0x3f3337ed	0.7000721
148	0xbf2d8b1f	-0.67790407
149	0xc08e3f4a	-4.4452257
150	0xc052179d	-3.2826912
151	0xbf058bd8	-0.5216651
152	0x3ee8c48f	0.45462462
153	0x3ee9750e	0.45597118
154	0xbf1cb0ce	-0.6120728
155	0x3e90534b	0.28188547
156	0xbfffb723	-1.9977764
157	0x3de9cf62	0.11416508
158	0x402687a9	2.60203
159	0x3f11936b	0.56865567
160	0x3f0d2f8c	0.55150676
161	0xbfb6e6f0	-1.4289227
162	0x3e043161	0.12909462
163	0xbfcaeed6	-1.5854137
164	0x3e0a8ec8	0.13531029
165	0xc05d8f17	-3.4618585
166	0xbf6c9856	-0.92419946
167	0x3ee78d6a	0.45225078
168	0x3ee48987	0.44636175
169	0xc09006b5	-4.5008187
170	0x3e96be51	0.29442075
171	0x3e9fd55c	0.31217468
172	0xbf9844e1	-1.189602
173	0xbf2d5e90	-0.67722416
174	0x3ee88a77	0.4541814
175	0x3efcc465	0.49368587
176	0x3ef62f94	0.48083174
177	0xc01b5f0d	-2.4276764
178	0xbf287140	-0.65797806
179	0xbf3381b0	-0.7011976
180	0x3e68f8ae	0.22751114
181	0x3edcd13f	0.43128392
182	0xbf972a1b	-1.1809725
183	0xbfee3a4a	-1.8611538
184	0x3f198f01	0.5998383
185	0x3f5e476a	0.8682772
186	0x3e2b48db	0.16727011
187	0xbf1ff446	-0.62482107
188	0x3f42926b	0.76004666
189	0x3e2c1c86	0.16807756
190	0xbf906927	-1.128209
191	0xbf96dd34	-1.1786256
192	0x3f25ea7f	0.6481094
193	0xc004ec5f	-2.076927
194	0xbf217291	-0.6306544
195	0x3e79c782	0.24392512
196	0x3f4f1fa9	0.80907685
197	0x3df25c4f	0.11834013
198	0x3dedc5aa	0.11609967
199	0x3f1fb1b1	0.6238051
200	0x3ef2292b	0.47297034
201	0x3df18e5c	0.11794731
202	0xbf4add36	-0.7924379
203	0xbf9ac560	-1.2091484
204	0xbf7d1f0e	-0.9887551
205	0xbf8eccb8	-1.1156225
206	0xbf04214a	-0.51613295
207	0x3e8350f4	0.256477
208	0x3e8ba6db	0.27275738
209	0xbf2c55ac	-0.67318225
210	0xbf0c68e4	-0.5484755
211	0x3efe45b2	0.49662548
212	0xc01d5653	-2.4583938
213	0x3eed9486	0.46402377
214	0xbf33f985	-0.7030261
215	0xc070d812	-3.763188
216	0xbfd0e979	-1.632125
217	0xc0612a57	-3.5182092
218	0xbfde97a6	-1.739003
219	0x3fc35432	1.5260069
220	0xc0c04924	-6.0089283
221	0x3ebc2e21	0.36753944
222	0x3e979bdc	0.296111
223	0x3ec306dd	0.38091174
224	0x3f08ed36	0.53486955
225	0x3f0f0ae5	0.55876
226	0xc05a0990	-3.4068336
227	0x3ea1a34f	0.31569907
228	0xbf69569a	-0.9114777
229	0x3e42ca59	0.19022502
230	0x3f006351	0.50151545
231	0x3ebba366	0.366481
232	0x3e354d73	0.17705326
233	0x3f50d300	0.8157196
234	0x3f3daced	0.7409199
235	0xbfa0507b	-1.2524561
236	0xbfcebb65	-1.6150938
237	0x3e034505	0.12819298
238	0xc0049575	-2.0716221
239	0xbf92aa1c	-1.1458163
240	0x3f0562d9	0.52103955
241	0xbf5551b0	-0.8332777
242	0xbfad4e96	-1.3539608
243	0xbfaba5e1	-1.3409997
244	0xbf7e5e42	-0.99362576
245	0xbf4e790f	-0.8065347
246	0xbeb7f31d	-0.35927668
247	0x3f29357a	0.66097224
248	0x3f0341b5	0.51272136
249	0x3eda7622	0.42668253
250	0xbf667d02	-0.90034497
251	0xbfb334cd	-1.4000489
252	0x3ebd6069	0.36987618
253	0xbfd7bd91	-1.6854726
254	0xbfc61fa1	-1.5478402
255	0xc00c5126	-2.192453

obs_std f4 [28]
0	0x3e4ccccd	0.2
1	0x3e4ccccd	0.2
2	0x3f800000	1.0
3	0x3f800000	1.0
4	0x3f800000	1.0
5	0x3f000000	0.5
6	0x3f000000	0.5
7	0x3f000000	0.5
8	0x3f000000	0.5
9	0x3f000000	0.5
10	0x3f000000	0.5
11	0x3f000000	0.5
12	0x3f000000	0.5
13	0x3f000000	0.5
14	0x3f000000	0.5
15	0x40800000	4.0
16	0x40800000	4.0
17	0x40800000	4.0
18	0x40800000	4.0
19	0x40800000	4.0
20	0x40800000	4.0
21	0x40800000	4.0
22	0x40800000	4.0
23	0x40800000	4.0
24	0x40800000	4.0
25	0x3f800000	1.0
26	0x3f800000	1.0
27	0x3f800000	1.0

obs_mean f4 [28]
0	0x00000000	0.0
1	0x00000000	0.0
2	0x00000000	0.0
3	0x00000000	0.0
4	0x00000000	0.0
5	0x00000000	0.0
6	0x00000000	0.0
7	0xbe4ccccd	-0.2
8	0x3f19999a	0.6
9	0xbecccccd	-0.4
10	0x00000000	0.0
11	0x00000000	0.0
12	0xbe4ccccd	-0.2
13	0x3f19999a	0.6
14	0xbecccccd	-0.4
15	0x00000000	0.0
16	0x00000000	0.0
17	0x00000000	0.0
18	0x00000000	0.0
19	0x00000000	0.0
20	0x00000000	0.0
21	0x00000000	0.0
22	0x00000000	0.0
23	0x00000000	0.0
24	0x00000000	0.0
25	0x3f000000	0.5
26	0x3f000000	0.5
27	0x3f000000	0.5
