trained/h1_walk/critic_35099.pt (torch, 299198 bytes, 7 tensors)

weight f4 [256, 28]
00000000: f8fb 99bd 80ca d3bc 15e8 e83d f196 c3be
00000010: dab8 8e3e c538 7fbe 1823 febd 4686 9abb
00000020: b09a 9f3e e892 aabe c713 c03d d00b bebd
00000030: 99c1 d33d bfbc 04be 4de4 a23e af2e ad3e
00000040: 1b3a 8abc d295 9f3f 3746 1e3f 5e1c 823d
00000050: 39dc cc3e abf8 ad3c 74ad 22c0 78f6 aebf
00000060: 749c febd bf87 943c 4ae6 28bd 3e44 da3e
00000070: 685e ccbc 9551 e8bd 9b21 99be 038d 0c3f
00000080: e3c3 d73d 4681 103f 703c c33d 0090 2ebe
00000090: 66bb 1b3e e841 60be 1e35 b63d f017 983d
000000a0: 86d1 93bd 4299 62be 72f6 353e d231 ab3e
000000b0: 331e ca3e e923 c23f ee19 503f 85b0 983d
000000c0: 01ef a5bb 7f58 0fbd d5c6 19bd 8039 c6bc
000000d0: 446f b8bc 5c0b a03e ab31 f33c 33e0 9e3d
000000e0: b1fd d13f 676b 0bbf e34e 803f 2e23 edbe
000000f0: db9b 59be 3e0a 123e 0e59 8f3e 5816 203f
00000100: 93d5 403d b8f7 253f 481c 34be ed99 2f40
00000110: 0fd6 15be 6969 c93c 39f2 a53e b1b4 eabd
00000120: 4af0 923e 8813 d63d 7bda 803d 010d dc3d
00000130: e944 03bf a72c 1140 4db7 ccbf 7223 90bf
00000140: 9207 a33e 71c2 0cbe ea0e 7c3e 895c 983e
00000150: 127f 0a3d d331 b4bd 907c 20be 1db7 c93e
00000160: 041e 6238 de36 4d3d 4e9b 0a3f f23b 2ebf
00000170: b0ed 5cbf 1705 29bf 2934 29be c32a ee3e
00000180: 349b abbd 563f a73e e2e9 b53a 3c1b 073e
00000190: 6af4 adbe 1b0b 853e 884c 593e 331c c2bc
000001a0: 0dd3 20bd b4dc bbbd 71f1 0b3f a8fa e63d
000001b0: 892d ed3d 1fd6 2b3e ecdb 4e3d 86b1 be3d
000001c0: 1eea 3cbd c703 4ebe 8dae 873d f010 40be
000001d0: e97e 4a3d 3a89 703e d68f d7be f61f 383d
000001e0: ab05 c339 2ae8 b6be 8717 87bd 7387 b83e
000001f0: cb97 293e de51 d53e 3fef 173e cdf9 923c
00000200: 2e77 d83c b693 44be 3e95 40bd 51a1 b7bd
00000210: 1a9f b23d a98a 4f3c af6b afbe 6fbc fdbd
00000220: d7d4 edbd b45b 56be 35e6 c23e eb8b 953e
00000230: 311e b83d 1bab bdbd d26f e2bd 6139 1e3e
00000240: 89dd 8abd 45e8 d43e e5c1 19bf 5433 da3d
00000250: 7553 ef3d 1575 373c c2ea d4bc 8443 8e3f
00000260: e525 cfbd ef33 e93d 509a 213e 8e12 ebbd
00000270: 171b dabd 4c22 c7be a70a 7ebe 05ab 15be
00000280: 7f58 183e 7179 4fbd 1563 583f e20f 1a3f
00000290: 6071 093e 4e0b d1be 434b ccbc 09f7 60be
000002a0: 57e4 0cbd c487 723e 6a3f b63c 5a68 b83e
000002b0: ac88 e0bd dbd8 a33d 5936 4bbf cf1f 1ebe
000002c0: 5b92 363e 2005 37be 644d 8b3e bf07 f33c
000002d0: 0881 16bf ec93 b5be 0d45 0a3e da74 68be
000002e0: a8f4 cfbd d6a0 de3e 7e7c e93d 91e5 9b3c
000002f0: 1f93 35bc 1c98 1abd 74c6 3e3e 9c9e f1bc
00000300: 6e19 923d 6f35 dcbe 71a5 fe3e 8429 2b3d
00000310: 046f ca3a 7877 fc3b 7103 ce3e 5e31 c83e
00000320: 1504 1cbd 5da3 18be b76e 9ebf 7594 17bf
00000330: e99f d8be b384 35be 6ff8 92be 5b31 3a3f
00000340: 2c93 273f 4192 0d3f d485 cdbe ca34 7fbd
00000350: 71c5 633f 2025 8a3f 4460 983e 06fe 6d3e
00000360: 1a70 f03d f802 833c 6544 f2bd 0a60 b03c
00000370: 2ee9 71bd 798e 163f b43e 31bc 7f6f 93be
00000380: aade 5c3d a32b 2dbd d1ce 8f3d 90b3 8a3f
00000390: cb37 b8bc eb99 cb3c 88a1 cf3e 7194 d3be
000003a0: 798e 6abd aac2 3fbe 989f 133e 4da2 acbe
000003b0: af2a bfbd 4b57 bd3c 0189 41be e3f0 0c3f
000003c0: 2325 a3be ac1d 1840 49a0 7c3f 945c 53bd
000003d0: c599 15bf f540 293f e89d 723f 4ac6 1e3f
000003e0: 80c8 0f3e 575a ee3c e091 2b3e eef3 29bd
000003f0: bfba 393e b65a 6d3c a65d 25be 90c4 09bd
-0.07518762 -0.025853395 0.11372391 -0.38201097 0.27875406 -0.24924 -0.12409037 -0.0047157137
0.31172705 -0.33315206 0.09378772 -0.09279597 0.1033966 -0.12962626 0.31814805 0.3382468
-0.01687341 1.2467597 0.6182589 0.06353067 0.40011767 0.021236738 -2.5418367 -1.3668966
-0.12432185 0.018131135 -0.041235246 0.4263019 -0.02494736 -0.113436855 -0.2990845 0.54902667
0.10535409 0.56447256 0.09533012 -0.17047119 0.15208206 -0.21900141 0.0889685 0.07426441
-0.07217698 -0.22128776 0.17769793 0.33436447 0.39476165 1.5167209 0.81289566 0.074555434
-0.005063892 -0.034996506 -0.037543137 -0.02419734 -0.022513993 0.31258667 0.02968677 0.07757606
1.6405545 -0.5446076 1.0024074 -0.46315902 -0.2125086 0.1426172 0.2799763 0.62534094
0.04707868 0.64831114 -0.17588913 2.74377 -0.14632438 0.024586396 0.32411364 -0.114602454
0.2869895 0.10452944 0.06291672 0.10744668 -0.51277024 2.2683504 -1.5993439 -1.1260817
0.31841713 -0.13746049 0.24615064 0.297581 0.03381259 -0.08798566 -0.15672517 0.39397517
5.3910553e-05 0.050101154 0.54143226 -0.6806022 -0.8630018 -0.6602339 -0.16523804 0.46517
-0.08379212 0.3266551 0.0013878907 0.13193983 -0.33975536 0.25985035 0.212206 -0.023695087
-0.039263774 -0.09172955 0.54665285 0.11278278 0.11580951 0.167809 0.050502703 0.09311204
-0.04612171 -0.20118628 0.0662509 -0.18756461 0.049437437 0.23489848 -0.42101926 0.044952355
0.0003719752 -0.35724002 -0.06596284 0.3604084 0.1656181 0.41664022 0.14837359 0.01794138
0.026424017 -0.19196972 -0.04701733 -0.089663155 0.087217525 0.0126673365 -0.34261844 -0.123894565
-0.116128616 -0.2093342 0.3806626 0.2920831 0.089901336 -0.092611514 -0.11056484 0.15451576
-0.06780536 0.41583458 -0.60061485 0.10654321 0.1168584 0.011197348 -0.025990847 1.1114354
-0.1011465 0.11386859 0.15781522 -0.114781484 -0.10649698 -0.38893354 -0.24808751 -0.1461602
0.14877509 -0.050652925 0.8452619 0.60180485 0.13422155 -0.40828937 -0.024938231 -0.21969236
-0.03439745 0.23684603 0.022247035 0.36017114 -0.10963568 0.08000346 -0.793798 -0.15441822
0.17829268 -0.17873049 0.27207482 0.02966678 -0.58790636 -0.35464418 0.13502903 -0.22700825
-0.10154086 0.43482083 0.11400698 0.019030364 -0.01108244 -0.03774272 0.18630391 -0.029494576
0.071337566 -0.43009517 0.49735597 0.04178764 0.0015444462 0.0077046715 0.40237 0.39100164
-0.03808983 -0.14906068 -1.2377537 -0.592109 -0.42309502 -0.17726402 -0.28705165 0.7273156
0.6545894 0.5530129 -0.40141165 -0.062306203 0.88973147 1.079258 0.29760945 0.23241434
0.11740132 0.015992627 -0.118294515 0.02153017 -0.059060268 0.58811146 -0.010818172 -0.28796002
0.053923286 -0.042277943 0.07021869 1.0836048 -0.022487542 0.024853667 0.40552926 -0.4132419
-0.05726478 -0.18726602 0.14416349 -0.33717576 -0.09334313 0.023112914 -0.18899919 0.55055064
-0.3186427 2.376811 0.98682076 -0.05160196 -0.5843776 0.6611474 0.94772196 0.62021315
0.14041328 0.029095812 0.16754866 -0.041492395 0.18137644 0.014486959 -0.16149005 -0.033634722

bias f4 [256]
00000000: bc32 84be 3b6c 74be f615 34bf 2a5c b7bc
00000010: 2758 bebe e329 8bbe 5c9a 84be 224b 73be
00000020: d6f4 e53e b2b6 263c 1eee 703e 2c16 d3be
00000030: d061 0c3e 55c9 24bf 5d82 93bf 3ea1 32bf
00000040: 427a 1abf 1639 733d fc35 9bbe b3e1 febd
00000050: 1d50 01bf d512 b7be 7262 51bc 1ae3 cd3e
00000060: 5819 313e ae21 873c f880 afbe c33c f73e
00000070: 53d5 82be 0088 babe eb8e 6bbe eac4 9c3e
00000080: 3167 05be 1a72 173e c9cb eabe 700e f9bc
00000090: 4240 bdbe 8a4e abbe 19fc 3cbd d1b8 c6be
000000a0: 9661 cd3e a58e c7be 0dc3 bc3e 66ee abbe
000000b0: 65ce 823e cec5 fd3d f7e4 99be 95bc f8be
000000c0: e645 21bd 64c7 79bf de12 2abf 7034 96be
000000d0: 93a1 6dbf 33c9 93be 4b36 d0be 807c 823e
000000e0: ceef 4b3d 7c9a 9ebe d5f4 abbe 4a80 0bbf
000000f0: 9b54 fbbe a703 613e 491a 39bf b15d bebe
00000100: e873 70bd 8e83 03bd 1b79 02bf f2ee 0bbf
00000110: dde3 26bf fd5b babe 52e3 6cbf f14b dabe
00000120: ca85 1abe 7349 7fbe d5f6 833e f546 ecbe
00000130: 11b4 82be adbf 663e 4cb8 f13e 0c85 ac3d
00000140: ca64 8a3e 0791 b0bc 3378 ccbe 6273 b63e
00000150: a74b 35be 8284 06bf e477 f3be c1e1 0d3f
00000160: d49a ca3d bfd4 edbb 7326 1bbf 02e1 babd
00000170: c022 f4bd 8b73 a7be 1456 5ebe 6904 0cbf
00000180: 5d63 7d3d f8f3 0abf 334c 64be 5a8c bcbe
00000190: 1429 223d f4f1 28bf 8e88 853e 9350 40bf
000001a0: b505 c8be 0f64 cbbd 14b6 f3be e68e 02be
000001b0: 5793 73be ce3a a2be ca8d a13d cd06 0ebe
000001c0: d8bd 3fbf 4156 20be 6dfd 2f3f aa12 36bf
000001d0: c724 a93d b9f3 9dbe 4234 a2be 6275 b33e
000001e0: bfcd 9a3e 13a6 ccbe 52b5 51bf 3fe0 a3be
000001f0: 300c 2a3e bcd7 15bd 92b7 7ebe 756c e5be
00000200: a394 ad3e 4c5d d3be 081c c0bf 7b39 2abf
00000210: e354 163f 60fc 5cbe ee93 30be eb18 68be
00000220: 20c7 0a3e 1363 993d 3e86 b4be a283 e33e
00000230: c17c c2be aeb2 84be 9be4 4e3e 5095 95be
00000240: 68bc 6dbe a35d 42be 66ba f8be e4ac 05be
00000250: ef18 00bf d857 29be 3ab4 11bf 35e8 4bbf
00000260: 1267 c8be e286 7abe 30c2 a2be 3f4e 17bf
00000270: 4be6 a1be eb66 52bf 847a 19be d604 8d3a
00000280: 928b 1ebf 6a84 cd3e 7b90 6cbe 3ec6 a7bd
00000290: 8daf bc3c 6c3b a7be 0916 c23e ee5c 82bd
000002a0: 419e 23be bf84 fbbe b39f 18bf 808d c7be
000002b0: a9c8 73bd 295f 25be 8e19 913d b718 dcbe
000002c0: 707d 2cbe 6508 823e c452 4bbf 2498 bfbd
000002d0: 7c3b 813d 5930 ad3d 171c 953e b16c 8dbf
000002e0: 69d7 76bf 9d3f b4bd 8a8d 0fbf 4534 2c3e
000002f0: 68c3 fb3b 0fcc 46be 3997 2bbe 9297 923d
00000300: bb88 eebd 4cb1 51be 8550 68be 0863 32be
00000310: e51e b03d cd79 a53e a1b1 a6bd a478 71bf
00000320: 5f3c 0a3e 77bf 91bd 01a0 e8be 3e3a 01bf
00000330: 29ba 84bf ebaa 82be 705a 3e3f 1a16 4c3e
00000340: 33fa dbbe ee00 813d 1dfa e1bd 0017 abbe
00000350: 262a b9bd 6de4 89be 005e 08bf 1f5b b1be
00000360: 718f 4cbf b709 d8bd b8c4 8b3f 1738 26bf
00000370: bb62 d4be 2958 823d 3a60 11bf de2c 70bf
00000380: c0dd 5339 242d c5be ded4 a33e 08ba 92be
00000390: 37c5 34be fe66 f1be 7c80 8cbc 83b9 cc3d
000003a0: 8174 a3be 0249 fbbd 84ac a2be 3ea7 70be
000003b0: e84e f7be ba0f 11be 362e 0dbf 3836 1bbf
000003c0: 7f86 ea3e 129a dabe defc 05bd 6aa4 4b3e
000003d0: 98f0 62bf 5484 993e 7594 4ebe 4d67 1e3f
000003e0: eeca 86bd 2951 c53e b760 a5be 027c 0dbf
000003f0: ac4c 98bd 558d 15bf c35c 64be 3e7a 1fbf
-0.25819957 -0.23869412 -0.7034601 -0.022382814 -0.3717663 -0.27180395 -0.25899017 -0.2375913
0.44913357 0.010175394 0.23528334 -0.41227853 0.13709188 -0.6436971 -1.1524159 -0.69777286
-0.603428 0.059380613 -0.30314624 -0.124453925 -0.5051287 -0.35756555 -0.012779819 0.40212327
0.17294824 0.016495552 -0.34278083 0.48288545 -0.25553378 -0.36431885 -0.23003738 0.30618984
-0.13027646 0.1478962 -0.458586 -0.030402392 -0.36963087 -0.33458358 -0.046138857 -0.3881288
0.40113515 -0.38976017 0.36867562 -0.3358032 0.25548092 0.12391244 -0.300575 -0.48581377
-0.0393733 -0.9756987 -0.6643504 -0.29336882 -0.9282467 -0.2886444 -0.40666422 0.2548561
0.049789242 -0.30977237 -0.3358523 -0.5449263 -0.49087986 0.2197405 -0.7230573 -0.37180856
-0.058704287 -0.032107882 -0.5096604 -0.54661477 -0.6519144 -0.36398306 -0.92534363 -0.42636064
-0.15090099 -0.24930362 0.25774255 -0.46147886 -0.25528005 0.22534056 0.4721092 0.08423814
0.2703002 -0.02155353 -0.39935455 0.35634905 -0.1770464 -0.5254594 -0.47552407 0.554226
0.09892812 -0.0072580273 -0.60605544 -0.09124948 -0.119206905 -0.3270534 -0.21712524 -0.5469423
0.06186234 -0.54278517 -0.22294693 -0.3682583 0.039589956 -0.6599419 0.26080745 -0.75122947
-0.39066854 -0.09931194 -0.47599852 -0.12749824 -0.23786674 -0.3168549 0.07888372 -0.13869782
-0.74899054 -0.15657903 0.6874607 -0.7112223 0.08258968 -0.30850008 -0.31680495 0.35050493
0.30235097 -0.39970455 -0.819173 -0.32007024 0.16606212 -0.036582693 -0.24874714 -0.4480931
0.33902463 -0.41282117 -1.5008554 -0.6649396 0.58723277 -0.21580648 -0.1724393 -0.22665755
0.13552523 0.074896 -0.3525867 0.44436365 -0.37985805 -0.25917572 0.20204394 -0.2921548
-0.23216403 -0.18981032 -0.4857971 -0.13054234 -0.50038046 -0.16537416 -0.5691563 -0.79651195
-0.39141136 -0.24465516 -0.31788778 -0.5910377 -0.31621012 -0.8218829 -0.14988142 0.0010758888
-0.6193172 0.40140086 -0.2310199 -0.081921086 0.023032928 -0.32662523 0.37907436 -0.06365381
-0.15978338 -0.49124715 -0.5961868 -0.38975143 -0.059517536 -0.16149582 0.07084952 -0.42987606
-0.16844726 0.2539703 -0.79423165 -0.093551904 0.06310174 0.08456487 0.29122993 -1.1048795
-0.9642244 -0.08801196 -0.56075346 0.16816814 0.0076832063 -0.1941378 -0.16756906 0.07157816
-0.11647173 -0.2047779 -0.22686966 -0.1742059 0.08599643 0.3231949 -0.08139349 -0.9432471
0.13499592 -0.07116597 -0.45434573 -0.50479496 -1.0369312 -0.25521025 0.74356747 0.19930306
-0.42964324 0.062990054 -0.110340334 -0.33415985 -0.09041242 -0.26932088 -0.5326843 -0.34639832
-0.79906374 -0.10548728 1.0919409 -0.64929336 -0.41481575 0.063644715 -0.56787455 -0.9381846
0.00020205136 -0.38511002 0.31998342 -0.28657556 -0.17653356 -0.4714889 -0.01715111 0.09996321
-0.31924823 -0.122697845 -0.31772244 -0.23501298 -0.48302388 -0.14166155 -0.5514864 -0.60629606
0.45805737 -0.4269567 -0.032711856 0.19886938 -0.88648367 0.2998377 -0.2017382 0.61876374
-0.065816745 0.38538483 -0.3230035 -0.55267346 -0.07436499 -0.5841878 -0.22301011 -0.622959

weight f4 [256, 256]
00000000: ecac dbbd 7364 943d 1379 1cbe f4a6 b2be
00000010: 63e9 073e 7572 6f3e ca0b 84be 4972 bebe
00000020: eff5 983c a82e 30be 4535 6d3d e0c2 053f
00000030: 8089 303d d3af 08bf 57a4 033d 4dd7 233e
00000040: 0daa dc3d 0063 56be fa4d 50bd 95b3 bf3e
00000050: b90e 923e 961e 633e 5e6c 2cbd 6e4e 723e
00000060: 53f7 5d3d 9e2b 7e3d 42f2 bbbd 1cc3 c7bc
00000070: c23e 5f3d 591a 103e 801c 273e 1f21 ff3d
00000080: 8fdc fbbe 0202 c7bd a73b a73d 1462 083e
00000090: 9ce3 b3be a29e 353e 379e 92be 7a47 91be
000000a0: 1b44 0a3e 37ea 99be 867f 423e d2ec e13d
000000b0: 40f0 3dbe 3e39 263e 9e86 a23e ba7a 463e
000000c0: fc7e 653e 79cf 323f 5b22 14bd 16c3 f9bd
000000d0: 231c d7bd 7464 813d 9f12 493e b053 fbbe
000000e0: f7b2 ca3e 8627 253e 0c4b 1c3e 1d10 cebe
000000f0: e08e c83d 9139 1abd 5d88 a2be 5afe 283e
00000100: 4199 a5bd 2ee5 ea3d eee5 ae3d 80fb 113d
00000110: 2d6a 27be dc64 733b dc0a 7e3e 2dff 0ebf
00000120: 272b 663e 995f c93e a1d3 05bf 1ac8 a93e
00000130: 2b72 87bd b844 853e 7ab3 c93d 6ae3 f9bd
00000140: 3ad1 97bd ecfa 013e f921 b93e 3f28 68be
00000150: 3447 84be 505a 363e 4990 45be b4da f23d
00000160: b1ae 98be 77c8 29bf 6264 f8bc 902a 383e
00000170: 63b1 523e 4f47 bd3e 8552 5dbc 6f17 1e3d
00000180: d3bc 433d 7b00 d63c 135d efbd 70d0 8b3e
00000190: a687 4f3e b9e5 a5bf 0c1c d93e 447d 34be
000001a0: 7f26 0f3d 78ae e93d ce8d 74be 5ec6 43be
000001b0: 7594 943d d335 cebe f460 54be 6a8d fa3d
000001c0: 838d cbbe 6da5 df3d 591e e5bc 2e76 473e
000001d0: 2f07 633c 077f 07be a766 1fbd c132 db3e
000001e0: 9012 c23e 5bb0 9b3e 8c63 b4be ede0 6e3e
000001f0: a1d7 713e 0a13 2dbe 7ffd 163d 4685 433e
00000200: 9a24 aebd a637 03be ed02 97be 9d81 48be
00000210: 24ae a4ba f789 903f b336 ea3e 7d6e ab3e
00000220: aa63 993e 9c98 813d d4a7 5ebe e901 003e
00000230: ae03 d23e 165c 82bd 75f2 7f3e eabf 0dbe
00000240: 4c74 9d3e a281 e6bd 7286 023f 7a70 6b3a
00000250: 4d9b 293d b18d d9bd 7f78 9b3d a8ce 0bbf
00000260: 09be 953d ee39 503e b247 44be afb9 103f
00000270: a538 c0be 8355 39be e422 1f3f ef2e 843e
00000280: ad4c 03be 21c8 8fbe 0f60 bfbc 50f2 d3be
00000290: 4b4b 9b3d c057 d6be 0f38 ffbd 4a8b 173d
000002a0: 3657 7d3e 3c49 2d3c 9ce1 2fbe 43e3 093e
000002b0: 4b7d 0e3e 42c6 ce3c cae5 3e3d d5cd 73be
000002c0: 1296 94bc 5436 873e e03e 153e 06e4 1bbe
000002d0: 9997 34bd 7067 02be 40ca 753e 0186 1dbe
000002e0: 0ce3 83bf 5e40 8b3d bc8f 923c 3667 64be
000002f0: d6a4 8dbd 6383 65bd 01ab 393e 517b b83d
00000300: 4e5b f5be 2ce6 2b3e 284c 1d3f 7358 dcbe
00000310: dfb2 23bf 4f95 593e e0cc f83e 1619 86be
00000320: a4a6 763e c0cc 97bd 46ad aa3d 661c 3b3c
00000330: 1f78 993d 654d 723e 2e39 5f3e 914e 38be
00000340: 7b89 6cbf 39f8 e7be d390 02be 3921 a53c
00000350: 726b 15be 4902 993e 0c5e ad3d d1fd 56bd
00000360: bdba 173d 634a a5bf 1ed7 18bf e67a f63d
00000370: b359 2bbc 8a31 a4be 3d2f d43b 2699 b3bd
00000380: fa4c 6d3e 18eb b3be 0b22 e43e a90d 2dbe
00000390: 4c4e d73e cffd b03d 95a4 12bd c93e 6cbc
000003a0: 8f5c 3f3e 16fe 05bf 8b77 97be 3ca5 fe3e
000003b0: b019 813d 4b5e bcbd 39f6 0fbe 50de 84bc
000003c0: ed77 813e 48ed 183e 4f58 aabe 9ca5 533e
000003d0: 1625 26be 5e43 07bd 7c22 39bf 2633 a73e
000003e0: 6d99 23be dbf6 4e3e 4f1f d5bd accb 72be
000003f0: 9128 1dbe 935b 203c 4e13 ca3d e5f9 70be
-0.107263416 0.07245722 -0.15280561 -0.34893 0.13272624 0.23383506 -0.25790244 -0.37196568
0.018671958 -0.17205298 0.05791213 0.5225048 0.04309988 -0.53393286 0.03213915 0.160001
0.10774622 -0.20936203 -0.050855614 0.37441698 0.28526857 0.22179636 -0.042095535 0.23662731
0.054190945 0.062053315 -0.091770664 -0.024385028 0.05450321 0.14072551 0.16319466 0.12457489
-0.4919171 -0.0971718 0.08165675 0.13318664 -0.3513459 0.17736295 -0.28636333 -0.28374845
0.13502543 -0.30061504 0.18993959 0.11031498 -0.1854868 0.16232774 0.3174333 0.19382754
0.22411722 0.6984783 -0.036165576 -0.12195413 -0.105034135 0.06317988 0.1963601 -0.49087286
0.39589664 0.16128358 0.15263003 -0.40246668 0.09792876 -0.037652556 -0.31744662 0.16503277
-0.080858715 0.11469494 0.08539949 0.03564024 -0.16349097 0.0037138974 0.2480883 -0.5585812
0.22477399 0.39330748 -0.52276045 0.33160478 -0.06613573 0.2602899 0.098486856 -0.12201579
-0.07412954 0.12693375 0.36158732 -0.22671603 -0.25835574 0.17807889 -0.19293322 0.118581206
-0.2982078 -0.6632151 -0.030321304 0.17984986 0.2057548 0.36968467 -0.013508444 0.038596567
0.0477875 0.026123276 -0.116876744 0.27307463 0.2026659 -1.2960731 0.4240421 -0.1762591
0.034948822 0.114102304 -0.23882219 -0.1911864 0.072548784 -0.4027544 -0.2074011 0.12234004
-0.39756402 0.10920224 -0.027968572 0.19478676 0.013856693 -0.13232051 -0.038916256 0.4281216
0.37904787 0.30407986 -0.35232198 0.2332799 0.23617412 -0.16901794 0.036862846 0.19093809
-0.08503075 -0.12814197 -0.2949442 -0.19580694 -0.0012564105 1.1292104 0.45744857 0.33482733
0.2995885 0.06327936 -0.21743709 0.12500729 0.41018432 -0.0636522 0.24994834 -0.1384274
0.3075279 -0.11255194 0.509864 0.0008981299 0.041407872 -0.106227286 0.07591342 -0.5461221
0.07311637 0.20334598 -0.19167975 0.5653333 -0.37543216 -0.18099026 0.62162614 0.25817057
-0.12822218 -0.28082374 -0.023361234 -0.41395807 0.0758272 -0.41863823 -0.12461864 0.03699807
0.247403 0.0105765425 -0.17175907 0.134656 0.13914983 0.025241021 0.046605863 -0.23808987
-0.018137965 0.26408637 0.14574766 -0.15223703 -0.044089887 -0.12734771 0.24002934 -0.1538315
-1.0303664 0.067993864 0.017890804 -0.22304997 -0.069162056 -0.056033503 0.18131639 0.09007896
-0.47921222 0.16787022 0.6144433 -0.4303623 -0.6394481 0.21248363 0.48593807 -0.26191014
0.24087006 -0.074121 0.083338305 0.011420345 0.074936144 0.23662336 0.21799156 -0.1799872
-0.9239728 -0.45306566 -0.12750559 0.020157443 -0.14591768 0.29884556 0.08465204 -0.052488152
0.037043322 -1.2913326 -0.5970324 0.1203516 -0.010458398 -0.32069045 0.006475358 -0.08769445
0.23173895 -0.351403 0.44557223 -0.16899742 0.42051923 0.0864216 -0.03580149 -0.014419266
0.18687652 -0.5234083 -0.29583392 0.4973544 0.063037276 -0.091976725 -0.1405877 -0.016219288
0.2528681 0.14934266 -0.332705 0.20668644 -0.16225085 -0.03302323 -0.72318244 0.3265621
-0.15976496 0.20211355 -0.10406362 -0.23710507 -0.15347506 0.009787458 0.09866963 -0.23532827

bias f4 [256]
00000000: 69a7 193e 2884 0b3f 8ba5 983f f1b0 a2be
00000010: 475a 613e 6c0d 0ebc 566f 183f a9bc 973f
00000020: 2896 573f a821 203f 0e14 bd3d 557e 6b3f
00000030: 5fc7 a23f 17c9 1cbf cff8 02bf cf98 fabe
00000040: cd7f 873f 86c6 17bf 75ca 523f 7a4c 283f
00000050: 64e2 763f b6a2 923f 8ce6 efbc 6b18 31bf
00000060: 3d3e 6b3f 5242 4d3f e391 9b3f ae40 4e3f
00000070: 98d3 723d 1889 0f3f 6441 833f 8ea6 4c3f
00000080: d1f7 4e3f 85d9 913f b809 3b3f bfd2 393f
00000090: 674d 3fbf a582 df3e 42e7 843f 14ea 06bd
000000a0: cb8f 503f 2146 353f f267 873f 60a4 aebe
000000b0: 858e 153f 3fdc 8a3f 0bb4 dd3e 59dd 8c3f
000000c0: 45bf 2dbe 22fa 9b3f 7fc4 2e3f 4491 1c3e
000000d0: d4a4 863f 895a 1f3f 2ad4 733f 366b 1f3f
000000e0: 01a7 863f 730f 433f 90cf f63e 71c3 8d3f
000000f0: 22d3 0e3e 8eea 1cbf ec02 643f ad97 783f
00000100: b782 8b3f 874f b83c 0d6c 7e3f 31b5 873d
00000110: f979 873f 0226 893f 0913 223f 71ee 753f
00000120: b455 cabe 07bc 3f3f 45cd 8c3f cbf7 dabe
00000130: 9eba e4be 03e9 e5be 191d 8e3f bb18 2d3e
00000140: 1f04 1f3f cacb 933d 7bd3 57bd 6e56 a83f
00000150: 928d 1abf 50c3 28bf 669a 8d3f 3b97 cc3d
00000160: 5ec5 e8be de6e 1e3f 236e 25bf a094 2c3f
00000170: 704f 4d3f 7b58 9f3f 5515 663f e073 1cbf
00000180: 7331 c2be 69dd 0dbf 90a4 893f 49f4 56bd
00000190: dcf9 77be 8308 92be 3ffa 083f 5011 ca3d
000001a0: c9e4 e63e ff90 823f 9ec7 653d e2ee a23f
000001b0: 081e 1d3f 557d 0dbf b5ce dbbe adcb 203f
000001c0: 71ff 17bd 3647 823b 3d15 423f 74ed 32bd
000001d0: cfc0 173f e6d3 a8be 590d 3a3f d00c 0bbe
000001e0: d0b9 9c3f f7c9 93be 02a4 a13f 5b15 863c
000001f0: 9cfb ca3d b63b c93e 0d5f e73d c6f2 bd3e
00000200: ee26 e5be c328 863f e7e8 553f da2a 9bbe
00000210: bb19 3cbe fbc4 8b3f 31f3 8b3f 921a 9a3f
00000220: fa2f 453f 88fa 613f c93e bcbe 3b6f 803f
00000230: 86ab a6be 4605 993f 151f 24bf d84e dabe
00000240: d6e3 b3be 17ca 943f fe39 823f 0e4c 8b3f
00000250: 35d7 3abe 81ba 173f 96e7 bb3e 19c3 8bbd
00000260: 8b61 813f 9eeb 9c3f 36b6 20bf 121f 893f
00000270: 70f5 fe3c 0753 333f e17c 883e c473 223f
00000280: a4e8 9c3f 3064 54bd 09b6 183f 0ef2 e93d
00000290: 778d 4f3f c5a6 fc3e 0978 efbd 5f42 873f
000002a0: 5f4c a33f 4a03 433f 7cba 833f 31a3 503f
000002b0: f2ce 01bf e103 a8be 4a17 8f3f 13c5 ac3f
000002c0: 7260 953f 9ef6 593e 7824 26bd f793 a5be
000002d0: 703b 573f 0dec 8b3f bd7b cdbe 0a44 233f
000002e0: a326 8a3f c29e 2d3f 40a6 263f a396 51be
000002f0: 56a1 8b3f 44da 4e3f 7810 dbbe f0d9 40be
00000300: a836 903f 776d 063e a325 93bd 4dfc 203f
00000310: bb95 8c3f 6193 493f ad29 4d3f a9b1 a53f
00000320: 059d 9e3f c713 1f3f 3f31 d3be d331 dcbe
00000330: 9b91 d63c 3865 f6bd 986c 85be c0c9 7f3f
00000340: 4fc6 823f aa0a f0be 6f24 e8be 65e4 1c3f
00000350: 74ea 273f beb2 993f fb86 0cbf 785b 243f
00000360: baa1 d0be c961 193f a216 1dbf 5f9d 6a3e
00000370: 8ba6 733f 1dfe 9d3f 12f2 483f 8b92 2e3f
00000380: acc3 213f 5a72 273f d7f6 353f a05a 8f3f
00000390: f607 a9be 6d12 863f 9137 4e3f bb0e 8c3f
000003a0: c7aa 403f cc64 333f 93b3 893f bb5b e9bd
000003b0: 88b4 d03d 84b5 653f d399 0c3e 32a2 e8be
000003c0: 8c36 3b3f 4027 03bf 629f cabe be88 35be
000003d0: 8a32 84bd d873 04be 9f2b 5abf a194 883f
000003e0: ce57 4f3f bb86 9c3f afa5 babd fd05 643e
000003f0: c9d1 893f 8154 d43e 7864 0bbf 271d 043f
0.15005268 0.5449853 1.192552 -0.3177562 0.22007094 -0.008670192 0.59544885 1.185445
0.84213495 0.62551355 0.09232341 0.9198964 1.2717093 -0.6124434 -0.511609 -0.4894471
1.0585877 -0.592873 0.82340175 0.65741694 0.96439195 1.1455905 -0.029284738 -0.69177884
0.91891843 0.8017932 1.2153896 0.80567443 0.059283823 0.56068563 1.0254331 0.7994164
0.8084689 1.1394507 0.73061705 0.725872 -0.7472748 0.4365436 1.0383074 -0.032938078
0.8146941 0.70810133 1.0578597 -0.34109783 0.5842059 1.0848464 0.43301424 1.100505
-0.16967495 1.218571 0.6826858 0.1528979 1.0519052 0.6224752 0.9524561 0.62272966
1.0519716 0.7619545 0.48205233 1.1075269 0.13947728 -0.612954 0.8906696 0.9710644
1.0899266 0.02249886 0.9938362 0.066263564 1.0584098 1.0714724 0.63310295 0.9606696
-0.3951851 0.7489628 1.1000143 -0.42767176 -0.44673628 -0.44904336 1.110263 0.16903965
0.62115663 0.07216604 -0.052691918 1.3151376 -0.6037227 -0.65923023 1.1062744 0.099897824
-0.4546308 0.6188792 -0.6462118 0.67414284 0.80199337 1.2448877 0.898763 -0.6111431
-0.37928352 -0.5541597 1.0753345 -0.052479062 -0.24216408 -0.2852212 0.53506845 0.09866583
0.45096424 1.0200499 0.056098573 1.2729151 0.6137395 -0.55269367 -0.42931142 0.62810785
-0.037108842 0.003975774 0.7581366 -0.043683484 0.5927858 -0.32974166 0.72676617 -0.13579106
1.2244205 -0.28865024 1.2628176 0.016367605 0.09911272 0.39303368 0.112974264 0.37099284
-0.44756263 1.048119 0.83558506 -0.3030613 -0.1836919 1.0919489 1.0933591 1.2039359
0.7702633 0.88272905 -0.3676665 1.0033945 -0.32552737 1.1954734 -0.6410993 -0.42638278
-0.35134763 1.1624173 1.0173948 1.0882585 -0.18246157 0.5926896 0.36700124 -0.06824321
1.0107893 1.2259405 -0.6277803 1.0712607 0.031122893 0.70048565 0.26657775 0.63457894
1.2258496 -0.05185336 0.59652764 0.114231214 0.81075233 0.49345985 -0.11692817 1.056713
1.2757682 0.76176894 1.0291286 0.8149901 -0.507064 -0.3281546 1.1178982 1.3497642
1.1670058 0.21285483 -0.040562123 -0.3233945 0.8407507 1.0931412 -0.40133467 0.63775694
1.0793041 0.6782037 0.6509743 -0.2046762 1.0908611 0.80801797 -0.42786002 -0.18833137
1.126668 0.13127695 -0.07184913 0.6288498 1.0983194 0.7874051 0.8014172 1.2944843
1.2391669 0.6213955 -0.4124851 -0.43006763 0.026192477 -0.12031025 -0.26059413 0.9991722
1.0216769 -0.46883136 -0.45340297 0.61286 0.6559212 1.2007673 -0.54893464 0.6420207
-0.40748388 0.59914833 -0.6136266 0.22911595 0.95176 1.2343174 0.7849437 0.68192357
0.63189197 0.6540886 0.7107977 1.1199532 -0.33013886 1.0474373 0.8055354 1.0941995
0.75260586 0.7007568 1.0757927 -0.11394449 0.101906836 0.89730096 0.13730554 -0.45436245
0.73130107 -0.51231766 -0.39574724 -0.17727944 -0.06454952 -0.12934816 -0.8522281 1.0670358
0.80993354 1.2228616 -0.09113633 0.2226791 1.0767146 0.4147072 -0.5445018 0.5160698

weight f4 [1, 256]
00000000: 6ed3 49bf 3ae2 fa3e 77d9 f63e ca6c 11bf
00000010: 5062 8340 725d 61bf eb27 cb3e 84ff ca3e
00000020: 022a ef3e d096 273f 4173 90bf 3629 b1c0
00000030: ca0b 253f 9111 eebe 9c0f 50bf 9fc7 80bf
00000040: 69cc 8a3e 6370 5fbf c351 4a3e 5a76 8e3e
00000050: 6790 313e fbe4 183f 7b7e cbbf 0da0 0abf
00000060: 2e6f 953e d4da 843e ed1d d53e 17f8 243e
00000070: 602d 9ebf 1ff4 823f 80d7 ec3e 4cfc 053e
00000080: 5c34 423e 76dc 763e 93d6 de3d 8e71 1e3f
00000090: d4c5 0bbf b210 ccbf 1d4f e23e 76d3 68bf
000000a0: 5612 a83e 4f0f 203e f3aa 4e3f e920 41bf
000000b0: 8ae2 d0bf 2fd4 2c3f 5a88 0cc0 1f1f b53e
000000c0: eb29 32bf 9828 f53e 54cf 24c0 5252 2140
000000d0: b0f5 313f 3362 0e3f 48e9 81c0 8363 233f
000000e0: 5375 e13e 13a9 783e 7318 683f a3f3 0e3f
000000f0: e376 1bc0 4aae 2abf dc81 9b3e 2d45 8a3e
00000100: 7375 8b3e 5ded 01c0 df03 943e 014f f2bf
00000110: e289 683f f4a8 763e 9a7e 74bf 17d2 913e
00000120: 50fc 04bf 60a2 c93e 4acf 483f 5766 9cbf
00000130: 3f83 e3bf 0862 15bf 3c67 7c3e 6c02 25bf
00000140: ed22 473f cc36 00bf d7db 8cbf e251 0f3f
00000150: 6a29 00bf 791b b3be 3047 573e 9c14 01c0
00000160: d93d 63bf 6459 983e 2c5b c3be 2585 0f3f
00000170: 5f9b 6fc0 7c41 e03e e37e 183f 0c14 13bf
00000180: 4f21 3abf 56c8 68bf 097d f43e 46de c5bf
00000190: 5068 55bf 3d45 51bf c566 5fbf 08b2 52bf
000001a0: f710 983f 677a 203e b616 d9bf 803a 203f
000001b0: d10d d33e 673e fdbe 7da6 34bf 2227 753f
000001c0: 1cb3 56bf 0f63 07c0 59d6 80c0 3286 89be
000001d0: 03df 4cc0 cdbf 9bbe f95e d03e a96e 97bf
000001e0: 84b9 f43e 0bf4 9e40 33d5 f13e 03b6 31bf
000001f0: 5bea 37bf 3614 2c3f 4310 e4bf ea4e dfbf
00000200: 146f 82bf 3038 263f fddb 3b3f 895b 0cbf
00000210: 6bd2 f6be 0c54 083f 5813 2e3f e49d e33e
00000220: 436e bc3d b53b de3e 80e5 78bf e12f b2c0
00000230: 9467 63bf 350e 053f c0d0 b3be 5c93 4ebf
00000240: 98aa 42bf 84d0 013f c013 7f3e 655f 2d3f
00000250: 1f8b 2dbf 8860 95c0 a329 53c0 d88b 05bf
00000260: 4cac e93e 70e1 e63e 9aed 1fbf 55d8 663e
00000270: 0746 03c0 8f25 df3d 7230 3440 8e0d 053f
00000280: e5ff 063f 35c8 b4bf 0954 9e3e eded c8bf
00000290: d4c3 003e 7ec7 60c0 1f8a 6cbf 3742 c03e
000002a0: e4cb d63e 6f64 90c0 c3ac 913e 2501 933e
000002b0: 5524 95bf b688 2abf e9f3 df3e 4746 0b3f
000002c0: 89f2 013f f868 1fc0 4071 28bf d166 0fbf
000002d0: 6c5e 2f3e 9731 b83e ad2c 93bf 6cb9 f4bf
000002e0: 27f9 173f bdf0 913f ddcf 853e d683 3abf
000002f0: 8775 343f 3d25 443e 8bea 87bf 34dd 96bf
00000300: 8bdf 1f3f 387f 0ac0 b91c e8be 9257 d73e
00000310: 423a 523f b6ef ce3d 0d88 d33d 02fd 1a3f
00000320: 8cfb e53e 9fbe 333e e006 5cbf 3a17 97bf
00000330: 7a04 a9bf c192 8fbf 4220 1bbf ab43 473e
00000340: a5bb 6c3e 5c0e 25bf 693c 0fbf 230a 393f
00000350: 4606 46c0 ceb5 d63e 32fe 32bf d234 7fc0
00000360: c93f bdbf c125 61c0 9085 d0bf 51ed c13f
00000370: a78f c8c0 7bd4 9b3e 3766 aa3e 6139 0b3f
00000380: 217d 1d3f 4530 2e3f c014 71c0 b7d7 803e
00000390: 2e20 56bf 7bb9 da3d 1383 e43e afb2 813e
000003a0: eb7c 5f3e b590 4d3f f0fb 3d3f 44b1 a8bf
000003b0: 65bb cebf 03e6 9d3d 7595 04c0 1c25 93bf
000003c0: 3b7d d73e ff99 37bf fe40 babf e1a5 abbf
000003d0: 2ba5 74bf 101d 77bf 68b4 f7be 0fb3 263f
000003e0: 31db 053f cfdc d13e 392a 8abf 1ee9 b9bf
000003f0: 9170 a73e 36d1 dabf f05c c2bf 2c78 0fc0
-0.7883824 0.49000722 0.48212788 -0.56806624 4.105751 -0.8803321 0.39678892 0.39648068
0.46711737 0.65464497 -1.1285173 -5.5362806 0.64471114 -0.46497777 -0.8127382 -1.006092
0.27109078 -0.87280864 0.19757752 0.2782467 0.17340241 0.59724396 -1.5897974 -0.5415047
0.29186386 0.25948203 0.41624394 0.16110264 -1.2357597 1.023075 0.46258163 0.13084525
0.18965286 0.24107537 0.108807705 0.6189202 -0.54598737 -1.5942595 0.44200984 -0.90947664
0.3282649 0.1563084 0.807296 -0.7544084 -1.6319134 0.67511266 -2.1958222 0.35375306
-0.6959521 0.47882533 -2.5751543 2.5206494 0.69515514 0.5561859 -4.0597267 0.6382372
0.44034824 0.24283247 0.90662307 0.5584051 -2.4291313 -0.66672194 0.30372512 0.27005902
0.27238044 -2.0301125 0.28909203 -1.893036 0.9083539 0.24087888 -0.9550568 0.28480598
-0.519475 0.39381695 0.784413 -1.2218732 -1.7774428 -0.5835271 0.24648756 -0.6445682
0.7778767 -0.50083613 -1.100459 0.5598432 -0.5006319 -0.34981897 0.2102325 -2.016883
-0.8876625 0.297557 -0.38155496 0.5606254 -3.743858 0.4379996 0.59568614 -0.57452464
-0.72707075 -0.9093069 0.47751644 -1.5458457 -0.83362293 -0.81746274 -0.8726619 -0.82302904
1.1880177 0.15671693 -1.6960056 0.62589264 0.4122148 -0.49461672 -0.7056654 0.95762837
-0.8386705 -2.115421 -4.0261655 -0.26860195 -3.2011116 -0.3041977 0.40697458 -1.1830646
0.47797787 4.9672904 0.4723297 -0.6941835 -0.71841973 0.6721834 -1.7817463 -1.7445958
-1.0190148 0.64929485 0.7338255 -0.5482717 -0.4820741 0.53253245 0.67998266 0.44456398
0.09200718 0.43404928 -0.9722519 -5.5683446 -0.8882992 0.51974803 -0.351202 -0.806936
-0.76041555 0.50708795 0.24909878 0.67723686 -0.67790407 -4.6680336 -3.2994163 -0.5216651
0.45639265 0.4509387 -0.62471926 0.22543462 -2.0511491 0.108958356 2.8154569 0.5197381
0.52734214 -1.4123598 0.3092349 -1.5697609 0.12574703 -3.512176 -0.92398256 0.37550518
0.4195243 -4.51226 0.2845212 0.2871181 -1.1651713 -0.66614854 0.43740776 0.5440411
0.50760704 -2.4907818 -0.65797806 -0.5601626 0.17125863 0.35975334 -1.1498009 -1.9119086
0.5936455 1.1401592 0.2613515 -0.72857416 0.7049183 0.1915483 -1.0618452 -1.1786256
0.62450475 -2.1640148 -0.45334414 0.42058998 0.82120144 0.10104315 0.10328684 0.6054231
0.44918478 0.17553185 -0.8594799 -1.1803963 -1.3204491 -1.1216661 -0.60596097 0.19459407
0.23118456 -0.64475036 -0.55951554 0.7228109 -3.094133 0.4193558 -0.6991912 -3.987599
-1.4785091 -3.5179293 -1.629076 1.5150548 -6.2675357 0.30435547 0.3328111 0.5438443
0.61519057 0.68042403 -3.7668915 0.25164577 -0.8364285 0.10679909 0.44631252 0.25331637
0.21824996 0.8029893 0.7421255 -1.3179097 -1.6150938 0.07709887 -2.0716221 -1.14957
0.4208773 -0.71719354 -1.4551084 -1.3409997 -0.95564526 -0.9652872 -0.48379827 0.6511697
0.52287585 0.40988776 -1.0794135 -1.4524267 0.3270307 -1.7095096 -1.5184612 -2.2417097

obs_std f4 [28]
00000000: cdcc 4c3e cdcc 4c3e 0000 803f 0000 803f
00000010: 0000 803f 0000 003f 0000 003f 0000 003f
00000020: 0000 003f 0000 003f 0000 003f 0000 003f
00000030: 0000 003f 0000 003f 0000 003f 0000 8040
00000040: 0000 8040 0000 8040 0000 8040 0000 8040
00000050: 0000 8040 0000 8040 0000 8040 0000 8040
00000060: 0000 8040 0000 803f 0000 803f 0000 803f
0.2 0.2 1.0 1.0 1.0 0.5 0.5 0.5
0.5 0.5 0.5 0.5 0.5 0.5 0.5 4.0
4.0 4.0 4.0 4.0 4.0 4.0 4.0 4.0
4.0 1.0 1.0 1.0

obs_mean f4 [28]
00000000: 0000 0000 0000 0000 0000 0000 0000 0000
00000010: 0000 0000 0000 0000 0000 0000 cdcc 4cbe
00000020: 9a99 193f cdcc ccbe 0000 0000 0000 0000
00000030: cdcc 4cbe 9a99 193f cdcc ccbe 0000 0000
00000040: 0000 0000 0000 0000 0000 0000 0000 0000
00000050: 0000 0000 0000 0000 0000 0000 0000 0000
00000060: 0000 0000 0000 003f 0000 003f 0000 003f
0.0 0.0 0.0 0.0 0.0 0.0 0.0 -0.2
0.6 -0.4 0.0 0.0 -0.2 0.6 -0.4 0.0
0.0 0.0 0.0 0.0 0.0 0.0 0.0 0.0
0.0 0.5 0.5 0.5
