trained/h1_step/actor_13799.pt (torch, 315889 bytes, 9 tensors)

weight f4 [256, 35]
0	0xbf2b1ea1	-0.6684361
1	0xbe558aab	-0.20853679
2	0xbed31a3d	-0.41230956
3	0x3e960363	0.2929946
4	0xbdad96ad	-0.08476005
5	0x3e86adf3	0.26304588
6	0xbeddca67	-0.43318483
7	0x3d7ed9ca	0.06221942
8	0xbc42442f	-0.011857077
9	0x3e01ad52	0.12663773
10	0x3c5946b0	0.013261482
11	0x3e579a75	0.21055014
12	0xbd8d126f	-0.068882816
13	0xbe9f897b	-0.31159577
14	0x3d1034a1	0.03520644
15	0x3da8d2db	0.082433425
16	0xbe95fab1	-0.29292825
17	0xbeb2ffee	-0.34960884
18	0x3d2ac109	0.041688
19	0xbd484a55	-0.048899014
20	0xbdbb023c	-0.091312855
21	0xbcad7750	-0.021175057
22	0xbe869cf9	-0.26291636
23	0xbda2517f	-0.079257004
24	0x3ecfa829	0.40557984
25	0xbc3a58e0	-0.0113737285
26	0xbc7cb484	-0.015423898
27	0x3e6d49b5	0.23172648
28	0xbe26ce1b	-0.1628956
29	0xbc3ac76a	-0.011400083
30	0xbe14062f	-0.14455484
31	0xbe739a2f	-0.23789285
32	0x3d9d92ff	0.07694053
33	0x3d8b6a62	0.068074
34	0xbdcc262c	-0.09968218
35	0x3dc7be63	0.0975311
36	0xbdcd1042	-0.100128666
37	0x3d90eea0	0.07076764
38	0xbe75b6a9	-0.2399546
39	0x3d127ee3	0.03576554
40	0xbec6a315	-0.38796297
41	0x3e5bd57e	0.2146816
42	0xbdacd423	-0.08438899
43	0xbd5bc395	-0.05365332
44	0x3e8232d2	0.25429398
45	0xbdfd7750	-0.12376273
46	0x3d2469f5	0.04014011
47	0x3e8405c2	0.25785643
48	0xbcff2253	-0.031144297
49	0x3ebb79fb	0.366165
50	0x3d68777b	0.05675457
51	0xbeda5bfd	-0.42648306
52	0x3d5413fa	0.051776864
53	0xbe9b4193	-0.30323467
54	0x3f4023be	0.7505454
55	0xbe68da3d	-0.22739501
56	0xbefc6572	-0.49296147
57	0x3e932979	0.2874258
58	0xbeaddbf5	-0.33956876
59	0x3ea3f7e7	0.32025072
60	0x3c541d16	0.012946388
61	0xbd9d040e	-0.07666789
62	0x3e8baf07	0.27281973
63	0xbe85bda9	-0.26121262
64	0xbe4587ae	-0.19290039
65	0xbbf2e02d	-0.0074119777
66	0xbe886b4f	-0.2664437
67	0xbc1ddb76	-0.009634843
68	0xbebd9394	-0.37026656
69	0xbe9f4df2	-0.31114155
70	0x3e9a09a3	0.30085477
71	0x3e4acf91	0.19805743
72	0x3e746925	0.23868234
73	0x3c0a73f1	0.008450494
74	0xbcd482b2	-0.025941227
75	0x3db3fba6	0.087882325
76	0xbbca1493	-0.0061670034
77	0x3eab8b3f	0.33504674
78	0xbe761abb	-0.24033634
79	0xbd85d2ce	-0.065343484
80	0xbe26253d	-0.16225143
81	0x3ed3ba6e	0.41353172
82	0x3e0427cd	0.12905808
83	0xbe93c9b3	-0.28864822
84	0x3dbb524e	0.09146558
85	0xbdba39d5	-0.09093062
86	0x3e3c116d	0.18366022
87	0xbd3c9e41	-0.04604936
88	0x3ee15be1	0.4401541
89	0xbea2dd95	-0.3180968
90	0x3e75745c	0.23970169
91	0xbe985486	-0.29751986
92	0x3e5b4b75	0.21415503
93	0x3db65e9a	0.089047626
94	0xbce4b14e	-0.027916577
95	0x3e1993af	0.14997743
96	0x3dc1c120	0.09460664
97	0x3dfcbc07	0.12340551
98	0x3e9ebd63	0.31003866
99	0xbe69f258	-0.22846353
100	0x3e087105	0.13324364
101	0x3eb2564a	0.34831458
102	0x3e975673	0.29558143
103	0xbd542d74	-0.05180116
104	0x3d96d3b0	0.07364595
105	0xbe78672a	-0.24258104
106	0x3e632008	0.22180188
107	0xbe5e4a3c	-0.21708006
108	0x3d87473b	0.06605383
109	0x3e755500	0.23958206
110	0x3e13dfc6	0.14440832
111	0xbeaf7050	-0.34265375
112	0x3eeae70d	0.45879403
113	0x3debaa07	0.115070395
114	0xbdf4c087	-0.11950784
115	0x3e6210ea	0.22076765
116	0xbe3cf3d7	-0.18452393
117	0x3f394257	0.7236685
118	0x3ce0ac6f	0.027425973
119	0xbd6311a5	-0.05543675
120	0xbe0b22f5	-0.13587554
121	0xbd366b37	-0.04453584
122	0xbd0a8873	-0.033821534
123	0x3f46d05c	0.7766168
124	0xbd52847d	-0.051395882
125	0xbde62be2	-0.11238839
126	0x3d966072	0.07342614
127	0x3e5051b5	0.20343669
128	0xbc9e6f13	-0.019340074
129	0xbdb48026	-0.08813505
130	0x3de68292	0.11255373
131	0xbe5604ee	-0.20900318
132	0x3d87064a	0.065929964
133	0x3dd940d8	0.10608071
134	0xbd7293fc	-0.05922316
135	0x3daa94ba	0.083291486
136	0x3e8aee77	0.2713506
137	0xbe5b0899	-0.21389998
138	0xbd9f3a12	-0.07774748
139	0xbcda4d7e	-0.02664828
140	0xbe190bfe	-0.14945981
141	0x3e176344	0.1478396
142	0xbe41e4fe	-0.1893501
143	0xbea6697c	-0.32502353
144	0xbe6468a8	-0.22305548
145	0xbe754549	-0.23952211
146	0xbe05029b	-0.12989275
147	0x3d1f209f	0.03884947
148	0x3cc29bda	0.023755956
149	0x3e580b23	0.21097998
150	0x3e82880a	0.25494415
151	0xbdf275ab	-0.1183885
152	0x3edac924	0.42731583
153	0xbe9f6fca	-0.31139976
154	0xbda92c77	-0.08260434
155	0x3ed1cb48	0.40975404
156	0xbdb8169d	-0.08988688
157	0x3eb6371b	0.35588917
158	0x3e527086	0.20550737
159	0x3b6773fd	0.0035316937
160	0x3cb0c305	0.021577368
161	0xbe8d5737	-0.27605602
162	0xbb347f6c	-0.002754177
163	0xbca09b47	-0.019605292
164	0xbede1a34	-0.43379366
165	0x3b0424df	0.0020163578
166	0xbeb39cfe	-0.35080713
167	0x3db7aa3f	0.08968019
168	0xbee2a00f	-0.4426274
169	0xbe79202a	-0.24328676
170	0xbef7be8a	-0.48387557
171	0x3e836dce	0.25669712
172	0xbda636c4	-0.081159145
173	0x3d7b0cb5	0.061291415
174	0xbdcdade6	-0.10042934
175	0x3daf23df	0.08551764
176	0x3e355ba1	0.17710735
177	0xbe77a732	-0.24184874
178	0xbc00c4d7	-0.00785943
179	0x3e9a825c	0.3017758
180	0x3e87f2fd	0.26552573
181	0x3ee8b4aa	0.45450336
182	0x3eae346c	0.3402437
183	0xbe6cc9c4	-0.23123842
184	0x3e2ce469	0.16884007
185	0xbed488ee	-0.4151072
186	0xbe815254	-0.25258124
187	0x3e2b22f9	0.1671256
188	0xbe3652a3	-0.17804961
189	0x3e7b9b6c	0.24571007
190	0x3e97d4c1	0.29654506
191	0x3e877161	0.2645369
192	0xbc63a9e4	-0.013895486
193	0xbea44bcc	-0.32089078
194	0x3da1bf0c	0.078977674
195	0xbecb3b27	-0.39693567
196	0x3f100d28	0.56270075
197	0x3e0eaedb	0.1393389
198	0x3e014c48	0.12626755
199	0xbd9c1beb	-0.076225124
200	0xbeb674c6	-0.35635966
201	0x3dbeba76	0.09312908
202	0x3e46b20f	0.19403861
203	0x3dd64305	0.10462002
204	0x3db233b7	0.0870127
205	0xbe0ac1bf	-0.13550471
206	0xbe5bf2ed	-0.21479388
207	0x3ebe2da0	0.37144184
208	0xbcd0ce86	-0.025489103
209	0x3eb7902e	0.35852188
210	0xbdf94bd2	-0.12172665
211	0x3d379037	0.04481527
212	0x3e55cb46	0.20878324
213	0xbd6e29f7	-0.05814549
214	0x3d9f767c	0.07786271
215	0x3e1cb88b	0.15304773
216	0x3ee21e1b	0.44163594
217	0xbec343c9	-0.38137653
218	0xbe1e6ad2	-0.15470436
219	0xbd8d50e8	-0.06900197
220	0xbec2e8ad	-0.38068143
221	0xbef86046	-0.4851095
222	0xbe1059b4	-0.14096719
223	0x3a39fb5b	0.0007094645
224	0xbe3d1732	-0.1846588
225	0x3ee8b05a	0.45447046
226	0x3e9c3a40	0.3051319
227	0xbddfdbcd	-0.109305955
228	0xbe4b396f	-0.19846128
229	0xbe9bb72b	-0.30413184
230	0x3dae5f29	0.08514244
231	0x3daa457f	0.083140366
232	0x3dff2825	0.12458829
233	0x3dd5534e	0.1041628
234	0xbe15e06e	-0.14636394
235	0x3e0c8138	0.13721168
236	0x3e5093a4	0.2036882
237	0x3d17a621	0.037023667
238	0xbe48aa04	-0.19596106
239	0x3f072eaf	0.5280561
240	0x3ec67dbd	0.38767806
241	0x3cea59bc	0.028607242
242	0x3e313588	0.17305577
243	0x3e1e993c	0.15488142
244	0x3edce297	0.43141624
245	0xbd2808bd	-0.04102396
246	0xbe4ce3c1	-0.20008756
247	0xbf323bdc	-0.6962259
248	0x3e05cf54	0.1306737
249	0x3cf99599	0.030466842
250	0xbe46afc3	-0.19402985
251	0x3d1eab75	0.038737733
252	0x3d509274	0.05092092
253	0x3c0c37e1	0.008558244
254	0xbda3ed53	-0.080042504
255	0x3e8ae9d7	0.2713153

bias f4 [256]
0	0xbd87a71c	-0.066236705
1	0x3e17c348	0.14820588
2	0xbe8b9a63	-0.27266225
3	0xbdf8ff2a	-0.12158044
4	0xbd90c944	-0.07069638
5	0xbd0fc560	-0.03510034
6	0xbe34122a	-0.17585054
7	0xbc1c73e2	-0.009549113
8	0xbd842c57	-0.0645377
9	0xbe8ff8f3	-0.2811962
10	0xbe058052	-0.13037232
11	0xbd2aa502	-0.04166127
12	0xbd5ce0ea	-0.053925432
13	0xbd052e3c	-0.032514796
14	0xbdd57e13	-0.104244374
15	0x3d0c1bcc	0.034206197
16	0x3cae60fb	0.021286478
17	0xbe150bc2	-0.14555266
18	0x3d7b4f79	0.061355088
19	0x3b4d05c0	0.0031283945
20	0x3cd1cd60	0.025610626
21	0x3e41c276	0.18921837
22	0x3d4aa6ef	0.049475607
23	0xbe247a5c	-0.16062301
24	0x3c989ea0	0.018630326
25	0xbe0c51d6	-0.13703093
26	0x3bfec2e2	0.0077746967
27	0xbe394ad8	-0.18094957
28	0xbe8c6ed7	-0.27428314
29	0xbe9c29ea	-0.30500728
30	0xbc993298	-0.018700883
31	0x3c68c5d4	0.014207322
32	0xbd94ab95	-0.07259289
33	0xbc9614f1	-0.018320533
34	0xbdc10786	-0.09425263
35	0x3d8c5bd1	0.0685345
36	0xbd451e5c	-0.048124656
37	0xbbcc3a5f	-0.0062325443
38	0xbe9a3530	-0.30118704
39	0xbe26917b	-0.16266434
40	0xbd5f9545	-0.054585714
41	0x3cb59969	0.022167878
42	0x3dce11e1	0.10062004
43	0x3d867920	0.065660715
44	0xbdbc74ee	-0.0920199
45	0xbbf138fd	-0.00736153
46	0xbd2105fc	-0.039312348
47	0x3cc6c6c8	0.024264708
48	0xbe214f11	-0.15752818
49	0xbd924d57	-0.07143658
50	0xbdd64b04	-0.10463527
51	0xbe14e35d	-0.14539857
52	0x3db3caf6	0.08778946
53	0x3c0fd84f	0.008779599
54	0x3de668e8	0.11250478
55	0xbdca0b92	-0.09865488
56	0xbd2798b6	-0.04091712
57	0xbda321b8	-0.07965416
58	0x3e3b6ae8	0.183025
59	0xbdba863d	-0.09107635
60	0xbdc12131	-0.09430159
61	0x3d81c8a0	0.06337094
62	0xbe6a36ad	-0.2287242
63	0xbe1096c8	-0.14120018
64	0x3ca36c5b	0.019949129
65	0xbcfc9c5b	-0.030836275
66	0x3d30bfee	0.04315179
67	0xbd0a9d95	-0.03384169
68	0xbe0f16c6	-0.13973531
69	0x3dc07efa	0.09399219
70	0x3b81a654	0.0039565954
71	0x3cfa29bf	0.030537484
72	0xbdde7691	-0.108624585
73	0xbdaad6d6	-0.08341758
74	0xbc317ae8	-0.010832526
75	0x3e21751a	0.15767327
76	0x3d95b039	0.073090024
77	0xbe8efe7b	-0.27928528
78	0xbd8b72b2	-0.06808986
79	0x3e069784	0.13143736
80	0xbe7e3036	-0.24823079
81	0x3cdf4ddb	0.027258804
82	0xbde60241	-0.11230899
83	0xbd4a4165	-0.04937877
84	0xbd9598d0	-0.07304537
85	0xbb9f442f	-0.004860423
86	0xbe675f50	-0.22594953
87	0xbd44e545	-0.04807021
88	0x3d09099d	0.033456434
89	0xbe26a306	-0.16273126
90	0xbe5619eb	-0.20908324
91	0x3e17f5eb	0.14839904
92	0xbd03901d	-0.03211986
93	0x3d5c675c	0.05380951
94	0x3c96db61	0.018415155
95	0x3d018fa7	0.03163114
96	0xbdc426f6	-0.09577744
97	0xbbb27754	-0.005446354
98	0xbe277b2b	-0.16355579
99	0x3ca0b479	0.019617306
100	0x3d605bbb	0.05477498
101	0x3da36182	0.079775825
102	0xbe13207d	-0.14367862
103	0x3d404d04	0.046948448
104	0x3d431b1e	0.047633283
105	0xbdc2af92	-0.09506144
106	0xbcf08ab1	-0.029363008
107	0xbe19b82a	-0.1501166
108	0x3d0908ce	0.033455662
109	0xbd370e44	-0.04469134
110	0xbcf206d8	-0.029544279
111	0xbdb81c67	-0.08989792
112	0x3d491ead	0.04910152
113	0xbd9e3ddd	-0.07726643
114	0xbe1253fa	-0.14289847
115	0xbdcc8d82	-0.09987928
116	0x3bc0486f	0.0058680098
117	0xbdb2e6eb	-0.0873545
118	0x39e5154a	0.00043694145
119	0xbe843c8c	-0.25827444
120	0xbdaab631	-0.083355315
121	0x3dcd3143	0.100191616
122	0x3d88928e	0.06668578
123	0x3d458cdd	0.04823004
124	0x3db0a613	0.08625426
125	0xbe09acfb	-0.13444893
126	0xbcf5d820	-0.030010283
127	0xbdd575e5	-0.10422877
128	0xbdb35b6b	-0.08757671
129	0xbd059255	-0.032610256
130	0xbe80a788	-0.25127816
131	0xbbd935ab	-0.006628712
132	0x3d373f07	0.044737842
133	0xbd38b5c1	-0.04509521
134	0xbdcde0df	-0.100526564
135	0x3daacefe	0.08340262
136	0xbd59b376	-0.053149663
137	0xbde73efe	-0.11291312
138	0xbda20b84	-0.07912353
139	0xbd59d025	-0.053177018
140	0xbeb6f261	-0.35731795
141	0x3d0155fc	0.03157614
142	0xbe4c9f15	-0.1998256
143	0x3dc550ae	0.09634529
144	0x3be5c260	0.0070116967
145	0x3cec410c	0.02883961
146	0xbe152800	-0.1456604
147	0x3d77f17c	0.06053303
148	0xbcc2649a	-0.023729611
149	0x3ce4e8c8	0.02794303
150	0x3e26b6db	0.16280691
151	0xbe5ae754	-0.21377307
152	0xbe9f80b8	-0.31152892
153	0x3d149e24	0.036283627
154	0x3d79fe27	0.061033394
155	0xbe0a5828	-0.13510191
156	0xbd6857e8	-0.05672446
157	0x3b8f85ef	0.00437998
158	0xbdf56438	-0.11982006
159	0xbd53e61d	-0.051733125
160	0xbdaa3584	-0.083109885
161	0x3cea10f7	0.028572543
162	0xbe38c197	-0.18042599
163	0x3d823c35	0.0635914
164	0xbdb37e14	-0.08764282
165	0xbe025e99	-0.12731399
166	0xbdc35da4	-0.09539345
167	0xbea318a6	-0.31854743
168	0x3d599dca	0.053128995
169	0x3dfea720	0.1243422
170	0xbde18b10	-0.11012852
171	0xbc848524	-0.016176768
172	0xbd85c56c	-0.06531796
173	0xbe4d268c	-0.20034236
174	0xbd1d6348	-0.03842476
175	0xbd641cf3	-0.05569167
176	0x3e0f6dcf	0.14006732
177	0xbd3798a2	-0.044823296
178	0xbce2c331	-0.027680965
179	0x3def3340	0.11679697
180	0x3d902baa	0.07039578
181	0xbde1d986	-0.110278174
182	0x3d7f9ddc	0.062406406
183	0xbdb01f68	-0.0859974
184	0x3df36faa	0.118865326
185	0xbd5347b3	-0.05158205
186	0x3d7c66ce	0.06162148
187	0xbd8485ff	-0.0647087
188	0xbe0b3855	-0.13595708
189	0x3d20ec2e	0.03928774
190	0xbe3bcbff	-0.18339537
191	0xbde837ed	-0.11338792
192	0xbc6f2ab8	-0.014597587
193	0xbc6e64fd	-0.014550445
194	0xbe33394d	-0.17502327
195	0xbd1c9e48	-0.038236886
196	0x3b88d1ef	0.0041754167
197	0xbae333e0	-0.0017334186
198	0xbd8400e5	-0.06445483
199	0xbd0e7863	-0.03478278
200	0xbd33d07a	-0.04389999
201	0xbd9ac3bf	-0.07556867
202	0xbe399889	-0.18124594
203	0x3d4183fe	0.04724502
204	0xbe124a05	-0.14286049
205	0xbd2b286f	-0.041786607
206	0x3cca4fb1	0.024696203
207	0xbcc294aa	-0.02375253
208	0xbd369e74	-0.044584706
209	0x3d57a0f8	0.052643746
210	0xbd61a5c8	-0.055089742
211	0xbde627c0	-0.112380505
212	0x3d979bae	0.074027404
213	0xbe1acb1c	-0.15116543
214	0xbada0526	-0.0016633614
215	0x3cc9bd78	0.024626479
216	0x3bd1b88a	0.0064001726
217	0xbd6720db	-0.056427818
218	0xbe2b18e0	-0.16708708
219	0x3c332ca8	0.01093594
220	0xbca567ff	-0.02019119
221	0xba904384	-0.0011006449
222	0xbda5dbab	-0.08098539
223	0xbdcc8135	-0.09985582
224	0xbc9a8bc1	-0.018865468
225	0xbd2927dc	-0.04129778
226	0xbc08598e	-0.008322133
227	0xbd5eb5d3	-0.05437262
228	0xbe1dc8ff	-0.15408705
229	0xbcdcd469	-0.026956754
230	0xbc25373e	-0.010083972
231	0xbe010aa6	-0.12601718
232	0xbe3d0b53	-0.18461351
233	0x3d0d2e3d	0.034467924
234	0x3cefab5c	0.029256515
235	0x3e31a976	0.173498
236	0xbe0afb7a	-0.13572493
237	0xbdad1fab	-0.08453306
238	0xbca71303	-0.020394808
239	0xbd3610f9	-0.04444978
240	0xbd6e4b6c	-0.058177397
241	0x3d5f02cf	0.054446038
242	0xbc139fdc	-0.009010281
243	0x3d3c74c1	0.046009783
244	0xbd8321d6	-0.06402938
245	0x3cd20a3e	0.02563965
246	0xbde5b469	-0.11216051
247	0x3e48834f	0.1958134
248	0xbe0f4a00	-0.13993073
249	0xbe046975	-0.12930854
250	0xbe6054fa	-0.21907416
251	0x3de37c39	0.11107678
252	0xbd96d0a1	-0.073640116
253	0x3d45f453	0.04832871
254	0x3bbefe49	0.005828653
255	0xbe498924	-0.19681221

weight f4 [256, 256]
0	0xbb26adc3	-0.002543316
1	0xbd79e192	-0.061006136
2	0xbe9c32be	-0.30507463
3	0xbe373fb2	-0.17895392
4	0xbd7a3cff	-0.061093327
5	0xbe0315ba	-0.12801257
6	0xbda3aed2	-0.07992329
7	0x3d40e87c	0.047096714
8	0xbe385326	-0.18000469
9	0xbe0e441f	-0.13893174
10	0xbd6937a2	-0.05693782
11	0x3ee75424	0.45181382
12	0x3d82c1aa	0.06384595
13	0xbb484977	-0.0030561367
14	0xbdcb3c5a	-0.099236205
15	0x3cd707c2	0.026248816
16	0xbe90fb3b	-0.28316674
17	0xbede70d3	-0.43445453
18	0x3e1c1905	0.15243919
19	0xbdb6e798	-0.08930892
20	0xbe14389a	-0.14474717
21	0xbe652e6e	-0.22380993
22	0xbce17984	-0.027523763
23	0x3e42cc56	0.1902326
24	0x3dbe049b	0.09278222
25	0xbe3ad523	-0.18245368
26	0xbe478878	-0.19485652
27	0xbe2db402	-0.16963199
28	0x3d41ceda	0.04731641
29	0x3d49cd91	0.04926831
30	0x3d6c574a	0.057700433
31	0x3dce5bbc	0.10076091
32	0x3cefe0ae	0.02928194
33	0xbda9826f	-0.08276831
34	0x3e3b6379	0.18299665
35	0xbbbb9583	-0.0057246103
36	0xbeb3762f	-0.35051104
37	0x3e83f9af	0.2577643
38	0x3d094ab5	0.03351851
39	0xbd2f7ad7	-0.04284176
40	0xbddeaf1f	-0.108732454
41	0x3dfca1a9	0.12335522
42	0xbe636cd2	-0.2220948
43	0x3eb94667	0.36186525
44	0xbdfa399d	-0.1221802
45	0xbdad9e94	-0.08477512
46	0xbe244e9c	-0.16045612
47	0x3da7d67d	0.08195207
48	0x3dbe1e74	0.09283152
49	0x3d9eab5b	0.07747527
50	0x3de253dd	0.11051152
51	0x3cfc74c3	0.030817395
52	0x3cdf323f	0.027245639
53	0xbc241ffa	-0.010017389
54	0xbda8c3c1	-0.08240462
55	0xbd9edb34	-0.077566534
56	0xbe6cd906	-0.23129663
57	0xbdb4c154	-0.08825937
58	0xbdb24dde	-0.08706258
59	0xbe30a573	-0.17250614
60	0xbda8828b	-0.08228024
61	0x3bbeb78b	0.00582022
62	0x3e6a9554	0.22908527
63	0x3dee61ed	0.116397716
64	0x3a022a03	0.00049653667
65	0xbd89f893	-0.06736865
66	0xbd72b15f	-0.059251186
67	0xbd5157fb	-0.051109295
68	0xbe64cd40	-0.22343922
69	0xbe6f738d	-0.23383923
70	0xbdd766fa	-0.10517688
71	0xbdf4d1ef	-0.11954104
72	0xbe05e5a9	-0.1307589
73	0x3da44a80	0.08022022
74	0xbd8841d5	-0.066531815
75	0xbe0b0223	-0.13575034
76	0xbe87f097	-0.26550743
77	0x3ded0272	0.11572732
78	0x3dbf2e49	0.09335
79	0xbe71a676	-0.23598656
80	0xbd884b12	-0.066549435
81	0x3d32054f	0.043462094
82	0x3a5f8504	0.0008526596
83	0x3cfff2ad	0.031243647
84	0x3e01e075	0.1268328
85	0xbe104ee8	-0.140926
86	0xbe57fa84	-0.21091658
87	0xbe2085d6	-0.15676054
88	0xbe658843	-0.22415261
89	0xbdf35ab1	-0.118825324
90	0xbe9d8b18	-0.30770183
91	0xbe7741d2	-0.24146202
92	0xbc85ea77	-0.016347153
93	0xbdbc05ff	-0.09180831
94	0xbd2f40c2	-0.042786367
95	0x3d96584b	0.07341059
96	0xbea698b8	-0.3253839
97	0xbd76296a	-0.06009809
98	0x3e43b981	0.19113733
99	0xbe6d27eb	-0.23159759
100	0xbe04e3ce	-0.12977526
101	0x3ba37eeb	0.004989495
102	0x3b3b495e	0.0028577666
103	0x3e47f92c	0.19528645
104	0xbe37989d	-0.17929311
105	0xbe195f0e	-0.14977667
106	0xbdcb0952	-0.09913887
107	0x3d07d492	0.033161707
108	0x3d2a8fcd	0.041641045
109	0xbe7d180f	-0.24716209
110	0xbe753a2f	-0.23947977
111	0xbcafe78b	-0.021472713
112	0x3e31cdcf	0.17363666
113	0xbe803261	-0.25038436
114	0xbe0639f3	-0.13108043
115	0xbd8e6187	-0.069521956
116	0xbd961c2f	-0.07329594
117	0xbdacf9bc	-0.084460706
118	0xbec564ce	-0.3855347
119	0x3e5013b8	0.20320022
120	0xbdd49db6	-0.103816435
121	0xbd9fb9e0	-0.07799125
122	0x3db22db1	0.08700121
123	0xbe002eb5	-0.12517817
124	0x3e21ea83	0.15812115
125	0xbe1ca9ee	-0.15299198
126	0xbe72633e	-0.2367067
127	0x3ddf782c	0.10911593
128	0xbe4bb8de	-0.1989474
129	0xbe7dc3f9	-0.24781789
130	0x3e0e71e7	0.13910638
131	0xbec9f907	-0.39447805
132	0xbc315a89	-0.010824808
133	0x3e3730db	0.1788973
134	0xbe62f238	-0.22162712
135	0xbdb515f8	-0.08842081
136	0xbe080708	-0.13283932
137	0xbd372f56	-0.044722877
138	0xbd22b520	-0.039723516
139	0x3e24543e	0.16047761
140	0xbd91fb3d	-0.07127998
141	0x3d616d76	0.05503603
142	0xbcb627e0	-0.02223581
143	0x3eceb79f	0.40374467
144	0xbe0391a7	-0.1284853
145	0xbe0751f5	-0.13214858
146	0xbe31af5b	-0.17352049
147	0xbe87e642	-0.2654286
148	0xbe8a96f3	-0.2706829
149	0xbc97fb25	-0.018552372
150	0xbc6df232	-0.014523076
151	0xbe8345b6	-0.25639123
152	0xbd4e1241	-0.050310377
153	0xbe687e8b	-0.22704522
154	0xbe90f3b8	-0.28310943
155	0xbe5634cc	-0.20918578
156	0xbd42c4ef	-0.04755109
157	0xbdda2a85	-0.10652641
158	0xbe932b55	-0.28743997
159	0xbca8c845	-0.020603308
160	0x3e33eaee	0.17570087
161	0x3db93686	0.09043603
162	0xbe210405	-0.1572419
163	0xbcfbc1fe	-0.030732151
164	0xbdf59ae9	-0.119924374
165	0xbe5de137	-0.21667944
166	0xbec2716d	-0.37977162
167	0x3b6c5874	0.0036063464
168	0xbd350fbe	-0.044204466
169	0xbdfb43c7	-0.12268787
170	0xbdc05e56	-0.09392993
171	0x3d3e0bd9	0.046398018
172	0xbca86271	-0.020554753
173	0xbe4caff5	-0.19988997
174	0xbe89dda0	-0.269269
175	0xbe00f89d	-0.12594838
176	0xbcdf059d	-0.027224356
177	0xbbf6bd30	-0.007529877
178	0xbcb8418e	-0.022492196
179	0xbdfccf7e	-0.123442635
180	0x3cf78a61	0.030217351
181	0xbeb2c41c	-0.34915245
182	0x3e11a69c	0.14223713
183	0xbe3c82d0	-0.18409276
184	0xbe285279	-0.16437711
185	0x3e5727ef	0.21011327
186	0x3bfd0e09	0.0077226204
187	0xbe62829a	-0.22120133
188	0xbca923cd	-0.020646954
189	0xbe18c7cc	-0.14919966
190	0xbe0781ee	-0.13233158
191	0x3e34a4e5	0.17641027
192	0xbe097c4e	-0.13426325
193	0xbdf1f8db	-0.118150435
194	0xbe6592dc	-0.22419304
195	0xbabf82e2	-0.001461115
196	0xbd9bd8a0	-0.07609677
197	0xbe214885	-0.1575032
198	0xbde129f9	-0.10994334
199	0xbe151c96	-0.14561686
200	0xbd26dfbe	-0.04074072
201	0xbe5c0174	-0.2148493
202	0xbe439ce7	-0.19102822
203	0x3dc03f10	0.09387028
204	0x3d7a003d	0.061035383
205	0x3db0333a	0.08603521
206	0xbe8a683f	-0.27032658
207	0xbdb7b87e	-0.08970736
208	0xbe5f20d3	-0.21789865
209	0xbe171872	-0.14755419
210	0x3eb646e9	0.35600975
211	0x3d5c50c6	0.05378797
212	0x3bc274aa	0.0059343176
213	0x3df39fd8	0.11895722
214	0x3e0eccef	0.13945363
215	0xbe8a1437	-0.26968548
216	0x3deaa92f	0.114580505
217	0xbed8cdbe	-0.4234447
218	0x3db9a083	0.09063818
219	0x3dd2da6b	0.10295566
220	0xbd00639c	-0.031344995
221	0xbdf9aa32	-0.12190665
222	0x3dca6490	0.09882462
223	0x3d9fa0c6	0.07794337
224	0xbd8fb60f	-0.07017147
225	0xbe7fe592	-0.24989918
226	0xbc649fc6	-0.013954109
227	0xbe1bb67a	-0.15206328
228	0x3e0dbd32	0.13841704
229	0xbf16be00	-0.58883667
230	0xbe0569e3	-0.13028674
231	0x3df6869b	0.12037393
232	0xbe1727e5	-0.14761312
233	0xbead4c85	-0.33847442
234	0x3eae8bfa	0.3409117
235	0xbe3b95d6	-0.18318877
236	0xbea1974a	-0.31560737
237	0xbdee5047	-0.116364054
238	0x3e2ad219	0.16681708
239	0xbd5c79b8	-0.053827018
240	0xbe5fe92d	-0.21866293
241	0xbd866e8d	-0.06564055
242	0xbe827322	-0.25478464
243	0xb87dd3d2	-6.0517174e-05
244	0xbdd8e2d3	-0.10590138
245	0x3d1549c4	0.0364473
246	0x3c4be221	0.01244405
247	0x3d66aec5	0.056319017
248	0xbce33aa3	-0.027737921
249	0xbe5711b5	-0.21002848
250	0xbc246816	-0.010034582
251	0xbd808b17	-0.06276529
252	0xbdf6efef	-0.120574825
253	0x3c288e93	0.010287899
254	0xbeefc4b9	-0.46829775
255	0x3e721cb1	0.23643757

bias f4 [256]
0	0xbd28f83c	-0.04125236
1	0x3e1a88f1	0.15091302
2	0xbc7f1c81	-0.015570761
3	0xbc55cfa0	-0.01304999
4	0x3cdba48f	0.026811866
5	0x3cd7ea9c	0.026356988
6	0x3e34b8ff	0.17648695
7	0x3e469089	0.19391073
8	0x3d91c75d	0.07118104
9	0xbdc53b05	-0.09630398
10	0xbcaf7158	-0.021416351
11	0x3dbe87a8	0.09303218
12	0x3e103be3	0.14085345
13	0xbda5c833	-0.080948256
14	0x3c3a21cc	0.011360597
15	0x3da117a4	0.07865837
16	0x3e2a47dd	0.16628976
17	0x39f548de	0.00046784332
18	0x3dd3cdcb	0.10341986
19	0x3de84378	0.11340994
20	0x3dda2271	0.106511004
21	0x3dcce30a	0.10004242
22	0x3c76b4a8	0.01505772
23	0x3d14ab2f	0.036296066
24	0xbd4dcb4a	-0.0502427
25	0x3cf82d24	0.030294962
26	0x3d9aca0b	0.07558068
27	0x3e2ab0d8	0.16669023
28	0x3da11d56	0.078669235
29	0xbc82ee2b	-0.015982708
30	0x3d3e1d91	0.046414915
31	0x3cd63424	0.02614791
32	0xbd0ccbe8	-0.034374148
33	0xbdf7ab02	-0.12093164
34	0x3dbae5d0	0.091258645
35	0x3d4c830c	0.049929664
36	0xbd328390	-0.0435825
37	0xbe4935e9	-0.19649471
38	0x3d587b00	0.052851677
39	0xbb5ca285	-0.0033666205
40	0x3da2b6f6	0.07945053
41	0x3daca129	0.08429176
42	0x3e0fc22f	0.14038919
43	0xbf0e59e0	-0.5560589
44	0x3e0875d7	0.13326202
45	0xbd8eb188	-0.06967455
46	0x3cc76821	0.024341645
47	0x3bf6ed99	0.007535648
48	0xbdddbac9	-0.10826642
49	0x3dc7b12c	0.0975059
50	0x3dec28b6	0.115312025
51	0x3d9d793a	0.07689138
52	0x3da5c442	0.08094074
53	0xbd39d89e	-0.045372598
54	0x3d2285ee	0.039678507
55	0x3de8c8a6	0.11366396
56	0xbaf88906	-0.0018961735
57	0x3d61f7b6	0.055167876
58	0xbd39a653	-0.045324635
59	0x3d39dd13	0.04537685
60	0x3d782b21	0.060588006
61	0x3dda3756	0.10655086
62	0x3de6171d	0.11234877
63	0xbe44d60c	-0.19222277
64	0xbc204b79	-0.009783619
65	0x3d9c0b7f	0.0761938
66	0x3d6c8007	0.057739284
67	0xbe2c2873	-0.16812305
68	0x3db067f3	0.08613577
69	0x3e356d24	0.17717415
70	0x3d9635ea	0.07334502
71	0x3e0b13a4	0.13581711
72	0x3ca877d6	0.020564955
73	0x3de56715	0.11201302
74	0x3da865b3	0.082225226
75	0x3dfef01d	0.12448142
76	0x3e213b75	0.15745337
77	0x3d1c7ea7	0.038206723
78	0x3d7afbf7	0.06127545
79	0x3deb2508	0.114816725
80	0x3d5bbad9	0.05364499
81	0x3d269de2	0.040677913
82	0x3dff7418	0.12473315
83	0x3d7e7a14	0.06212814
84	0x3dc16d00	0.09444618
85	0x3e52afe2	0.20574906
86	0xbba82ea1	-0.0051325117
87	0xbdda1433	-0.10648384
88	0xbd7f366a	-0.062307753
89	0x3e0b142d	0.13581915
90	0xbdaa0a29	-0.08302719
91	0x3c664eaf	0.014056846
92	0x3dae23bc	0.085029095
93	0x3dbac836	0.091202185
94	0xbc6465fe	-0.013940332
95	0x3df108fc	0.11769292
96	0x3d10e3a9	0.035373364
97	0x3d8d1581	0.06888867
98	0x3c8498fa	0.016186226
99	0x3d0c6a69	0.034281168
100	0x3e15805b	0.14599745
101	0xbd844ed5	-0.064603485
102	0x3c28b2e7	0.01029656
103	0x3da13f71	0.078734286
104	0x3a0e4944	0.00054277875
105	0xbde24ee5	-0.11050204
106	0x3d9580c5	0.072999515
107	0x3c8e8e40	0.017401814
108	0x3d3803d3	0.044925522
109	0xbda09344	-0.07840589
110	0x3db0888e	0.08619796
111	0xbdb2715e	-0.08713029
112	0x3c862cab	0.016378721
113	0x3e05d5a1	0.13069774
114	0x3bab3d0e	0.005225784
115	0x3d933a8c	0.07188901
116	0x3db6bc38	0.08922619
117	0x3d8a9b90	0.067679524
118	0x3e7100b4	0.23535424
119	0x3dbb4cf7	0.09145539
120	0xbc91691a	-0.017750312
121	0x3d4fa223	0.050691735
122	0x3dcc048b	0.09961804
123	0x3da7c70b	0.08192261
124	0x3e87c0c4	0.26514256
125	0xbda9ea02	-0.082965866
126	0x3eb00ea4	0.3438617
127	0x3d801877	0.06254666
128	0xbbed6444	-0.0072446186
129	0x3dd60d5f	0.10451769
130	0x3dbc8613	0.0920526
131	0x3d0d80e1	0.034546737
132	0x3e284725	0.1643339
133	0x3ddfed28	0.10933906
134	0x3daed150	0.08536017
135	0x3e0ef967	0.13962327
136	0xbc841ad2	-0.01612607
137	0x3de4ea46	0.111774966
138	0x3d43e1fd	0.04782294
139	0xbdbb665b	-0.09150382
140	0x3d65a838	0.05606863
141	0x3c695c22	0.014243158
142	0x3dbb3ea3	0.091428064
143	0x3da74afb	0.08168598
144	0xbcc9cd6f	-0.024634091
145	0x3c304f67	0.0107611185
146	0x3b53a2fe	0.0032293196
147	0xbc1c348b	-0.009534012
148	0x3d4efbc3	0.050533067
149	0x3db2b12b	0.08725198
150	0x3e255597	0.16145931
151	0x3e137230	0.14399028
152	0xbd35b08d	-0.044357825
153	0xbcfab1a3	-0.030602282
154	0x3d17cb8d	0.037059356
155	0x3dda18be	0.106492504
156	0x392a1e08	0.00016223651
157	0x3e1d8245	0.15381725
158	0xbcc5fd21	-0.024168553
159	0x3e20a109	0.1568643
160	0x3db10fd8	0.086456
161	0x3dddde18	0.10833377
162	0x3d8fbfc2	0.07018997
163	0xbd04f128	-0.032456547
164	0x3db0acc1	0.086267
165	0xbc8f25d1	-0.017474087
166	0xbd2f293a	-0.042763926
167	0xbc88b6f5	-0.016688803
168	0x3e167892	0.14694431
169	0x3d5ea48a	0.054356135
170	0x3e16181b	0.14657633
171	0x3e2e00ec	0.16992539
172	0x3e76e6c2	0.24111465
173	0x3e21f3b7	0.15815626
174	0x3bad801c	0.005294813
175	0x3e6f00ba	0.23340121
176	0x3d81ff44	0.06347516
177	0x3d109e43	0.03530718
178	0x3dfca043	0.12335255
179	0x3dc4feb1	0.09618891
180	0x3d671c68	0.056423575
181	0x3d397496	0.0452772
182	0x3d2ef358	0.04271254
183	0x3ce8f930	0.028439134
184	0xbd545292	-0.051836558
185	0x3ddd4ada	0.108052924
186	0x3d9dcf01	0.077054985
187	0x3e14796e	0.14499447
188	0x3c22bd71	0.009932862
189	0xbd9dc88f	-0.07704269
190	0x3d29b0ba	0.041428305
191	0x3dc38536	0.09546892
192	0x3d5a207d	0.05325364
193	0x3ecab0ac	0.39587915
194	0x3e621657	0.22078834
195	0x3cb30ae6	0.021855783
196	0x3b86cfb2	0.0041141147
197	0x3d8c33fb	0.06845852
198	0x3d94419b	0.07239076
199	0xbd0431dd	-0.032274116
200	0x3e4e7eb5	0.20165522
201	0xbdc007c6	-0.09376483
202	0x3dfe7d3f	0.124262325
203	0x3d3e0923	0.046395432
204	0x3e3f98b4	0.18710595
205	0x3ddce569	0.10785944
206	0x3c0b1489	0.008488783
207	0x3e46fe62	0.19432977
208	0xbdaa5dbd	-0.083186604
209	0xbc8e5399	-0.017373847
210	0xbbb2958a	-0.0054499554
211	0x3d8f337c	0.06992242
212	0x3d982482	0.07428838
213	0x3d2d36dd	0.04228865
214	0x3decfb5b	0.1157138
215	0xbd7a8bfe	-0.061168663
216	0xbdff667b	-0.124707185
217	0xbd527a6f	-0.051386293
218	0x3e65bfba	0.22436419
219	0x3ce56b5c	0.028005295
220	0x3d9f2bf6	0.07772057
221	0x3dfdda88	0.12395197
222	0xbc1c0c12	-0.009524362
223	0x3b82758e	0.0039812988
224	0xbdb810f4	-0.089876086
225	0xbd7213ab	-0.059100788
226	0x3db88add	0.09010861
227	0xbcba141d	-0.022714669
228	0x3e5aa468	0.21351779
229	0xbe110174	-0.1416071
230	0x3e21f039	0.15814294
231	0xbd5af4a3	-0.05345596
232	0xbdbecc49	-0.09316308
233	0xbd2948c7	-0.04132917
234	0x3e88b635	0.26701513
235	0x3d3fc053	0.046814274
236	0x3ea01fc5	0.31274238
237	0x3d985c6e	0.074395046
238	0x3d1a2fb7	0.03764316
239	0x3c123b68	0.008925296
240	0x3d71c176	0.05902239
241	0x3d8fe3f1	0.07025898
242	0xbdde4844	-0.10853627
243	0x3e0b8565	0.13625105
244	0x3e08c0d9	0.13354816
245	0x3d3d0945	0.04615142
246	0x3d83caae	0.064351425
247	0x3e424c9f	0.18974541
248	0x3c061e1f	0.008185892
249	0x3bb694d1	0.0055719395
250	0x3d8cfb50	0.068838716
251	0x3eaacb38	0.3335817
252	0xbe2e0957	-0.1699575
253	0x3e1f777f	0.15572928
254	0x3dc51858	0.09623784
255	0x399c4e76	0.00029813097

weight f4 [10, 256]
0	0x3ec8c1da	0.39210397
1	0x3e18a63d	0.14907165
2	0x3c813a0c	0.01577475
3	0x3e726d2a	0.23674455
4	0x3da4124c	0.08011302
5	0xbe89f93a	-0.26947957
6	0xbd092c70	-0.033489645
7	0x3daa641b	0.08319875
8	0x3e22f12a	0.1591231
9	0x3e15a2b9	0.14612855
10	0x3d567127	0.052354004
11	0x3dca4616	0.09876649
12	0xbcbb83c5	-0.022889981
13	0x3dca3436	0.0987324
14	0x3ccb83e5	0.024843166
15	0xbea32ee6	-0.31871718
16	0xbdc0c222	-0.09412028
17	0xbe384d50	-0.17998242
18	0x3ba3e3cc	0.0050015207
19	0xbcfec764	-0.031100936
20	0x3d449f48	0.048003465
21	0x3d868630	0.06568563
22	0xbd776589	-0.060399566
23	0x3c48a956	0.012247404
24	0x3e7ae0ed	0.24499865
25	0x3e0448a9	0.12918343
26	0xbe0e6a23	-0.13907675
27	0x3e8e712b	0.27820715
28	0x3dad757b	0.08469673
29	0xbd84eee7	-0.064908795
30	0x3db607c5	0.08888201
31	0xbe8c57d0	-0.27410746
32	0xbca9fdb2	-0.020750854
33	0xbd81eec8	-0.06344372
34	0xbd99fed4	-0.07519308
35	0x3d3f3bab	0.046687763
36	0xbdbd3442	-0.09238483
37	0x3cb67a95	0.022275249
38	0xbdbc909b	-0.09207269
39	0xbd922adc	-0.07137081
40	0xbe4fd28d	-0.20295162
41	0xbd9da14a	-0.07696779
42	0xbe4f04b4	-0.20216638
43	0xbd2d47a4	-0.04230465
44	0x3d0f4e8e	0.034987025
45	0x3e3d82fc	0.18506998
46	0xbe7d7915	-0.2475322
47	0x3de33ba1	0.11095358
48	0xbf05a33e	-0.5220221
49	0x3c637d0b	0.013884793
50	0xbdaa6d4d	-0.08321629
51	0xbdf05539	-0.11735005
52	0x3c0b133e	0.008488474
53	0x3e71167f	0.23543738
54	0x3dd6c991	0.104876645
55	0x3e30f40d	0.17280598
56	0x3e1b73a7	0.15180837
57	0x3e9017ae	0.28143066
58	0xbe8d0a16	-0.27546757
59	0x3dd85e53	0.10564866
60	0xbe6f4ae1	-0.23368408
61	0x3dac6820	0.08418298
62	0xbd87e9da	-0.066364005
63	0x3cae6652	0.021289025
64	0x3e13df42	0.14440635
65	0xbe512419	-0.20423926
66	0x3cc74792	0.02432612
67	0xbc05ca22	-0.008165868
68	0xb9a69fd6	-0.00031781074
69	0xbe194725	-0.14968546
70	0x3cee7a59	0.029111074
71	0x3cc98c82	0.024603132
72	0xbdf5c5f2	-0.12000646
73	0x3ceb74e9	0.02874227
74	0xbde09901	-0.10966683
75	0x3e825383	0.2545434
76	0xbbdd1a33	-0.006747508
77	0xbdb8b37b	-0.09018608
78	0x3e347195	0.17621453
79	0xbce0f27a	-0.027459372
80	0xbe024c55	-0.12724431
81	0x3d3ebf52	0.046569176
82	0x3d10e936	0.035378657
83	0x3e3bfa00	0.18357086
84	0xbcd48b2d	-0.02594527
85	0xbda9702e	-0.0827335
86	0x3e804874	0.25055277
87	0xbe54fe52	-0.2080014
88	0x3ca84773	0.020541882
89	0xbe022f11	-0.12713267
90	0x3ef84dd9	0.48496893
91	0xbeab4c70	-0.33456755
92	0x3e7202ef	0.23633932
93	0xbde431b5	-0.11142293
94	0x3ec9da4d	0.39424363
95	0xbc487dec	-0.012237053
96	0x3e353682	0.17696574
97	0x3e4e3623	0.20137839
98	0x3d7f74f7	0.062367406
99	0x3d99b759	0.07505674
100	0x3d779774	0.06044717
101	0xbd865ccd	-0.06560669
102	0x3ba88bd6	0.005143623
103	0x3e4a5890	0.19760346
104	0xbce11463	-0.027475541
105	0x3c1afac3	0.0094592
106	0x3e0d314e	0.1378834
107	0x3e44276e	0.19155666
108	0x3d0479fd	0.0323429
109	0xbc866cd3	-0.016409313
110	0xbddcf123	-0.10788181
111	0xbe96194b	-0.29316172
112	0xbe195d55	-0.1497701
113	0x3d4fd8eb	0.05074398
114	0x3d5c1ef2	0.05374045
115	0x3e892281	0.26784137
116	0xbdda5aac	-0.106618255
117	0x3c8fa565	0.017534921
118	0xbdef97e6	-0.11698894
119	0x3da5f320	0.08103013
120	0xbe1fb35c	-0.15595764
121	0xbd196428	-0.037449032
122	0x3e899e11	0.26878408
123	0xbea6d918	-0.32587504
124	0x3c2083ea	0.009797076
125	0xbe483704	-0.19552237
126	0x3cdd8b41	0.02704394
127	0x3ca10ff6	0.019660931
128	0xbe16a528	-0.1471144
129	0xbce624d1	-0.028093727
130	0xbed085b2	-0.40727
131	0xbbaae35e	-0.0052150926
132	0x3c857c29	0.016294556
133	0xbca58033	-0.020202732
134	0x3b070b29	0.0020606017
135	0xbd69a524	-0.057042256
136	0x3eb79679	0.3585699
137	0xbc5042ad	-0.012711209
138	0x3ef20afe	0.4727401
139	0xbb06e874	-0.002058533
140	0x3d4f1b31	0.05056304
141	0x3e41eab4	0.18937188
142	0xbc808023	-0.0156861
143	0x3d613047	0.05497768
144	0x3e99878c	0.29986227
145	0x3e887f58	0.26659656
146	0xbdbedef9	-0.093198724
147	0xbda60fb2	-0.081084624
148	0x3e44b99d	0.19211431
149	0x3dd2f389	0.10300357
150	0x3e954b8c	0.291592
151	0x3d5f60f8	0.054535836
152	0x3e8b623d	0.27223387
153	0xbe20490e	-0.15652868
154	0xbe1f7dc6	-0.15575323
155	0xbd173b06	-0.036921524
156	0x3d5cda93	0.053919386
157	0x3d417669	0.047232065
158	0xbea85725	-0.32878986
159	0xbdc2e3f5	-0.095161356
160	0x3d754d37	0.05988809
161	0xbbb87643	-0.0056293323
162	0x3d13e497	0.036106672
163	0xbd833c7a	-0.06408019
164	0x3d88584a	0.06657465
165	0x3c87bdcb	0.016569993
166	0xbc1dd60d	-0.009633553
167	0x3d349328	0.04408565
168	0xbccf4553	-0.025301611
169	0xbda188bc	-0.07887408
170	0x3bbce2ee	0.005764357
171	0x3c97a274	0.01851008
172	0x3d0c3c46	0.03423717
173	0x3dc54f06	0.09634213
174	0x3ca16474	0.01970122
175	0x3ef7f626	0.48429984
176	0xbc508db3	-0.012729096
177	0xbd2b069f	-0.04175436
178	0x3dcba72e	0.09943996
179	0xbe979a88	-0.29610085
180	0x3c824ca4	0.015905686
181	0x3d0e4c40	0.034740686
182	0x3e8c861a	0.2744606
183	0x3d8426d4	0.064527184
184	0xbe03c46a	-0.12867895
185	0xbd777528	-0.060414463
186	0xbe2ef8ad	-0.1708705
187	0xbe219dba	-0.15782824
188	0x3b2716d2	0.002549578
189	0xbd3f27b1	-0.046668712
190	0xbe41edf3	-0.18938427
191	0x3dd007d8	0.10157746
192	0x3ee80b4d	0.45321122
193	0xbc157623	-0.009122404
194	0xbddf08f4	-0.108903795
195	0xbedc1d9d	-0.42991343
196	0xbe6fbf1a	-0.23412743
197	0xbed17407	-0.40908834
198	0xbd377f4e	-0.04479914
199	0x3e7bf3d4	0.24604732
200	0x3e0ba09d	0.13635488
201	0xbb011435	-0.0019695882
202	0xbba082fb	-0.0048984266
203	0xbd47fe57	-0.04882654
204	0xbde7c296	-0.11316411
205	0xbe45ebdf	-0.19328259
206	0xbd9faa42	-0.07796146
207	0xbe09a5fb	-0.13442223
208	0x3e0c3c2e	0.13694832
209	0xbd5f4b1d	-0.054514993
210	0x3c9d4b0c	0.019200824
211	0xbca33927	-0.019924713
212	0x3d30af4f	0.043135937
213	0xbe8a1ca4	-0.26974976
214	0x3e4da05b	0.20080702
215	0x3dfdf650	0.12400496
216	0xbe63cb8b	-0.22245614
217	0xbd58c7e1	-0.052924994
218	0xbddf09d1	-0.10890544
219	0x3e3c70ee	0.18402454
220	0x3d800e55	0.062527336
221	0xbdc9ef00	-0.09860039
222	0xbda0f1ef	-0.07858645
223	0xbd9fc46b	-0.07801136
224	0xbe1bfc3c	-0.15232939
225	0xbddc3375	-0.10752002
226	0xbe02c793	-0.12771444
227	0xbdff0371	-0.12451828
228	0xbcbffbdf	-0.023435531
229	0x3d65a610	0.056066573
230	0xbee78bfb	-0.45223984
231	0x3dde165f	0.10844111
232	0xbecb9a89	-0.39766338
233	0x3db1211a	0.08648892
234	0xbd073929	-0.033013497
235	0xbdd346ae	-0.103162155
236	0x3d2f6d33	0.04282875
237	0xbe027def	-0.12743352
238	0x3e15fe52	0.14647797
239	0x3ea195bd	0.31559554
240	0xbcdd11b0	-0.026985973
241	0x3d838cf6	0.064233705
242	0xbe7213b6	-0.23640332
243	0xbc68a631	-0.014199779
244	0xbd978c3a	-0.07399793
245	0xbd2ef84e	-0.04271727
246	0x3de01ec9	0.10943372
247	0xbba03d0b	-0.0048900894
248	0x3c09f00e	0.00841905
249	0x3d095943	0.033532392
250	0x3d1487f5	0.03626247
251	0xbc8e978a	-0.017406244
252	0xbd48614c	-0.048920915
253	0x3c978932	0.018498037
254	0x3d4b2bb5	0.04960223
255	0xbcc8d4b8	-0.024515495

bias f4 [10]
0	0xbbb0deb1	-0.0053976406
1	0xbd251429	-0.04030243
2	0xbe0f749e	-0.1400933
3	0x3d9d4422	0.07679011
4	0x3d273a17	0.040826883
5	0xbbb67c02	-0.005568982
6	0x3c690c04	0.014224056
7	0xbdd19afe	-0.102346405
8	0x3caf4aef	0.021398036
9	0x3cbdc7e9	0.023166614

stds f4 [10]
0	0x3e645a1d	0.223
1	0x3e645a1d	0.223
2	0x3e645a1d	0.223
3	0x3e645a1d	0.223
4	0x3e645a1d	0.223
5	0x3e645a1d	0.223
6	0x3e645a1d	0.223
7	0x3e645a1d	0.223
8	0x3e645a1d	0.223
9	0x3e645a1d	0.223

obs_std f4 [35]
0	0x3e4ccccd	0.2
1	0x3e4ccccd	0.2
2	0x3f800000	1.0
3	0x3f800000	1.0
4	0x3f800000	1.0
5	0x3f000000	0.5
6	0x3f000000	0.5
7	0x3f000000	0.5
8	0x3f000000	0.5
9	0x3f000000	0.5
10	0x3f000000	0.5
11	0x3f000000	0.5
12	0x3f000000	0.5
13	0x3f000000	0.5
14	0x3f000000	0.5
15	0x40800000	4.0
16	0x40800000	4.0
17	0x40800000	4.0
18	0x40800000	4.0
19	0x40800000	4.0
20	0x40800000	4.0
21	0x40800000	4.0
22	0x40800000	4.0
23	0x40800000	4.0
24	0x40800000	4.0
25	0x3f800000	1.0
26	0x3f800000	1.0
27	0x3f800000	1.0
28	0x3f800000	1.0
29	0x3f800000	1.0
30	0x3f800000	1.0
31	0x3f800000	1.0
32	0x3f800000	1.0
33	0x3f800000	1.0
34	0x3f800000	1.0

obs_mean f4 [35]
0	0x00000000	0.0
1	0x00000000	0.0
2	0x00000000	0.0
3	0x00000000	0.0
4	0x00000000	0.0
5	0x00000000	0.0
6	0x00000000	0.0
7	0xbe4ccccd	-0.2
8	0x3f19999a	0.6
9	0xbecccccd	-0.4
10	0x00000000	0.0
11	0x00000000	0.0
12	0xbe4ccccd	-0.2
13	0x3f19999a	0.6
14	0xbecccccd	-0.4
15	0x00000000	0.0
16	0x00000000	0.0
17	0x00000000	0.0
18	0x00000000	0.0
19	0x00000000	0.0
20	0x00000000	0.0
21	0x00000000	0.0
22	0x00000000	0.0
23	0x00000000	0.0
24	0x00000000	0.0
25	0x3f000000	0.5
26	0x3f000000	0.5
27	0x00000000	0.0
28	0x00000000	0.0
29	0x00000000	0.0
30	0x00000000	0.0
31	0x00000000	0.0
32	0x00000000	0.0
33	0x00000000	0.0
34	0x00000000	0.0
