trained/h1_step/actor_15699.pt (torch, 315889 bytes, 9 tensors)

weight f4 [256, 35]
00000000: b187 3fbf 5a24 5cbe 1ae5 dbbe 496d 2e3e
00000010: f74d 5ebd 4b3b a03e ed57 f4be de7a 8c3c
00000020: ea33 cfba 8465 173e 88bb 9fbd 4beb 133e
00000030: c4dd 193d 0dc7 9fbe 3bce 693c 6568 c23d
00000040: 7ab3 8bbe 0670 3cbe 1f94 b9bd 8a1c 6b39
00000050: 1b30 47be 776c c5bd e62b 2dbe ab4e 0ebe
00000060: 0bb1 093f f8ba 963c f306 8e3c c037 653e
00000070: ea38 d3bd 67c2 df3c b065 17be e3e2 80be
00000080: a233 723d f96c 3c3e 8a95 89bc dcad d43d
00000090: 53d7 67bc 723d 5e3d 2101 45be cc58 463c
000000a0: 8355 e5be 6b29 403e 8ab6 35bd e9d4 c8bd
000000b0: 8ecb 9a3e 2861 4abe 6d8a b63d 6ffc 393e
000000c0: aa11 8bbd 6beb e03e be07 bf3d 2994 d4be
000000d0: bc92 553d c97d 87be 435c 513f 4098 6abe
000000e0: 8ee7 fcbe 717f 803e cc7a a6be 6e05 d33e
000000f0: 0dbe 943c c142 b3bc 8acb 9c3e ce33 88be
00000100: 9e8c 1ebe d61d 863d cc8c 72be 371e bb3c
00000110: f7b9 ebbe f8a6 a5be 1d08 c53e f2fd 703e
00000120: 70f4 9b3e 6088 343d e843 5cbd 6c88 b63d
00000130: 6435 c8bc bfbb b83e 406b 88be d3ce 89bd
00000140: 276e 49be 3f0a d73e cc03 263e e54d b0be
00000150: 699c 623d dcf6 a8bd 7cb2 393e b6f1 c1bc
00000160: 3e40 d93e bd75 acbe 42d4 5c3e 361d 97be
00000170: 9f7b 603e fe36 b03d 827b 31bd 34ef 083e
00000180: 837d 9c3d 6946 003e 949e a03e 50a0 57be
00000190: 7760 143e 8d68 a63e 162e 8b3e dfb3 21bd
000001a0: 8134 b53d f03b 8fbe e8df 073e a1f8 22be
000001b0: 1a1a c6bc 3ee6 473e ac36 ef3d ef2d a8be
000001c0: 5109 e93e fef3 323e 3150 47be 1b95 133d
000001d0: b81e 0cbe ab08 363f 4348 b43d d9a0 eebd
000001e0: 673c b4bd d0eb 8ebd 8cc7 6c3d 11e5 253f
000001f0: 2de4 203c a8b5 29be 8329 a8bc d7ac ac3e
00000200: fff7 c6bd ad3b fbbd 6959 213e 4ea7 8dbe
00000210: 85dd b23c 55e2 393e 3952 15be 76ca 613e
00000220: 1017 773e caea 7cbe 6bd0 bd3c 7a1a 513d
00000230: 140c 82be 06b9 353e d2b9 2fbe ea29 a2be
00000240: bb71 a3be c545 8fbe 5af4 94be cfe0 783d
00000250: 8889 c03b 86fd 803e 1c7e 193e f4c6 1cbe
00000260: e065 cf3e efe6 abbe a530 45bd 8809 dc3e
00000270: da80 0cbe d0bd be3e 0597 6f3e 7382 843d
00000280: 9a5a 853c dbf9 9fbe e997 a23c b986 08be
00000290: d65e afbe ea8b 7e3d 9f8d 51be b2e8 d03d
000002a0: 1e3a f3be 62e1 52be 9df8 cdbe b57b 8b3e
000002b0: 4169 87bd 1a15 00be a89b a3be abda 2abd
000002c0: f7ff 5b3e 880b 47be 1181 6e3d 74e6 ad3e
000002d0: 66d5 903e f171 0a3f 4a65 c73e aa35 65be
000002e0: 9ee2 033e 6a14 d6be 88d9 6ebe 5cd9 413e
000002f0: 5552 2abe cef6 663e 849e a93e 5197 733e
00000300: f8f1 bdbd e92c a7be 40a2 383e 2278 e0be
00000310: 6e0f e33e 7033 d03d c225 313e 214c 25be
00000320: 74a6 cdbe 0d58 553d b62e 093e 4f50 e33d
00000330: 74c9 fe3d 66fe babd 5f6b 54be c388 c13e
00000340: 54df 37bd 0a90 a83e fc12 60be 9435 f73c
00000350: 49b8 883e bf62 1bbe 4d5c 133d ef71 773e
00000360: 57b8 fd3e 8718 f9be 63ef bfbd ac28 20be
00000370: 152b 8abe f498 d3be 9d9e 96be c0f8 803d
00000380: 03b3 65be d78e f03e a498 753e a453 5dbd
00000390: 1057 47be fa5c a3be 7974 0b3e ee3d fdbb
000003a0: c2af 5a3e bd4c 893d c1a8 9abd 9097 953d
000003b0: 046e 953e 58c6 57bd 3427 7bbe a271 e23e
000003c0: 5247 b13e 3452 f5bc 9c87 e83d 2a35 023e
000003d0: d169 b53e 89e8 59bd 3ac1 0ebe 06fc 3cbf
000003e0: a484 353e e652 aabc b8e1 44be b975 2f3d
000003f0: e780 fc3c d4f2 09bd 18cc bcbc 758b 523e
-0.74816424 -0.21498242 -0.42948228 0.17033876 -0.05427357 0.31295237 -0.47723332 0.017148431
-0.0015808318 0.14784819 -0.077994406 0.14445226 0.037565008 -0.3120655 0.014270361 0.09492568
-0.27285367 -0.18402109 -0.09061455 0.00022421978 -0.19451945 -0.09639829 -0.16911277 -0.13897197
0.5378577 0.0183997 0.017337298 0.22384548 -0.1031359 0.027314378 -0.14784884 -0.251731
0.059131272 0.18400945 -0.016794939 0.103847235 -0.014150458 0.054257818 -0.19238712 0.012106132
-0.44791803 0.187658 -0.044363536 -0.098062344 0.30233425 -0.19763625 0.08913121 0.18162702
-0.067904785 0.4392961 0.093276486 -0.41519287 0.05214189 -0.26463154 0.81781405 -0.22909641
-0.49395412 0.2509723 -0.32515562 0.4121508 0.01815703 -0.021882417 0.30624038 -0.26602024
-0.15483329 0.065486595 -0.23686522 0.022841556 -0.46040317 -0.3235395 0.38482752 0.23534372
0.3045993 0.04407537 -0.053775698 0.08912739 -0.024439521 0.3608074 -0.26644325 -0.06728902
-0.19670926 0.42000005 0.16212386 -0.3443443 0.055324946 -0.0825021 0.18134493 -0.023674827
0.42431825 -0.33683577 0.21565345 -0.29514474 0.21922158 0.08604239 -0.043330677 0.13372499
0.07641127 0.1252686 0.31370986 -0.21057248 0.14489923 0.3250164 0.27183598 -0.03947818
0.08847905 -0.27975416 0.13269007 -0.15915157 -0.024182368 0.19521424 0.1168035 -0.32847545
0.4551492 0.17475888 -0.19464184 0.03603087 -0.13683593 0.71106976 0.08802845 -0.11651773
-0.08800583 -0.069785714 0.05780749 0.6480265 0.009820026 -0.16573203 -0.020527607 0.33725616
-0.0971527 -0.122672416 0.15756764 -0.27666706 0.021834144 0.18152745 -0.14582147 0.22049889
0.24129891 -0.2469894 0.02317067 0.05105064 -0.2539984 0.17746362 -0.17160729 -0.31672603
-0.31922707 -0.27982917 -0.29092675 0.06076127 0.00587577 0.25193423 0.14989513 -0.1531027
0.40507412 -0.33574626 -0.048142094 0.42976022 -0.13721028 0.3725419 0.23397453 0.06470194
0.016278554 -0.31245312 0.019847827 -0.13332643 -0.34252042 0.06214515 -0.2046418 0.10200633
-0.47505277 -0.20593789 -0.4022874 0.27242818 -0.066118725 -0.1250805 -0.31954694 -0.041712444
0.21484362 -0.19437993 0.058228556 0.33964884 0.2828781 0.5408011 0.38944465 -0.22383752
0.12879416 -0.4181245 -0.23325169 0.18930572 -0.1663297 0.22555086 0.3312875 0.23788191
-0.092746675 -0.3265145 0.18030643 -0.43841654 0.4434771 0.10166061 0.1729956 -0.16142322
-0.40166056 0.052085925 0.13396725 0.11099302 0.12440768 -0.09130554 -0.20744084 0.37799653
-0.044890717 0.32922393 -0.21882242 0.030176915 0.26703098 -0.15174387 0.035976697 0.24164556
0.49554703 -0.48651525 -0.09371831 -0.15640515 -0.26985994 -0.4132763 -0.29417887 0.06297445
-0.22431569 0.46983978 0.23984009 -0.054034844 -0.19466805 -0.31906873 0.1361865 -0.00772833
0.21356109 0.0670409 -0.075517185 0.07304299 0.29185498 -0.05267939 -0.24526674 0.4422732
0.34624726 -0.029946424 0.113539904 0.12715593 0.35432294 -0.05320028 -0.13940898 -0.7382206
0.1772638 -0.020791482 -0.1922673 0.04283688 0.030823184 -0.033678845 -0.023046538 0.20561011

bias f4 [256]
00000000: 49e9 3fbd d002 023e a3e4 4fbe 07d9 bdbd
00000010: 89d8 fbbd 1c38 0fbd d5bf ccbd 6208 3bbd
00000020: e584 a0bd b802 2ebe cba5 cabd 8f8a 81bd
00000030: c17b 0fbe de7b 97bd 7873 dbbd 8ea2 e23c
00000040: 63d6 bc3a 20e2 1dbe 5e9f b23d f565 40bd
00000050: afdc 8d3d 944d 223e 77e0 f33a 3726 06be
00000060: 9982 513c bcb7 febd 4df4 b0bd 974d 8dbe
00000070: 172d 90be fde2 8dbe 3032 a3bd 80a1 9cbc
00000080: 8d26 8ebc 9fc9 16bc 2b92 90bd ee71 d43d
00000090: 7fee 4ebd e144 c43c bc89 9abe 4f9e 16be
000000a0: 2411 aabd faf7 51bd 045c cf3d 1ec8 8f3d
000000b0: 83a0 dfbd 36cc 81bd fc1c 90bd a387 173d
000000c0: 05c2 0bbe 3041 a0bd 3457 dfbd deac 1bbe
000000d0: 2413 1dbd 4690 d43b 61e6 153e c3d1 99bd
000000e0: 823f 37bd c72e b5bd 1928 413e 0a0f 70bd
000000f0: 3349 e0bd 822a 133d ce6c 85be 1864 f4bd
00000100: 6d84 b83c 7305 40bd c618 ee3c 770e d1bd
00000110: 6022 a9bd e232 5f3d 9ff9 3fbc c585 733d
00000120: a10f c6bd 9d68 02be 0b00 7f3c f007 3c3e
00000130: e769 7d3d 82e1 64be dde9 8bbd 1ba6 483e
00000140: 9ac2 93be e073 363d 7d78 19be 7e36 28bd
00000150: c7a1 8ebd 4bb7 a83b ad30 6ebe 7437 cabc
00000160: 0dbc a53d 1c7c 02be bf96 80be f3e8 d63d
00000170: d58e 25bd 1726 ba3c e45b 483d c402 823d
00000180: f1e5 91bd ad85 99bc e4d6 b2bd 6b15 a83d
00000190: 97e4 b83d 0db0 863d 0e02 27be 2386 073d
000001a0: cf2a 313d b51d bfbd 525d 9abd 0d30 50be
000001b0: af59 993c 9a96 97bd f72c b5bd 48a3 07be
000001c0: fc0e 9d3d b0fe c4bd 2507 2dbe 168b dcbd
000001d0: 437f d73c 479b 46bc 06ab 063d 03fb 92be
000001e0: b360 bfbd d649 cc3d 0c57 7e3d 7099 113d
000001f0: e175 883d 22d8 b3bd caa1 bcbd 4edf 15be
00000200: 927e 98bd 1660 c3bc 2dc7 50be a684 02bd
00000210: 16bf 4a3d 0004 6bbd 666c 3f3c 1317 5f3d
00000220: 101d 93bd 05a4 18be a97e edbd 8887 2dbd
00000230: 5199 babe ccb1 263d 82b7 45be b6c5 123c
00000240: 4371 2d3c 460f 7cbc 964e a7bd 0515 5b3d
00000250: bc23 24bd c6a4 473d e489 d83d 29e8 54be
00000260: 74bb a4be 1d39 9a3c d4b2 163d 519d 4ebe
00000270: b168 8ebd 285c b4bc 0ace 34be 7029 293d
00000280: 788f 49bd c603 cf3c 3c71 37be 32d5 473d
00000290: 4810 b9bd 7bcf eabd 1ddd d5bd 0272 b8be
000002a0: 46c6 0f3d ad92 e53d fa31 d0bd 6bbc 31bd
000002b0: 1b06 73bd d46e 2bbe c59c cebd 9a0b bdbc
000002c0: 89e6 203e bbdc 55bc 06a3 71bd 0b2d ba3d
000002d0: 73be 1a3e a9c0 bcbd c019 2d3d 9b5b cfbd
000002e0: af95 143e 2185 9abd 879f 5c3d d48b b5bc
000002f0: 1199 48be 193c a43d efba 53be bd85 0abe
00000300: f18f f33b c11d 4dbc 5763 1abe 5eec 24be
00000310: 94af 8bbc 0afb 8c3d 4dcc 653c a4c4 b8bc
00000320: 228b 0ebd 8d93 38bd e3bc 4abe a769 db3d
00000330: d665 37be 4c7c 80bd c5e9 093c 7418 263d
00000340: c6a2 09bb 8af8 5b3d 7760 bdbd d9ad 09be
00000350: 4411 723d 6694 2abe f2d4 a13c 1bfe e93d
00000360: 62da e63c f330 9abd 5981 2fbe a7ec 053b
00000370: 2f59 c03c ceba dcbb 9658 a0bd 6226 a4bd
00000380: 71e7 893d c767 7bbd 6235 a1bd e22c 96bd
00000390: f530 f1bd 4032 08bd 19e5 53bc 419a c0bd
000003a0: 0002 0abe edf6 2b3b dd01 bc3b 54ab 023e
000003b0: bf23 13be eddd e6bd 2024 e33a af53 45ba
000003c0: 9ebb c0bd ebb7 d13c 912c a0bc 3988 2e3d
000003d0: 4918 02be ad61 673d 7e5e 11be d75a c83d
000003e0: 9fbb 06be 9651 0abe d374 58be f038 ce3d
000003f0: ad93 12bd fb8f a43c e50d 5bbd 13dc 35be
-0.046853337 0.12696385 -0.20302062 -0.0926991 -0.1229716 -0.03496562 -0.099975266 -0.04566229
-0.078378476 -0.16993225 -0.09894904 -0.06325256 -0.14012052 -0.07396673 -0.10715383 0.027665403
0.0014407154 -0.15418291 0.08721803 -0.046972234 0.06926858 0.15849906 0.0018606324 -0.13100515
0.012787485 -0.12437388 -0.08640347 -0.2759826 -0.281594 -0.2771224 -0.07968557 -0.019119978
-0.017352367 -0.009203344 -0.07059129 0.10373293 -0.050520416 0.023958625 -0.30183208 -0.14708827
-0.083040506 -0.05126188 0.101249725 0.07020591 -0.10919287 -0.06337778 -0.07036778 0.036994588
-0.13648231 -0.078249335 -0.109053046 -0.15202662 -0.038348332 0.0064869253 0.14638664 -0.07510712
-0.0447383 -0.08846813 0.18862952 -0.058608092 -0.10951462 0.03592921 -0.26059574 -0.11933154
0.022524083 -0.046880197 0.029064547 -0.10207837 -0.0825851 0.054491885 -0.011717229 0.059453744
-0.0967095 -0.1273522 0.015563975 0.18362403 0.061868574 -0.2235165 -0.06831715 0.19594614
-0.28859407 0.0445441 -0.14987369 -0.041067593 -0.0696445 0.0051488033 -0.23260756 -0.024684645
0.080925085 -0.12742656 -0.2511501 0.1049365 -0.04041942 0.02272324 0.04891576 0.06348184
-0.07123936 -0.0187405 -0.087323934 0.0820721 0.09027975 0.06576548 -0.16309378 0.033086907
0.043253716 -0.09331838 -0.07537331 -0.2033083 0.018719522 -0.07401772 -0.08846467 -0.1324588
0.07668874 -0.0961889 -0.16897257 -0.10768716 0.0263058 -0.012121982 0.032877944 -0.28707132
-0.09344616 0.099750206 0.062094733 0.03554672 0.066631086 -0.087814584 -0.09210546 -0.14635965
-0.07446016 -0.023849528 -0.2038848 -0.031864785 0.04949864 -0.05737686 0.011683559 0.054465365
-0.071832776 -0.14906318 -0.11596424 -0.04236558 -0.36445096 0.040696904 -0.19308284 0.008958271
0.010586086 -0.015384501 -0.08169286 0.053486843 -0.04007314 0.048741125 0.105731755 -0.20791687
-0.32174265 0.018826062 0.036791638 -0.20177199 -0.06953562 -0.0220166 -0.17656723 0.041299284
-0.049209088 0.025270354 -0.17914289 0.048787303 -0.090363085 -0.11465355 -0.10442565 -0.3602448
0.035101198 0.11209617 -0.10165782 -0.04339258 -0.059331995 -0.16741496 -0.10088495 -0.023076821
0.15712942 -0.0130531145 -0.058993362 0.090906225 0.15111713 -0.092164345 0.042260885 -0.10124894
0.14510225 -0.075449236 0.053863075 -0.022161402 -0.1958964 0.08019275 -0.20676778 -0.1352758
0.0074329306 -0.012519301 -0.15076958 -0.16105792 -0.017051496 0.068838194 0.01402576 -0.022554703
-0.034800656 -0.04506259 -0.19798617 0.10713511 -0.17909941 -0.06273708 0.008417551 0.040550664
-0.0021001562 0.053703822 -0.09246915 -0.13445224 0.059098497 -0.16658172 0.01975486 0.1142542
0.028180305 -0.075288676 -0.17139186 0.0020435245 0.023480026 -0.006736136 -0.078293964 -0.080151334
0.06733597 -0.061378267 -0.0787151 -0.073327795 -0.11776916 -0.033251047 -0.012933039 -0.094044216
-0.13477325 0.0026239709 0.005737527 0.12760669 -0.14369105 -0.11272798 0.0017329492 -0.00075274234
-0.09410785 0.025600394 -0.0195525 0.04261038 -0.12704577 0.056489635 -0.14196202 0.09782951
-0.1315751 -0.13507685 -0.21138315 0.10069454 -0.035785366 0.020088186 -0.053480048 -0.17759733

weight f4 [256, 256]
00000000: e9b7 ba3c 56e9 ffbd b61e 9cbe 5f8b 80be
00000010: 518f 9fbd 6ff0 f8bd 653b 32be a3e0 8f3d
00000020: 7827 16be 4d9c 3ebe 5fc7 053d 84fa d93e
00000030: c245 6c3d 8f13 ca3d 4a33 d5bd a543 c9bd
00000040: 0d94 79be af3b debe 269e e03d c7ae d1bd
00000050: 5a9e 13be ac88 4ebe c331 bebd e91d 8a3e
00000060: bf8c 023e 1295 07be 0a56 54be 04c0 22be
00000070: dace 413d 4392 f7ba 1dea b73a a179 be3d
00000080: d616 833d 6c52 79bc 468b 343e 338c e6bc
00000090: 7eca c8be 4f4e 723e 0e2b 003d 5083 9e3c
000000a0: f6ce dbbd 03c9 273e 0ad3 2abe 7560 9b3e
000000b0: 9a66 2cbe 1984 d4bd 8e67 39be 21be a53d
000000c0: 078c 423e f280 933d ce28 023e 3a3b b83c
000000d0: 2c84 173c ad48 97bd f51d 143d 9b83 dabc
000000e0: f61d 7cbe c176 46bd b95b bcbd acb7 0abe
000000f0: 0ff4 13be f9bd 2cbc bb50 493e ac1d fa3d
00000100: 3de8 43bb 2394 283b bc44 93bd 28e6 2f3c
00000110: 5a19 88be 3e17 6bbe b62a e1bd e23d 29bd
00000120: 162c 25be 9ed6 113e 95bb 55bd 751b 10be
00000130: 46ff aabe 8474 eb3d eec9 d33c a942 88be
00000140: 8390 88bd 06c2 963c 5c96 18be 500d 773d
00000150: 7d5a 243e e98f 0dbe 9973 40be b460 27be
00000160: 82da 79be c38c 3abe 1787 b4be fbe8 9cbe
00000170: 38cc 89bd ee41 36be 0c5c c4bd 50d6 d63d
00000180: 486c acbe 2444 92bd 58b0 363e 153a 84be
00000190: 6e9b 1bbe f472 ea3d 5490 f8bc d392 103e
000001a0: 12c2 5ebe c180 1bbe 4564 3a3c 836c 3e3d
000001b0: 7dcd 3bbd f8c8 88be 6a19 adbe 4cd0 f53b
000001c0: 146c 4a3e bb8c b1be b90a 0cbe 4de3 5a3d
000001d0: 664a bebd dfbe d8bc bab3 c4be e73c 4f3e
000001e0: 90bc babd f7c8 2fbe 3108 df3d bf3b 05be
000001f0: b381 453e 6430 fabd 82b9 9cbe 0e56 803e
00000200: 51f7 18be 791c a3be 5b3c 0d3e 2f13 b6be
00000210: 104c b53d 25b6 0e3e 0150 60be 171a c1bd
00000220: cd3f 40be 3f32 973d ddca a6bd 12bc 2b3e
00000230: 8a2a 92bd fe69 a43d ef74 74bc 3cd1 c73e
00000240: ae04 51be fd73 08be 1a16 74be a2b3 70be
00000250: c3ec 93be f4e8 ad3d 4f71 cd3c 11a9 88be
00000260: 4112 4ebd fb17 5dbe 2841 8ebe 4400 62be
00000270: 6d2f 4d3c b7a7 f1bd 04ff c0be 36b2 60bd
00000280: e89b 2a3e 7a01 333e 9044 32be 9c13 e33c
00000290: 5c6f 4fbe 567d 70be ebfd 97be b7cd 6d3b
000002a0: 984d 383c 4afe fdbd f9a3 023b 12c5 b13d
000002b0: c73f 7e3d e361 2fbe 75fd a1be 4a7a 15be
000002c0: 4c41 9fbd e5e3 c839 a1ad 873c 14b5 2cbe
000002d0: 2af4 933d 53df 8cbe 6d16 ef3d 5123 2abe
000002e0: 6ec2 08be 65b3 303e 088b bdbd a49d 60be
000002f0: fede 84bd eb7b 2dbe b125 09be d120 213e
00000300: b8a5 a1bd 8723 4dbe 2730 8fbe 06cf 653d
00000310: 03a0 f93c 1126 34be 83f6 d1bd dfe0 22be
00000320: 9a04 62bd 499a 4dbe 1bf1 20be aa09 be3d
00000330: 5f5e 47bd bd1a a03d c770 55be 5e79 0abe
00000340: b4cd 6bbe ec19 a7bd 5131 bc3e 64c2 383d
00000350: 8cb3 d8bd eed4 e43d 0418 173e 5319 b5be
00000360: cf16 3d3e 4acc eebe 03b0 1a3e ac2a 123e
00000370: b8cf 80bd 9eaa 2dbe a6d7 7d3d 4537 a93d
00000380: f8f5 853c d894 9bbe fd4d 64bd 8202 15be
00000390: 9ebd 5f3d 0d90 18bf e26c 89bd 7723 4d3e
000003a0: 452d e8bd c66e 9ebe 275f 8e3e b06c 46be
000003b0: 9725 ccbe 00c2 4dbc c16f fc3d c30b 41bc
000003c0: b97b 0ebe c9e2 3abd 0f37 c6be 46b0 94bd
000003d0: 569f 03be a0bb d53c 9182 983d 18bb 9cba
000003e0: edea fbbc 15b2 77be c266 51bd 50eb 96bd
000003f0: a436 debd 8bba c53d 94c3 e8be 4922 603e
0.022792773 -0.12495677 -0.3049218 -0.25106332 -0.07791007 -0.12155234 -0.1740547 0.07025268
-0.14663494 -0.18614312 0.03266084 0.4257394 0.057683714 0.09867012 -0.10410173 -0.09827355
-0.24372883 -0.4340491 0.109676644 -0.10238414 -0.14415875 -0.20169324 -0.09286835 0.26975945
0.12749003 -0.1324046 -0.20735946 -0.1589356 0.04731641 -0.0018888194 0.0014031563 0.093005426
0.0640084 -0.015217405 0.17631254 -0.028143024 -0.3921699 0.23662685 0.03129106 0.019349724
-0.10732834 0.16385274 -0.16682068 0.30347028 -0.16836014 -0.10376758 -0.18105909 0.08092905
0.18998729 0.07202329 0.12710878 0.022489179 0.009247821 -0.07386909 0.03616138 -0.026674083
-0.24620804 -0.048453096 -0.09197182 -0.13546628 -0.1444857 -0.01054334 0.19659702 0.12212691
-0.0029893063 0.0025723062 -0.071908444 0.010736026 -0.26581842 -0.22958085 -0.109944746 -0.04131878
-0.16130099 0.14242026 -0.052180845 -0.14072974 -0.33397883 0.11496833 0.025853124 -0.26613358
-0.066681884 0.018403064 -0.14901108 0.06031543 0.16050144 -0.13824429 -0.18794097 -0.16345483
-0.2439976 -0.18217759 -0.35259315 -0.306465 -0.06728405 -0.17798588 -0.09587869 0.104900956
-0.33676362 -0.07141903 0.17840707 -0.25825563 -0.1519601 0.11447707 -0.030342259 0.14118509
-0.2175372 -0.15185834 0.011376445 0.046490204 -0.045850266 -0.26715827 -0.33808452 0.0075016376
0.19767791 -0.3467768 -0.13675965 0.053439427 -0.09291534 -0.026458202 -0.3841837 0.20238076
-0.09117997 -0.17166506 0.10890234 -0.13011073 0.19287758 -0.12216261 -0.3061028 0.25065655
-0.14938094 -0.3185766 0.13792555 -0.3556151 0.088523984 0.1393667 -0.21905519 -0.09428804
-0.18774338 0.073826306 -0.08144162 0.16770962 -0.0713702 0.08028029 -0.014920457 0.3902682
-0.20411941 -0.13325496 -0.23836556 -0.23506024 -0.28891572 0.08491698 0.025078444 -0.26691487
-0.050310377 -0.21591179 -0.27784085 -0.22070414 0.012523514 -0.11799567 -0.3769456 -0.054857455
0.16661036 0.17481032 -0.17408967 0.027719311 -0.20257324 -0.23485312 -0.29685912 0.0036285946
0.011248969 -0.124020174 0.001993416 0.08680166 0.06207254 -0.17127185 -0.31638685 -0.14597431
-0.07776126 0.00038316767 0.016562285 -0.16865951 0.07224305 -0.27514133 0.11674199 -0.16615035
-0.13355419 0.17255934 -0.09255034 -0.21935135 -0.06487845 -0.16941802 -0.13393284 0.15735175
-0.078929365 -0.20033084 -0.27966425 0.056105636 0.030471807 -0.17592646 -0.102520965 -0.15906094
-0.05518017 -0.20078386 -0.15716974 0.09279187 -0.048673984 0.078176 -0.20843802 -0.1352286
-0.23027688 -0.08159241 0.36756375 0.04510726 -0.10581121 0.111734256 0.14755255 -0.35370883
0.18465732 -0.46640235 0.15106206 0.1427409 -0.06289619 -0.16959617 0.061973237 0.08262495
0.016352639 -0.30386996 -0.055738438 -0.14551738 0.054624192 -0.59594804 -0.06710221 0.2003306
-0.113367595 -0.30943888 0.2780697 -0.19377398 -0.3987243 -0.01255846 0.12326003 -0.011782589
-0.13914384 -0.045626435 -0.3871388 -0.07260184 -0.1285375 0.026090443 0.074467786 -0.0011957614
-0.03075167 -0.24189027 -0.051123388 -0.07369101 -0.108502656 0.09654721 -0.45461714 0.21888079

bias f4 [256]
00000000: b67d 48bd 861b dc3d e31a 2cbd faf3 0e3d
00000010: c7c7 253d a809 f6bc 6023 883e 0371 5c3e
00000020: a3ee 4ebc fe5e c9bd 812c 6b3d 6e11 3d3d
00000030: a653 223e 48ea 01be ec2d c03c 84b4 c03c
00000040: 4757 103e 3864 553c c25b 7f3d be5f 0d3e
00000050: 17d4 0a3e 95c3 9e3d c5eb 46bc 7b7c 173d
00000060: db4b 38bc 9816 1cbd dc0a a73d 6c8a ba3d
00000070: cc04 fe3c c111 933d fb58 e73d cc3b ce3b
00000080: d977 42bd bad6 c5bd 6c9e b53d e78b 153e
00000090: 42ae e4bd 017b 3bbe 1707 a73d 3b84 80bc
000000a0: 7535 a73d fb96 bd3d d72b 323e f79b 06bf
000000b0: c1e2 023e 56a1 91bd 26af ab3d b1ab d23c
000000c0: 7e39 2ebe ee1b 1d3e 2c33 103e 39bc 893d
000000d0: 2586 d13d 0216 5bbd 792f 9e3d 78a6 093e
000000e0: 801a 1fbd 51cb 143e 8182 a13c b208 f63d
000000f0: bdd4 e83b 6b70 003e 02bc e53d 2e93 22be
00000100: bd50 3ebd e264 ab3d d0ff f03c 538f 27be
00000110: 9a6b a53d a6f9 f73d aaca f93c 641f 6d3e
00000120: 7fa0 4ebc 1bb0 073e 028e 863d 8c6e 0e3e
00000130: df67 5a3e 5c18 153e 22ff 573d faf2 dc3d
00000140: ab11 fbbb 6a43 ac3d a0fc 263e a21f ca3d
00000150: ca2b 083e 788b 853e b174 f33c 3314 dabd
00000160: bc96 90bd da45 df3d ef08 27bd a0bc 413c
00000170: db0a c83d 61f0 fe3d 5f6b febc 99fd 0a3e
00000180: f462 2c3c 7f44 993d fa91 103c 7547 553d
00000190: ff1a 1e3e 1c85 79bd 775c e6bc 0d56 d43d
000001a0: 7a44 043c a0ba 27bc 6bff f13d 5099 3a3d
000001b0: 9af6 373d aaa1 2ebd 6871 ea3d 5e71 b2bd
000001c0: 0e1f b63d e036 2c3d 236d 4dbb d11b 313d
000001d0: d85e 123e 1020 bd3d ae12 7d3e 9b47 ba3d
000001e0: 00ce e1bb 9e85 ac3d c23e 123e b8ed 343e
000001f0: 3148 923e 7bc7 12be b0cf b93e 69b1 e33d
00000200: 5973 8d3c 7526 f33d 6f1d 3c3e 11b8 97bc
00000210: a099 493e 2c72 073e 1df9 6d3d 28da c23d
00000220: ec35 56bd d326 ed3c 5d8b 223e 4ee8 bfbd
00000230: 8cc6 e63d f30a 053d ce25 e03d 171b 953d
00000240: c45e 58bd bcd5 d83d a6df 1c3d ec1d e4bc
00000250: 514c ff3d fd73 653d 5eb7 183e b90e 0f3e
00000260: 32d4 1d3d 23ae 2abd d206 f93c 2e91 bc3d
00000270: 68ce 603d e0ca c63d 7ab1 f7bc 16b3 223e
00000280: 0035 653d b129 d03d 910e 3ebc 9d2e 40bd
00000290: 920d cd3d 5c5d 50bc 15d9 d3bb 40f1 f93b
000002a0: d1ef 323e c2aa a03d 81c2 263e bfe5 5b3e
000002b0: 9323 683e df2f 003e 0491 20bd ea38 1b3e
000002c0: 3c4d 973c c330 39bd 35a1 963d 5431 8b3d
000002d0: 8e58 703d fae2 15bd 97ee 123d b74d 883d
000002e0: 3394 013d d937 213e edd2 793d ff47 ec3d
000002f0: 8573 313c 632c 64bc 08b5 2e3a 2c39 133e
00000300: 9960 3139 6daa c63e bfbb 6d3e 061d e33b
00000310: a9a5 633c 9570 123d f1e9 b83d a7ea 863d
00000320: cdf0 293e 8945 a3bd 9a1a ac3d 082b 0c3c
00000330: 33a4 503e acbf 603d b53d 8e3c c63c 803e
00000340: 4418 aebd 9d7e 56bd 0621 b13d 5c8b 443d
00000350: 002a da3d dc28 0b3d 98a9 ac3d b0f5 8bbc
00000360: 50a7 afbd 5d5c e8bd 3688 783e dbb1 2e3d
00000370: 4ea8 b33d 4f8e 273e c37f 143b face 9c3c
00000380: 8159 ccbd 4b95 7a3b 6f50 db3d 5d6f 4dbd
00000390: 57f5 a03e 0901 11be bf6f f73d 827f 92bd
000003a0: 2406 19bd 7260 353b 005f 843e b7f7 843d
000003b0: 0c33 a33e 058b db3d fe36 863d 0aa7 3d3d
000003c0: 14bf 3c3d 892b 86bb ede8 f9bd e341 183e
000003d0: 6116 303e 71d4 b73c b34d 373d fe07 333e
000003e0: 8b8d 5b3d ae40 25bd b444 bd3d d31c b13e
000003f0: f530 2fbe e178 0c3e 9b4e ed3d 2965 bcbc
-0.048948012 0.10747437 -0.04201783 0.034900643 0.040473726 -0.030033901 0.2658949 0.21527486
-0.012630138 -0.098325714 0.05741549 0.0461592 0.15852222 -0.12687027 0.023459397 0.023523577
0.14095794 0.013024382 0.062343366 0.13806054 0.13557468 0.07752148 -0.012141173 0.03698395
-0.011248554 -0.038107485 0.08156368 0.09108433 0.031008147 0.07181121 0.112962686 0.0062937494
-0.047477577 -0.096600965 0.08868107 0.1460415 -0.111660495 -0.18308641 0.08155649 -0.015688052
0.08164493 0.09257313 0.17399536 -0.52581733 0.12781812 -0.071108505 0.08383016 0.025716634
-0.17014119 0.15342686 0.1408202 0.06725354 0.10230664 -0.053487785 0.077238984 0.13442409
-0.03884363 0.14530684 0.01971555 0.12013377 0.0071054385 0.12542884 0.112175 -0.15876457
-0.046463717 0.08368851 0.029418856 -0.16363268 0.08077164 0.121081635 0.030492146 0.23156506
-0.012611507 0.13250773 0.065700546 0.13909358 0.21328686 0.14560074 0.052733548 0.107885316
-0.0076620183 0.08411296 0.16307306 0.09869315 0.13297954 0.2608297 0.029718729 -0.10648384
-0.0706 0.10901995 -0.040780004 0.011824757 0.097676955 0.124481924 -0.031057058 0.13573302
0.010521639 0.07483768 0.008823866 0.0520701 0.15439986 -0.06091796 -0.028120263 0.103679754
0.008072967 -0.010237366 0.11816295 0.045556366 0.044912912 -0.042634644 0.11447412 -0.08713029
0.08892642 0.04204452 -0.0031345568 0.04323942 0.14293993 0.09234631 0.24714157 0.09095689
-0.006891012 0.08423923 0.14281753 0.17668808 0.28570703 -0.14333908 0.36291265 0.11117823
0.017266916 0.118725695 0.18370603 -0.018520387 0.1968751 0.13227147 0.0580989 0.09514266
-0.052297518 0.028949177 0.15873475 -0.093704805 0.112683386 0.032481145 0.10944711 0.072805576
-0.05282475 0.105876416 0.038299225 -0.0278463 0.12465728 0.05601882 0.14913699 0.1397046
0.038532443 -0.041669976 0.03039876 0.09207378 0.054884344 0.09706664 -0.030235995 0.15888628
0.055958748 0.10164202 -0.011600153 -0.046919454 0.10012354 -0.012717571 -0.006465087 0.007627636
0.17474295 0.078450695 0.16285135 0.2147436 0.2266982 0.12518261 -0.039200798 0.1515843
0.018469445 -0.04521252 0.073549666 0.06796518 0.058678202 -0.036593415 0.03587207 0.06655448
0.031635474 0.1574396 0.06099217 0.1153717 0.010830765 -0.013926598 0.0006664549 0.14377278
0.00016916021 0.388019 0.2321615 0.00693095 0.013894477 0.035751898 0.09028996 0.06587725
0.16595764 -0.07972247 0.08403511 0.008555181 0.20375137 0.054870293 0.017363409 0.25046366
-0.08500722 -0.05236684 0.08648877 0.047984466 0.10652542 0.033974513 0.08430785 -0.017084926
-0.08576834 -0.11345742 0.2427071 0.042650085 0.08772336 0.1636288 0.002265916 0.019141663
-0.09978009 0.0038235958 0.10708701 -0.050155032 0.3143718 -0.14160551 0.12081861 -0.071532264
-0.03735937 0.0027675894 0.2585373 0.0649256 0.31874883 0.10719875 0.06553458 0.04630188
0.046080664 -0.0040945453 -0.1220263 0.14868884 0.17196037 0.022440167 0.044751834 0.17483518
0.053601783 -0.040344886 0.0924162 0.34592304 -0.1710852 0.13717987 0.115872584 -0.022997456

weight f4 [10, 256]
00000000: 1ada e23e d3df 193e 8249 953c 7b9c 4b3e
00000010: 4a35 133e 5681 63be 65fd 32bd c20f c63d
00000020: e00a 2e3e 06f2 f13d b809 4e3d 93eb 883d
00000030: ab3c d4bd 13ee cf3d f113 0e3e 8675 7fbe
00000040: cb70 40be 5599 b2bd 9f7d 683d fa37 633c
00000050: e478 ee3d 571e 6a3d 2846 80bc 5ce7 10bb
00000060: 20e5 a93e df45 043e cb92 4abe e176 9e3e
00000070: d99d 223e 4bc9 5cbd dd06 a9bd 7cc7 8fbe
00000080: 1431 73bb 5096 8a3d 91cb 07bd c73c 9e3b
00000090: 9792 19be 8091 963d 2849 00be e740 c9bd
000000a0: 9476 81be 5035 cebd e918 6abe 1231 fcbc
000000b0: 9e9e 273d 8b17 743e 62e3 83be 7bfe db3c
000000c0: 234d eebe d269 64bd c1f4 22bd 3f57 0cbe
000000d0: bf19 433d 9865 0c3e 514a 8c3d b6d0 4a3d
000000e0: 70f8 2f3e 3db8 853e 2086 4cbe f8c1 783e
000000f0: f084 78be 98f5 343d 9f31 27be 878f a03d
00000100: 3a57 1b3e a0dc a4be 72de bbbb 8681 a6bc
00000110: 7685 d6bc f6be 26be c9c3 a4bc dd31 1fbd
00000120: fdb8 06be 2a36 2a3d 7c1b babd 6b4d 8e3e
00000130: e3ff afbc d418 aebc 1fb3 733e 6ce5 033d
00000140: 6366 f0bd ab8f a33d 328f da3c 1611 613d
00000150: 4dbc 7dbd e885 8bbd 3657 4c3d 52fe 54be
00000160: c58d 9e3c bfa4 3a3e 17c2 063f 5fbf e3be
00000170: e563 bf3e 5401 2dbe 3605 c43e 6a90 a5bc
00000180: 7592 343e c6ad 413e fccc 953d e71b 2c3d
00000190: b2b7 763d 9f7c a5bd 864c 6c3b 5ab1 703e
000001a0: 7b4a aebc 6daa 203c cd52 083e 8a86 ae3e
000001b0: c035 3ebd 5339 803d 1136 edbd 4b19 96be
000001c0: fc91 88bd 4403 0d3c 12a4 3c3c d511 613e
000001d0: 7e07 0abe c686 413e abd5 aebd aef8 64bb
000001e0: fd93 0cbe 40ba a8bd 0e01 833e e096 17be
000001f0: 3d8b db3c 59e2 9abe bf09 d83c 8c34 c23b
00000200: ecf8 0a3d 85e3 fdbc d21a f6be b3a9 7fbd
00000210: 941b 9f3c cc89 09bd 546a 183d 5bef c5ba
00000220: 632d 683e e083 8dbd 779d fb3e d784 14bb
00000230: 442b 843d 7b4a 913e 7cd6 4f3d cb2b c73d
00000240: 88ca 973e f19f b63e 3e86 dbbd b57c b4bd
00000250: 8b29 343e de57 be3d 7889 a93e a976 a03d
00000260: 9d78 993e c473 61be 8cc9 09be 6328 043c
00000270: 77b6 ef3d 17cb 493c 7742 a6be b2fc a5bc
00000280: 491e 753d 688a 9d3d f25a a73d 25b7 66bd
00000290: 8693 d93d 35f5 313c 615e ddbb f6c3 a0bc
000002a0: 85f0 2abc ee85 34be 15b5 8fbd 27c5 b43c
000002b0: 759a 113c 3099 8cbc 502f 2f3d 6e85 093f
000002c0: 3433 4c3d 1a03 843c 8cdf 0a3e 04be babe
000002d0: 3f4d 753d 078a 18bd 5f01 4e3e 0edc ef3c
000002e0: 6f3c 0fbd f7ce 82bc 2f17 aebd ed83 b8bd
000002f0: bbad e2bd 7bb3 87bc 0fe8 59be f46a 3f3d
00000300: b328 d43e 58eb 8cbc 0a1d 5bbe 09eb c4be
00000310: 9cc8 b0be 540d eebe 92d0 ef3b 46f3 a13e
00000320: 1de9 9d3d 75b9 a63a 2932 cf3b 6ecc f9bc
00000330: f446 e1bd c8c1 e8bd 2d55 7bbd 86fc 02bd
00000340: 4145 0a3e 00a6 41bd d336 9ebd 66a9 343d
00000350: 3614 4f3e 3e51 2dbe dbb4 623e d373 433d
00000360: fa61 50be 1692 7f3c 6410 cbbd 7ecb 4a3e
00000370: 158b 183e b582 5d3c a007 64be baef 7dbd
00000380: a1b8 1bbe 86c0 9bbc 42cb e53a dac2 48bd
00000390: 598c 413d 0aa2 653d d40a c1be 37a4 ea3d
000003a0: 18de c9be ca26 2c3e 9240 a13d cb93 31bd
000003b0: 0596 683c bc04 0cbe 7879 a83d 2a2a a73e
000003c0: fc47 2b3e 421f 803e 99a4 62be 08d3 143d
000003d0: dc91 87bd 1c40 1bbd 20c0 c4bb edbe 05bd
000003e0: 4eee 483d 5529 583d cf33 223d 464a 23bd
000003f0: 085a 48bd cbbb 8c3d 51cf 253e 5e7a d43a
0.44307023 0.15026788 0.018223528 0.19883911 0.14375797 -0.22217306 -0.043698687 0.09670974
0.16996336 0.118137404 0.050302237 0.06685557 -0.10363134 0.10152831 0.13874795 -0.24947175
-0.18793027 -0.08720652 0.056760427 0.013868326 0.11644152 0.05715784 -0.015658453 -0.0022110557
0.3318262 0.12917279 -0.1978256 0.30950072 0.15880527 -0.053902905 -0.08253262 -0.28081882
-0.003710811 0.06766951 -0.03315312 0.0048290226 -0.14997326 0.07351971 -0.12527907 -0.09826832
-0.2528578 -0.10068762 -0.22861065 -0.030785117 0.040922754 0.23837106 -0.25759417 0.026854744
-0.46543226 -0.05576498 -0.039784197 -0.13705157 0.047631975 0.1371063 0.06850112 0.04951545
0.17184615 0.26117125 -0.1997304 0.24292743 -0.24269462 0.04417953 -0.16327523 0.07839876
0.15169993 -0.32199574 -0.0057333047 -0.020325433 -0.026186686 -0.16283783 -0.020112889 -0.038865913
-0.13156505 0.04155556 -0.090872735 0.2779344 -0.021484321 -0.021252073 0.23798798 0.032201216
-0.11738279 0.07986387 0.026679609 0.054947935 -0.061947156 -0.0681265 0.04988786 -0.2080014
0.01935471 0.18226908 0.5263991 -0.44481942 0.373809 -0.16895038 0.38285226 -0.020210464
0.17633994 0.18913946 0.07314488 0.042018797 0.06023378 -0.0808041 0.0036056354 0.23505154
-0.02127575 0.009806258 0.13312836 0.3408702 -0.04643798 0.06260934 -0.11582578 -0.29316172
-0.06668469 0.008606736 0.011513727 0.21979459 -0.1347942 0.18899068 -0.08536848 -0.0034938264
-0.13728328 -0.08238649 0.25586742 -0.14803648 0.026799792 -0.30250815 0.026371835 0.005926674
0.033928797 -0.030992279 -0.48067337 -0.062417697 0.01942233 -0.03357868 0.037210777 -0.0015101241
0.22673564 -0.06909919 0.49143574 -0.0022662187 0.06453565 0.28377137 0.050741658 0.0972515
0.29646707 0.356689 -0.10718964 -0.088128485 0.17593972 0.09294103 0.33112693 0.07835133
0.29974833 -0.22016817 -0.1345579 0.00806627 0.11704724 0.012316487 -0.32472584 -0.020262096
0.059843335 0.076924145 0.08171643 -0.056327004 0.10623841 0.010861685 -0.0067556356 -0.019624691
-0.010433321 -0.17629215 -0.070169605 0.022066666 0.008886923 -0.01716289 0.04276973 0.5371922
0.04985352 0.01611476 0.13561839 -0.36473095 0.05988812 -0.037241008 0.2011771 0.029279735
-0.034969743 -0.01596783 -0.08500516 -0.09009538 -0.11068293 -0.016565075 -0.2127993 0.046732858
0.414373 -0.017202064 -0.21397796 -0.38460568 -0.34528053 -0.46494544 0.0073185647 0.31630915
0.077104785 0.0012720065 0.006323118 -0.030492987 -0.10999861 -0.11365086 -0.061360527 -0.031979106
0.13502981 -0.04727745 -0.07725301 0.044106863 0.20222554 -0.16925523 0.22139303 0.04771788
-0.20349875 0.015598794 -0.09915236 0.19804189 0.14896806 0.0135199325 -0.22268534 -0.0619962
-0.15207149 -0.0190127 0.0017531889 -0.04901395 0.047252987 0.056062736 -0.37703574 0.11457103
-0.39427257 0.16811672 0.07873644 -0.043353837 0.014195924 -0.13673681 0.08226293 0.32649356
0.16726679 0.25023848 -0.22133102 0.036334068 -0.06619617 -0.037902936 -0.0060043484 -0.032652784
0.04905539 0.052773792 0.03960019 -0.039865755 -0.048913985 0.06871756 0.16192366 0.0016210785

bias f4 [10]
00000000: 7b63 303d 517a 1ebc bd27 d4bd 444f b43d
00000010: 28e7 d4bb 0094 b53c 248d 033c bc36 eebd
00000020: 1406 3d3d e7e6 c73c
0.043063622 -0.009672717 -0.10359142 0.08804181 -0.0064972825 0.022165298 0.008029256 -0.116315335
0.046148375 0.024402095

stds f4 [10]
00000000: 1d5a 643e 1d5a 643e 1d5a 643e 1d5a 643e
00000010: 1d5a 643e 1d5a 643e 1d5a 643e 1d5a 643e
00000020: 1d5a 643e 1d5a 643e
0.223 0.223 0.223 0.223 0.223 0.223 0.223 0.223
0.223 0.223

obs_std f4 [35]
00000000: cdcc 4c3e cdcc 4c3e 0000 803f 0000 803f
00000010: 0000 803f 0000 003f 0000 003f 0000 003f
00000020: 0000 003f 0000 003f 0000 003f 0000 003f
00000030: 0000 003f 0000 003f 0000 003f 0000 8040
00000040: 0000 8040 0000 8040 0000 8040 0000 8040
00000050: 0000 8040 0000 8040 0000 8040 0000 8040
00000060: 0000 8040 0000 803f 0000 803f 0000 803f
00000070: 0000 803f 0000 803f 0000 803f 0000 803f
00000080: 0000 803f 0000 803f 0000 803f
0.2 0.2 1.0 1.0 1.0 0.5 0.5 0.5
0.5 0.5 0.5 0.5 0.5 0.5 0.5 4.0
4.0 4.0 4.0 4.0 4.0 4.0 4.0 4.0
4.0 1.0 1.0 1.0 1.0 1.0 1.0 1.0
1.0 1.0 1.0

obs_mean f4 [35]
00000000: 0000 0000 0000 0000 0000 0000 0000 0000
00000010: 0000 0000 0000 0000 0000 0000 cdcc 4cbe
00000020: 9a99 193f cdcc ccbe 0000 0000 0000 0000
00000030: cdcc 4cbe 9a99 193f cdcc ccbe 0000 0000
00000040: 0000 0000 0000 0000 0000 0000 0000 0000
00000050: 0000 0000 0000 0000 0000 0000 0000 0000
00000060: 0000 0000 0000 003f 0000 003f 0000 0000
00000070: 0000 0000 0000 0000 0000 0000 0000 0000
00000080: 0000 0000 0000 0000 0000 0000
0.0 0.0 0.0 0.0 0.0 0.0 0.0 -0.2
0.6 -0.4 0.0 0.0 -0.2 0.6 -0.4 0.0
0.0 0.0 0.0 0.0 0.0 0.0 0.0 0.0
0.0 0.5 0.5 0.0 0.0 0.0 0.0 0.0
0.0 0.0 0.0
