trained/h1_step/actor_2399.pt (torch, 315874 bytes, 9 tensors)

weight f4 [256, 35]
00000000: 8444 f7be 015e 07be ef23 87be 93cc 55bd
00000010: 2d26 64be 6b1e 6f3e b22e dcbe 34dd ac3b
00000020: 8345 bb3d da4d 15bd 9cea 14bc 1d8f 903e
00000030: 9863 933d 2c7d 56be 685f fbbd b7e6 3dbd
00000040: 2ef3 63be e29f 153d 4792 bf3d 10e8 93bd
00000050: 8731 023e 4aa6 9a3d f382 1c3b 338d 1b3c
00000060: 3b7d d6bd f192 e2bd 93af 32be 6172 aa3e
00000070: a888 eb3c 8357 a3be 7632 bfbd 218b 2dbe
00000080: fa28 163e 7cd7 503e 6bbd a73d 2752 423e
00000090: 586b 0c3d 4caf e0bd 8844 54be ce87 a23d
000000a0: 97a0 43be 3f6c ea3d d19f 50be 53dd 18be
000000b0: 31d5 3d3e 01a9 b8be 9b36 23be d249 aa3d
000000c0: 5220 c2bd a6f8 a53e f545 9f3d 55b2 71be
000000d0: 4aaf 50bd f9e4 70bd d21b dd3e a7db 79be
000000e0: 6ca0 c0be 97aa e1bb 00a8 28bd c944 463d
000000f0: 1b39 9e3e 05d5 8f3d 7927 e03e 58e5 aabd
00000100: 70e9 b7be 2662 5b3c 863a 5fbe 1556 ee3c
00000110: 4e81 3ebe 2287 84bd e06a 763e 6b51 0a3d
00000120: 6031 893e 94e5 fdbc 709b 28be 8fff 143e
00000130: 6c1b b63c b2b0 433e 862f 183c 74ed 69be
00000140: 9f74 77bd 9b43 873e 7501 e0bd 1da1 c7bc
00000150: 6603 dcbd 90c3 9abc 49ea ab3d a90a 28be
00000160: a570 0e3f c32c afbe 26f0 963e dfcc b7be
00000170: 2cc9 e63c 4332 943e a272 92bd 7a57 d5bd
00000180: d784 86bc 0097 9e3e 694a bd3e 10ad 45be
00000190: 5c85 bbbd 444f d53d ce74 783d e4be aabb
000001a0: f206 253e f923 6ebe 97a2 703e 10b2 17be
000001b0: 0f84 2bbc 5405 373e 4471 de3d 633a 0cbe
000001c0: 7bca b03e 1503 ef3d fc5e bebd 7d91 ab3b
000001d0: dd7c 49be 9afc fc3e 45b6 d23d b1ff 7fbd
000001e0: 1315 5dbd e8cb 5cbe e713 9b3c d733 f13e
000001f0: 5d35 debd 22f3 45be 690f 783d 1ca0 f93d
00000200: b661 4a3c 8ae4 bbbe ea01 65bc f729 a93c
00000210: 4d32 c53c 28f7 00bd 141b 7fbe 89c7 623d
00000220: b87f 763e 1c18 7dbe 67b5 bfbd 1ce2 1e3d
00000230: 57c3 0ebe e7e5 36bc 904c 15be d717 62bd
00000240: 6ca0 2abe fd56 a13d 0abd cc3d 3fb6 a03d
00000250: d4e1 753d 5d9a 9f3d f4ef 343e a932 87bc
00000260: f9a5 cc3e eb46 0ebe 2895 03be 8e67 2e3e
00000270: d953 15be a925 4b3d 706a 743e f65c a7bd
00000280: f91b 33bc af28 efbc 2057 f2bd 1331 4c3e
00000290: aa4b a5be 5f06 cd3d 5746 65be ebaf b63d
000002a0: 55fc bcbe 57ca a9be f4e8 7abe 84aa 3f3e
000002b0: b92f 20be f7d5 35be 3d51 a1be ac90 8abd
000002c0: 337b f43d d0df 4abe 7814 d03c ed73 2e3d
000002d0: 233b 8c3e 50f8 983e 9879 ac3e 5c83 16be
000002e0: b710 1fbd 0978 aebe ce1f bfbd 3144 4d3d
000002f0: c14c 74be 63a3 6f3e f9d6 263e fbeb 0c3e
00000300: 8c47 af3c ebd1 b3bd c500 16be 49c0 d7bd
00000310: 75a2 0a3f 056c 833e 3623 7b3d 0778 dabd
00000320: c361 9bbe 28e3 413e b8d5 013e 0cee b63d
00000330: 368c 0cbe d4a2 193d 43dd 80be 98ae a73e
00000340: 436c e03b 4712 b63e 41b9 7fbe 419e 923d
00000350: 76c7 923e fbee 5c3d 43e5 2e3e 3fa5 563e
00000360: 2ff1 af3e d38e 4bbe 0ba6 c9bd 98d3 adbd
00000370: bc26 a2be d878 8cbe 8d96 56be 874f 023d
00000380: 4ddf 45be 487e ab3d 5bbf 873e df6e 07be
00000390: c6a1 59be c6e1 6cbc de6d 863d 606b aa3d
000003a0: 89eb 283d 70b7 8f3d 61d0 80be c949 72bb
000003b0: e4e5 a8bc b54e c7bc df50 36be f62a ec3d
000003c0: 8e31 3dbe bf25 5abc 4a12 083e e279 3ebe
000003d0: ac10 0d3e 0468 c0bc a1f1 57be 5f9b b9be
000003e0: b2ea a23e 495f 1d3e a020 7cbe dc01 72bd
000003f0: 16bd e63c 1788 8e3d d055 e6bd 5f0e 5e3e
-0.4829446 -0.13219453 -0.26394603 -0.05219705 -0.22280188 0.23351447 -0.43004376 0.005275393
0.09144118 -0.0364512 -0.009089138 0.28234187 0.071967304 -0.20946187 -0.12274057 -0.046362605
-0.22260734 0.03652943 0.09354072 -0.07221997 0.12714206 0.07551248 0.0023881763 0.009494114
-0.104731046 -0.11063183 -0.17449789 0.3329039 0.028751686 -0.31902704 -0.093357965 -0.16947605
0.14664069 0.20394701 0.081904255 0.18976651 0.03428206 -0.10970935 -0.20729268 0.07936059
-0.19104229 0.114464276 -0.20373465 -0.14928178 0.18538357 -0.3606644 -0.15938799 0.08314861
-0.09478821 0.32416266 0.07777015 -0.23603185 -0.05094842 -0.058812115 0.43185288 -0.24400197
-0.37622392 -0.006886791 -0.041175842 0.048405442 0.30902943 0.07023052 0.43780115 -0.08344525
-0.35920286 0.0133901 -0.21799669 0.029093781 -0.18604013 -0.06471087 0.24064207 0.033769052
0.26795483 -0.03099326 -0.16465545 0.14550613 0.022229873 0.19110373 0.009288674 -0.22844487
-0.060413953 0.26418766 -0.10937778 -0.024368817 -0.10742836 -0.01889208 0.08394296 -0.16410317
0.5564063 -0.34213838 0.29480094 -0.35898492 0.028172098 0.28944597 -0.07150771 -0.104170755
-0.016420765 0.3097458 0.36970833 -0.193043 -0.09156296 0.10415509 0.06065827 -0.005210744
0.1611593 -0.2325591 0.23499523 -0.14814019 -0.010468497 0.17873126 0.108614475 -0.13694148
0.3452948 0.1167051 -0.092954606 0.0052358494 -0.19676538 0.4941147 0.102886714 -0.062499706
-0.053975176 -0.21562159 0.018930389 0.47109863 -0.10850022 -0.19331029 0.06056157 0.121887416
0.012352398 -0.366978 -0.013977507 0.020649893 0.024071837 -0.031485707 -0.24912673 0.055366073
0.24072158 -0.24716228 -0.093607716 0.038789853 -0.13941704 -0.011163211 -0.14579988 -0.055198517
-0.16662759 0.0787792 0.09996994 0.07847261 0.06002982 0.07793114 0.1766966 -0.016503649
0.39970377 -0.1389424 -0.12849867 0.1703169 -0.14582767 0.049596462 0.23868728 -0.08172028
-0.010931962 -0.029194204 -0.11833024 0.19940595 -0.3228429 0.10010981 -0.22390114 0.089202724
-0.36911264 -0.33162186 -0.24502927 0.1871739 -0.15643205 -0.17757402 -0.31507292 -0.06765875
0.11937561 -0.1981194 0.025400385 0.042591024 0.27388868 0.29876947 0.3368652 -0.14698547
-0.0388343 -0.34075955 -0.09332238 0.05011386 -0.23857404 0.23402171 0.16292943 0.13761894
0.02139642 -0.08780273 -0.14648731 -0.10534722 0.5415414 0.2566835 0.061312877 -0.10667425
-0.30348024 0.1893431 0.12679183 0.089321226 -0.13725361 0.0375088 -0.2516881 0.32750392
0.0068488433 0.3556082 -0.24973013 0.07159091 0.28667802 0.053938847 0.17079644 0.20961474
0.34363696 -0.19878702 -0.09846123 -0.08487624 -0.31670177 -0.27435946 -0.20955868 0.031814124
-0.19323464 0.083736956 0.2651318 -0.13225888 -0.21253118 -0.014458125 0.06563924 0.083212614
0.04124025 0.0701741 -0.2515898 -0.003697025 -0.020617433 -0.024329523 -0.17804287 0.11531632
-0.18475935 -0.013314663 0.13288227 -0.18601182 0.13775891 -0.023487099 -0.21088268 -0.3625135
0.31819683 0.1536838 -0.2462182 -0.059083804 0.028166335 0.06959551 -0.11246836 0.2168517

bias f4 [256]
00000000: 1964 edbc bb2b 193d 4dda 833d 8267 d7bc
00000010: 2934 cfbd 266f 0a3d 354e e9bd 8c15 a3bc
00000020: 93f9 0ebd 076b 46be a473 8d3b 1ed3 5a3d
00000030: acb6 6b3d ff7c 583d 135f 52bb 1f45 bbba
00000040: 98ca 603d 71b4 c1bd 7b84 313d 7683 9d3d
00000050: 7395 813c cad4 d13d 9c55 c73c 66a4 e3bd
00000060: 8b6d 01be a403 6cbd c771 13bc 87ac 80bc
00000070: f394 e8bd 1c35 edbd bbba acbd d643 e73d
00000080: a1a4 39bd e016 95bd 580d 0abd f6fd a53d
00000090: d302 eb3a d024 133d 3b6e 6fbd 02b7 8fbd
000000a0: e65b 493c 1062 e13d 1dbe 683d 4f7f 213d
000000b0: 0f26 693b 59b4 44bd 3fb8 b33c 59a9 e23c
000000c0: 10a0 963b 429c d6bd c392 0bbd 5924 d8bb
000000d0: 5a47 b63d 3077 f9bc aff0 98bc 0b60 5abd
000000e0: 34b4 fb3c 844e 55bd 7174 163d f818 95bd
000000f0: 3e39 cfbd c8b7 163d c7f2 e6bd c41a bfbd
00000100: 919f 093c d400 a7bd 50e6 5b3c d4fe 61bc
00000110: eb06 97bd c3e8 f83c 430e 4cbd b80a e63b
00000120: 92cd b1bc a3d1 9bbd fa5e e53c 1ac2 6d3d
00000130: 4bb9 ab3c a639 5bbd fb2b 57bc 8800 943c
00000140: a6be 8bbd 0657 933b ed31 893c 42f2 e637
00000150: e6cc 91bc 5372 d53b 6dbc 14be 8277 80bd
00000160: ce44 4fbb fde2 11be 3705 0ebe 94c2 b23d
00000170: 6c1f 30bd 7403 983d 2db7 933c de82 453d
00000180: 5231 b4bd a582 00bc 29db 6fbd 217c 783c
00000190: cdd8 a0bc 340e 3c3d a4df bdbb cc3e fa3c
000001a0: 3c18 e63a 8795 8dbd 5ae9 0abc 0c38 f5bd
000001b0: f8cb 44b8 e047 63bd ed38 883c 3df3 8b3d
000001c0: 9946 953d 739e 9dbd 24a5 a9bd 7c58 153c
000001d0: 9372 3d3d 8536 46bb 515d abbc 34c4 98bd
000001e0: ba05 d23c 88bc 0f3e 4b02 553c 0951 b43d
000001f0: 2775 153c 96c2 abbd 91be d43c 71d5 fabc
00000200: 9ee5 0c3d a994 37bc 4187 b6bd 9c11 213d
00000210: d021 4d3d b638 1f3c 268d 34bb 636c 0c3d
00000220: b493 8bbd f20c 9f3c 04fa a4bd ec5d 133d
00000230: 2fde abbd 23e2 2d3d 4f83 81bc aa77 3f3d
00000240: 09b0 173d 9ed0 003d 4f87 debb b72f 663c
00000250: f2e3 d3bd 4469 9d3c 1485 af3d b477 0cbe
00000260: 1610 28bb 4efc ee3c fd16 873d 6d92 a1bd
00000270: d513 b93a f406 b7bd 1d96 77bd 33f9 0bbd
00000280: 9414 e4bb 1bd8 8fbc a658 02bd 15c3 8a3b
00000290: bc52 33bd f0ca b1bd 66d3 1dbe bd9d 12be
000002a0: 4d16 293c 20d7 d83d 0930 4fbd a027 87bd
000002b0: d99d 31bb 138d 7dbd a0d9 103c f218 f13c
000002c0: 7be9 273d 49d5 2e3d cdca 98bc a87f 563c
000002d0: 3169 ae3c 044a c0bd 9d68 c03c 3332 ccbc
000002e0: 948d a63c 6003 a4bd ba26 c13c c42d 2c3d
000002f0: d8a5 a7bd 8595 533d c428 01bd 2718 80bd
00000300: 9cb9 9bbc 5e5f c0bc 2586 babd 8635 043d
00000310: dca1 953c fb6b 353d 3729 c7bc b51c 143d
00000320: b819 533c 82cb 4b3d 16cd 5ebd 2815 533e
00000330: d5f7 7cbb 66a5 cfbc 036a 1dbc d551 7abc
00000340: 44ee 7c3c a02f 113e 7dbb 2d3c e8bb f2bb
00000350: 1997 12bd 0b51 0fbe 5524 3b3c 8614 a33d
00000360: c6be a7bc d517 c6bc 54a6 c6bc b683 c4bc
00000370: f7ff f13c 474f 15bb 554b 27bd ef89 0abd
00000380: 36e0 943c 3147 1cbd 7fb5 553d 0f81 29bc
00000390: 0397 4bbd 37c8 73bd 369f 333d 538c 38bd
000003a0: 5915 e6bc 6dd4 823d 893b 693d 9e30 5c3e
000003b0: bf32 0fbd d643 05bd d4de 87bb 07f0 803d
000003c0: 0422 edbc 1822 df3c 009f eabc e749 173d
000003d0: 93cb 89bd b02d ee3d b944 f53c a194 b73d
000003e0: 39c8 bfbd 02c9 78bd 3eee ecbd d8bf 893d
000003f0: 3ce6 19be 8aa9 f4ba 4c0a fdbb 61e7 b4bd
-0.028978394 0.03739522 0.06438122 -0.026294474 -0.10117371 0.033797406 -0.1139187 -0.019907735
-0.03490598 -0.19376765 0.004316764 0.053423993 0.057547256 0.05285358 -0.0032100126 -0.0014287567
0.05488071 -0.094582446 0.043339234 0.0769109 0.015818333 0.102456644 0.024332814 -0.11115341
-0.12639444 -0.05762066 -0.008999295 -0.015707267 -0.11356535 -0.115823954 -0.084340535 0.112922356
-0.045323018 -0.07279754 -0.03370413 0.0810508 0.0017929919 0.03592378 -0.058454733 -0.07017328
0.012289977 0.11005032 0.05682193 0.03942805 0.0035575663 -0.048023555 0.021938441 0.027668642
0.0045967177 -0.104790226 -0.03407551 -0.00659613 0.08900328 -0.03045234 -0.018669454 -0.05331425
0.030725576 -0.05207683 0.03673214 -0.07280153 -0.1011834 0.03679636 -0.11276775 -0.09331277
0.00839986 -0.08154455 0.01342161 -0.013793666 -0.073743664 0.030384427 -0.04981829 0.0070203207
-0.021704469 -0.076083444 0.02799939 0.058046438 0.020962378 -0.053521775 -0.013133044 0.01806666
-0.06823473 0.004496458 0.01674744 2.7530947e-05 -0.017797899 0.0065138726 -0.14525004 -0.06272794
-0.0031626704 -0.14246745 -0.13869177 0.08728519 -0.042998716 0.07422534 0.018031681 0.048220508
-0.087984696 -0.007843648 -0.058558617 0.015166313 -0.019634629 0.045911983 -0.0057944823 0.030547522
0.001755483 -0.06913286 -0.008478487 -0.11973581 -4.6920002e-05 -0.055488467 0.016628707 0.068335034
0.07288856 -0.076962374 -0.08283451 0.009115335 0.046251845 -0.0030244899 -0.02091852 -0.07459298
0.025637496 0.14036763 0.013001035 0.08804519 0.00912217 -0.08386724 0.025969775 -0.030619355
0.034398668 -0.011204877 -0.089125164 0.039323434 0.050081074 0.009718111 -0.0027549951 0.034283053
-0.068152815 0.019415352 -0.08055499 0.035978243 -0.083919875 0.04245199 -0.015809683 0.04674498
0.037033115 0.031448953 -0.0067910324 0.014049462 -0.103462115 0.019215234 0.085703045 -0.13717538
-0.0025644354 0.029173043 0.065961815 -0.078892566 0.001412029 -0.08936873 -0.060445894 -0.0341732
-0.006960461 -0.017559102 -0.031822823 0.0042346814 -0.043780074 -0.086812854 -0.15412673 -0.14317985
0.010320258 0.10587907 -0.05058292 -0.06599355 -0.0027102141 -0.061902117 0.008840948 0.02943084
0.04099415 0.042683873 -0.01865139 0.013091959 0.021290394 -0.09389117 0.023487383 -0.02492628
0.020331182 -0.08008456 0.023578037 0.042035833 -0.08185929 0.051656265 -0.031533018 -0.06254607
-0.019009404 -0.023482975 -0.09107617 0.032277606 0.018265657 0.04429243 -0.024311645 0.03616019
0.01288455 0.049754627 -0.054394804 0.20613539 -0.0038599868 -0.025347423 -0.009607795 -0.015278299
0.015437666 0.14178324 0.010603783 -0.007407654 -0.03578863 -0.13995759 0.011422236 0.07962899
-0.02047671 -0.024181286 -0.024249233 -0.023988586 0.029540999 -0.0022782849 -0.040843327 -0.03382295
0.018173318 -0.03815383 0.05217504 -0.010345711 -0.049704563 -0.05951711 0.043853007 -0.0450557
-0.028086351 0.06388173 0.056941543 0.21502921 -0.034960505 -0.032535397 -0.004146436 0.062957816
-0.028946884 0.027237937 -0.02864027 0.036935713 -0.06728282 0.11629808 0.029939996 0.089638956
-0.09364361 -0.06073857 -0.115688786 0.067260444 -0.15029234 -0.0018666249 -0.0077221747 -0.088331945

weight f4 [256, 256]
00000000: 9892 8abd 5943 2e3a ebe3 4dbe 526e 88bc
00000010: 5650 ffbc 16e0 66bd 9558 4bbd ae18 d83c
00000020: 46ae 09bd 44be 503c 5099 80bd 5934 233e
00000030: 4387 723c fc69 de3d a336 a03c d600 35bd
00000040: c5df 29be ba47 7ebe 6ebb 073e e83a d1bd
00000050: 9cc0 8ebd 7e58 d8bd 4a35 a1bd 1b27 483d
00000060: fda0 fc3c 18fc 00bd b2a3 e8bd 7eab c63c
00000070: 12a0 e53d 8100 06bd 2afd 213d 833e df3c
00000080: 0c09 673d 706f b2bd 18d9 a1bd e188 d73c
00000090: 5f3b 2fbe 6557 30bd 578a 2dbd 0f99 ad3c
000000a0: 8627 643c 5f3a 233c 423c 74bc a875 bf3d
000000b0: f475 9b3d 8a97 283a ae6d 463d e588 813d
000000c0: a09d cc3d ee43 15bd 8612 c43d e9f4 3dbc
000000d0: e58b e63d fe9d 853d 58f2 a73b d41d 883c
000000e0: 6a12 02bc 10ac b3bd 2eb1 99bc 683f a53d
000000f0: 07fc b8bd 8727 023e 5a6c 023e 6ec7 ea3a
00000100: 9730 ed3a 7547 823c 8d04 69bd d19b 983d
00000110: d4bf 823a 8a33 36be 1379 c3bd 364a c03c
00000120: 35a7 25be c633 dabd 0487 29bd 312d ffbd
00000130: 4342 36bd 0234 db3d adf0 b4bd 76c2 e7bd
00000140: b043 7f3c feb9 733d 8c0c 9b3c f1a5 afbd
00000150: 0f20 123e 648d ff3d 4273 2d3d d2e0 8dbd
00000160: e05c 5abd c2fb 8abd 53d3 32be 4756 babc
00000170: 9b0c 163d 1168 9f3d 4a17 283d fb9b 4e3d
00000180: 75ee 2bbe 2a84 70bd ab8c f93d dd19 91bd
00000190: 0632 f4bc e71d 13bc c51c aa3c bfe2 363e
000001a0: c786 153d 1ab3 06bd 1e5d 913d 6913 6ebd
000001b0: 423e 4e3e c7f2 71bd 57fe 87bd abf8 583d
000001c0: 0d89 6c3d 79cb c9bd 3b5e c23d bff5 acbc
000001d0: 05e5 0dbc 3655 81bd ef28 06be af15 2f3e
000001e0: 9ae4 77bd 2cdc 493c fff4 553d 7401 e23b
000001f0: 18ff 4a3c 3e54 ebbd bef1 5cbd 0ade b13b
00000200: d77e 15bd 365f a9bd f72f d03c 4553 03be
00000210: 6d64 7d3d 59f0 3d3b 3a05 693d 2838 863d
00000220: 7cba 063e 1d72 cdbd 63f5 6ebd dcfa 263e
00000230: 552f 91bd 7609 003d 069d bf3d edce 133d
00000240: 8351 d8bd bf28 1dbe a64f 1abe 2c05 5abd
00000250: 639b 88be 96f3 4bbd 3fd2 babd 3dbd 1a3d
00000260: c426 f5bd 78a4 1fbe 8775 27be 4938 4bbc
00000270: ccb2 d63c fc9b 5ebd 41d4 a7bd c58d 7abd
00000280: 6eba ec3d ac4b 02be 6391 d8bc 2e59 f43c
00000290: 49c8 0dbe 6531 e2bd f011 50be a8d0 f53d
000002a0: 2447 56bd 5b7d a2bd cfce 163d 5863 f03d
000002b0: d9c0 893d cbfd 89bd 473e 31be c1c5 d1bb
000002c0: 1a36 8a3d be21 2a3d e54e e13c 07d9 f23d
000002d0: 8624 5c3c 2065 4dbd d98b 2f3e 77f7 b63c
000002e0: 45a3 3dbe 1a67 1b3c 89c4 c23d 6fad 4ebe
000002f0: ef8e 803d 9143 1cbe fea9 8cbd f7c8 983d
00000300: 83ce 9cbd fc48 913d 1545 d73c c5e3 743d
00000310: 27b1 4ebd 18c0 08be 129c cd3c d2fd fdbd
00000320: f8e6 983d a4eb 12be bfeb dcbd 225c e03c
00000330: 5f1a cfbc bf7b 2cbc 60e5 db3c 5278 95bc
00000340: a137 753d 4589 9cbd deab d43d e863 283d
00000350: e1ff 243d ded8 3a3c ae18 78bd 1253 89bd
00000360: 4a29 163e 4700 9cbe 43c9 c53d 2ca7 b23c
00000370: 77ad eb3d 42ee d83c 1170 d23d e7b5 563e
00000380: 06fe b8bd 390d 89bd 5a14 d23d da3e bebd
00000390: 8392 09bd 42f7 84be 3ee8 053d 906b eb3d
000003a0: 1814 c6bd 3686 47be 871d bf3d 3d50 08be
000003b0: 2c72 4cbd 2ede 35be 01a1 e63d ee4d 63bd
000003c0: 7fdb 22be 2f45 fabd bfbc 14be 6fd9 8dbc
000003d0: 7168 40ba 057b 2a3d 58ee b7bd 0b62 87bd
000003e0: 5117 cabc 21da b3bd 3f71 913d aa2b ebbc
000003f0: 3717 8ebd 8c8f 17bd 9fa1 78bd 704c d93d
-0.06766242 0.0006647609 -0.20106475 -0.016654167 -0.031166237 -0.05636605 -0.049645025 0.026378956
-0.033613466 0.012740675 -0.06279242 0.15937938 0.014802757 0.10860059 0.019557303 -0.04419025
-0.16589268 -0.24832049 0.13255093 -0.102163136 -0.06970331 -0.105637535 -0.07871492 0.04886542
0.030838484 -0.031490415 -0.113593474 0.024251696 0.112121716 -0.032715324 0.039548077 0.027251488
0.056405112 -0.08712661 -0.079027355 0.026310386 -0.17112492 -0.043052096 -0.04236826 0.021191148
0.013925439 0.009962647 -0.014906945 0.09348613 0.07590857 0.00064312725 0.048444442 0.06324939
0.09991002 -0.036441736 0.095738456 -0.011594036 0.112571515 0.06524275 0.005125325 0.016615786
-0.007938961 -0.08773053 -0.018761244 0.080687344 -0.090324454 0.12710391 0.12736645 0.0017912218
0.0018096146 0.015903214 -0.056889106 0.074515946 0.0009975382 -0.17793098 -0.095445774 0.023472887
-0.16177066 -0.10654406 -0.041388527 -0.124597915 -0.044496786 0.10703279 -0.08834968 -0.11316387
0.015580103 0.059503548 0.018926881 -0.08576573 0.14270042 0.1247814 0.042346247 -0.06927647
-0.05331123 -0.067863 -0.17463426 -0.022746218 0.036633115 0.07783521 0.041037835 0.050441723
-0.16790183 -0.05871979 0.121850334 -0.07085011 -0.02980901 -0.008979297 0.020765672 0.17859934
0.036505487 -0.03288565 0.07097839 -0.05812398 0.20140937 -0.05906942 -0.06640308 0.052971523
0.05774789 -0.098532625 0.09490629 -0.021113275 -0.00866056 -0.06315081 -0.13101552 0.17098115
-0.060520746 0.0123205595 0.0522356 0.006897146 0.012389921 -0.11490677 -0.05394148 0.0054280804
-0.036497917 -0.08270113 0.025413496 -0.12824734 0.06186335 0.002898237 0.05688975 0.0655368
0.13157076 -0.10031531 -0.058339488 0.16306633 -0.07089106 0.031259023 0.09356122 0.03608601
-0.10562422 -0.15347575 -0.15069446 -0.05322759 -0.2668105 -0.04979285 -0.091221325 0.037778128
-0.119702846 -0.15590084 -0.16353427 -0.012403556 0.026208304 -0.054347977 -0.08194781 -0.06117036
0.11558996 -0.12724179 -0.026436513 0.02982768 -0.13845934 -0.110445775 -0.20319343 0.12002689
-0.05231394 -0.07934066 0.03681832 0.11737698 0.06726236 -0.0673786 -0.17308913 -0.006401748
0.067486 0.041536085 0.02750344 0.11857801 0.013436442 -0.05014527 0.17143191 0.022334797
-0.18519314 0.009485031 0.09510142 -0.20183347 0.062772624 -0.1526015 -0.06868361 0.07460206
-0.076565765 0.07093999 0.026278058 0.05978753 -0.050461914 -0.13354528 0.025098834 -0.12401928
0.07465929 -0.14347702 -0.107871525 0.027387682 -0.02528113 -0.01052755 0.026842773 -0.01824585
0.059867505 -0.076433696 0.103843436 0.041110903 0.040283088 0.011404244 -0.06057041 -0.067052975
0.14664188 -0.30468962 0.09657528 0.02180823 0.11507695 0.026480798 0.10275281 0.20967828
-0.09032826 -0.06691975 0.10257788 -0.09289332 -0.03358699 -0.25969893 0.032692187 0.11495125
-0.09671801 -0.19484791 0.09331804 -0.13311858 -0.04991357 -0.17760536 0.11261178 -0.05549424
-0.15904044 -0.12220227 -0.14525126 -0.017315594 -0.0007339782 0.041621227 -0.08981007 -0.06610497
-0.024669321 -0.08781839 0.07101678 -0.028707344 -0.06938022 -0.03700213 -0.06070101 0.106102824

bias f4 [256]
00000000: b4ca 223b bc08 5f3c 7adb db3c 695a cb3c
00000010: e95c 6ebd c3bd a8bc 56a2 c83c ebd7 20bd
00000020: 11ee 413d 285b 15bb 5413 0d3d 8414 b13c
00000030: 3491 8e3c cb07 a9bc 2344 183d 8328 17bd
00000040: edb7 783d 4477 463c b9ee 43bd 60e0 edbc
00000050: 42b0 573d 5f77 333d cbf6 523d f936 9c3c
00000060: 2efe f2bc 9ca8 41bc f6f3 ca3c 1b52 743d
00000070: bbf2 38bd ea67 febc 9bba 0b3c 13f9 54bd
00000080: 68c9 513c ed4d b43c 68f4 833d 537b 52bb
00000090: 89b6 c1bb 1292 8dbc f003 043d 723a 723c
000000a0: 56f0 3b3c 4693 283d 84ed 553d 48ab 1ebe
000000b0: b79b 783c 94ca 07bc 90cc d33c 015c 2dbc
000000c0: 0286 b9bd 61ff 293d bd88 d3bc 02a3 80bd
000000d0: d6fe 8cbc f85c 823c 664a f13c 360c 433d
000000e0: 693a ac3d a8aa 3dbd f811 15bb 0db1 173d
000000f0: d235 233d 9b30 cfbc 3441 5e3d 4d96 443b
00000100: 4279 b23c eb46 d43c bd7c 70bc e84b c73c
00000110: 4db1 97bc d542 8e3d 6849 80bb e106 6bbd
00000120: dcf1 29bd 18e9 6fbc 5c43 1f3d 5056 943d
00000130: e80f 5c3d 36ae 793d ccc5 cabb 41dd bc3b
00000140: 6dbc 10bd d610 8fbd 34a8 82bc 71eb ae3c
00000150: af50 f33b d4d1 2c3d 2121 16bc b87b 91bc
00000160: ca91 8fbc c76c 9b3d ada8 8cbc d5d9 a23c
00000170: cbbe a23d c255 013d 4b80 ce3c 8358 863d
00000180: b6a5 213d bde6 89bd 1e5e a23c b031 1f3c
00000190: 8d4a 803d 6666 15bc 98fd 89bc f5cb 9f3c
000001a0: a0fc 9dbb fed3 88bd 98bb a3bc 48ce 353b
000001b0: c05a bf3d bcf3 bdbc 8bfe 403d 8294 e13b
000001c0: 4601 23bd 60cc 183d edae 38bd e1a4 77bc
000001d0: ce7a 9f3d 7b3c d93c 6639 d33d 9f21 083a
000001e0: 480b 333d 2d37 813c b9e1 c4bb 4747 82bd
000001f0: 7e20 a93d f626 14bd 4324 493d 142a 36bd
00000200: af86 b43c 3cf2 e73b fcf8 f0b9 3f28 1c3d
00000210: 33b8 88bb 84be 0f3c 49c2 713d f06d 1a3d
00000220: 9438 253d ef6f 9a3d e6fc 9a3b a523 f83c
00000230: 33b0 0f3d 9779 7dbb 9236 bb3a ce8a ccbc
00000240: 5622 b93c f322 613d 63b9 073d bf60 893c
00000250: d64a 8dbd 4786 803d 5a25 133d 1565 863d
00000260: 600e 85bd c76b 363d 7e8b c6ba 9294 9a3c
00000270: 7f11 063d 15ab 183d 1f2c e83c 9475 c33d
00000280: e823 253d c8ec 34bc 722e 003d c288 f03b
00000290: c64d 2b3d ff3d bcbc d2b3 cfbb 924e 7bbc
000002a0: d2ce acbc 5923 9e3d 285e e23c 2a4b b63c
000002b0: 5a5a 603d 7d3f 9ebc b41b 87bc e34e c93b
000002c0: 7c93 d3bc a98e 3e3c 5a33 6dbb 7bdb 193d
000002d0: 59cd 973b 3de6 473d e21e 26bd f2de 1dbd
000002e0: 4e7d 90bd 2359 143d acbc c3bc 39b7 41bd
000002f0: ad24 103c 4eac 3d3d 2cb0 043d 8fbb 8d3d
00000300: b69b 923c 7266 8c3d 5c07 a93c 2f73 ff3b
00000310: 6db6 813c 8914 b3bc 1756 25bd decc 2abb
00000320: 34fd a83c 7ddf e93c 787d 253d dcef da3c
00000330: 4668 793d a02e db3c d80f d0bc b955 d03c
00000340: 44a2 90bd 4589 e8bc b0ae 14bc 8ccb 333d
00000350: 985a 173b 77b3 6dbd 9569 453d 5d1d 02bd
00000360: cfd7 0cbb 3a1b 89bd 87ec 8f3d cc2c 98bc
00000370: a1ce 29bd 3928 ec3c 49de e83a 1856 4dbb
00000380: a492 12bd 916a 013c a330 903c 4a3b 33bc
00000390: 8fb7 683d 96dd 823a 58df 193d 9ef6 f03b
000003a0: ee96 163d 1786 02be deea 4e3d 997e a43d
000003b0: a99e d53d e94c 09bb 9e2f 01bd de05 123d
000003c0: 9363 433d 56ca 1f3d a9e0 133c e274 56bc
000003d0: 0254 88bc e89b c23b 00b1 aa3c ff7e 483d
000003e0: 3b9c 1a3c b3d8 973c 6165 963d 80bf fe3d
000003f0: 8096 f6bb 4d3c b03c 515c 1cbd 378c 76bd
0.0024840059 0.013612922 0.026838053 0.024823384 -0.058194075 -0.020598298 0.02449147 -0.039268415
0.04734618 -0.002278993 0.03444226 0.021616228 0.017403223 -0.020633599 0.037174355 -0.03690387
0.06072228 0.012113396 -0.047835086 -0.029037654 0.052658327 0.043815013 0.05150489 0.019069182
-0.029662218 -0.011819985 0.024774533 0.059648614 -0.04515336 -0.03105541 0.008528377 -0.05199535
0.012804367 0.022009814 0.06443101 -0.0032116964 -0.0059116525 -0.017281566 0.032230318 0.014784442
0.011470875 0.041156076 0.052228466 -0.15495026 0.015173844 -0.0082880445 0.025854379 -0.0105810175
-0.09058763 0.041503314 -0.025822038 -0.06281091 -0.017211359 0.015913472 0.029454421 0.047619067
0.08409578 -0.04630533 -0.0022746306 0.037034083 0.03984625 -0.025291732 0.0542614 0.0029996813
0.021786336 0.025912723 -0.014678177 0.024328187 -0.01851716 0.06946341 -0.0039150007 -0.057379607
-0.04149042 -0.014642976 0.0388826 0.07243025 0.053726107 0.060957156 -0.00618813 0.00576368
-0.035335947 -0.06985633 -0.015949346 0.021352502 0.0074253897 0.042192295 -0.009163172 -0.017759189
-0.017525572 0.07589107 -0.017170275 0.019879261 0.07946547 0.031575926 0.02520766 0.06559851
0.039464675 -0.06733463 0.01982027 0.009716436 0.062642194 -0.009118652 -0.016844556 0.019506434
-0.004821375 -0.06681059 -0.019986913 0.0027741361 0.09343481 -0.02318751 0.04711775 0.0068841586
-0.039796136 0.037304282 -0.045088697 -0.015114994 0.07787095 0.026518097 0.10313682 0.0005192998
0.04371193 0.01577338 -0.0060083535 -0.06361251 0.082581505 -0.03616997 0.049106847 -0.044473723
0.022036878 0.007078437 -0.00045961875 0.03812432 -0.004172349 0.00877345 0.059023175 0.0377025
0.04033716 0.07540881 0.004729855 0.030290434 0.035080146 -0.003867721 0.0014283231 -0.024968531
0.02259938 0.05496497 0.033135783 0.016769765 -0.068990394 0.06275611 0.035924293 0.065622486
-0.064968824 0.04453638 -0.0015147773 0.018869672 0.03273153 0.03727253 0.028341351 0.095439106
0.040317446 -0.011042781 0.031294294 0.0073405216 0.041822217 -0.02297878 -0.006338575 -0.015338557
-0.021094713 0.07721586 0.027632788 0.022252638 0.054773666 -0.019317383 -0.016492702 0.006143437
-0.025827162 0.0116306925 -0.0036193938 0.03756283 0.0046326336 0.048803557 -0.040556796 -0.038542695
-0.0705515 0.03621782 -0.023893677 -0.047293875 0.008797807 0.0463069 0.032394573 0.069205396
0.017896514 0.068554774 0.020633392 0.0077957134 0.015834058 -0.021860378 -0.040365305 -0.0026062052
0.02062855 0.02854895 0.04040286 0.026725702 0.06089046 0.026755631 -0.02539818 0.0254315
-0.070622 -0.028385768 -0.009074852 0.04389529 0.002309477 -0.05803248 0.048196394 -0.031766284
-0.0021490937 -0.06694646 0.07027536 -0.018576048 -0.041456822 0.028827773 0.0017766441 -0.0031331833
-0.03578438 0.007898943 0.017601317 -0.010939429 0.05681568 0.0009984251 0.037566513 0.007353618
0.03676503 -0.12746464 0.050516956 0.08031959 0.10430653 -0.0020950383 -0.031539552 0.035650127
0.047702383 0.039011322 0.009025731 -0.0130893905 -0.01664162 0.0059389956 0.020836353 0.048949238
0.009436662 0.018535947 0.07343555 0.124388695 -0.007525265 0.021513129 -0.038173977 -0.060192313

weight f4 [10, 256]
00000000: b8ce 33bd 8009 a33d f8b2 973d 9cb4 ae3d
00000010: 2a8b 3e3e 40a2 ec3d 8ae2 e5bb a21f ad3d
00000020: 4bf4 673e e15b c43c 2b68 57bc 8959 b43d
00000030: 4355 103c 6d27 5b3c 2c12 b43d 6bb5 15be
00000040: 714f 1abc 1ca1 a5bd 868f 36bd a9bb b4bc
00000050: ca73 1dbc 55b9 993d f7e0 f63b ca3e 7cbd
00000060: 6da9 cabc e0db cdbd f185 92bd df7c d23d
00000070: be87 8fbd 5a13 1cbe 873b 243d 0830 c6bd
00000080: cde5 d8bd 238f 06be 9bdd 9a3d 1c83 fcbc
00000090: 9c0c 813c 412d 29be 741d 6bbd 9fd2 18bd
000000a0: 9649 223e 9869 863d 98e9 9dbc dfe3 c4bc
000000b0: f55b 053d d43d 2a3e 085c b7bc 7db4 a83d
000000c0: fabb 7bbd 7dcf 72bd bd9d 7dbd 6fe0 e5bd
000000d0: b68d 9abd 8a1a c23d 8fd1 c73d b0ee 923d
000000e0: e71d a5bc 5245 473d 1591 2ebe cb1d 8cbd
000000f0: 1ae8 c3bd 152e 80bc bcca 0d3d c52a ba3c
00000100: 2836 263e c77e b3bd f703 babc 0c85 4f3c
00000110: 3f2b c1bd 63a3 b6bc 8a3a e13d 5897 5ebc
00000120: 4ea3 b7bd b841 973a ed27 96bd 3fa1 163d
00000130: 3229 cbbb 4c5e 83bc 6cf4 dc3d e26a 09bc
00000140: ae45 a2bc 4116 ccbc d9ea 9f3d 67b1 c5bd
00000150: a157 f53c 6efb 6a3c 1d27 72bd 5b70 77be
00000160: f307 753b 3be5 123d 586a 3c3e 5d25 58be
00000170: 9be5 4abc fc7d b93c 4166 243e b2d0 1bbc
00000180: 4ff4 c83d b669 3c3d d33d b23d 5bf7 2b3e
00000190: 6e5e b43c a3e4 e1bc c17a c83d efd2 84bd
000001a0: 57f0 f5bd 5052 653d da27 be3d b44c 6a3d
000001b0: 0c18 c1bc 8ae0 d83d b59f 14bd 9838 1dbe
000001c0: 6d0e 87bc 0891 903c 40ef 29bd a49f 893c
000001d0: baab ea3c 56cd abbc bb9c 67bc 3a5f 163d
000001e0: dc55 89bd ef5b 1b3e c0e1 683e 17e8 403c
000001f0: 1346 d23b f395 8a3d 1f16 493c 07c4 f5bc
00000200: 359c 9abc bccf ad3b f7c3 6cbd 7d14 0bbe
00000210: f1cb c93d 5640 97bd a378 883c cf6e 4bbc
00000220: a88f a13d 9971 f9bb ab1a c83d 80b7 a33c
00000230: a55b ddbd d716 a53d fc2c a83d 51ea 9bbd
00000240: 16be 0c3e 398d 41bc 2bca ffbc d327 62bd
00000250: 7168 923c bdf2 ddbb 58f3 b03d 4458 bbbc
00000260: 5026 2e3e 30ef f2bd fc16 813c e46d 323c
00000270: c931 a73d 7361 8cbd 1d7d 063b 32fc 823c
00000280: ae14 633c a6fe 743d 6a61 883d e8a5 983d
00000290: 65d9 a6bd 6905 2b3e 25f8 6a3d 8730 483d
000002a0: 514e b23c 0d18 963c 430e 6e3d b799 c2bc
000002b0: 56c0 873c 8037 763d adb2 463d e110 923d
000002c0: af6f 1bbd fcb1 79bc 0e2b e13c 120a a5bb
000002d0: 0cf1 033d a529 ad3d f2a6 963d e5bf 733e
000002e0: f436 8e3d 863f 20be d82d a5bd 9b21 92bc
000002f0: 14da 653d 693c c9bd 5d85 20be 4661 763b
00000300: c1d6 2ebd 65d7 d3bc 9088 173b 2443 58be
00000310: 033e 16be e6b6 923d 08b6 4fbd 384c f53d
00000320: 093a f53c 3c5f 623d 7814 793d a3b0 8c3d
00000330: 0ac5 3cbd 995e cc3c 1fdf 243d 6ea7 b8bd
00000340: fe00 0e3e c60f b0bd 794c 93bc d875 a23d
00000350: e94f 43be 1c11 51bd 2d7a 663c 56a8 923b
00000360: 2994 ce3a 735b e1bb 4c6b 0e3d 9830 383e
00000370: 197b c43d bf25 c3bd 38ce 243d 43d5 cdbd
00000380: fe71 93bd 8db3 16bc e88b 4abd f28c 723d
00000390: 100e 943c aa7b 1abe 7bc1 bdbc 850b 28bd
000003a0: 4612 32be 27f7 df3c f29d e2bc 6e8d 3ebd
000003b0: 5f0d 173d 6e40 dcbd 6deb cb3d fb78 113d
000003c0: 5e10 ab3d 73b8 5d3c 954c ccbd f6cc 23be
000003d0: ce57 9abd 047e 71bd 1dca 07bd b2da eabd
000003e0: 9bce 2a3e 474c bfbc 0a7b 883b fa0a 79bd
000003f0: 6b81 0bbe 57fe aa3d c02d 72bd 31ed 5bbd
-0.043898314 0.07960796 0.074071825 0.08530542 0.18607774 0.11554384 -0.007015531 0.08453299
0.22651784 0.023969593 -0.013147394 0.0880614 0.0088093905 0.013376099 0.087925285 -0.14619987
-0.009418354 -0.0808737 -0.04457047 -0.02206214 -0.009610126 0.075060524 0.007534142 -0.061583318
-0.024738992 -0.100517035 -0.071544535 0.102777235 -0.07008313 -0.15241757 0.040095832 -0.0967713
-0.10590706 -0.1314054 0.07561799 -0.030824237 0.015753083 -0.16521169 -0.057401136 -0.03731024
0.15848383 0.06563109 -0.019276425 -0.024034439 0.0325584 0.16625148 -0.022382751 0.082375504
-0.061458565 -0.059279907 -0.06191801 -0.11224448 -0.075465605 0.09477718 0.09756767 0.07174432
-0.02015586 0.048650093 -0.17047532 -0.0684162 -0.09565754 -0.015646974 0.03461717 0.022725472
0.16231596 -0.08764415 -0.022706969 0.012665998 -0.09432077 -0.022294706 0.109974936 -0.013585888
-0.08966695 0.0011539971 -0.07331834 0.03677487 -0.006199979 -0.016036175 0.10788807 -0.008387299
-0.019808616 -0.024912955 0.078084655 -0.096529774 0.029949011 0.014342172 -0.059119333 -0.24163954
0.0037388771 0.035863142 0.18399942 -0.21108003 -0.012383844 0.022643082 0.16054632 -0.009510206
0.09812223 0.04599925 0.08703198 0.16793577 0.022017684 -0.027574843 0.097890384 -0.06485545
-0.12008732 0.055986702 0.09284945 0.057202056 -0.023571037 0.105897024 -0.03628512 -0.1535362
-0.016486371 0.017647281 -0.041487932 0.016799755 0.028646339 -0.020971935 -0.014136489 0.03671191
-0.067058295 0.15171789 0.22742367 0.0117740845 0.006417045 0.06766882 0.0122733405 -0.0300007
-0.018873313 0.005304305 -0.057804074 -0.13582034 0.09853352 -0.07385318 0.016659087 -0.012416556
0.078887284 -0.007612419 0.097707115 0.01998496 -0.108084954 0.08060997 0.08211705 -0.07613052
0.13744387 -0.011813455 -0.03122433 -0.05521376 0.017872067 -0.0067733214 0.08640164 -0.022869237
0.17006803 -0.11862028 0.01575803 0.010890458 0.08163793 -0.068545245 0.002052135 0.015989397
0.013859911 0.059813164 0.06659205 0.07453519 -0.081469335 0.16701283 0.057365555 0.048874404
0.02176586 0.018322015 0.05811907 -0.023754938 0.016571205 0.060111523 0.048510242 0.07132126
-0.037948307 -0.015240189 0.02748635 -0.005036601 0.032212302 0.08455209 0.07356061 0.2380367
0.06944075 -0.15649232 -0.080653846 -0.01783829 0.05611618 -0.098259754 -0.15675874 0.00375946
-0.042685274 -0.025859544 0.002312217 -0.21119362 -0.14672093 0.07163791 -0.050710708 0.11977428
0.0299349 0.055266604 0.060810536 0.06869628 -0.04608635 0.024947451 0.040251847 -0.0901631
0.13867566 -0.085967585 -0.017980801 0.07932633 -0.19073452 -0.051041707 0.014067215 0.0044756336
0.0015760708 -0.0068773567 0.034770295 0.17987287 0.095937915 -0.09528684 0.040235728 -0.10050442
-0.07199477 -0.009198082 -0.04944983 0.059216447 0.018073112 -0.15086237 -0.023163548 -0.04102661
-0.17389783 0.027339531 -0.027663205 -0.046521597 0.036877986 -0.107544765 0.09957013 0.035515767
0.08352731 0.013532746 -0.09975544 -0.15996155 -0.07536279 -0.05895807 -0.033151735 -0.11467494
0.16680376 -0.023351802 0.004165058 -0.060801484 -0.13623588 0.08349293 -0.05912566 -0.053693

bias f4 [10]
00000000: 5b4f 243c 5464 cf3b bd0f 19bd 5c9a 323d
00000010: f5e9 f43c 85c9 293c 8f71 55bc fbc3 9cbd
00000020: 76da 983b 5b81 b83c
0.010028685 0.0063290987 -0.037368525 0.04360424 0.029896716 0.010362987 -0.013027563 -0.07654568
0.0046647144 0.022522619

stds f4 [10]
00000000: 1d5a 643e 1d5a 643e 1d5a 643e 1d5a 643e
00000010: 1d5a 643e 1d5a 643e 1d5a 643e 1d5a 643e
00000020: 1d5a 643e 1d5a 643e
0.223 0.223 0.223 0.223 0.223 0.223 0.223 0.223
0.223 0.223

obs_std f4 [35]
00000000: cdcc 4c3e cdcc 4c3e 0000 803f 0000 803f
00000010: 0000 803f 0000 003f 0000 003f 0000 003f
00000020: 0000 003f 0000 003f 0000 003f 0000 003f
00000030: 0000 003f 0000 003f 0000 003f 0000 8040
00000040: 0000 8040 0000 8040 0000 8040 0000 8040
00000050: 0000 8040 0000 8040 0000 8040 0000 8040
00000060: 0000 8040 0000 803f 0000 803f 0000 803f
00000070: 0000 803f 0000 803f 0000 803f 0000 803f
00000080: 0000 803f 0000 803f 0000 803f
0.2 0.2 1.0 1.0 1.0 0.5 0.5 0.5
0.5 0.5 0.5 0.5 0.5 0.5 0.5 4.0
4.0 4.0 4.0 4.0 4.0 4.0 4.0 4.0
4.0 1.0 1.0 1.0 1.0 1.0 1.0 1.0
1.0 1.0 1.0

obs_mean f4 [35]
00000000: 0000 0000 0000 0000 0000 0000 0000 0000
00000010: 0000 0000 0000 0000 0000 0000 cdcc 4cbe
00000020: 9a99 193f cdcc ccbe 0000 0000 0000 0000
00000030: cdcc 4cbe 9a99 193f cdcc ccbe 0000 0000
00000040: 0000 0000 0000 0000 0000 0000 0000 0000
00000050: 0000 0000 0000 0000 0000 0000 0000 0000
00000060: 0000 0000 0000 003f 0000 003f 0000 0000
00000070: 0000 0000 0000 0000 0000 0000 0000 0000
00000080: 0000 0000 0000 0000 0000 0000
0.0 0.0 0.0 0.0 0.0 0.0 0.0 -0.2
0.6 -0.4 0.0 0.0 -0.2 0.6 -0.4 0.0
0.0 0.0 0.0 0.0 0.0 0.0 0.0 0.0
0.0 0.5 0.5 0.0 0.0 0.0 0.0 0.0
0.0 0.0 0.0
