trained/h1_step/actor_17199.pt (torch, 315889 bytes, 9 tensors)

weight f4 [256, 35]
00000000: 7169 19bf 49d0 34be 1e8d eabe 5021 543e
00000010: 2315 adbd e1d2 f63e ef16 05bf 95c3 2d3d
00000020: 5023 4ebd 9100 633e cc00 9bbc 1ebf 2a3e
00000030: 4f18 1f3d c481 b3be 2902 863d 2b7f 603e
00000040: cbb0 84be 2fa3 35be 42eb 1fbe d649 aebb
00000050: 4c2d e9bd a4d2 a7bd 0871 3cbe f6ec afbd
00000060: 7156 253f 5b0c 84bc 14c6 403e acc7 263e
00000070: d35f 3cbe 9819 cf3d 2378 02be 9510 80be
00000080: 4faa 733d 61b7 5d3e c6e2 713d 8ffa 443d
00000090: 782a 1c3d 4a17 80bc e726 3abe 7690 a63d
000000a0: 2df3 1bbf 2b9d c93d 0cf6 42bd 3909 d0bd
000000b0: e556 9a3e 3563 63be dcde ec3d 31dc 403e
000000c0: 0f8a 9ebd e047 de3e 8e7a 8c3c 65d0 b2be
000000d0: a8bb 853c 16e9 a4be 115b 563f 12ff 97be
000000e0: eb9c e8be b662 6c3e de72 c6be 8843 bc3e
000000f0: e357 6d3d 41a6 c13d ea14 8b3e 4bba bebe
00000100: 3041 2fbe cba9 69ba bf89 52be 69e6 653d
00000110: 850a a9be 47e9 6bbe e699 013f 48c8 963e
00000120: 48b8 d93e 48f6 1f3e dc99 3dbd 0921 e33d
00000130: bc31 19bb 8703 ac3e f435 91be eac6 abbd
00000140: a534 43be 9961 e83e fe11 0e3e d40b d3be
00000150: 8d53 113d 1558 8cbd 1df5 2e3e 6a76 0bbd
00000160: 8999 cf3e be3c b1be 2bc9 473e ce9a 99be
00000170: bf85 4e3e 23f1 9c3d 37e9 47bd 71bc 3f3d
00000180: 14ce fc3d 14d0 f23d 5308 9c3e fadf 4ebe
00000190: b1af 1a3e c38a 783e ee70 423e e313 33bd
000001a0: da3b a73d 499d 9dbe 108a 773e f52f fdbd
000001b0: 70a1 70bd 1905 3b3e 9231 1e3e 1c3d c0be
000001c0: 293a d83e 8f47 2f3e 1174 34be 72ad 083e
000001d0: a75b 14be f84e 343f 1ffb 803d dc1b bfbd
000001e0: 9594 aabd 487b 30bd 8d96 aa3d f36f 3a3f
000001f0: c732 08bd 1e98 5cbe 0721 b5bc a793 bf3e
00000200: 6d01 e0bd 7083 02be c693 1b3e 0efd 97be
00000210: 3db3 6c3c 2d97 373e 02ce 35bd eef1 0c3e
00000220: 63c3 8d3e c747 58be 84f7 4bbc 36c1 db3c
00000230: a4c6 ccbe ac01 493e 46e8 91be 6b8a a5be
00000240: 2788 82be 495a b8be b309 95be daab 5e3d
00000250: c0d9 183c 46c2 803e 9e30 1c3e a693 cebd
00000260: c47e d43e 3f93 afbe 1570 a8bc ed59 f43e
00000270: ffa1 e8bd c129 ac3e 3234 673e 2dea d73a
00000280: b104 04bd 9875 69be 64ed 503d 5120 1fbe
00000290: 2026 b5be 2cd3 2bbc 5617 30be e969 0e3e
000002a0: a158 00bf c008 22be 5d32 bfbe 31f4 6c3e
000002b0: 2b0f dcbd 89f6 1cbe b47e b3be f709 a3bd
000002c0: 83cb 9b3e 4761 47be 9fa0 313e 8227 a43e
000002d0: 6834 b83e b26b 0f3f 7d02 b83e f7a5 37be
000002e0: 77f5 8e3d 7bcd b8be b4fe 5dbe 4bb5 2d3e
000002f0: 3ff5 37be 4b49 503e 0408 c23e d051 703e
00000300: 6617 29be 1cde 8dbe 516f 603e 5287 ecbe
00000310: adaa e93e 1ebb 79bb f3a0 893e fe2d 6abe
00000320: 7899 d4be 40c9 f63d 4cc5 633e a713 4b3e
00000330: 62af 8f3d be94 c6bd 42d8 54be d658 c03e
00000340: 987b c9bd 9812 8f3e 05ca 2ebe e2fe 463d
00000350: c125 a63e 922f 02be c0d8 e2bc a33d d83d
00000360: 1a09 e43e 53a0 fcbe 7a69 90bd 0c55 45be
00000370: 2e9e 44be 0695 d3be 99d1 8fbe c62b ad3d
00000380: 3922 93be 18b1 f73e 5c85 273e 22cf 903b
00000390: 3999 8ebe bbed 8dbe d3ec 3a3e c9ec 81bb
000003a0: 189f 1a3e a54d db3d 16c7 5e3d 9e0d 0a3e
000003b0: 308f 9c3e 6e77 75ba dbbb 08be e9ce fd3e
000003c0: 933d 473e dfa7 43bd ade0 bf3d e0f5 cc3d
000003d0: ad6a 9e3e 2bf5 e4bd 012a 92bd b346 42bf
000003e0: 091b 003e 5fa8 ab3d 3554 9fbe 86f7 40bc
000003f0: f432 213b d452 dbbc 25c9 bfbc a11a 303e
-0.59926516 -0.1765758 -0.4581079 0.20715833 -0.08451297 0.48207763 -0.5198812 0.04242285
-0.050326645 0.22168185 -0.018921278 0.16674468 0.03884154 -0.3505994 0.06543381 0.2192351
-0.25916132 -0.17738031 -0.15617087 -0.0053188605 -0.11385593 -0.081944734 -0.18402493 -0.085901186
0.64585024 -0.016119173 0.18825561 0.16287106 -0.18395929 0.101123035 -0.12741141 -0.2501265
0.05948859 0.21651985 0.05905416 0.048090514 0.03812644 -0.015636105 -0.18178903 0.081330225
-0.6091793 0.098444305 -0.04759793 -0.10158009 0.3014442 -0.22205813 0.115659446 0.18833996
-0.07741176 0.4341421 0.017148282 -0.34924617 0.016324833 -0.3220908 0.83732706 -0.2968679
-0.4543222 0.2308453 -0.38759512 0.36770272 0.057945143 0.094555385 0.27164394 -0.37251505
-0.17114711 -0.0008913546 -0.20560358 0.05612794 -0.33015838 -0.23038207 0.50625455 0.29449677
0.42523408 0.15621293 -0.04628931 0.11090285 -0.0023375591 0.3359644 -0.28361475 -0.08387549
-0.19063051 0.4538696 0.13874051 -0.41219962 0.03548007 -0.06852738 0.17085691 -0.034048475
0.40546826 -0.34616655 0.19510333 -0.3000092 0.20168208 0.07663181 -0.048806395 0.04681057
0.12343994 0.11856094 0.304751 -0.20202628 0.15106083 0.24271683 0.18988392 -0.043720137
0.08165713 -0.30784062 0.2417376 -0.12362663 -0.05874771 0.18263663 0.15448597 -0.37546623
0.42231873 0.17117141 -0.17622401 0.13347414 -0.14488088 0.70432997 0.062978975 -0.09331486
-0.08329121 -0.04308632 0.083294965 0.7282707 -0.03325155 -0.21542403 -0.022110475 0.37417337
-0.10937772 -0.12745452 0.1519309 -0.29685253 0.014447031 0.17928763 -0.044385917 0.13764164
0.2768813 -0.21121131 -0.012449149 0.026825529 -0.399953 0.19629544 -0.28497523 -0.32332167
-0.254945 -0.36006382 -0.29108962 0.05436311 0.009329259 0.2514822 0.15252921 -0.100867555
0.41502964 -0.34292027 -0.020561257 0.47724858 -0.11359023 0.33625606 0.22578505 0.0016472988
-0.032231037 -0.22798765 0.051007643 -0.15539671 -0.3538065 -0.010487359 -0.17196402 0.13907589
-0.50135237 -0.1582365 -0.37343112 0.23140027 -0.107450806 -0.1532842 -0.35057604 -0.07960885
0.30428705 -0.19470702 0.17346428 0.32061392 0.35977483 0.56023705 0.35939398 -0.17934404
0.069804125 -0.3609427 -0.21679193 0.16963689 -0.17964648 0.20340459 0.3789674 0.23468709
-0.16512832 -0.27708519 0.21917464 -0.4619699 0.45638028 -0.0038105915 0.26880607 -0.22869107
-0.41523337 0.12050104 0.22243232 0.19831716 0.070158735 -0.09696339 -0.20785621 0.37567776
-0.09838027 0.27943873 -0.17069252 0.04858292 0.3245068 -0.12713459 -0.027691245 0.10558631
0.44538194 -0.49341068 -0.07051368 -0.19270724 -0.19200966 -0.41324633 -0.28089598 0.08455615
-0.28737047 0.483773 0.16359466 0.0044192234 -0.27851275 -0.27720436 0.18254404 -0.0039649946
0.15099752 0.10708169 0.054389082 0.13481757 0.30577993 -0.0009363805 -0.13352911 0.49571922
0.19457082 -0.047767516 0.093690254 0.100078344 0.30940762 -0.111795746 -0.07136918 -0.7588913
0.12510313 0.083817236 -0.31118932 -0.011777764 0.002459702 -0.026772894 -0.023411343 0.17197658

bias f4 [256]
00000000: 03da 68bd 5c20 0c3e 7bd0 dfbd d198 fcbd
00000010: 1fb2 09be 4353 46bd d199 e7bd f730 d9bc
00000020: f6f8 17be e315 07be 88e4 1bbe e9ac 65bd
00000030: c146 a5bd 0701 c6bd 20cc e3bd 92c4 693d
00000040: 5501 5a3b 6103 b8bd 4940 633d f0b7 42bd
00000050: 1aa3 853d 7642 e63d 06c6 323d c347 65be
00000060: 81d9 893c 2773 5bbe 41c5 d53c c95f 8bbe
00000070: 6583 66be d73a 85be 6fe6 93bd 09a8 74bd
00000080: 6d5a 87bd 6b19 89bc e18f 10be 26a4 9a3d
00000090: d985 f7bd cc4b d7bc 4f88 56be d95a 09be
000000a0: d9f2 85bd 927e 9c3c e878 373d 56fd c73d
000000b0: 0cb5 88bd 5cfb 3fbd a8b4 183d 50e9 953d
000000c0: 68e9 20be be04 c5bd 71f5 12be 527e c8bd
000000d0: 9e37 d4bb beec 0dbd e72c 1f3e ac8a fabd
000000e0: 9c3d f0bc 08f5 b3bd 1f5d 3f3e 8181 a8bd
000000f0: 6511 9dbd bb1e 913d a6e7 5dbe 626e 23be
00000100: ec6a 7bbc 7e61 7dbd f236 003d 82d4 3cbd
00000110: 6817 b5bd 48bd 2cbc edd3 32bd 06f2 b23a
00000120: f09b 2bbe 322b 08be ee39 e73c 9cd3 323e
00000130: 9360 4d3d 2d06 70be e52a 5fbc 61a9 303e
00000140: f78f 93be d918 223d c7a0 0bbe 9d29 e4bd
00000150: 4c89 b3bd bba7 fa3c c297 84be a1e8 933b
00000160: 410a ba3d 1552 fbbd a4ac 7abe c0d7 483e
00000170: 41ca 8abd 277a d23c 7cd5 6f3d 0459 b33d
00000180: 7c40 a5bd d46a 31bc dae6 05be e9a9 d63d
00000190: cc9c 8f3d 408f 8c3d 4a34 60be 0af8 a33c
000001a0: f5a5 e63b 8b3a 93bd efb5 ecbd 8c22 51be
000001b0: d600 473d d410 babc 3dd2 ccbd 2693 39be
000001c0: 8c19 593c f4b6 b2bd de15 1fbe c177 b3bd
000001d0: e500 c93c fc42 1abd a1db 2e3d 20b8 96be
000001e0: 3b20 cdbd d2a9 b73d 3773 793d 1f27 5abc
000001f0: 7b9f df3d 344f 63bc 919b 86bd f805 46be
00000200: f722 ccbd 3a0c a83b 0cda 5dbe ee8d c3bc
00000210: fe6c 533d 46f7 b73b 751a 64bd ed66 ef3c
00000220: e823 35be b0c2 02be a1c8 b7bd fa87 9ebd
00000230: 36f3 cdbe 936d 493d f834 21be b2b7 c13b
00000240: 6be5 873d fdde ea3c b13d 85bd aae7 df3b
00000250: 59eb 2dbd fb38 f33c e8d6 313e 0009 6bbe
00000260: 79bc a5be 391b 683d 2680 6f3d aefa 32be
00000270: 4b53 49bd 7549 83bc 10e6 b6bd 651d 663c
00000280: dadb 273d 54f6 153d 3c7d 42be 351b 84bc
00000290: c235 02be 33aa f1bd e9aa 2ebe 03aa 91be
000002a0: ab7b 4bbc 19a1 123e f536 17be fd80 c3bc
000002b0: bf3a 58bd 754a 28be 48bf 04be d0f8 533c
000002c0: 0c55 2c3e 5f38 293c 7a43 94bd 7a17 1d3c
000002d0: 7144 3c3e 0f48 04be a91e ca3d ca57 1bbe
000002e0: 36e9 173e 016c b0bd 0367 973d a85f 603b
000002f0: c7de 16be bddb f63d 87df 66be 7944 4bbe
00000300: 148b 3c3b 8f30 89bc 25cd 3ebe 0e65 0dbe
00000310: a1e3 74bd 7a1a 1bbd 0f62 9d3d fad1 54bd
00000320: 74d4 d3bc d8ca 29bc 4ae7 2cbe d712 6a3c
00000330: eab7 3fbe 987c a0bd 8742 2d3a 0a6b b63d
00000340: 38ae dfbd 9853 0e3c 8df8 62bd 4508 d9bd
00000350: 99e0 91bb 69cd 48be 7ecf f5bb dc55 bc3d
00000360: 2364 cfbc 9d32 51bd a941 30be a7cd a43a
00000370: 71e3 20bd 2f50 d83c 9c72 a2bd e022 80bd
00000380: 680e 5b3d 4953 0fbc 5744 9cbd ecc3 03be
00000390: 77d2 a4bd 5c9f 63bd 9889 1dbd 39e3 fabd
000003a0: 2763 17be 09f8 80bc 9727 ed3c 96ce 213e
000003b0: 6b2a ffbd 1444 25be 9cb5 053d c915 7fbc
000003c0: f94d c1bd a253 a53c fcd7 49bd 9424 293d
000003d0: 035a 1abe dfbd 413d 0e39 2abe 3705 163e
000003e0: ddd2 22be 1276 18be 3c1a 6bbe ef21 e43d
000003f0: e221 5ebd d4c6 4cbd 3dd9 75bd 475c 25be
-0.056848537 0.13684219 -0.10928436 -0.12333835 -0.13446854 -0.04841925 -0.11308635 -0.026512606
-0.14841065 -0.13191943 -0.15223897 -0.056073103 -0.08070136 -0.09668165 -0.11122918 0.05707223
0.0033264954 -0.089850195 0.05548123 -0.047538698 0.0652525 0.11243145 0.04364588 -0.22390656
0.016827347 -0.21430646 0.026095035 -0.27221516 -0.2251106 -0.26021454 -0.07221686 -0.059730563
-0.06609044 -0.016735753 -0.14117385 0.0755084 -0.12086076 -0.02628126 -0.20950435 -0.13413562
-0.0654046 0.019103322 0.04479304 0.09765117 -0.06675157 -0.046870574 0.037281662 0.073198915
-0.15714037 -0.09620045 -0.14351441 -0.09789719 -0.0064763566 -0.034649603 0.15544473 -0.12233481
-0.029326253 -0.087869704 0.18687867 -0.08227826 -0.07669333 0.070859395 -0.21670398 -0.15960076
-0.015345316 -0.061860554 0.0313024 -0.0461011 -0.08842355 -0.010543175 -0.04365914 0.0013652451
-0.16758704 -0.13297728 0.028225865 0.17463535 0.05014093 -0.23439856 -0.013621067 0.17252113
-0.28820774 0.039574478 -0.1363555 -0.111407496 -0.08766422 0.030597558 -0.25897032 0.0045138155
0.09083987 -0.12271515 -0.2447992 0.19613552 -0.06776858 0.025693012 0.058553204 0.08757213
-0.0806894 -0.0108286925 -0.13076344 0.104816265 0.070123285 0.0686326 -0.21894947 0.020015735
0.0070388266 -0.071889006 -0.115581386 -0.20423335 0.04858478 -0.022713102 -0.10001037 -0.18122539
0.01325072 -0.08726302 -0.15535685 -0.087630756 0.02453656 -0.037661538 0.042689923 -0.2943735
-0.10015913 0.089679375 0.060900893 -0.013314991 0.1091909 -0.013873864 -0.06572641 -0.19338214
-0.099676065 0.0051284106 -0.2166521 -0.023871388 0.051617615 0.005614194 -0.055689294 0.029223884
-0.17689478 -0.1276958 -0.08973814 -0.07740779 -0.40224618 0.049176764 -0.15742862 0.0059117908
0.06635555 0.028670782 -0.06505907 0.0068330364 -0.042460773 0.029690256 0.17367136 -0.22952652
-0.32370356 0.056666587 0.05847182 -0.17478439 -0.0491517 -0.016026238 -0.089306 0.014045094
0.04098115 0.03661187 -0.18993086 -0.016126255 -0.1271582 -0.11800041 -0.17057385 -0.2845002
-0.012419621 0.14319266 -0.14767058 -0.023865217 -0.0527904 -0.16434653 -0.12963593 0.0129377395
0.16829318 0.010328381 -0.07239433 0.009588117 0.18385483 -0.12918113 0.09869129 -0.15170208
0.14835057 -0.0861435 0.07392695 0.0034236703 -0.1473342 0.120536305 -0.22546206 -0.19850339
0.002876942 -0.016746787 -0.18632944 -0.1380808 -0.059787396 -0.037867047 0.07684719 -0.05195806
-0.025858141 -0.010363303 -0.16885105 0.014286718 -0.18722501 -0.07836264 0.00066093396 0.08907135
-0.109219015 0.0086869225 -0.055412818 -0.105972804 -0.004451823 -0.19609608 -0.0075015416 0.09196064
-0.025316304 -0.05107366 -0.17212547 0.0012573496 -0.039279405 0.026405422 -0.07932016 -0.06256652
0.053480536 -0.008747884 -0.07630222 -0.12867707 -0.080479555 -0.0555719 -0.038461298 -0.122503705
-0.14783917 -0.015743272 0.028949542 0.15801463 -0.124592625 -0.16139251 0.0326439 -0.015569159
-0.094387 0.02018148 -0.049278244 0.04129465 -0.15073399 0.047300216 -0.16623327 0.14650427
-0.1590075 -0.1488879 -0.22959226 0.11139285 -0.054231532 -0.049994305 -0.060021628 -0.16148482

weight f4 [256, 256]
00000000: 80d4 fcbd 33f1 2fbe 113f a0be d19e 76be
00000010: 078e 00be 4f38 d3bd 6b97 f2bd eee8 b33d
00000020: 4b6f 51be 4eab 81be 3a63 2b3d 7eae f63e
00000030: 3e67 8b3d beb7 e33d b172 43bd d9dd 14bd
00000040: b022 58be da04 dcbe c9d8 a73d 341a 2abd
00000050: b150 5cbe d338 48be ee4c c4bd aad8 6a3e
00000060: 607c 563e 9932 e5bd 8f61 65be 8896 75be
00000070: 4447 4c3d 2063 823d 8511 0d3d 1716 183c
00000080: 9b42 2d3d 0068 acbc 9fd7 be3d f4ed acbd
00000090: b3a5 bcbe beab 8c3e 7f2a 4a3d ea1d 643d
000000a0: 34e8 d3bd a921 273e acc7 38be 64d2 4a3e
000000b0: baed 57be 27e6 f4bd f9f8 40be ff97 b8bd
000000c0: bf5e 273e b559 0ebd 3b34 ba3d f000 f0bc
000000d0: c4ee f43b e833 63bd f3c0 0f3d e47b fc3c
000000e0: 11cc 7abe ad7b ccbc 6532 f6bd 288a a2bd
000000f0: 27e0 2cbd d9e0 0cbd 6561 553e 88e9 d13d
00000100: a9d9 e53c d716 27bd ac78 58bd 7ad8 ed3c
00000110: 723d a3be f8a1 29be 7e2f 61be 4224 5cbd
00000120: 359f 04be 8a5f 2c3e 7708 2cbd 8a0c 11be
00000130: cc0f 9dbe c847 0e3e 020c 663d ffcf 8bbe
00000140: 8390 88bd 6e03 783b 480c 01bd 08bb 053e
00000150: 25c4 0d3e 1416 11be 1830 3abe 6f42 dcbd
00000160: c7f6 86be 8292 5cbe 9cfb 84be e31d 96be
00000170: 42b8 bfbd 37d4 47be 94cb 9fbd 7367 eb3d
00000180: 1a46 d0be ba8d 00be dd02 2e3e 9e38 97be
00000190: 172e e7bd 6eac a03d d54e f5bc bb00 d83d
000001a0: 95a9 25be 6c92 60be 8b24 d43d d19f e73d
000001b0: 6040 33be 146f 8ebe bea9 b1be a7c0 023c
000001c0: 538c 413e f455 aabe 5095 26be 98f2 0e3d
000001d0: 7cc1 d4bc f272 b3bd 8187 e8be e73c 4f3e
000001e0: f23c 17be fe10 2abe 2544 a43d dd55 2ebe
000001f0: 4705 393e 4ee8 34be 84f8 a0be 9695 aa3e
00000200: 6ecd 24be bcc8 afbe c932 3e3e 9d8e a7be
00000210: b8c7 9c3d 1722 3b3e c0fd 87be 2669 06be
00000220: 991e 37be 2fa8 e03d 738f 1fbe 5f0b 7a3e
00000230: 6546 92bd 0807 ab3c 589c 0ebd 0e06 913e
00000240: eb4d 63be 8d29 04be 8cf7 85be a26d 73be
00000250: ebed eabe a8fa 423e b373 7abc 507f 8cbe
00000260: 6ba3 4ebd 1612 6abe 4007 2abe fcbe 82be
00000270: af3a 17bd a6f2 6fbd 533d c2be e77c 46bd
00000280: 6ef4 3e3e a26c 2f3e 02d5 23be f638 ab3d
00000290: 42d4 78be 9ce2 81be da50 84be 2268 df3a
000002a0: 2836 dc3d e43b 40be 1f0c b03d 0f2d 623d
000002b0: b996 aa3d c65d 6fbe 9f5b 9fbe c06b 03be
000002c0: 6e56 4fbe bb5c 7c3d 2fed 9c3d e0ce f0bd
000002d0: 4787 0f3e 1d1e 6fbe 8fbf 053e 69aa 33be
000002e0: 7a44 afbd 9760 d73c 273b 1cbe 2806 3cbe
000002f0: bda9 9ebd a2aa b0bd ebf0 febd 2f7f b13d
00000300: 7355 67bc 6a54 63be e9f4 a6be a9af 283d
00000310: 3963 543d 5455 1cbe 92d2 3dbd 5958 3dbe
00000320: 24e0 b53d b17a 3dbe 9a0d 5ebe af49 363d
00000330: f13f 63bd 76c5 823d de8b 5dbe be22 c5bd
00000340: d165 85be 48a8 a6bd 8946 c03e d0a9 213d
00000350: 7e00 c1bd 75a3 bd3d fe40 1f3e d26e 9abe
00000360: efbf 6a3e fbd4 bfbe f608 063e 340e bf3d
00000370: 6882 21be d13b 68be 0ee1 35bc e3b7 113e
00000380: 60ca 55bc 6037 acbe c5ed 66bd 144c 9bbd
00000390: fa18 8c3c d365 25bf d5d2 9ebc 5e79 653e
000003a0: caca bbbd b1ce 56be ff42 9e3e cfa4 25be
000003b0: 6e7e afbe 498e 173d 4482 ee3d c640 aebc
000003c0: 8ba2 4cbe 11af e6bc a229 fabe 4b2c f1bd
000003d0: dfa8 01be a92e a93c 7861 f33d 310d e0bd
000003e0: 91ce 01bd 138b 6abe 0d01 37be 96ca 9dbc
000003f0: a2b5 0bbe 0faf 073b 588e e5be fa69 583e
-0.12345219 -0.17181854 -0.31298116 -0.24084021 -0.12554179 -0.103134744 -0.11845287 0.08784662
-0.20452611 -0.25326008 0.041842677 0.48180002 0.06806801 0.111190304 -0.0477168 -0.036344383
-0.21106982 -0.4297245 0.08195645 -0.041528895 -0.21515156 -0.19552927 -0.09584986 0.22934213
0.20945883 -0.11191291 -0.22400497 -0.23983204 0.04987265 0.06366563 0.034440536 0.00928261
0.042299848 -0.021045685 0.0931847 -0.084438235 -0.36845168 0.2747478 0.049356934 0.05569259
-0.103470236 0.16321434 -0.18044919 0.1980682 -0.21086779 -0.119579606 -0.18844976 -0.09013366
0.16344737 -0.03475352 0.090919934 -0.029297322 0.007474752 -0.055469424 0.03509612 0.030820794
-0.24491908 -0.024961317 -0.12021331 -0.079365075 -0.042205956 -0.03439412 0.20837934 0.10249621
0.02805789 -0.040793266 -0.052849457 0.029033888 -0.31882817 -0.16565692 -0.21990773 -0.053745516
-0.12951358 0.1683332 -0.04200026 -0.1416494 -0.30676115 0.1389457 0.056163795 -0.27307126
-0.066681884 0.003784384 -0.031505853 0.13059628 0.13844354 -0.14168578 -0.18182409 -0.10754859
-0.2636015 -0.21540263 -0.25973213 -0.29319677 -0.09361316 -0.19514547 -0.07802501 0.11494341
-0.40678483 -0.12554064 0.1699328 -0.29535383 -0.11288088 0.07845388 -0.029944817 0.10547014
-0.16177972 -0.21930856 0.103585325 0.113097794 -0.17505026 -0.2781912 -0.34699816 0.007980502
0.18901186 -0.33268702 -0.16267896 0.034899324 -0.025971167 -0.087621585 -0.4541588 0.20238076
-0.14769343 -0.16608045 0.0802081 -0.17024942 0.1806842 -0.17666742 -0.31439602 0.3331725
-0.1609399 -0.34332836 0.1857406 -0.32725993 0.07655281 0.18274723 -0.26560783 -0.13126048
-0.17882766 0.109695785 -0.15582065 0.244184 -0.07142333 0.020877376 -0.03481707 0.28324932
-0.22197692 -0.12906475 -0.26165426 -0.2377229 -0.45884642 0.1904093 -0.015286374 -0.27440882
-0.050448816 -0.22858462 -0.16604328 -0.25536335 -0.0369212 -0.058581017 -0.37937412 -0.04845896
0.1864793 0.17131284 -0.15999225 0.08360474 -0.2429972 -0.25368202 -0.25842935 0.0017044584
0.10752517 -0.18772846 0.08596062 0.055218752 0.08329529 -0.23375615 -0.3112459 -0.12834072
-0.20247814 0.061611872 0.07662427 -0.11758208 0.14016448 -0.23351331 0.13061355 -0.17545475
-0.08557983 0.026291175 -0.1525694 -0.18361723 -0.07747219 -0.086262956 -0.12448295 0.086668365
-0.014119494 -0.2220017 -0.32608727 0.041183148 0.05185244 -0.15266925 -0.046343394 -0.18490733
0.08880642 -0.18503834 -0.21684876 0.044503864 -0.0554809 0.06385319 -0.21635386 -0.09625767
-0.26054242 -0.08137566 0.37553814 0.039468586 -0.09423922 0.092596926 0.15552136 -0.30162674
0.2292478 -0.3746718 0.13089356 0.09328881 -0.15772402 -0.22679068 -0.0111010205 0.14230303
-0.013048738 -0.33635998 -0.0563791 -0.0758287 0.017101754 -0.64608496 -0.019387642 0.22409579
-0.09169538 -0.20977284 0.3091049 -0.1617615 -0.34276146 0.037000928 0.1164594 -0.02127112
-0.1998388 -0.02815965 -0.48859888 -0.11776026 -0.12662075 0.020652132 0.11883825 -0.10940016
-0.031691138 -0.22904615 -0.17871495 -0.01926164 -0.13643506 0.0020703708 -0.44835162 0.21134177

bias f4 [256]
00000000: 7cbe eebc 861b dc3d abae 12bc af6d f8ba
00000010: 0ac1 b03d 9602 353c 5226 6e3e bc9d 753e
00000020: b80e fc3c 6cf0 1abe 2fae d33d 058a 223d
00000030: 05fb 243e 33ff 81bd 2427 ba3c 93ae 923d
00000040: 525c 073e 0222 a13d 63e0 ef3d 6c61 133e
00000050: fa29 3a3e 05dd 003e d6ac d13d 97db 0d3c
00000060: e8e0 583d b647 c2bc 88b1 a33d 5f3a 743d
00000070: cd65 123c 9b04 903d 1be0 063e d8dc a63b
00000080: 6b1c f1bb e58b 1cbd 4c52 1c3e fe14 203e
00000090: 1501 92bd bcf8 52be 33e4 903d 0630 2fbd
000000a0: 05c7 9e3d 9b79 c53d 2c9c 313e 183e 00bf
000000b0: 7bc5 973d 3574 08be 6ce5 633d c658 dc3c
000000c0: 549b 47be bb69 3b3e 1eab 3d3e 3e3f cf3a
000000d0: 39fc 663d 06b5 59bd 2613 973d 0e0b 843d
000000e0: dc7f 20bd 580c 203e 1f36 493d 37a6 413e
000000f0: 24da 5b3d 271d 7a3e 6064 053e 3888 a4bd
00000100: 4f9d 313d f3a5 103e f8eb 733d ccce 28be
00000110: 2c56 8c3d 363c 163e 82ce f7ba 3dfd 453e
00000120: 0f61 9c3b a0e6 2c3e 108f 9c3d da08 2c3e
00000130: e0ec 553e 35ee 183e 960d 443d dcf3 a93d
00000140: de26 15bc 9857 e93d b85e c83d f907 eb3d
00000150: 2086 2a3e 67f9 af3e 172f 063d 3314 dabd
00000160: bc96 90bd 7369 133e 67da c9bc e3f5 0cbd
00000170: a745 3b3e 7f55 203e 5502 fbbc 0f1f 313e
00000180: 4ccd a9bc 1bd9 0d3e d4bf cd3c 8be9 993c
00000190: c3b4 cf3d be17 79bd a88c 98bc 872c dc3d
000001a0: c46f f5bb d531 103d 3e12 903d df47 5a3d
000001b0: 6475 dc3d 534f cabd df5d fc3d 67b8 b2bd
000001c0: e54f df3d b49f ce3c 2404 9bbc 8a52 213d
000001d0: d215 303e 9bb6 083e d49f 923e 85e8 803d
000001e0: cc5a ea3c 9f59 683b 8e04 6b3e f2da 2d3e
000001f0: 9df1 943e 141d 36be fe70 cc3e 6078 8c3d
00000200: 72de 9cbb d5ac 003e d5ae 3d3e 8148 cf3a
00000210: d3e4 793e 4e06 2b3e efd7 a53d 5fdc b43d
00000220: b735 f1bc f434 e43d 45ba 463e 4ee8 bfbd
00000230: c37b ea3d 4881 923d 4b68 a63d 488a 903d
00000240: 6c63 c7bb 7a7c 0d3e 70d0 833d 6e67 06bd
00000250: 356d 503d 5dfd ae3d ef0a 143e 4888 f83d
00000260: 1dd7 6a3d 9954 80bd 2f43 a53c 8ac6 0d3e
00000270: 1978 1e3e aae8 453e 0ca7 52bd 6f26 133e
00000280: 48c8 713d b577 903d 0b33 9d3d c70f 34bd
00000290: c1c2 a03d cec5 983c b17d 99bc 7d55 92bc
000002a0: 647e 513e 075d cd3d 7c25 2b3e 3300 7f3e
000002b0: 8a0e 893e 7549 ac3d 82dd b6bd bc6f 553e
000002c0: 1aa9 133c bb44 13bd d1e1 cf3d 6336 133e
000002d0: f950 253e 3808 48bd 2f9c 843d bb6d dc3d
000002e0: 20c9 cc3d 7268 403e 3c4a a43d a560 253e
000002f0: 4063 323d 51c1 8abc 798f e73c 8093 1e3e
00000300: e738 903d ed0d d53e 41d4 8f3e 594c 883d
00000310: 7e26 9c3d 1017 7f3d 60f6 f63d 24a5 843d
00000320: 37c1 2e3e dca5 093d 2ce0 903d d3f3 133d
00000330: 8055 4d3e 7af4 7c3d c90c 843d f6a4 803e
00000340: 7976 cbbd 4878 20be 4857 123e 602a 11bc
00000350: 119e 103e 0952 183c eaf8 df3d 609b f33b
00000360: 9b50 92bd 383f abbd 92b0 943e 3b31 063e
00000370: 588b 1e3c b2f5 5e3e fc66 933c 3af9 933a
00000380: e2f8 d6bd 28c7 fabd aa41 073e a347 00bb
00000390: 4432 973e 0901 11be eb7d 3c3e bc1f 96bd
000003a0: 8bc7 ddbc 0e4a ebbc 4f16 a83e f615 4c3d
000003b0: 6074 bd3e 305c 7f3d c6ff fb3b 5b5b f23d
000003c0: 2a6e 3c3c f465 df3d 4f3e f3bd 3722 373e
000003d0: ad60 3d3e 698e 573c 77bd 373d 2b7f 133e
000003e0: fcdd 0a3d 7e26 25bd 6821 c73d 59ff ba3e
000003f0: f530 2fbe 908e f83d e6c0 cc3d f5ab 50ba
-0.029143564 0.10747437 -0.008952777 -0.0018953587 0.08630569 0.01104798 0.23256806 0.23985952
0.030768737 -0.15130776 0.10335957 0.039682407 0.16111381 -0.063475035 0.022723742 0.07162204
0.13218811 0.078678146 0.1171272 0.14392632 0.18180075 0.12584312 0.10238044 0.008658311
0.052948862 -0.023715835 0.07992846 0.05962598 0.008935404 0.070321284 0.13171427 0.0050922446
-0.007358124 -0.03821935 0.15265769 0.15633008 -0.07129113 -0.20602697 0.070747755 -0.042770408
0.07752804 0.09642335 0.17344731 -0.5009475 0.07410713 -0.1332558 0.055638716 0.0268978
-0.19492847 0.18302052 0.18522307 0.0015811694 0.056392882 -0.053151153 0.07376699 0.06447421
-0.039184436 0.15629709 0.04912388 0.18911062 0.053674832 0.24425183 0.13026571 -0.08033794
0.04336291 0.14125805 0.05955121 -0.16485137 0.068523735 0.14671406 -0.0018906149 0.19334884
0.0047723125 0.16884851 0.076444745 0.16800252 0.20891142 0.14934619 0.04786452 0.082984656
-0.009103505 0.1139366 0.09783691 0.1147613 0.16652727 0.34369966 0.032759752 -0.10648384
-0.0706 0.14395694 -0.024640275 -0.034414183 0.18288289 0.15657614 -0.03064076 0.17297004
-0.020727776 0.1385235 0.025115885 0.01878812 0.101418994 -0.060813658 -0.018621758 0.107506804
-0.00749013 0.035203774 0.070347294 0.053291198 0.10764578 -0.09878411 0.12322592 -0.08726578
0.109039105 0.025222637 -0.018922873 0.039385356 0.17195824 0.13350908 0.28637564 0.062943496
0.028607748 0.003545381 0.22950956 0.16978052 0.29090586 -0.1778453 0.39929956 0.06858897
-0.0047872597 0.1256593 0.18523724 0.0015814455 0.24403696 0.16701624 0.08097827 0.08831095
-0.029444559 0.111429125 0.19406994 -0.093704805 0.11449387 0.07153565 0.08125361 0.07057625
-0.00608485 0.13817015 0.06436241 -0.032813482 0.050885398 0.08544419 0.14457296 0.121353686
0.057334054 -0.06266136 0.020173637 0.13845268 0.15475501 0.19327036 -0.05142884 0.1437013
0.059028894 0.07054082 0.07675751 -0.04396036 0.07849646 0.018649008 -0.018736692 -0.01786303
0.2045837 0.10027509 0.16713518 0.2490242 0.26768905 0.08412448 -0.08928968 0.20843405
0.009012485 -0.03595422 0.10150493 0.14376216 0.1614417 -0.048835963 0.06475102 0.10763117
0.09999299 0.18789843 0.080219716 0.16150148 0.043551683 -0.016937884 0.028266655 0.15485954
0.07042103 0.41612187 0.28091624 0.06655187 0.07624529 0.062277853 0.12058711 0.064768106
0.17065893 0.03360544 0.070740074 0.0361212 0.20052147 0.06175659 0.06447751 0.25125855
-0.09934706 -0.15670884 0.14291108 -0.008860201 0.14122798 0.009296902 0.109361485 0.0074342936
-0.071442805 -0.083616674 0.29040962 0.13104717 0.009676777 0.21773413 0.017993443 0.0011289485
-0.104966894 -0.12245017 0.13208643 -0.0019573949 0.29530537 -0.14160551 0.18407409 -0.073302716
-0.027072689 -0.028721835 0.3282952 0.04982563 0.3700285 0.062343776 0.0076904027 0.11833831
0.0115008745 0.10908118 -0.11877119 0.17884146 0.1849391 0.013156512 0.044858422 0.1440398
0.033903107 -0.040319912 0.097231686 0.3652294 -0.1710852 0.12136567 0.0999773 -0.0007960194

weight f4 [10, 256]
00000000: 10dd b13e d3df 193e fdef 7d3c 5b27 3e3e
00000010: d24d c93d 09fc 08be a543 053c 639c d83d
00000020: 5f01 263e 9ffa f63d 1320 9a3d 64e7 9e3d
00000030: 762e 9dbd dff6 c9bb 7ba2 113e 6311 6cbe
00000040: e6fc 48be dc6c 4d3d 04ef 053d 45ab a63c
00000050: 11fe f93d 413d 8d3d fb54 863d 7b52 d6bb
00000060: f942 e83e 04bc 463e 2019 33be 3970 923e
00000070: 7afe 2d3e 9e9e 0cbd 9d92 fbbd 747f 90be
00000080: c78b 743d 614d 503d 3775 693c 5608 983c
00000090: 46f3 3ebe 6e5a 933d bdb9 41be c770 dabd
000000a0: d940 7ebe d097 d6bd cb81 1abe 791f 2d3c
000000b0: 0d28 27bc c006 963e 6c22 93be bfcb 7c3b
000000c0: 1eae ddbe fb7c 3dbd 46b4 d9bd 1dd3 86bc
000000d0: b1d6 343d 19ba 203e 76ef 943c 7098 82ba
000000e0: fad2 303e bc07 723e 827c 94be cddb a73e
000000f0: 4538 a5be a36b 3abd b5d4 26be 0d10 00bd
00000100: 3c0d 113e 2545 86be 4b98 a5bc 56ff 50bc
00000110: d44c e0bb eda7 a7bd f365 a3bb 57aa ccbd
00000120: 4b3c 06be cb58 563c 615e 08be f214 a53e
00000130: c3c5 4c3c ea33 343d b61a 753e b28a 7e3c
00000140: ca26 06be a194 5a3e 7758 743d c3a7 2a3e
00000150: ed68 6bbd 2f31 103b f1c5 c13a 52fe 54be
00000160: c58d 9e3c a4dd 0a3e 088d 0c3f e486 bfbe
00000170: a98e b93e 42c5 f7bd 8970 c33e 8f18 913d
00000180: fb27 a73d 3197 4b3e ed4d 683d 0abe bf3d
00000190: cc63 6d3b 83b6 a6bd 6d27 bcbb 5fb8 5c3e
000001a0: 150b dcbc d0e7 273d bbd4 2b3d 7d74 6f3e
000001b0: 65f6 2fbd 7c4b 933d d5c1 d3bd aa19 96be
000001c0: abca c7bd b327 d1bd 06dc f2bc bd20 d63e
000001d0: 81a4 85be e3a5 723e 8a42 9abd 11e2 02bd
000001e0: 169e adbd 6cbe edbd 3043 823e db28 83bd
000001f0: 4d64 bf3c 3640 99be ea3c 2fbd 5842 ba39
00000200: 0ff8 043c eba9 a63d 8dee ebbe 15ef 04bd
00000210: 818e c73c 15e4 41bc 384a e03d e4f7 2e3d
00000220: 1413 1f3e 3e31 66bb c409 033f d784 14bb
00000230: 9c5e d43d 291a 8f3e a90a 803d 7378 133c
00000240: 00a6 ad3e c092 913e e256 3dbd 42f0 d33b
00000250: 5de1 213e bf55 e7bc dd1b 933e 9b4a 4f3d
00000260: 6914 963e 9ac0 60be 7dc5 73be 05f7 863b
00000270: 2af7 283e 5f1e fd3b 0acd 9fbe aa1b 70bd
00000280: 3cbb 843d f048 383c 5326 013e 8cd0 67bd
00000290: 301a a43d 1119 913d cb2b d43d 4f01 c0bc
000002a0: bed2 78bd 1c7f 3ebe 5a0d 82bd a324 503d
000002b0: 1ac5 173d bd66 083d 07bc 8e3d 20e6 163f
000002c0: 3101 c5bb b3e0 a3bd 55fa e03d dc2a b9be
000002d0: 4aae 893c 4e22 bdbd c57b 433e 36a3 a63d
000002e0: a821 78bd e873 07bd 01a0 edba 913d 5e3c
000002f0: 43c6 88bd 55dc 42bd 803a 78bc ec16 e63d
00000300: 945d e83e f688 b4bc e815 6bbe d62f 02bf
00000310: e83b 99be d16c e8be 4ceb 9ebd 9790 c13e
00000320: 2deb d43b a463 56bb 2d75 2abd 45e5 c93c
00000330: b6ac 91bd bf64 87bd 91bc bdbd d76f 3b3d
00000340: cba0 093e 5596 c7bd 37bc c2bd bff0 b63b
00000350: b6e7 283e 8c62 47be 3df2 163e 4b60 103e
00000360: e6ff 54be 62f0 48bc 4452 0abe f6cb 1d3e
00000370: bddc 0b3e d279 51bd dd28 f4bc 8f03 d4bc
00000380: dad6 1bbe dfa1 83bc 2c06 07bd 39c9 c33b
00000390: 001c a03c 0aa2 653d 4985 a5be 2fa4 ea3d
000003a0: 09e4 9cbe 8777 893e 6ef7 083d 2c10 873c
000003b0: 487f 283c 87d5 94bd cb3c 1c3e 9f61 8d3e
000003c0: 527d 2d3e 14d6 5e3e 988d 65be caf0 f33c
000003d0: 1682 efbd 7adb 41bd 43bb 82bd ce70 b8bd
000003e0: 7bc5 583d 5529 583d a5b4 3ebe 29e9 03bd
000003f0: 085a 48bd a9b2 493d bf09 ef3d d40b 40bd
0.3473897 0.15026788 0.015499112 0.185697 0.09829296 -0.13377394 0.0081338035 0.105767034
0.1621146 0.12059521 0.07525649 0.07758978 -0.07674877 -0.0061634625 0.14222138 -0.23053508
-0.19627723 0.050152645 0.032698646 0.02034534 0.122066624 0.06896449 0.065591775 -0.006540594
0.45363596 0.1940766 -0.17490053 0.28601244 0.16991606 -0.034330957 -0.12283824 -0.2822224
0.059703615 0.050855044 0.014249138 0.018558662 -0.18647489 0.071949825 -0.1891851 -0.10666042
-0.24829425 -0.10478175 -0.15088575 0.010566586 -0.01020242 0.29302025 -0.287372 0.003857359
-0.43296903 -0.04626177 -0.106300876 -0.016458089 0.04415006 0.1569599 0.01818059 -0.0009963643
0.17267981 0.23635763 -0.29001242 0.32784882 -0.32269493 -0.045512807 -0.16292079 -0.031265307
0.14165205 -0.26224628 -0.02021422 -0.012756189 -0.006845096 -0.08186326 -0.0049865185 -0.09993427
-0.13108937 0.013082693 -0.13317253 0.32242543 0.012498322 0.04399482 0.2393597 0.015535997
-0.13100734 0.2134576 0.05965468 0.16665559 -0.057473112 0.0022001972 0.0014783723 -0.2080014
0.01935471 0.13561112 0.54902697 -0.374076 0.36241654 -0.12098171 0.38171795 0.07084762
0.081619225 0.19881894 0.05671494 0.09362419 0.0036222814 -0.0814028 -0.0057420046 0.21554707
-0.026860753 0.040992558 0.041950922 0.2338428 -0.04295959 0.07192132 -0.10339705 -0.29316455
-0.09755453 -0.1021265 -0.029645931 0.41821852 -0.2610207 0.23696093 -0.075322226 -0.031953875
-0.08477418 -0.11608586 0.25441885 -0.06404277 0.023363257 -0.29931802 -0.0427827 0.00035526115
0.008115782 0.08137878 -0.46080437 -0.03245457 0.024359943 -0.011834164 0.10951656 0.042716876
0.15534621 -0.0035124565 0.51186776 -0.0022662187 0.10369608 0.27949646 0.06252033 0.009000885
0.3391571 0.28432274 -0.046225436 0.00646785 0.15808626 -0.02823913 0.28732195 0.05060826
0.29312447 -0.21948472 -0.23805805 0.0041188025 0.16500536 0.007724568 -0.3121112 -0.058620133
0.064810246 0.011247858 0.12612276 -0.05659537 0.08012807 0.07084859 0.10359915 -0.023438124
-0.060747854 -0.18603176 -0.06350203 0.05081619 0.037053205 0.033301104 0.06969457 0.5894489
-0.006012105 -0.08001842 0.10985247 -0.36165512 0.01680674 -0.09235059 0.19090183 0.08136599
-0.060578972 -0.03306952 -0.001812935 0.013564483 -0.066784404 -0.047573406 -0.015150666 0.11234841
0.45383894 -0.022037964 -0.22957575 -0.5085424 -0.29928517 -0.4539552 -0.07759723 0.37805626
0.0064977617 -0.00327132 -0.041615654 0.024645457 -0.0711302 -0.06611013 -0.09264482 0.045760956
0.13440244 -0.097454704 -0.095085554 0.0055828984 0.1649464 -0.19471186 0.14740844 0.14099233
-0.20800743 -0.012264343 -0.13507944 0.15409836 0.13658424 -0.051141568 -0.029804641 -0.025880603
-0.15218678 -0.016068397 -0.03296487 0.0059749153 0.019544601 0.056062736 -0.3232825 0.11457097
-0.30642727 0.26849005 0.033439092 0.016487204 0.010284252 -0.072672896 0.15257566 0.2761354
0.16942337 0.21761352 -0.22417295 0.029777903 -0.11694734 -0.04732845 -0.063833736 -0.09005891
0.052922707 0.052773792 -0.18623598 -0.03220478 -0.048913985 0.04924265 0.11671781 -0.04688628

bias f4 [10]
00000000: 63c5 b73c eb31 2bbd fd32 e0bd 8abb a03d
00000010: c28d 02bc 0ab1 213d 6f54 183c 9750 0ebe
00000020: 7cbb 273d 06f4 873c
0.022432989 -0.041795652 -0.10947225 0.0784827 -0.007968368 0.03947548 0.009297474 -0.1389793
0.040950283 0.016595852

stds f4 [10]
00000000: 1d5a 643e 1d5a 643e 1d5a 643e 1d5a 643e
00000010: 1d5a 643e 1d5a 643e 1d5a 643e 1d5a 643e
00000020: 1d5a 643e 1d5a 643e
0.223 0.223 0.223 0.223 0.223 0.223 0.223 0.223
0.223 0.223

obs_std f4 [35]
00000000: cdcc 4c3e cdcc 4c3e 0000 803f 0000 803f
00000010: 0000 803f 0000 003f 0000 003f 0000 003f
00000020: 0000 003f 0000 003f 0000 003f 0000 003f
00000030: 0000 003f 0000 003f 0000 003f 0000 8040
00000040: 0000 8040 0000 8040 0000 8040 0000 8040
00000050: 0000 8040 0000 8040 0000 8040 0000 8040
00000060: 0000 8040 0000 803f 0000 803f 0000 803f
00000070: 0000 803f 0000 803f 0000 803f 0000 803f
00000080: 0000 803f 0000 803f 0000 803f
0.2 0.2 1.0 1.0 1.0 0.5 0.5 0.5
0.5 0.5 0.5 0.5 0.5 0.5 0.5 4.0
4.0 4.0 4.0 4.0 4.0 4.0 4.0 4.0
4.0 1.0 1.0 1.0 1.0 1.0 1.0 1.0
1.0 1.0 1.0

obs_mean f4 [35]
00000000: 0000 0000 0000 0000 0000 0000 0000 0000
00000010: 0000 0000 0000 0000 0000 0000 cdcc 4cbe
00000020: 9a99 193f cdcc ccbe 0000 0000 0000 0000
00000030: cdcc 4cbe 9a99 193f cdcc ccbe 0000 0000
00000040: 0000 0000 0000 0000 0000 0000 0000 0000
00000050: 0000 0000 0000 0000 0000 0000 0000 0000
00000060: 0000 0000 0000 003f 0000 003f 0000 0000
00000070: 0000 0000 0000 0000 0000 0000 0000 0000
00000080: 0000 0000 0000 0000 0000 0000
0.0 0.0 0.0 0.0 0.0 0.0 0.0 -0.2
0.6 -0.4 0.0 0.0 -0.2 0.6 -0.4 0.0
0.0 0.0 0.0 0.0 0.0 0.0 0.0 0.0
0.0 0.5 0.5 0.0 0.0 0.0 0.0 0.0
0.0 0.0 0.0
