trained/h1_step/actor_13299.pt (torch, 315889 bytes, 9 tensors)

weight f4 [256, 35]
-0.68382835 -0.2164549 -0.38756388 0.30964416 -0.06786537 0.24957573 -0.45142874 0.10417223
-0.012665181 0.124772996 0.017004903 0.19391242 -0.02541184 -0.32102874 0.058577742 0.08409186
-0.30969185 -0.32397375 0.03350148 -0.052786395 -0.13319707 -0.04967275 -0.23333506 -0.13883181
0.35750088 -0.024400089 0.0028907266 0.2714704 -0.13719869 -0.042588074 -0.13495125 -0.23118474
0.08480467 0.08313979 -0.06548833 0.16571072 -0.088276364 0.114965945 -0.24370207 0.03142669
-0.36917847 0.22463049 -0.05778153 -0.07542324 0.2573261 -0.13777615 0.009903381 0.20932333
-0.048642866 0.3884296 0.07571072 -0.45060122 0.050396025 -0.28423014 0.7088216 -0.24772727
-0.5175837 0.23701161 -0.27559888 0.2344106 0.02995824 -0.05759871 0.26964343 -0.29456905
-0.14854868 0.012621017 -0.255463 0.0025875834 -0.39140922 -0.3509298 0.29342523 0.20338593
0.2277682 -0.008672535 -0.026967658 0.0869875 -0.011326162 0.33338413 -0.24701121 -0.055972215
-0.16920489 0.41030058 0.13652246 -0.29945508 0.10111731 -0.09231241 0.18926567 -0.0386965
0.41284063 -0.31387445 0.22197542 -0.28968757 0.22289419 0.069505766 -0.021190709 0.1499352
0.11349639 0.11905764 0.30939713 -0.236012 0.1293748 0.359486 0.30624306 -0.049132228
0.0766456 -0.23255357 0.20077081 -0.2483896 0.13903964 0.22734886 0.099524684 -0.29254842
0.5311725 0.09410442 -0.089886546 0.21469113 -0.15689544 0.77497506 0.020096922 -0.06337313
-0.10284742 -0.009586052 -0.09075393 0.78359723 -0.07148862 -0.06603038 0.09985374 0.16925278
0.023283217 -0.102023095 0.07290845 -0.21792896 0.07934889 0.08483146 -0.04109592 0.08932199
0.2653155 -0.22002926 -0.0637017 -0.004759502 -0.1777838 0.15585175 -0.19152072 -0.34086123
-0.13284507 -0.28461552 -0.058746967 0.01572062 0.04369047 0.19896783 0.28448763 -0.0975657
0.4659512 -0.28055823 -0.11652671 0.36513323 -0.047125686 0.31783244 0.23531884 0.01222833
-0.02465721 -0.26092812 -0.0022156301 0.028542789 -0.44616762 -0.024354503 -0.38285598 0.025143653
-0.52554435 -0.27575144 -0.4818453 0.20829207 -0.12834014 0.04151501 -0.115690485 0.05507425
0.13585098 -0.22477071 -0.025936868 0.2570697 0.27195185 0.4132705 0.37617335 -0.21156687
0.12717979 -0.47472274 -0.28295672 0.1780957 -0.17811534 0.25811157 0.26913744 0.24157237
0.01963083 -0.31200522 0.1000869 -0.4002983 0.5277872 0.14769179 0.09080094 -0.036416758
-0.3731637 0.11556354 0.20344882 0.09006773 0.018204287 -0.1506563 -0.19929582 0.38947758
-0.016660068 0.3797866 -0.120602235 0.07712624 0.23446351 -0.08514691 0.014341896 0.18331392
0.39768502 -0.35299757 -0.17614654 -0.055370998 -0.43156508 -0.46550423 -0.1655332 -0.0154419895
-0.15731938 0.47178498 0.31865248 -0.08618123 -0.14759387 -0.2906857 0.09660773 0.08354447
0.094888546 0.15341206 -0.13212644 0.12802593 0.1984634 -0.0053455816 -0.27806434 0.47499117
0.3427169 0.03437573 0.1806814 0.10780738 0.4083069 0.014073334 -0.19609833 -0.66075885
0.13394047 0.002504155 -0.1965725 0.03623422 0.028091522 0.006463902 -0.08062376 0.2745409
00000000: 600f 2fbf 5aa6 5dbe c66e c6be ae89 9e3e
00000010: 00fd 8abd c890 7f3e ab21 e7be 4058 d53d
00000020: 9f81 4fbc fc88 ff3d de4d 8b3c fa90 463e
00000030: 7e2c d0bc e15d a4be 37ef 6f3d 5a38 ac3d
00000040: ee8f 9ebe e3df a5be d938 093d 8c36 58bd
00000050: d064 08be a775 4bbd 63ef 6ebe ed29 0ebe
00000060: 5b0a b73e b2e2 c7bc 5872 3d3b 2bfe 8a3e
00000070: d07d 0cbe d570 2ebd a930 0abe b1bb 6cbe
00000080: 12ae ad3d 3245 aa3d bf1e 86bd 12b0 293e
00000090: 3dca b4bd 4473 eb3d 098d 79be 46b9 003d
000000a0: f604 bdbe 8905 663e 53ac 6cbd 8077 9abd
000000b0: 3fc0 833e 3115 0dbe ca41 223c db58 563e
000000c0: be3d 47bd 3fe0 c63e 390e 9b3d 34b5 e6be
000000d0: 106c 4e3d 9d86 91be 5575 353f 38ac 7dbe
000000e0: 5e80 04bf 2cb3 723e 4c1b 8dbe 5509 703e
000000f0: fc6a f53c a0ec 6bbd b40e 8a3e c1d1 96be
00000100: 251d 18be 62c8 4e3c 0ccc 82be 7294 293b
00000110: ca66 c8be 12ad b3be d53b 963e 6744 503e
00000120: 113c 693e 4017 0ebc 47eb dcbc 8126 b23d
00000130: 5e91 39bc 53b1 aa3e 82f0 7cbe 1f43 65bd
00000140: 0c44 2dbe eb12 d23e 8bcc 0b3e 2d52 99be
00000150: 9816 cf3d 4a0e bdbd dcce 413e 3980 1ebd
00000160: d95f d33e 27b4 a0be 864d 633e ee51 94be
00000170: 603e 643e 0a59 8e3d 2398 adbc 9d88 193e
00000180: cc70 e83d 7ed4 f33d 4d69 9e3e 21ad 71be
00000190: d47a 043e 8d0e b83e e4cb 9c3e e03e 49bd
000001a0: 5ef8 9c3d 8622 6ebe dd96 4d3e d859 7ebe
000001b0: 6860 0e3e 24ce 683e 99d3 cb3d e8c8 95be
000001c0: ecfa 073f d1b9 c03d 7016 b8bd fed7 5b3e
000001d0: 33a9 20be c464 463f 4da2 a43c c6c9 81bd
000001e0: aba1 d2bd d10e 1dbc 32dd b9bd d499 483f
000001f0: a068 92bd f03a 87bd 1e80 cc3d 9a50 2d3e
00000200: 72bc be3c 7cf1 d0bd 0751 953d c528 5fbe
00000210: ac81 a23d 1ebc ad3d 3254 28bd 73ee b63d
00000220: 6fd7 873e 5a4f 61be 0976 82bd 99f5 9bbb
00000230: f50c 36be 9a97 1f3e 021e 44be 5d85 aebe
00000240: 8a08 08be 20b9 91be a9a0 70bd 88c8 803c
00000250: c7f4 323d 39be 4b3e 5da8 913e 87d0 c7bd
00000260: 2891 ee3e 54a5 8fbe 8ea5 eebd bef2 ba3e
00000270: dd06 41bd efba a23e 6cf7 703e 5559 483c
00000280: ebfd c9bc 5f98 85be 1b34 11bb 91d2 e93c
00000290: 1570 e4be 1883 c7bc b305 c4be 10fa cd3c
000002a0: 138a 06bf 4b2f 8dbe 6db4 f6be 844a 553e
000002b0: 996b 03be a50b 2a3d 22ef ecbd 8995 613d
000002c0: 851c 0b3e 4b2a 66be 8e79 d4bc a49e 833e
000002d0: 463d 8b3e 3198 d33e cb99 c03e fca4 58be
000002e0: 6b3b 023e dc0e f3be b4df 90be b85e 363e
000002f0: de63 36be 3327 843e 62cc 893e bf5e 773e
00000300: d6d0 a03c 26bf 9fbe 5cfa cc3d e6f3 ccbe
00000310: 101d 073f 843c 173e d8f5 b93d bd29 15bd
00000320: 500f bfbe 94ac ec3d e354 503e 6e75 b83d
00000330: 2821 953c a545 1abe 3414 4cbe 9b69 c73e
00000340: b27a 88bc 6473 c23e 4efe f6bd 5df4 9d3d
00000350: 3417 703e 8161 aebd 46fa 6a3c a5b6 3b3e
00000360: 5f9d cb3e 19bc b4be c25f 34be b3cc 62bd
00000370: 19f6 dcbe 9256 eebe 8981 29be 6600 7dbc
00000380: 5518 21be cd8d f13e 6b26 a33e c97f b0bd
00000390: d922 17be c2d4 94be 46da c53d 5d19 ab3d
000003a0: ed54 c23d 0d18 1d3e 274c 07be 3b19 033e
000003b0: fd39 4b3e fd29 afbb 735e 8ebe 0b32 f33e
000003c0: 9778 af3e 91cd 0c3d 8b04 393e 1eca dc3d
000003d0: 9a0d d13e d793 663c 00ce 48be 7e27 29bf
000003e0: b127 093e c01c 243b 4d4a 49be 556a 143d
000003f0: 3120 e63c 24cf d33b 121e a5bd a090 8c3e

bias f4 [256]
-0.07368523 0.12457202 -0.28270492 -0.110760115 -0.029962815 -0.018592158 -0.18109618 -0.009930942
-0.07901302 -0.22672375 -0.17186682 -0.022342805 -0.0544702 -0.04475962 -0.102128066 0.034797054
0.019722013 -0.1356337 0.038116097 0.007400266 0.06735795 0.20931381 0.04953488 -0.1297058
0.041429684 -0.15337995 0.024113331 -0.206111 -0.2761856 -0.27985936 -0.038556274 -0.009485379
-0.07320396 -0.03637423 -0.08209933 0.13623303 -0.02786265 -0.0015054061 -0.2706053 -0.1434424
-0.1125368 0.0074641877 0.10622343 0.080605134 -0.1270917 -0.050069798 -0.050367877 -0.0033815387
-0.1511696 -0.07950989 -0.15004429 -0.094574496 0.042230938 0.03610761 0.09747877 -0.0835351
-0.016802637 -0.10142974 0.20602942 -0.09263502 -0.105644576 0.08007553 -0.22937751 -0.1520143
0.047578987 -0.042059828 0.047166802 -0.07668257 -0.12696305 0.068998136 0.0037317341 0.036400896
-0.15344712 -0.077869564 -0.0008160228 0.10260353 0.048274126 -0.29406726 -0.05028875 0.17305522
-0.24585266 0.03995824 -0.1265235 -0.0745184 -0.077242106 -0.012234714 -0.25016406 -0.039352726
0.04515995 -0.16801246 -0.21786198 0.18105656 -0.03452572 0.06354244 0.03063538 0.050913017
-0.07728984 0.0018673828 -0.18124449 0.009841515 0.06518512 0.10445255 -0.123696946 0.018139467
0.037922226 -0.10032441 -0.034922972 -0.15613818 0.0084315855 -0.05751631 -0.049070075 -0.12381468
0.007052558 -0.08020745 -0.16212113 -0.10789767 0.038200192 -0.078101635 -0.018078892 -0.2663285
-0.068561204 0.05891629 0.06160322 0.078124985 0.093517266 -0.1131604 -0.011325881 -0.1049443
-0.11809438 0.0036192199 -0.26913634 0.0015265013 0.054744948 -0.013190249 -0.12140281 0.021599274
-0.041378237 -0.09583253 -0.06858609 -0.0479727 -0.3513409 0.04566462 -0.19433033 0.042551592
-0.010176958 0.04123543 -0.1551067 0.048040446 -0.020789694 0.03854137 0.16152968 -0.21162581
-0.34964794 0.040420897 0.10067285 -0.13382833 -0.025206948 0.015902681 -0.12497674 -0.0036438373
-0.095147535 0.030252183 -0.15730856 0.008295475 -0.10158789 -0.06352778 -0.07718801 -0.29044393
0.039498515 0.114707395 -0.11141823 -0.05107844 -0.06398419 -0.23603265 -0.092742935 -0.054136813
0.09237298 -0.023146434 -0.037729133 0.093840286 0.0639999 -0.1211584 0.030535532 -0.07591945
0.12492914 -0.027073236 0.08649871 -0.047467716 -0.12052047 0.018738626 -0.18110831 -0.1079463
0.036224846 -0.030852169 -0.22609074 0.017591713 0.010723489 -0.07450347 -0.10462674 -0.039903216
-0.015389632 -0.053652357 -0.17912185 0.019552583 -0.14704941 -0.04224616 0.017706234 -0.027893245
-0.05316698 0.041466214 -0.05178981 -0.13669279 0.042734 -0.09166784 0.020903446 0.014904545
0.029920898 -0.054482933 -0.15624464 0.02008394 -0.051921632 -0.010423307 -0.11088916 -0.09384483
-0.0164445 -0.056208596 0.005882289 -0.083654314 -0.15535203 0.002578223 0.0008772372 -0.12045624
-0.25378686 0.025663003 0.015056806 0.17425154 -0.10975841 -0.1012777 0.00027779036 -0.03170307
-0.05602493 0.03352647 -0.0043986943 0.041819423 -0.08351845 0.011992011 -0.08195166 0.19184192
-0.13978991 -0.11112652 -0.20690586 0.14388578 -0.15510294 0.06514766 -0.015241563 -0.16703111
00000000: 48e8 96bd 9d1f ff3d b3be 90be 33d6 e2bd
00000010: 9474 f5bc 954e 98bc 4771 39be 64b5 22bc
00000020: 94d1 a1bd 452a 68be dbfd 2fbe 4208 b7bc
00000030: 251c 5fbd dd55 37bd 8528 d1bd 5b87 0e3d
00000040: 0f90 a13c 90e3 0abe a01f 1c3d ee7d f23b
00000050: f7f2 893d 5c56 563e 16e5 4a3d 99d1 04be
00000060: 2cb2 293d a20f 1dbe 5289 c53c c30e 53be
00000070: 3368 8dbe ba49 8fbe 2fed 1dbd 9068 1bbc
00000080: f5eb 95bd 25fd 14bd b223 a8bd ac80 0b3e
00000090: 3640 e4bc 0c51 c5ba c78c 8abe 91e2 12be
000000a0: b279 e6bd 2596 f43b ab8b d93d 4e14 a53d
000000b0: 5424 02be fd15 4dbd 8c4e 4ebd ce9c 5dbb
000000c0: 34cc 1abe 15d6 a2bd 36a5 19be 46b0 c1bd
000000d0: 59fa 2c3d 93e5 133d f3a2 c73d 7314 abbd
000000e0: afa5 89bc 65ba cfbd 60f9 523e 6eb7 bdbd
000000f0: 2f5c d8bd a4fe a33d f0e1 6abe a3a9 1bbe
00000100: 2fe2 423d ed46 2cbd fa31 413d c00b 9dbd
00000110: 9a02 02be e54e 8d3d 1c90 743b 1b19 153d
00000120: 3e21 1dbe 147a 9fbd 5dea 55ba cd21 d23d
00000130: 17bb 453d fc8f 96be 94fb 4dbd 6335 313e
00000140: cdc0 7bbe 40ab 233d 608f 01be 1a9d 98bd
00000150: 1c31 9ebd 1c74 48bc 8115 80be 5330 21bd
00000160: a4f9 383d 750b 2cbe 3617 5fbe e466 393e
00000170: d76a 0dbd 8a22 823d 0cf7 fa3c 2b8a 503d
00000180: 234a 9ebd f8c2 f43a 2898 39be 4e3e 213c
00000190: c77f 853d 38eb d53d d354 fdbd 3899 943c
000001a0: 5654 1b3d e276 cdbd 640b 0fbd b0e2 1fbe
000001b0: a224 0a3c 3996 6bbd b4fd 48bd 8d92 fdbd
000001c0: 2519 e73b ce43 a4bd 1503 26be 74f9 dcbd
000001d0: ce77 1c3d c0f3 9fbd 2f1a 94bc 365c 88be
000001e0: d169 8cbd 3552 713d a853 7c3d feff 9f3d
000001f0: fb85 bf3d a4c0 e7bd 3090 39bc 0aed d6bd
00000200: 77db f1bd 6f30 6d3b 3dcc 89be e214 c83a
00000210: 3d3c 603d ea1b 58bc 09a2 f8bd f6f0 b03c
00000220: 3a7c 29bd d843 c4bd dd76 8cbd 067f 44bd
00000230: f4e2 b3be d30a 3b3d 88fe 46be 944a 2e3d
00000240: 41bd 26bc 7be6 283d 4ad4 1ebe 0fc6 443d
00000250: 264f aabc 8edd 1d3d 0968 253e 70b4 58be
00000260: 0e05 b3be 6290 253d 912d ce3d 4b0a 09be
00000270: cd7e cebc 5746 823c cef3 ffbd 72cd 6ebb
00000280: b6dc c2bd 6dd3 f73c 7f15 21be bee9 073c
00000290: 500d d0bd da1a 82bd bf14 9ebd 11b5 94be
000002a0: 32c9 213d b6eb ea3d 3e2f e4bd a037 51bd
000002b0: 250a 83bd 8bb2 71be 02f0 bdbd 90be 5dbd
000002c0: 0c2e bd3d 979d bdbc dd89 1abd 562f c03d
000002d0: 6112 833d e521 f8bd a725 fa3c a87b 9bbd
000002e0: d9da ff3d b1c8 ddbc 3c26 b13d 826d 42bd
000002f0: 70d3 f6bd bf81 993c 7574 39be f312 ddbd
00000300: 8160 143d b0bd fcbc 5584 67be 7f1c 903c
00000310: 93b1 2f3c 4695 98bd 8b46 d6bd 8e71 23bd
00000320: cc24 7cbc 93c2 5bbd b86b 37be bd2c a03c
00000330: 1f94 16be 4f0a 2dbd aa0c 913c 6080 e4bc
00000340: 9fc5 59bd 7ad8 293d 8d21 54bd 32f9 0bbe
00000350: d909 2f3d 59bc bbbd b43d ab3c 3132 743c
00000360: ac1c f53c 7f29 5fbd 98fe 1fbe 1387 a43c
00000370: c7ab 54bd 85c6 2abc db19 e3bd b831 c0bd
00000380: 9eb6 86bc fc3a 66bd 37c0 c03b f452 abbd
00000390: 9a14 1fbe 67f7 283b 64f6 653a c3b1 f6bd
000003a0: 5af0 81be 383b d23c d2b0 763c ff6e 323e
000003b0: 04c9 e0bd af6a cfbd 64a4 9139 14db 01bd
000003c0: 667a 65bd 0d53 093d ec22 90bb d84a 2b3d
000003d0: b90b abbd 247a 443c 46d6 a7bd 3572 443e
000003e0: 1625 0fbe 4d96 e3bd 21df 53be cb56 133e
000003f0: 4ed3 1ebe 236c 853d c0b7 79bc 340a 2bbe

weight f4 [256, 256]
-0.067506336 -0.09396939 -0.30487692 -0.0994687 -0.050732553 -0.12866618 -0.086111404 0.054961786
-0.16488194 -0.12916279 -0.047451407 0.44164574 0.06456492 0.04494198 -0.074754536 0.03256035
-0.22145198 -0.44446617 0.10260029 -0.10368582 -0.15701114 -0.1939661 -0.049478255 0.16581243
0.07290495 -0.19697678 -0.15213406 -0.1307128 0.047417615 0.021332214 0.022143217 0.05741352
0.039083216 -0.05800785 0.15515414 -0.06271298 -0.3564352 0.21377958 0.028995419 -0.045066614
-0.06202194 0.1315281 -0.16921276 0.30440733 -0.12215789 -0.03520701 -0.15030229 0.040253866
0.11161742 0.043973878 0.091936454 0.05319133 0.040051453 -0.03428428 -0.06384446 -0.09439903
-0.25297827 -0.097399436 -0.06770663 -0.14585705 -0.12500048 0.013750332 0.2601038 0.1069812
0.02453568 -0.08862012 -0.09925901 -0.0067777745 -0.16444689 -0.29012698 -0.08574594 -0.14142646
-0.05976498 0.063375615 -0.034122348 -0.13342054 -0.23053753 0.11685012 0.08648908 -0.221632
-0.066549435 0.037138883 0.034001164 0.050128434 0.14885163 -0.12135917 -0.20514587 -0.16168694
-0.24653754 -0.04222595 -0.34934145 -0.21062842 0.015995208 -0.08127352 -0.04138034 0.07982556
-0.3439224 -0.08312683 0.18555653 -0.24561292 -0.124493405 -0.030400652 0.01640808 0.15584637
-0.15922992 -0.16958453 -0.09149104 0.050747614 0.0525632 -0.13166606 -0.17651986 -0.031749394
0.09949937 -0.2687793 -0.09358523 -0.04258596 -0.090029895 -0.10278045 -0.36648503 0.20325433
-0.06645985 -0.051972765 0.04964208 -0.12158201 0.10273264 -0.1423071 -0.23454341 0.04824169
-0.17628966 -0.31469354 0.17794009 -0.40442586 -0.0007268152 0.19931978 -0.180606 -0.081129946
-0.110363424 -0.070984066 -0.078176156 0.198953 -0.07127261 0.03305685 -0.014127129 0.4101479
-0.084831245 -0.113626845 -0.14509502 -0.2663085 -0.38945398 0.012299213 -0.027662734 -0.21062405
-0.050310377 -0.23456824 -0.26889893 -0.25058937 -0.03000559 -0.07665854 -0.27714458 -0.035471074
0.17375477 0.08209973 -0.11443905 0.03857716 -0.13815615 -0.23537128 -0.41063535 -0.010017815
-0.0713665 -0.07620912 -0.0151022645 0.11619334 -0.026618108 -0.20997022 -0.24460348 -0.08751445
-0.020583596 0.031880673 -0.032983825 -0.122686744 0.06257447 -0.35205674 0.10499707 -0.15254098
-0.14600034 0.16409878 0.03113475 -0.23321739 -0.0035125865 -0.14432652 -0.13549145 0.14606327
-0.17401476 -0.13296664 -0.20820169 -0.0036755954 -0.082282215 -0.11474007 -0.110103264 -0.15228733
-0.017569227 -0.20719923 -0.20667203 0.10469359 0.107126504 0.07211373 -0.22735538 -0.14423336
-0.19220318 -0.14378938 0.29373613 0.050905112 0.037852272 0.1267454 0.15071715 -0.24433109
0.107695155 -0.3952737 0.090870924 0.14767262 -0.073832735 -0.11998567 0.1158931 0.07311312
-0.06096437 -0.29393843 -0.05489697 -0.15950102 0.10980972 -0.5871638 -0.09901329 0.051936045
-0.15413581 -0.33706686 0.29804662 -0.22510648 -0.30485606 -0.15532927 0.18126515 -0.020139793
-0.19987474 -0.111752495 -0.27519786 -0.042084668 -0.071481846 0.05326716 -0.029148983 0.012165762
-0.052483797 -0.19707291 -0.032771677 -0.09636096 -0.08272875 -0.028616073 -0.47755325 0.23705985
00000000: c340 8abd 0673 c0bd d418 9cbe 3fb6 cbbd
00000010: f0cc 4fbd 11c1 03be 2d5b b0bd 9c1f 613d
00000020: d0d6 28be 4043 04be 685c 42bd 641f e23e
00000030: 9d3a 843d 1515 383d e818 99bd 005e 053d
00000040: 4fc4 62be 1291 e3be 1a20 d23d 3b59 d4bd
00000050: 87c7 20be 0d9f 46be b6a9 4abd bcca 293e
00000060: 314f 953d 48b4 49be 08c9 1bbe 94d9 05be
00000070: f938 423d e5c0 ae3c b165 b53c 702a 6b3d
00000080: b915 203d a499 6dbd bae0 1e3e aa6f 80bd
00000090: ad7e b6be 09e9 5a3e cd87 ed3c c597 38bd
000000a0: b80a 7ebd 4daf 063e 1c46 2dbe 47db 9b3e
000000b0: ea2d fabd 3a35 10bd d8e8 19be 3de1 243d
000000c0: ad97 e43d f41d 343d 2e49 bc3d 27df 593d
000000d0: fe0c 243d ac6d 0cbd e2c0 82bd 4754 c1bd
000000e0: 5e86 81be 5b79 c7bd c6a9 8abd 8d5b 15be
000000f0: 2000 00be 1349 613c 532c 853e f618 db3d
00000100: 0dff c83c 777e b5bd 4f48 cbbd 1818 debb
00000110: c464 28be 868b 94be 919b afbd 19d2 10be
00000120: 20cc 74bd 13cb 813d e0c3 0bbd 659f 08be
00000130: 0812 6cbe 1e4f ef3d 3021 b13d 80f3 62be
00000140: 124b 88bd f11e 183d ce44 0b3d 7953 4d3d
00000150: 906c 183e 288b f8bd c211 52be 4391 25be
00000160: 5674 7cbe 1ef5 2cbd e2dc b2be faae 57be
00000170: 6208 833c bb72 a6bd 6e7e 29bd 957b a33d
00000180: 9916 b0be 663e aabd 8802 3e3e f481 7bbe
00000190: 66f6 febd ca0a f9bc 3d6a 863c 3196 1f3e
000001a0: 2b0d 23be 91a7 2dbe a85f bbbd bbdc 4f3d
000001b0: 834c 573d 78d3 06be 9fc1 34be a70b 02bd
000001c0: 53c6 cb3d 719d 89be 9da9 bfbd 9e6e 2ebd
000001d0: 9861 b8bd 8e7e d2bd eda3 bbbe e721 503e
000001e0: 1a1c 88bd 65e1 54bd 7e55 4b3d fdff f8bd
000001f0: 7e65 d23d f4b8 11be 262c 70be 1499 453d
00000200: 4785 34be 831f a1be ed35 363e e810 cfbe
00000210: be87 3eba 7c1a 4c3e c7f0 38be 7527 a6bd
00000220: 3806 e2bd 1860 91bd d21a a0bd 56ba 4b3e
00000230: 60f7 91bd 9f66 073d 7975 67bc e8fe d13e
00000240: 01bc adbd 31b5 e8bd ca93 14be 9659 88be
00000250: 8366 c7be a382 493c f59c e2bc d5ad 57be
00000260: 4112 4ebd a832 70be 1fad 89be 404d 80be
00000270: 48ce f5bc 27ff 9cbd e5e5 8dbe 1e4a 11bd
00000280: c5ec 313e e723 a83d 055f eabd 1603 1e3d
00000290: ce78 0dbe 2b05 71be cc3e d2be c321 24bc
000002a0: 9928 92bd 8713 9cbd 7d6f 77bc c6f6 ed3d
000002b0: 380e dabc 6f02 57be 5679 7abe c73a b3bd
000002c0: ee9e a8bc 4f95 023d 0c1a 07bd 3043 fbbd
000002d0: 0b27 803d c840 b4be b408 d73d b433 1cbe
000002e0: 1d81 15be 8309 283e 4e0e ff3c 8ad0 6ebe
000002f0: 6c33 66bb 55ca 13be 45be 0abe 9c91 153e
00000300: ed30 32be 6828 08be d332 55be 42e2 70bb
00000310: 9483 a8bd d8fc eabd d27d e1bd 36f1 1bbe
00000320: 57ed 8fbc 092c 54be d5a1 53be 9869 d63d
00000330: 2465 db3d 5db0 933d d9cf 68be e9b1 13be
00000340: e9d0 44be 863d 13be 9564 963e e181 503d
00000350: fc0a 1b3d 8cc9 013e 9955 1a3e ee31 7abe
00000360: 478f dc3d 5061 cabe 891a ba3d 7e37 173e
00000370: 9e35 97bd 0cbb f5bd 5d59 ed3d 55bc 953d
00000380: c6b5 79bd 197f 96be a5db 60bd 3c54 23be
00000390: ebe3 e03d 5e50 16bf 7bc7 cabd e4ba 543d
000003a0: c7d5 1dbe 0794 acbe 9199 983e 5082 66be
000003b0: 1816 9cbe a30e 1fbe 929d 393e 35fc a4bc
000003c0: f7ab 4cbe 7ede e4bd bce6 8cbe f960 2cbd
000003d0: 1365 92bd aa2e 5a3d d9c9 eebc e752 473c
000003e0: 40f9 56bd 7bcd 49be 983b 06bd e558 c5bd
000003f0: b16d a9bd 416c eabc dc81 f4be d1bf 723e

bias f4 [256]
-0.087494716 0.14675555 0.0414229 -0.0117569715 0.023608355 -0.004858416 0.13533221 0.18250167
0.052233633 -0.100596964 -0.018795725 0.11050322 0.13094129 -0.12129336 0.009781839 0.08004841
0.17556714 0.026746927 0.10386234 0.07169231 0.11048047 0.0962277 0.012319761 0.015610558
-0.06836815 0.06080494 0.1296153 0.13018592 0.06756966 -0.025314087 0.04870544 0.05710213
-0.053828575 -0.15061598 0.13819416 0.07187215 -0.02384847 -0.15661155 0.04304532 0.042536076
0.08755995 0.076653205 0.10446447 -0.50756204 0.14589033 -0.039178703 0.09282025 0.017668067
-0.12118927 0.098935254 0.13522354 0.110519566 0.089850225 -0.037693582 0.0380622 0.11592113
0.018752739 0.05748538 0.022273649 0.08213515 0.04718221 0.10592432 0.14264637 -0.13566077
0.012468433 0.06358005 0.025360584 -0.17032121 0.09504818 0.12903728 0.0713761 0.113905735
0.006037085 0.11062982 0.06186041 0.14447626 0.15586971 0.062971726 0.044084672 0.13034171
0.034899265 0.0419539 0.13107054 0.018774578 0.062089276 0.18231086 0.02013983 -0.10648384
-0.055829354 0.093310446 -0.08049985 -0.031411547 0.035908576 0.07320637 0.0042026523 0.083129175
0.033073187 0.08380939 0.02670023 0.025852064 0.15302525 -0.06334531 0.06056271 0.08548003
-0.0015811905 -0.07658331 0.06030029 0.02531488 0.08189213 -0.10043577 0.088466406 -0.08713029
-0.013657151 0.08287356 0.020709723 0.04482914 0.11033424 0.10597975 0.19950971 0.07459284
0.07527766 0.010429464 0.06764451 0.0944714 0.26551163 -0.06927954 0.30019608 0.07386367
-0.0030600294 0.11577639 0.09019605 -0.016609361 0.1591639 0.09074732 0.09305085 0.14198226
0.001994326 0.09275363 0.08296978 -0.09150382 0.062428247 0.028644169 0.055283543 0.07117562
0.021876525 0.0011362451 0.052727494 0.018088257 0.09744408 0.073946595 0.17879264 0.16813017
0.0056339656 0.015629452 0.0450979 0.10361548 0.05069802 0.12889639 -0.038594972 0.17470567
0.107657045 0.094712876 0.081411935 -0.0036674347 0.06840225 -0.03976307 -0.006594538 -0.09638065
0.12277688 -0.019352004 0.123639375 0.14888968 0.22470593 0.1673721 0.0007234632 0.20641924
0.063172564 0.051722895 0.10690242 0.091222614 0.04900338 0.04493934 0.058286585 0.0045371447
-0.041300744 0.07455024 0.031107923 0.112694256 0.003797387 -0.07819637 0.04941777 0.13746443
0.03062413 0.36940035 0.24550377 0.044687867 -0.037780706 0.033283655 0.07106358 -0.040582135
0.15465656 -0.09376483 0.082683876 -0.0040199985 0.17139752 0.107187174 0.03191839 0.17687556
-0.083186604 -0.027159728 0.000722961 0.0682371 0.06693872 -0.0058097583 0.045423567 -0.042033795
-0.10989619 -0.032947816 0.212595 0.029626891 0.045683675 0.1183323 -0.034093123 0.012019477
-0.089876086 -0.03557605 0.081272945 0.037884183 0.19657353 -0.1416071 0.16183974 -0.05051402
-0.13219567 -0.10242289 0.25523838 0.06081482 0.31512308 0.065866835 -0.0018436033 0.0045878533
0.086805046 0.0807997 -0.06608271 0.13995989 0.13999729 0.034710657 0.06348454 0.17868328
0.006007272 0.02598107 0.03938721 0.32998678 -0.1699575 0.1367105 0.08835773 0.025164299
00000000: 6e30 b3bd 1647 163e 0fab 293d 50a0 40bc
00000010: 4f66 c13c 5933 9fbb 8794 0a3e b8e1 3a3e
00000020: eff2 553d c805 cebd 7ef9 99bc 834f e23d
00000030: 7915 063e a768 f8bd 0244 203c 6cf0 a33d
00000040: dfc7 333e 5f1c db3c c7b5 d43d 6bd3 923d
00000050: 9643 e23d 0713 c53d d3d8 493c 6dc3 7f3c
00000060: 9a04 8cbd 9a0e 793d e0b9 043e 754f 053e
00000070: f661 8a3d 7d5f cfbc 5b7f 473d ece3 693d
00000080: 5a7b 5cbd 133b 1abe c582 0d3e b531 933d
00000090: de5d c3bc c75e 20be 4a50 303d 4f3a 2e3d
000000a0: a252 b33d 5bfc 9c3d 78f1 d53d 96ef 01bf
000000b0: 4664 153e d979 20bd 8b18 be3d 9fbc 903c
000000c0: 1432 f8bd 919e ca3d 0a78 0a3e 1558 e23d
000000d0: 6503 b83d 9664 1abd 1ce7 1b3d 0f68 ed3d
000000e0: 589f 993c ca75 6b3d 3a77 b63c 7936 a83d
000000f0: 2242 413d daee d83d e411 123e a8ea 0abe
00000100: 6648 4c3c 4236 823d 00c1 cf3c af68 2ebe
00000110: 9fa8 c23d 5922 043e a22d 923d 6947 e93d
00000120: bdd2 c53b e391 e23d 5761 7d3d 96f1 133e
00000130: 4f9c 1f3e 52f7 803d 2192 343d 4c78 053e
00000140: 88f2 0e3d dad7 2b3d 5b37 063e 25cd 993c
00000150: 5351 7e3d b3af 3a3e 49fc a43c 3314 dabd
00000160: 52ad 64bd 8c19 bf3d 1bdd a4bd 65a9 00bd
00000170: df14 133d 39ed 953d 67b6 893b a13f aa3d
00000180: c077 073d 42a4 ab3d 71ba da3c b5c7 d33c
00000190: a7b2 1c3e 30bb 81bd 9b10 783d 2710 af3d
000001a0: f33f cfba b6d7 9cbd 70fd 763d 2761 cf3c
000001b0: 10b7 a73d 45b1 cdbd e02d b53d 5e71 b2bd
000001c0: 3ec2 5fbc 9db9 a93d 70a7 a93c c39e 373d
000001d0: ebf6 e13d e90b d93d 464c 4c3e 22c4 983d
000001e0: 2c2b 9a3d 58e0 2a3c 3489 8a3d 397a c13d
000001f0: 24f1 873e 6ee2 8dbd 4db3 993e d645 973d
00000200: c68a 48bb 2c1c ed3d b5b8 b83d 5b10 88bc
00000210: ddfb 223e bbd9 b93d 7291 be3d cc63 113e
00000220: 3db3 023b 9df5 bd3d 0fec a93d 5b66 bbbd
00000230: c3b4 7f3d 2da7 ea3c ff70 623d 86c4 913d
00000240: 6636 b33c 0fee 943a c9f8 573d d32d 943c
00000250: c390 c73d 5071 973d 6b15 373e 512a 2c3e
00000260: 219d b83b 5609 803c 93b8 383d 5a34 d43d
00000270: baa8 4f3d 6afd 033e c315 1ebd 0be6 323e
00000280: 4c7b dc3d d3f8 c13d 4dbb a63d 5859 70bb
00000290: 7b16 8c3d 9ade 22bd ff16 d8bb 3863 c5bd
000002a0: 7272 fb3d 1888 9ebc a436 fd3d 8976 183e
000002b0: 5019 663e 9763 2b3e cba6 3d3a 915f 533e
000002c0: 9e60 813d 63db 533d a8ef da3d ecd2 ba3d
000002d0: c5b7 483d 5012 383d eabd 6e3d 54ac 943b
000002e0: f82a 29bd ccad 983d 0bd6 fe3c 3fcc e63d
000002f0: 95dd 783b 6b25 a0bd 4a6a 4a3d 7ac3 0c3e
00000300: 75df fa3c 0b22 bd3e 5765 7b3e a00a 373d
00000310: f1bf 1abd 7154 083d c889 913d 7439 26bd
00000320: 4a5e 1e3e c607 c0bd 2a56 a93d 31ba 83bb
00000330: d582 2f3e f384 db3d dcbc 023d de1e 353e
00000340: bd5d aabd 147e debc 1785 3d3a e5bf 8b3d
00000350: 2b17 893d c95f bebb 100e 3a3d a12b 2cbd
00000360: 4111 e1bd 4af4 06bd 81b2 593e 18b4 f23c
00000370: ce1e 3b3d 3458 f23d 3ba5 0bbd 57ed 443c
00000380: f410 b8bd 31b8 11bd 6e72 a63d 722c 1b3d
00000390: 924a 493e 7401 11be 51b9 253e cae7 4ebd
000003a0: 4d5e 07be 18c3 d1bd 9bae 823e f618 793d
000003b0: d057 a13e 31e5 863d 10a5 f1ba b455 963b
000003c0: d8c6 b13d 507a a53d 5f56 87bd a551 0f3e
000003d0: 735b 0f3e c32c 0e3d 2f04 823d c0f8 363e
000003e0: a6d8 c43b 41d6 d43c 7c54 213d 07f4 a83e
000003f0: 5709 2ebe d6fd 0b3e e6f4 b43d 5c25 ce3c

weight f4 [10, 256]
0.33014378 0.14869954 -0.009930348 0.2390446 0.09526993 -0.2264362 -0.029962383 0.08252346
0.14545704 0.15901175 0.07904994 0.13554987 -0.0046340874 0.08677867 0.056818858 -0.34045017
-0.08985335 -0.19323985 0.06172304 -0.018787669 0.08961813 0.025358139 0.029553836 0.054010905
0.24713165 0.121010765 -0.16523238 0.26219854 0.0979842 -0.060262762 0.0400155 -0.2662711
0.017527571 -0.061943937 -0.06872792 0.10824039 -0.083772 0.06810285 -0.07776016 -0.10459359
-0.2039994 -0.05445598 -0.17171554 -0.044386446 0.046636686 0.20093064 -0.2498613 0.13445154
-0.4155535 -0.0014790534 -0.038402434 -0.10544273 -0.018634157 0.12488084 0.17147954 0.1556198
0.1551456 0.2694317 -0.2885895 0.120341286 -0.20829438 0.08361788 -0.03731374 -0.033611923
0.09950295 -0.13098252 0.08980694 -0.0079885 0.082689755 -0.15716015 0.01710389 -0.0015533015
-0.11673248 0.0027234012 -0.052967317 0.2239145 -0.060422134 -0.07929537 0.15600598 0.0012855495
-0.07825866 0.033095103 0.017502444 0.13974218 -0.000733098 -0.11090458 0.2517333 -0.2080014
0.022459729 -0.054781325 0.4850295 -0.3356547 0.14563467 -0.0596706 0.44261935 0.028216794
0.18012369 0.25641483 0.111006476 0.10481042 0.028686298 -0.06569565 -0.003956655 0.14505914
-0.03926993 0.0008202901 0.11293002 0.19748136 0.032606747 -0.03972524 -0.108812295 -0.29316172
-0.10641205 0.17528062 0.019439684 0.31027833 -0.055097874 0.06364789 -0.10716792 0.056750704
-0.18662229 -0.009832832 0.20612042 -0.22074294 -0.025087874 -0.19007803 0.068417326 0.030169053
-0.15647931 -0.020533133 -0.339757 -0.026876053 0.03346135 -0.034703262 0.00056667736 -0.021244045
0.38250366 0.0066896575 0.48513293 -0.002058533 0.045191817 0.20648058 0.02672461 0.06060029
0.28501517 0.2716104 -0.116171114 -0.10965308 0.2441763 0.0869114 0.2912961 0.13787971
0.19023916 -0.15274793 -0.16538773 -0.04594873 0.054408334 0.032234747 -0.32800195 -0.07539527
0.052427124 0.026654933 0.11363997 -0.06011925 0.05682859 0.07308575 0.04395868 -0.0020742475
-0.0035736207 -0.009961582 0.050722245 0.046020575 0.00964847 0.12128723 0.027352383 0.41191867
-0.03980639 -0.019592622 0.14392832 -0.34522974 -0.041786507 0.07983593 0.27329415 0.049169738
-0.07264519 -0.09067851 -0.18582577 -0.17306831 -0.03343402 -0.038765807 -0.13710159 0.14934565
0.39667475 -0.0022980308 -0.09979697 -0.49350238 -0.19386509 -0.40914604 -0.0404426 0.24199943
0.11371073 -0.0019695882 0.013485577 -0.07086711 -0.1312383 -0.17053072 -0.028595747 -0.008811056
0.13694832 -0.05560942 0.0039594914 0.03625456 -0.028367754 -0.29776016 0.20074272 0.1830227
-0.2203438 -0.056454163 -0.17870972 0.17979015 0.09089581 -0.15953594 -0.10494072 -0.09781344
-0.15232939 -0.15986365 -0.13509728 -0.022087423 -0.0051028263 0.056066573 -0.39720356 0.10973887
-0.39554045 0.06500924 -0.01862612 -0.13576336 0.03574254 -0.21740824 0.15690656 0.31407914
-0.013513868 0.015454836 -0.23123333 0.039112825 -0.042990256 -0.0681277 0.09990918 -0.042628095
0.1146969 0.04905108 -0.041555114 0.0103779035 -0.048920915 -0.02276813 0.017481891 -0.08568242
00000000: 9b08 a93e b144 183e e6b2 22bc 1cc8 743e
00000010: e21c c33d e4de 67be ac73 f5bc 0f02 a93d
00000020: b1f2 143e fad3 223e efe4 a13d 96cd 0a3e
00000030: 8bd9 97bb 04b9 b13d e4ba 683d 7c4f aebe
00000040: 0805 b8bd abe0 45be 4cd1 7c3d 99e8 99bc
00000050: b689 b73d dfbb cf3c e31a f23c 8a3a 5d3d
00000060: 1410 7d3e 7ed4 f73d ad32 29be e33e 863e
00000070: f1ab c83d 16d6 76bd 4be7 233d b054 88be
00000080: fb95 8f3c edb8 7dbd 39c1 8cbd 23ad dd3d
00000090: a890 abbd 8279 8b3d b840 9fbd 2a35 d6bd
000000a0: 38e5 50be 3c0d 5fbd 33d6 2fbe 90ce 35bd
000000b0: 1c06 3f3d c3c0 4d3e a4db 7fbe aaad 093e
000000c0: 6ec3 d4be ccdc c1ba df4b 1dbd 5cf2 d7bd
000000d0: a9a6 98bc 87c1 ff3d 5598 2f3e cc5a 1f3e
000000e0: 7dde 1e3e f4f2 893e 01c2 93be 7e75 f63d
000000f0: 1f4b 55be da3f ab3d 4bd6 18bd a8ac 09bd
00000100: 34c8 cb3d 4820 06be b3ec b73d 33e2 02bc
00000110: 3f59 a93d 97ee 20be 751d 8c3c 2698 cbba
00000120: 7011 efbd 177b 323b 42f4 58bd d849 653e
00000130: 337d 77bd 9c65 a2bd 08c0 1f3e e27f a83a
00000140: 1446 a0bd bb8e 073d 4961 8f3c 9318 0f3e
00000150: 602d 40ba f121 e3bd 30e3 803e 52fe 54be
00000160: 77fd b73c 6262 60bd c955 f83e efda abbe
00000170: 4121 153e 2969 74bd 019f e23e e826 e73c
00000180: 5872 383e ce48 833e 5d57 e33d d8a6 d63d
00000190: 87ff ea3c 718b 86bd d4a6 81bb 628a 143e
000001a0: 82d9 20bd bd08 573a db47 e73d 8e38 4a3e
000001b0: a78e 053d efb6 22bd fbd8 debd 4b19 96be
000001c0: 90ee d9bd c37c 333e f93f 9f3c cddc 9e3e
000001d0: 4fae 61bd d359 823d db7a dbbd 6d73 683d
000001e0: ea19 3fbe e319 21bc 3b11 533e 700a 62be
000001f0: 1685 cdbc d1a3 42be 621e 8c3d 1725 f73c
00000200: 1d3c 20be 1a35 a8bc a1f4 adbe 2b2b dcbc
00000210: c50e 093d 0225 0ebd 138d 143a fe07 aebc
00000220: 85d7 c33e ea34 db3b 5863 f83e 74e8 06bb
00000230: 0e1b 393d a56f 533e 92ed da3c 0238 783d
00000240: 82ed 913e 8510 8b3e 1feb edbd cb91 e0bd
00000250: 5a09 7a3e 9bfe b13d c324 953e 5730 0d3e
00000260: 0ece 423e f469 1cbe 675b 29be bc34 3cbd
00000270: 46db 5e3d 9508 043d dfef a7be d668 9abd
00000280: d3bd 563d 725b da3c 13bc e83d 9a3f 76bd
00000290: 18c5 683d fbad 953d 040e 343d 19f0 07bb
000002a0: 6833 6abb e735 23bc 21c2 4f3d 1280 3c3d
000002b0: 9e14 1e3c 7065 f83d 1b12 e03c 01e7 d23e
000002c0: 060c 23bd b580 a0bc f261 133e f4c1 b0be
000002d0: 5428 2bbd 0581 a33d 36ed 8b3e 3566 493d
000002e0: 00c7 94bd a8b5 b9bd 1c49 3ebe d238 31be
000002f0: 1cf2 08bd e5c8 1ebd 5c64 0cbe 11ee 183e
00000300: f418 cb3e 8f9a 16bb 5b62 ccbd 58ac fcbe
00000310: 9284 46be 977b d1be 24a7 25bd b3ce 773e
00000320: 2ce1 e83d 3514 01bb 9cf2 5c3c c622 91bd
00000330: 5563 06be 9b9f 2ebe a141 eabc 3f5c 10bc
00000340: 2e3c 0c3e b4c6 63bd 9fbe 813b a97f 143d
00000350: 7e63 e8bc 0574 98be 808f 4d3e 4d6a 3b3e
00000360: cea1 61be 7b3c 67bd aeff 36be e91a 383e
00000370: 9527 ba3d 645d 23be 29eb d6bd 6a52 c8bd
00000380: 3cfc 1bbe 4cb3 23be f156 0abe aff0 b4bc
00000390: 9c35 a7bb 10a6 653d 445e cbbe c6be e03d
000003a0: 4784 cabe 9023 853d ce95 98bc 8d05 0bbe
000003b0: c566 123d 44a0 5ebe 1dac 203e fbce a03e
000003c0: 4569 5dbc 4836 7d3c 6ec8 6cbe c534 203d
000003d0: 8d16 30bd 8986 8bbd 2f9d cc3d cc9a 2ebd
000003e0: 35e6 ea3d c9e9 483d b235 2abd 1508 2a3c
000003f0: 4c61 48bd 3b84 babc 2f36 8f3c 447a afbd

bias f4 [10]
0.012411181 -0.03793505 -0.120237716 0.08195866 0.06630832 -0.0002028401 0.014308881 -0.09363874
0.025038637 0.049851783
00000000: 4458 4b3c c861 1bbd 313f f6bd f1d9 a73d
00000010: a8cc 873d 7ab1 54b9 cc6f 6a3c abc5 bfbd
00000020: d41d cd3c 6231 4c3d

stds f4 [10]
0.223 0.223 0.223 0.223 0.223 0.223 0.223 0.223
0.223 0.223
00000000: 1d5a 643e 1d5a 643e 1d5a 643e 1d5a 643e
00000010: 1d5a 643e 1d5a 643e 1d5a 643e 1d5a 643e
00000020: 1d5a 643e 1d5a 643e

obs_std f4 [35]
0.2 0.2 1.0 1.0 1.0 0.5 0.5 0.5
0.5 0.5 0.5 0.5 0.5 0.5 0.5 4.0
4.0 4.0 4.0 4.0 4.0 4.0 4.0 4.0
4.0 1.0 1.0 1.0 1.0 1.0 1.0 1.0
1.0 1.0 1.0
00000000: cdcc 4c3e cdcc 4c3e 0000 803f 0000 803f
00000010: 0000 803f 0000 003f 0000 003f 0000 003f
00000020: 0000 003f 0000 003f 0000 003f 0000 003f
00000030: 0000 003f 0000 003f 0000 003f 0000 8040
00000040: 0000 8040 0000 8040 0000 8040 0000 8040
00000050: 0000 8040 0000 8040 0000 8040 0000 8040
00000060: 0000 8040 0000 803f 0000 803f 0000 803f
00000070: 0000 803f 0000 803f 0000 803f 0000 803f
00000080: 0000 803f 0000 803f 0000 803f

obs_mean f4 [35]
0.0 0.0 0.0 0.0 0.0 0.0 0.0 -0.2
0.6 -0.4 0.0 0.0 -0.2 0.6 -0.4 0.0
0.0 0.0 0.0 0.0 0.0 0.0 0.0 0.0
0.0 0.5 0.5 0.0 0.0 0.0 0.0 0.0
0.0 0.0 0.0
00000000: 0000 0000 0000 0000 0000 0000 0000 0000
00000010: 0000 0000 0000 0000 0000 0000 cdcc 4cbe
00000020: 9a99 193f cdcc ccbe 0000 0000 0000 0000
00000030: cdcc 4cbe 9a99 193f cdcc ccbe 0000 0000
00000040: 0000 0000 0000 0000 0000 0000 0000 0000
00000050: 0000 0000 0000 0000 0000 0000 0000 0000
00000060: 0000 0000 0000 003f 0000 003f 0000 0000
00000070: 0000 0000 0000 0000 0000 0000 0000 0000
00000080: 0000 0000 0000 0000 0000 0000
