trained/h1_step/actor_799.pt (torch, 315859 bytes, 9 tensors)

weight f4 [256, 35]
00000000: 8a5a f3be aba3 c4bd ed2e 23be 49a6 41bd
00000010: 57a1 98be 13d2 563b c78c babe 7cd3 c0bc
00000020: 308a 9a3d 686f 073b f11e f5bb b5c3 b83e
00000030: 0dad ec3d d29f 56be 6b1f 1cbe 622b 43bd
00000040: 091d 5bbe 1e83 013e 58be 65bd 094f 9fbd
00000050: 4e74 283e 9dbd 843d 2a0e c33c d392 57bc
00000060: 6395 8c3c e1ff a3bd 2539 8cbe 1738 8e3e
00000070: db1f afbb 7e92 e2bd 1d7c acbd bd57 25be
00000080: 98e4 1e3e c115 5b3e 502d c13d bac0 033e
00000090: 1060 b8bc 994d 00be d3d3 8cbe 4d52 9f3d
000000a0: a352 26be c867 113e 164b 15be e769 edbd
000000b0: 5ab0 783d 0a26 86be 8d96 73bd 87a7 f6bc
000000c0: 5fec 3cbd 5744 9f3e 7b81 643e efe1 69be
000000d0: 63fb fdbc 079c 65bc 9932 af3e 1ed6 24be
000000e0: e0b1 cebe e6d2 873d bb3c 8c3c f7ca 0ebc
000000f0: 1fc7 953e a1c0 d7bb 8701 a63e cad0 29be
00000100: e55d a1be bdc4 2cbd a46f 51be fd93 233d
00000110: a712 8cbe 4021 22be 5436 b43e b60f c33d
00000120: bee4 453e 38b8 a0bd 2a41 d2bd 825b a53d
00000130: e4e0 a1bc 8f3f 5e3e a0b7 2abd 3761 22be
00000140: 7e1d 4bbd f200 373e abc9 a0bd 9087 a0bd
00000150: 7c6e 24bd 46bb 53bb ac2f e23d 0139 65be
00000160: 18b6 0f3f 99cb 49be 20b0 343e 3f9a 7fbe
00000170: 1bca ab3d 1c45 0d3e e163 9bbd 7cc9 edbd
00000180: ab04 1e3d c3ba 833e 9ee2 aa3e c6ea 60be
00000190: c39f edbc abd1 083e e878 b03d 235b f1bd
000001a0: afda 323d 58bd 07be 259e 683e ff6c 503c
000001b0: 8f28 1dbe d767 623e b509 3d3e 304f 0dbe
000001c0: 1f9f 8e3e 52db 183e 92e6 dbbd 015f 88bd
000001d0: f421 7ebe a603 c53e 5e5f 133e c64f f6bc
000001e0: 7e54 e1bc 0f05 92be a875 993d a1da cf3e
000001f0: f54f 24be 30ea 38be f103 df3a 4c00 083e
00000200: 3ad1 a83c 4457 b3be 93bc 69bc 35ac 3a3d
00000210: e308 bd3d 9098 9e3c 6a97 5cbe 3a1b f63d
00000220: 89ac 663e 2e3a 85be 2f63 10be 2d22 a93c
00000230: 43d4 36be 9404 2ebc 540e 24bd 727d 2c3b
00000240: 12a9 d2bd 8a7d 8cbd a2d5 463e 0265 5e3d
00000250: 1504 983d be25 c03d 3cd9 2b3e 188e b83c
00000260: 2b7b ad3e 39a4 d7bd 49cc 1abe f785 143e
00000270: 7990 4abe 5a78 7abd d6fc 4b3e fac6 c63b
00000280: 15a2 b0bd 0e93 77bd f3f9 35be eedb 4e3e
00000290: d446 b0be 54d3 f43d ff4c 94be ce8c e03d
000002a0: dbd6 95be 4d2d babe b44e 71be 3b43 1d3e
000002b0: 4f27 44be c097 70bd e6a1 17be e20a e0bd
000002c0: 4542 fb3d a0c4 48be 83f2 de3b 010d de3c
000002d0: 07e8 3b3e b151 6b3e e23c 6a3e a478 f4bd
000002e0: 329c 81bd e7a6 80be 742a 253b 925e 983c
000002f0: af64 43be 50ad 2d3e 0b28 263d 4fb9 7e3d
00000300: fe5c d53d fa33 6abe 642c 41be d009 39bd
00000310: c86e f43e bed9 9e3e 17a8 c03d b755 91bc
00000320: ece3 98be 92f8 653e b699 993c cebe 11bd
00000330: 61b1 10be 4a5f 58bc 9139 87be 6c4f a33e
00000340: 5a11 513d 4499 ae3e 78ac 51be b848 acbc
00000350: 1508 8e3e 8964 ed3d 2959 c73d d682 8f3e
00000360: d002 9a3e 9d3b 24be 64c9 84bd f84b e4bd
00000370: ad0c 7dbe e775 48be 0fc9 52be 98b4 463d
00000380: 7f93 5fbe f443 043e 940b 873e c60c 1dbe
00000390: 8751 7cbe 0c39 053d d135 cc3c b3ce 243e
000003a0: 6c62 5cbd c5a3 0e3d 6c38 06be c0c9 adbb
000003b0: 971f 16be f9eb 0bbc 0498 3abe aafe d53d
000003c0: b4ec 73be dc4d 91bd d57a 9c3d 0645 83be
000003d0: 2b99 cd3d 6776 1bbd 5e1d 78be fac0 89be
000003e0: ab50 8b3e 41e5 333e 1835 f6bd f747 59bd
000003f0: f58c 4f3d 7d0f 2f3a 0f4c 7bbc 7007 7f3e
-0.47530013 -0.0960153 -0.1593587 -0.047277723 -0.29810593 0.0032779023 -0.3643553 -0.023538344
0.075458884 0.0020665769 -0.007480495 0.36086813 0.11556444 -0.20959404 -0.1524636 -0.047648795
-0.21397795 0.12647673 -0.05608973 -0.07778747 0.16450617 0.06481478 0.023810465 -0.013157564
0.017161077 -0.080077894 -0.27387348 0.27777168 -0.0053443736 -0.110630974 -0.0842211 -0.16146751
0.15516889 0.21395017 0.09432471 0.12866488 -0.022506744 -0.12529601 -0.2750536 0.077793695
-0.16242461 0.14199746 -0.14579424 -0.11592465 0.060715057 -0.26200897 -0.05946975 -0.03010918
-0.04612386 0.31106827 0.22315018 -0.22840093 -0.03100366 -0.014014251 0.3421829 -0.16097304
-0.40370083 0.066320226 0.017118802 -0.008715383 0.2925348 -0.0065842425 0.3242304 -0.16583553
-0.31516948 -0.04217981 -0.20452744 0.039936054 -0.2735798 -0.15832996 0.351977 0.09524481
0.1932554 -0.07847637 -0.10266335 0.08074094 -0.019760557 0.21703933 -0.041679025 -0.15857397
-0.049588673 0.17871454 -0.07850965 -0.078383565 -0.04014443 -0.0032307669 0.11044249 -0.22385027
0.5613723 -0.19706573 0.17645311 -0.24961184 0.08388158 0.13795894 -0.0758741 -0.11610696
0.03857867 0.25728425 0.3337602 -0.21964559 -0.029006844 0.13361232 0.08616811 -0.11784961
0.043665584 -0.13255823 0.22716577 0.012721299 -0.15347503 0.22109924 0.18460734 -0.13799739
0.27855775 0.14927414 -0.10737337 -0.066587456 -0.2481764 0.38479346 0.14391848 -0.030067336
-0.02750611 -0.28519484 0.07493144 0.40596488 -0.16046126 -0.18058085 0.0017014724 0.13281363
0.02060758 -0.35027516 -0.014266151 0.045574386 0.09230211 0.019359857 -0.21542135 0.12016912
0.22526754 -0.2602095 -0.14100336 0.02064618 -0.17854409 -0.010621209 -0.040052727 0.0026319888
-0.10286154 -0.06859882 0.19417432 0.054295547 0.074226536 0.09382199 0.16782087 0.022528693
0.33883032 -0.1052937 -0.15116991 0.14504229 -0.19781674 -0.061149932 0.19920668 0.0060662003
-0.08624665 -0.060442977 -0.1777113 0.20201084 -0.34429038 0.1195437 -0.28964993 0.10964356
-0.29265484 -0.36362687 -0.23565179 0.15357678 -0.1915562 -0.05873847 -0.14807853 -0.10939576
0.12268499 -0.19606256 0.006803812 0.02710581 0.1835023 0.22980382 0.22874787 -0.11937073
-0.0632862 -0.25127336 0.0025202306 0.018599782 -0.19081376 0.16960645 0.04056553 0.062188443
0.104181275 -0.2287139 -0.1886459 -0.045175374 0.4774077 0.310255 0.094070606 -0.017741067
-0.2986139 0.22458103 0.018750053 -0.035582356 -0.14130165 -0.013206312 -0.26411107 0.31896532
0.05104194 0.34101307 -0.20475948 -0.021030769 0.2774054 0.11591441 0.09733803 0.28029507
0.3008027 -0.16038366 -0.06483725 -0.111473024 -0.24711867 -0.19576226 -0.2058451 0.04851207
-0.21833609 0.12916547 0.2637602 -0.15336904 -0.24640475 0.032525107 0.024928005 0.16094474
-0.0538048 0.03482415 -0.1310746 -0.0053035915 -0.14660488 -0.008540147 -0.18222052 0.10448964
-0.23820764 -0.070949286 0.07640616 -0.25638598 0.1003898 -0.037954714 -0.24229953 -0.26905042
0.27209982 0.17567922 -0.120218456 -0.053047147 0.050671536 0.0006678028 -0.015337958 0.24905181

bias f4 [256]
00000000: b8a8 10bd 6192 b53c de91 4f3b 8145 e63c
00000010: 8b13 5fbd 8f0f d43c ae2a 74bd 5cd1 96bd
00000020: 3ad7 febc ac44 9dbd 7665 adbc f836 873d
00000030: 427a 883c 4aa7 ba3c 4397 36bd 507a c03c
00000040: a01c bf3c d446 a8bd 7d40 373d 28de 943d
00000050: 33a8 263c d441 8a3d e8ac 4d3c e28a 49bd
00000060: fe7a 2fbd 3459 1dbd b431 f13c 0179 afbc
00000070: 8028 71bd 6121 93bd a265 13bd e356 6f3d
00000080: a4d5 ffbc 84c2 1abd ecc7 6bbd fcee c1bc
00000090: 94c0 343d d723 823d 17b2 97bd f2f6 ddbc
000000a0: e1e8 053d f269 9c3d 405d 8f3d 0f87 1a3d
000000b0: 84b9 f03c f2fa b63c c70b cc3b 58c9 513c
000000c0: c95c f23b 4f0a 13bd 1552 86bb 9a10 97bc
000000d0: d292 3c3d debd c4bc 1fc6 a7bc 8833 b5bc
000000e0: 2a03 783d c35a 87bc e529 483d 0a6f 10bb
000000f0: d5fa 55bd 1d36 aa3d afca 62bd 549b 38bd
00000100: 6d3f 5dbd f7dc 9abd dfe2 0c3d 723a 763c
00000110: 2929 08bd 1f70 61bc 41bb 2fbc 3f2d cebb
00000120: 0a29 edbb c6ce 89bd 3813 3c3b d056 b83a
00000130: 5ba4 403d 6a69 91bd 4cc5 c3bb 01bc 933d
00000140: 766d 863c 25d0 6b3c eee2 233d aba0 573b
00000150: 4e5b 53bc 3695 02bb d698 6bbd 9cd3 83bc
00000160: 1ac2 4dbd ca40 53bc 9181 b8bd 3865 743d
00000170: 7289 91bc 298a 413c 2bc7 de3c 65a0 233d
00000180: 6840 a3bc 1c3e efbb 1322 0e3c 767c 023b
00000190: 25d0 26bb a532 983d 855c 78bc 311f 763d
000001a0: e5f9 4dbd 32cf 62bd b2d5 40bc 6c4a 82bd
000001b0: e637 fe3c e156 e2bc 4435 1c3d 0976 4a3d
000001c0: 4d13 443c e0c7 c6bb 52e3 f6bc a24d b5bc
000001d0: ad78 753c 9a7a fc3c 0864 dc3c c8ae 22bc
000001e0: 6181 b4bc b9d6 413d d4df 963c 4ccf 993d
000001f0: 4cc4 a0bc 6ed0 7fbd ea29 283d 119e a2bc
00000200: f445 dc3c 4bba 123b 4266 33bd 2161 323d
00000210: 9464 703d d3a5 eb3c 4153 e93c e6ad 8e3c
00000220: 185d 6b3d c297 cbbc bf93 5dbd 39a9 3a3d
00000230: 593a ffbc 718d 773d eea7 acba 7e2b ff3c
00000240: b45a 0db9 1ef2 ae3c 50ef a2bc 4b8b 913c
00000250: ae58 97bd b1cf 193d 6287 c73d decd c4bd
00000260: ab0f f83b ce94 b83d b189 453d cfb2 23bd
00000270: 33ee 97bb 4133 edbc 069f b9bc 0a83 eebc
00000280: 5d3e d03c 47e0 6dbc 603f b03c e0f7 8f3c
00000290: 096b 48bd 85aa 02bd 64fd 93bd bf01 2abd
000002a0: 59f3 b33c cd03 9e3d 35d0 d3bb 8f45 f8bc
000002b0: 7413 e3bb 7147 8dbd f1b5 d53b 2083 3ebc
000002c0: c225 1b3d 08ed a83c 6649 53bc 47dd ba3b
000002d0: 6014 873d 143d a2bd 314c 8a3c 2408 c9bc
000002e0: 93c3 ca3c 5374 3abd b9fc 3a3d 8fe4 04bd
000002f0: 5326 f6bc 5a4c 5b3c 4b60 96bc 42d1 b2bd
00000300: e52f 5abc fe04 bd3b 582d 44bd f74a 413d
00000310: 03e6 fc3b 1796 db3c bbd8 ac3c 809f 64bc
00000320: ddcd ec3c af7d 3f3c 7ec7 40bd 8e33 233d
00000330: 4bf2 e5bc eeda 973c 6e4f 9d3c bcba 223d
00000340: 9de9 f13c 4ed1 a33d 009f 033b 1e83 a93c
00000350: 299f 393c c84c 2dbd 66b0 a73c d5e1 9e3c
00000360: 09cc d23b c604 d43b 603f b73b f1fe 9ebb
00000370: 7d77 72bc f504 48bc f920 163d c700 9c3c
00000380: 98fc 243d bbe3 22bd 7a96 3e3c ef27 013d
00000390: f16a bcbc 0031 16bd 282e 5f3d 0218 26bd
000003a0: 06ea 54bd 620d 183d c632 9439 a5fb 0d3e
000003b0: eaef 30bc 270c 62bd b16b 743d ec92 de3c
000003c0: bf34 35bd 62c4 f93c a221 f4bc 2217 513d
000003d0: aa5a d93c 697f 363d bf26 83bc e461 9b3d
000003e0: b076 e6bc 8871 53bc 161f 65bd 7897 1e3d
000003f0: a1ed 60bd 5873 b23d e5bc 583d b9be 1dbd
-0.035317153 0.022164525 0.0031672637 0.028109314 -0.054461997 0.025886325 -0.059611015 -0.07364151
-0.031108487 -0.07679114 -0.021166544 0.06602281 0.01665986 0.022784848 -0.04457785 0.023495823
0.02332908 -0.082166344 0.044739235 0.072689354 0.010171938 0.06750837 0.012553431 -0.049204715
-0.042841904 -0.03841515 0.029442646 -0.021420004 -0.058876514 -0.07184101 -0.035985596 0.05843247
-0.031229801 -0.03778316 -0.057563707 -0.023673527 0.04412897 0.06354492 -0.07407015 -0.027095292
0.032692794 0.07637395 0.07000208 0.03772646 0.029385336 0.022336457 0.00622699 0.012804352
0.0073963148 -0.035898503 -0.0040991404 -0.018440533 0.046038456 -0.024016317 -0.020480214 -0.022119299
0.060549892 -0.01652277 0.04886808 -0.002203884 -0.052241165 0.083111025 -0.055369075 -0.045070007
-0.054015566 -0.07561677 0.03439605 0.015028583 -0.03324238 -0.013759642 -0.010725797 -0.006292015
-0.0072375583 -0.06728892 0.0028697979 0.0014063958 0.04703174 -0.07100184 -0.0059744474 0.07213593
0.016409617 0.014392887 0.04001134 0.0032902162 -0.012900187 -0.0019925362 -0.057518803 -0.016092114
-0.050233938 -0.012893865 -0.09009088 0.059666842 -0.017765734 0.011812725 0.02719458 0.039947886
-0.019928172 -0.007301105 0.008675116 0.001991061 -0.0025453654 0.07431535 -0.015158777 0.06008834
-0.050287146 -0.055373378 -0.011769699 -0.06361851 0.031032514 -0.027629318 0.038136736 0.049428973
0.011967492 -0.0060663074 -0.030137692 -0.022131745 0.014982385 0.03082018 0.026903167 -0.009929366
-0.022034349 0.047323916 0.018417276 0.07510242 -0.019624852 -0.062454633 0.041055597 -0.019850763
0.026888825 0.0022388871 -0.043798693 0.04354966 0.05868967 0.028765595 0.028482081 0.017416906
0.057461828 -0.024852637 -0.05409598 0.04557154 -0.031155752 0.060437623 -0.0013172606 0.031148668
-0.00013480597 0.021355685 -0.019889504 0.017766615 -0.07389961 0.037551586 0.09742619 -0.096095785
0.007570227 0.09012757 0.048227016 -0.039965447 -0.00463655 -0.028955104 -0.022658836 -0.029115219
0.025420362 -0.014518804 0.021514595 0.01757425 -0.0489302 -0.0319009 -0.07226065 -0.04150557
0.021966623 0.07715569 -0.006464029 -0.030306606 -0.006929809 -0.06898392 0.0065219332 -0.011627942
0.037877806 0.020620838 -0.0128959175 0.005702648 0.06595683 -0.07921806 0.016882034 -0.024540015
0.02475146 -0.04552109 0.04565117 -0.032444533 -0.030047571 0.013384903 -0.018356463 -0.08731319
-0.013317083 0.0057684174 -0.047894806 0.047190633 0.007717849 0.026804967 0.021099439 -0.013954043
0.028906757 0.01168768 -0.04706525 0.03984409 -0.028069636 0.018537011 0.019202914 0.039728865
0.02953034 0.07998906 0.0020083785 0.020692404 0.011329451 -0.042309552 0.020469856 0.019394794
0.0064330143 0.0064702956 0.0055922717 -0.0048521687 -0.014798996 -0.012208213 0.03665254 0.01904334
0.040279955 -0.039767962 0.011632556 0.031532224 -0.023000212 -0.036667824 0.054487377 -0.04055024
-0.051980995 0.037122138 0.0002826659 0.13865526 -0.0107993875 -0.05518737 0.059673015 0.027169667
-0.044239756 0.03048915 -0.029801194 0.05104745 0.02653249 0.0445551 -0.016009687 0.075870305
-0.028132766 -0.012905486 -0.05593785 0.03871867 -0.05491412 0.08713406 0.05291452 -0.038511965

weight f4 [256, 256]
00000000: b698 0a3d 5ebb 703b 077a cabd 7541 97bd
00000010: 2a4c 35bd ef8b a3b8 b9dd 9abd 709b 9c3b
00000020: b0f1 653d e1d5 c2bc 7767 54bd 28aa ce3d
00000030: d817 543d 81ad 1a3e 77a9 be3a 6d8f 02bd
00000040: 3a2d a6bb 92c2 cabd 8173 943d 9b2d 493c
00000050: 54b7 b0bd 90fc 7fbd ac24 77bd 0cb7 083d
00000060: ec1d 333d d64e f6bb 6e26 83bd ac7f 853d
00000070: 38fa 7d3c 0dbf 2f3d 6bdc 5b3b 9ee1 713c
00000080: 9180 bc3d 5bba e0bc 7933 9fbd 7c68 a1bd
00000090: 13d1 96bd e627 1a3c 7b81 d0bb f503 fe3c
000000a0: abf8 dfbc 9e43 863c a47c a83b 09f1 1e3e
000000b0: 4eea d0bb 53dd 08bd 2d24 ab3d cdf4 9d3d
000000c0: d1a2 f53d cac1 2939 68f3 3ebd 07a8 4f3d
000000d0: e50e d93d 082d 833c 7429 a93d 05cf df3c
000000e0: d3f6 c9bc 7b92 83bd 6fe1 bf3b 8249 a5bc
000000f0: 57d6 e7bd 21ee cb3c c669 fe3c 6305 be3c
00000100: 9a98 5dbc 4e37 c13c e931 20bd 8002 b03d
00000110: 1bc4 18ba ed43 b6bd 51c0 a2bd 7de0 883b
00000120: c4fa a9bd 09a6 13bd 34c5 193d 6827 99bd
00000130: a04b 12bd d803 303d f86f 21bd c04b f1bd
00000140: c8eb a1bb f811 343c 99e5 8ebd ffed 4cbc
00000150: fa35 1a3e cdde c43d 3a6e a83c 8625 0bbe
00000160: 0652 443d 78b8 1ebe 8c33 34be 1158 17bc
00000170: 9280 c4bc 1199 6d3c f7f4 d23c 5d49 60bd
00000180: 8660 4dbd d106 7f3d 7acd 923d 876f c3bd
00000190: c476 4b3c 249a 6c3d a02f 0f3c 1fd4 9d3d
000001a0: 7215 ca3a de5e d0bd 939b a23d 0017 a73d
000001b0: 684d 273e 516d 94bd 319e 693b 04c0 813c
000001c0: 33ce 8d3d bb63 aabc 5e68 fc3c 3ce5 1c3d
000001d0: 4720 c73c eba5 5ebd b5a1 cebd 49fc 163e
000001e0: 1383 013e 1bf4 d23c 2d11 9e3d 8ce2 8d3c
000001f0: 4969 e6bc 9bf1 0fbe 1a71 a2bd 3d1a cebc
00000200: 0a98 973b c37e 34bd 4a48 32bd 5d84 1bbe
00000210: 56c7 383d f137 8e3c fa10 843c 7f12 a13d
00000220: df34 ba3d 2d8b d3bc 2cfb b1bd c4f6 a83d
00000230: 5b1d 2ebd 175d 10bc 79b7 013d 8b0e c43d
00000240: 698a 0dbd 68a2 30bd 9dfa 06be 98de ae3c
00000250: ee8f 30be a4c6 49bd 6150 e0bd 7bff 1f3d
00000260: ddc7 d6bc 18e7 e5bd ca23 e5bd cf30 52bc
00000270: 2774 5a3d a489 0bbd ee16 0ebd 1ead d43d
00000280: a54a ec3c 615d f3bc ffb9 4f3c 1eb7 5d3d
00000290: d24c a9bd 643a d0bd 9961 fabd 6e02 ba3d
000002a0: 2ec4 78bd 4f3a 46bd bb92 6cbd e9ab d03d
000002b0: 873f 933c e7ca 1bbd 1806 c7bd 5b96 3a3d
000002c0: 6d71 ffbc d747 1d3d e036 503c 45f0 283d
000002d0: f9c9 09bd ad00 83bb fa35 2c3e 034f c03d
000002e0: 3eed a3bd 3164 e53d 3b76 633d 20f8 e2bd
000002f0: e720 953c e1ac d7bd a726 9fbd 93c1 9f3d
00000300: b08f 80bc 002e 3b3d 3f09 e13c 564b b2bd
00000310: 6a54 00bd 2b1c 97bd 9af9 ab3d ae7b 26be
00000320: e688 2dbc 8e08 f2bd d71d 49bd 0814 6d3d
00000330: 0922 8abc 89e8 b33c 0643 283b 826c 8abd
00000340: cbf6 b33d 16ab c4bd fe36 c93b 8af7 4db9
00000350: 14aa 843c 6978 0abd 8f38 1abd b78f 8b3c
00000360: ebe4 563d a852 95be 94d1 a13c 8abc c83d
00000370: b7f4 5aba f64a 8fbd a794 583d a136 cd3d
00000380: a6a5 9cbd 6d04 09bd 2d17 213d adc9 b6bd
00000390: 70ca 333b 4f9f e8bd fcb9 423d 2394 8d3d
000003a0: 25b9 33bc fc81 cbbd f66e 65bc 6b58 39bd
000003b0: 63f3 323d 9be9 ddbd f2b0 303c 4f15 493d
000003c0: d524 23bd 1934 1abe f625 ecbd f81c 433c
000003d0: 6962 a43d 0646 9c3d 023d d5bd 74c3 f2bc
000003e0: 69cc 5cbd ab14 84bd 0f3a 2a3d 2488 213d
000003f0: 78aa 5fbc e26b 5cbd 166e 9bbd 83e0 8b3d
0.033837043 0.0036732773 -0.09886556 -0.07385532 -0.04426209 -7.79851e-05 -0.075618215 0.004779272
0.056138694 -0.023783626 -0.051856484 0.100910485 0.05178055 0.15105249 0.0014546354 -0.031875063
-0.0050713094 -0.099003926 0.07248593 0.01227894 -0.08628717 -0.06249672 -0.060337707 0.033377692
0.043729708 -0.007516722 -0.06403814 0.06518492 0.015501551 0.04290681 0.0033548127 0.014763264
0.092042096 -0.027432611 -0.077734895 -0.07881257 -0.073640965 0.009408927 -0.0063630915 0.031007746
-0.027340254 0.016389664 0.0051418114 0.15521635 -0.0063755875 -0.033414196 0.08356509 0.07712708
0.119939454 0.00016189288 -0.04661885 0.050697353 0.10598544 0.016012684 0.0825986 0.027320394
-0.024653828 -0.06424423 0.005855731 -0.020176653 -0.11320179 0.024893822 0.031056296 0.023195928
-0.013525153 0.023585942 -0.039110098 0.08594227 -0.0005827562 -0.088996746 -0.07946838 0.0041771517
-0.08299783 -0.036047015 0.037541583 -0.07478219 -0.035716653 0.042972416 -0.039413422 -0.11782026
-0.0049414374 0.010990612 -0.06977386 -0.012507915 0.15059653 0.096128084 0.020560373 -0.13588533
0.047929786 -0.15500057 -0.17597789 -0.009237305 -0.023987088 0.014501826 0.025751574 -0.054757465
-0.05014088 0.06226236 0.07168098 -0.095427565 0.012418453 0.057764187 0.008739382 0.077064745
0.0015417768 -0.101743445 0.0793983 0.08158684 0.16338122 -0.07247413 0.0035647268 0.01583863
0.06924095 -0.020799508 0.030811485 0.038304552 0.024307383 -0.05435745 -0.10089437 0.14744677
0.12647657 0.025751164 0.0771812 0.01731994 -0.028126376 -0.14057009 -0.07931729 -0.025158996
0.0046262788 -0.044066202 -0.04352597 -0.15187211 0.045111977 0.01736066 0.016121376 0.07864856
0.090921156 -0.0258232 -0.08690485 0.08250192 -0.042508464 -0.008811257 0.031669114 0.09573086
-0.034555826 -0.043123633 -0.13181539 0.021346375 -0.17242405 -0.049261704 -0.10952831 0.039062005
-0.02621835 -0.11225718 -0.11188467 -0.01282902 0.053333428 -0.03406681 -0.034689836 0.10384582
0.028844187 -0.029707612 0.012678622 0.054129712 -0.082666054 -0.10167387 -0.122256465 0.09082495
-0.060733967 -0.04839545 -0.05775712 0.10189039 0.017974628 -0.0380353 -0.09717959 0.045553546
-0.031182015 0.03839859 0.012708396 0.041244764 -0.03363988 -0.0039978833 0.16817465 0.0939007
-0.08004235 0.112007506 0.055532675 -0.11082482 0.018204166 -0.10531021 -0.07771044 0.07800593
-0.015693516 0.045698166 0.02747023 -0.087057754 -0.031330504 -0.073784195 0.08397217 -0.16258118
-0.010591721 -0.11818038 -0.049100723 0.05788043 -0.016861932 0.021961467 0.0025674715 -0.067589775
0.087873064 -0.096029446 0.006140589 -0.00019642539 0.01619438 -0.03380624 -0.037651595 0.017036302
0.052464407 -0.29164624 0.019753255 0.09801586 -0.00083525054 -0.069967195 0.05287614 0.10020185
-0.076487824 -0.033451486 0.039328743 -0.08925185 0.0027433895 -0.11358511 0.04754065 0.069130205
-0.010969435 -0.09936902 -0.014003506 -0.045250338 0.043689143 -0.10835572 0.010784375 0.049092587
-0.039830048 -0.15058936 -0.11530678 0.011908762 0.08026583 0.076305434 -0.10412027 -0.029634215
-0.05390588 -0.064492546 0.041559275 0.039436474 -0.013651483 -0.053813823 -0.075893566 0.068299316

bias f4 [256]
00000000: 91fd 37bc 7e8d 8ebb 226c 93bc 43f1 20bc
00000010: bc27 45bd c801 ecbc 98f8 1f3b 4944 2cbc
00000020: 22db bc3b 7c3d ab3b ea96 b93c 8dc2 b83c
00000030: b0f5 1e3a eff2 9ebc d4e6 b1bc bb17 15bd
00000040: e025 823b 8125 a63b 65f8 39bc 5759 cfbc
00000050: 1cd5 6e38 7c02 e23b b96d 0d3c 0404 083c
00000060: f291 54bb b8c4 5b3b 0ae2 14bc f526 243d
00000070: 09ee adbc 0f7f fbbc 30b4 d03b d091 60bc
00000080: c573 9e3c 7cc3 bcbc 13a8 f0ba 489e 0bbd
00000090: d367 9bbc ceab 9cbc 5ac7 953b 5abd 10bd
000000a0: 2eb8 3d3c f98a 613c 1f44 f9ba 4dc5 8abd
000000b0: 091e 3a3b 600d 1e3c 884e 0d3c 7d68 88bc
000000c0: 5c2f 08bd 0cc7 1b3c a200 81bc 253d c2ba
000000d0: fc91 0e3d 1cb2 efbc 40c4 303d 6617 a4bc
000000e0: 9d27 9c3c 0354 26bd 1926 d83a f8d8 083b
000000f0: 03da 74bb 3b42 33bc 6b2a be3c a9cb 8dbc
00000100: f024 91bc 87cf bd3c 926d a3bc 16aa 023d
00000110: a738 123d c0ce 89bc 4b50 093d 1912 79bc
00000120: cdd2 5cbc c887 c23a 7803 a13c b80e 123d
00000130: 2ad5 493c 08dd 42bc c508 343c ef11 d3bb
00000140: 7e60 813c 0adf 2abd 1a1f 113c 7f22 b93b
00000150: 36bb 9dbc 0ada a73c 555e 1abc b9b7 9cbc
00000160: cb1d e93b 001d d13c de49 56bb 0543 633c
00000170: 0a95 233d f7e0 dfbb 1071 a63c 9af8 ac3c
00000180: 03cd 873c 9855 d3bc e40e db3c 2820 e83c
00000190: a1d9 603c f85e 813c f07a 943c 0dd2 853c
000001a0: d62c d93b 4ab3 45bb aeec cf3c 6336 2a3c
000001b0: 7c91 253d 1587 c43c ced6 923c 6651 033d
000001c0: 31a5 39bb 874f 653c 3754 893c 1edf cb3b
000001d0: 2097 353d 1bdb c03c 5b62 3d3d 20fe e33c
000001e0: 584b 983c b88b 28bb d156 cd3b b4a4 083b
000001f0: ee52 143d 9fe9 15bd 1216 a53c a968 e7bc
00000200: 7c80 2db9 bfc8 923c 7a80 d6bb 2431 023c
00000210: 15be 533c dd22 39bc 9a4b e73c e515 613d
00000220: 9ce1 f63c fa47 db3c aac3 963c b2ae 5ebc
00000230: 261b 973c 47e2 cebc 4cc3 153d c585 00bd
00000240: 39d2 923c 4d22 8f3c f89e a23c 0bfe 913b
00000250: 3442 74bc 7427 2e3d 65dc 4d3b 5323 b13c
00000260: a66d 3dbc c161 243d c9c3 7a3c c490 a23c
00000270: 4847 863b 32a0 78bb bf65 2e3b 1d93 443d
00000280: 760e 2e3c 2d72 22bc c9e0 b53b e69f 0d3d
00000290: 6863 033d 838c fe3c 982d 383c 2e7e 9ebc
000002a0: 7838 03bd 1804 033d 94d1 1d3d 2164 0f3c
000002b0: 7888 003c 24c9 883c 1d8a acbb a4f4 41b9
000002c0: 5ea4 84bb ef5b 533c ec00 debc 055e 283b
000002d0: c097 c83c d963 0c3b def3 bbbb a6ee ce3b
000002e0: f13d 1dbb 9391 983c 9b1d 2cbc 404b d1bc
000002f0: bcac aa3c 7bb4 2f3d 69c2 0a3c fe90 c03c
00000300: 84e7 02bd 6c15 103d e54f 86bc 1f2f 023d
00000310: ba78 183d 195a 723c e10e 09bc 3cfa 06bd
00000320: 46a1 cd3b b801 f13c 781c 8ebb 0f37 a1bb
00000330: eba0 8abb 14a4 bd3c 2088 a8bc e29a d3bc
00000340: aa6a 1b3c 4494 96ba 42e9 083c e89b 1a3d
00000350: c2a1 903b 790f be3c f5cd 0fbd 6c2d 073c
00000360: 9d08 32ba 43c4 b9bc c650 d63c b914 9c3b
00000370: b652 4ebb ca11 c4bc 0a53 60bd bb00 8dba
00000380: 862c 49bc bd54 583c 1e8c 2abc 88f9 353c
00000390: 5275 733b 7faa 0abc 3a5a 80bb eab1 f33c
000003a0: b77f f13c 88f6 3ebd 423f 383d ab09 413d
000003b0: 0da1 413d 1f5f 15bd b0ef 9ebc 7135 2e3c
000003c0: 6c4c 3a3c 2f79 ad3c 04a9 8a3c 517c ccbc
000003d0: b72b 9bbc 56f8 5eba 4434 b23b 31b0 873d
000003e0: 2dfa f8bb 488a 50bc cdee a23c d971 7b3d
000003f0: 6e03 46bd ec53 09bb 4c47 1dbc d408 1fbb
-0.011229889 -0.0043503633 -0.017995898 -0.009823146 -0.048133597 -0.028809443 0.0024409648 -0.010514327
0.0057634274 0.0052258354 0.02265497 0.022553707 0.0006063832 -0.01940295 -0.021716513 -0.036399584
0.0039718 0.005070389 -0.011350726 -0.025311155 5.6942095e-05 0.006897269 0.008632117 0.008301739
-0.0032435623 0.0033534002 -0.009087095 0.040076215 -0.021231668 -0.030700235 0.0063691363 -0.013706639
0.019342313 -0.023042433 -0.0018360637 -0.034086496 -0.018970406 -0.019124892 0.0045708837 -0.03533683
0.011579556 0.013766044 -0.0019017494 -0.067759134 0.002839925 0.009646744 0.00862468 -0.016651386
-0.03324829 0.009507906 -0.015747372 -0.0014819248 0.03480719 -0.029259734 0.04315591 -0.020030688
0.019061858 -0.040607464 0.0016490846 0.0020881277 -0.003736139 -0.010941084 0.023213586 -0.017309027
-0.017717808 0.023170246 -0.019949708 0.031900488 0.03569856 -0.016822219 0.03352384 -0.015202069
-0.013477993 0.0014841491 0.019654974 0.03565857 0.012318889 -0.011893518 0.010988419 -0.006441347
0.015793081 -0.041716613 0.008857513 0.005649864 -0.019254308 0.020489711 -0.009421905 -0.019130575
0.0071141473 0.025526524 -0.0032697837 0.013870959 0.039937057 -0.006832238 0.020317584 0.021114636
0.01657725 -0.02579765 0.026740499 0.028335646 0.013723762 0.015792355 0.018125027 0.016335512
0.0066276593 -0.003016668 0.025381412 0.010388943 0.040421948 0.023990193 0.017924692 0.03206005
-0.0028327222 0.013996012 0.01676379 0.006221666 0.044333577 0.023541978 0.046236377 0.027831137
0.018590614 -0.0025718044 0.006266453 0.0020850124 0.0362119 -0.03659975 0.020152126 -0.028248148
-0.0001654643 0.017917989 -0.0065460773 0.007946286 0.012923737 -0.011299816 0.028234292 0.05495252
0.030136876 0.02676772 0.018403847 -0.013591455 0.018445563 -0.025254382 0.036563203 -0.031377573
0.017922508 0.01747241 0.019851193 0.004455333 -0.014908362 0.042518094 0.0031411883 0.02162329
-0.011561787 0.040132288 0.015305468 0.01984442 0.004097853 -0.003793728 0.0026610938 0.04799186
0.010623565 -0.009914917 0.005550478 0.03457632 0.032077223 0.03107286 0.011241339 -0.019347277
-0.032036275 0.031986326 0.038529947 0.0087519 0.007845037 0.016697474 -0.005265488 -0.0001849705
-0.0040479144 0.012900337 -0.027100049 0.0025690806 0.024486423 0.0021421819 -0.0057358583 0.00631507
-0.0023993219 0.018624103 -0.010505105 -0.025548577 0.02083432 0.04289673 0.008469203 0.023506638
-0.03195907 0.03517668 -0.016395519 0.03178322 0.03722451 0.014791989 -0.008365364 -0.032953486
0.006275329 0.029419765 -0.00433689 -0.0049198936 -0.0042306087 0.023149528 -0.020572722 -0.02583069
0.00948588 -0.0011488278 0.008356394 0.03774634 0.0044138143 0.023200737 -0.035108525 0.0082505755
-0.00067914446 -0.022676593 0.026161563 0.0047632125 -0.0031482405 -0.023934264 -0.054766692 -0.0010757664
-0.012278682 0.013203797 -0.010409383 0.011106856 0.0037148786 -0.008463501 -0.003917006 0.029747922
0.029479844 -0.04662183 0.044982202 0.04712836 0.04727273 -0.036467668 -0.019401401 0.010632859
0.011370759 0.021175949 0.016926296 -0.024961622 -0.018941743 -0.0008505633 0.0054383595 0.06625403
-0.0075981827 -0.012728281 0.01988926 0.06138787 -0.048343115 -0.0020954562 -0.009599518 -0.0024266737

weight f4 [10, 256]
00000000: ef7c b43b 640e 433d 41fe b73d 2572 b83d
00000010: c992 c03d 1613 47bc fca8 0fbd 629a fd3c
00000020: 0692 173e db89 7dbc 76ca 073b 72e8 9fbc
00000030: 94f8 063d e194 053d 86c9 82bc 5e86 f5bc
00000040: 0c27 a1bc 15d6 cfbc 9bf3 553b b7a3 b4bb
00000050: eb05 c1bd 34df 103d 61b3 a53c daad 7fbb
00000060: 43c5 28bd cf2d 3ebc 07c1 58bc f75a 35bc
00000070: ebb3 ab3c 7d08 b6bd 1c6e 1fbc ef8d ffbd
00000080: f3ac ef3c d0c5 1c3c 58aa ca3c 45e3 283d
00000090: 99b5 e93b 8dcf aabc 81ed cf3a fb6a c83b
000000a0: 94ce 2a3c e1d4 ae3c 702b 143d 07df e3bc
000000b0: 6dc0 95bb be6b 2b3d 2bba 723b 01ea 4c3c
000000c0: 38a1 1ebc 28e8 35bc a76e 2fbd 9dde 24bc
000000d0: 7be0 8d3b 79b5 8c3d 275b 563d 7c4e a13b
000000e0: 9717 983c 6e4b 433d 7537 42bd 66ab 72bd
000000f0: dada a93c e083 dc3c 87f0 403d c397 c8bc
00000100: 45d1 023d 6a17 6bbd 18d2 143b 2aba 87bc
00000110: f752 32bd f30d 76bc 352d 033d a2c4 0bbd
00000120: 6ec3 24bd bc4d e23c a0b8 4dbd 81e3 983c
00000130: 300a 43bd a7cb a4bc 1109 283d 7a54 da3c
00000140: bfe0 633c 257e 56bd 2b17 523d a041 d8bd
00000150: a7be 40bc ac3a fd3c f999 9c38 8fe3 94bd
00000160: fe07 c2bc 59e4 d83d 512d d13d d760 29be
00000170: b740 b4bb b40a 68bd 6c7a bf3d 6ecc 8cbb
00000180: 4523 d53b 967c 493d bfbd 463d e9c2 7d3d
00000190: 35d5 38bc 3bf8 f43c e1f6 3a3d 572e 58bd
000001a0: 9278 8bbc b842 bdbc 5ea3 fb3d 1754 5f3a
000001b0: 6241 9c3b 3898 913a 45ea a1bb e329 74bd
000001c0: fdae 65bd 293e a8bd 658b fd3c 975d f63c
000001d0: f167 133d a018 f23c 0edc 143d a0d2 1cbd
000001e0: 5638 423c 8fad 083d 93bf 113e f6ec 2abd
000001f0: 3be4 9eba 34c1 223d 0721 973d 00e9 b0bd
00000200: 8e65 19bd 1332 1a3b b0a2 ad3c e8e1 d8bd
00000210: db11 603d c31e 5fbc edf7 aebc 3c60 3c3b
00000220: 86e5 893d ec9a 483c 3535 bf3d 48fa ad3d
00000230: 5b59 f4bc 4520 843d 2e62 62bc 4b07 c5bd
00000240: 6fcd 853d 4678 82bd 5ac5 2fbc c7bf a73c
00000250: 849d 233d f6cd dabb 346f a83d e1ef e4bc
00000260: ae0b 4f3d 59ac 3dbd 8e71 0c3d fbe6 fbba
00000270: c6cb 14bd a4a1 bbbc 0b59 18bb 246c 6a3c
00000280: c25c 503d b79b 273d 6a9f 253d 6a61 c9bd
00000290: 4220 7e3c 92c3 cc3d 4290 123c e617 873d
000002a0: ba14 60bd cd97 243c c6a5 583d 85ab 26bd
000002b0: e022 54bc 0ddf 893d 79f0 9ebc 4421 533d
000002c0: 32df 983b f7e6 94bd 8444 92bd 1e1a 26bc
000002d0: 5ae7 903d 87d3 993c d554 203d 988f df3d
000002e0: 9f34 1f3c 9fe9 86bd f464 983c a723 a1bc
000002f0: 40ce 993c 3bca c5bc 6814 f6bd 44e9 c43b
00000300: 4cda e63c 49b6 c2ba 0c6b d7bc 3103 53bd
00000310: 090e 7cbd 98c0 703d 6c7f 9a3c fcc6 173b
00000320: 41eb 573a 52b6 c73c 35fa c2bb 0837 063d
00000330: b2c4 95ba 08c2 533d c840 05bd 34ae 9bbd
00000340: bcbf dc3c f5c1 36bd 91ee 2abd 5ce3 b53d
00000350: 36be 8dbd cca7 92bc b96f a43c 83e7 ab3b
00000360: 7eee 473d 26dc f43c 25d7 80bc ca8e be3d
00000370: 1157 c93c 3200 b3bc 2d2c 24bd e592 71bd
00000380: c012 4dbd 1569 53bc 8fc4 a8bd 04b3 733d
00000390: 335c 863c 6b55 b7bd 033d 063d eb5c 3fbc
000003a0: 4916 b8bd 16e7 093d 8746 adbc d9fa dfbc
000003b0: 603f 763c 739d 01bd 7edb c63d 1a2b ec3b
000003c0: 8b36 343c d5e2 f6bc 733d b3bd b777 033c
000003d0: 1436 b1bc 3823 9abc 1918 e3ba 409d 5cbc
000003e0: 2b66 703d 4b4f b0bd ce94 06bd d6da 5abd
000003f0: eb12 19bc 24cb 933d 1a71 babc 4844 76bc
0.0055080573 0.047621146 0.08984042 0.09006146 0.09402997 -0.012150547 -0.035073265 0.030957405
0.14801797 -0.015474762 0.0020720041 -0.019520018 0.032951906 0.032612685 -0.015965234 -0.029971298
-0.01967194 -0.025370637 0.003264642 -0.0055126804 -0.09424957 0.035369113 0.020227136 -0.0039013536
-0.04120375 -0.011607601 -0.013229615 -0.011069051 0.020959815 -0.08888338 -0.009730842 -0.124782436
0.029257273 0.009568647 0.02473943 0.041232366 0.007132244 -0.020850921 0.0015863628 0.0061162687
0.010425229 0.021341743 0.036174238 -0.027816309 -0.004570058 0.041850798 0.0037037234 0.012506963
-0.009681992 -0.011102714 -0.042830136 -0.010062841 0.0043297387 0.06870551 0.052333023 0.004922686
0.018565936 0.047679357 -0.04741617 -0.05924549 0.02073424 0.026918352 0.047104385 -0.024486428
0.031937856 -0.057395376 0.0022708233 -0.016568262 -0.043536153 -0.015017974 0.032025535 -0.03412307
-0.04022544 0.027624957 -0.0502249 0.01866317 -0.047617137 -0.02011664 0.04102427 0.02665161
0.013908564 -0.052366395 0.051291626 -0.10559392 -0.011764205 0.030911766 7.467339e-05 -0.07269966
-0.023685452 0.10590429 0.102137215 -0.16540848 -0.0055008787 -0.056650832 0.09349522 -0.004296831
0.0065044486 0.04919108 0.0485208 0.06195346 -0.011281301 0.029903522 0.0456456 -0.052778568
-0.017025266 -0.023103103 0.12287019 0.0008519305 0.0047685364 0.0011107987 -0.004941257 -0.05961026
-0.056075085 -0.08214981 0.030950258 0.030073924 0.035987798 0.029552758 0.036342673 -0.038286805
0.011854252 0.033368643 0.14233236 -0.04172989 -0.0012122461 0.039735034 0.07379346 -0.08638191
-0.037450366 0.0023528382 0.02119574 -0.10589963 0.05470453 -0.013618174 -0.021358455 0.0028743884
0.06733231 0.0122439675 0.0933632 0.08495003 -0.029827764 0.064514674 -0.013817353 -0.09620532
0.06533324 -0.063705966 -0.010728205 0.020477189 0.03994514 -0.0066773845 0.08224335 -0.027946414
0.050548248 -0.04630694 0.03428798 -0.0019218618 -0.036327146 -0.022904225 -0.0023246433 0.014308009
0.05086971 0.040919986 0.040435232 -0.098330334 0.015510621 0.099982396 0.008945527 0.06596355
-0.054707266 0.010045958 0.05289247 -0.040690918 -0.012947768 0.06731997 -0.019401776 0.051545396
0.004665279 -0.072706155 -0.071419746 -0.010138063 0.07075377 0.018777622 0.039143402 0.1091606
0.009717136 -0.065875284 0.018602826 -0.01967032 0.018775105 -0.024144283 -0.12015611 0.0060092527
0.028180264 -0.0014855351 -0.026296161 -0.051516715 -0.061536822 0.05877742 0.018859588 0.0023159375
0.00082366547 0.02437893 -0.005950237 0.032767326 -0.0011426418 0.051698714 -0.032532483 -0.07601586
0.026946895 -0.044618566 -0.04173142 0.08881256 -0.069210455 -0.017902277 0.020072805 0.005246104
0.04881143 0.029890131 -0.015727589 0.093045786 0.02457765 -0.02185068 -0.04008119 -0.05897798
-0.05006671 -0.0129034715 -0.082406156 0.059496894 0.016401386 -0.08951839 0.03277303 -0.011679868
-0.089886256 0.033667646 -0.021151794 -0.027341293 0.015029758 -0.031644296 0.097098336 0.0072072865
0.010999332 -0.030137459 -0.08751955 0.008024148 -0.021632232 -0.018815622 -0.0017325907 -0.013465226
0.058691185 -0.08608874 -0.032856755 -0.053431354 -0.009342889 0.072164804 -0.02275901 -0.015030928

bias f4 [10]
00000000: 5210 473c 6ee5 2dbc a53b 35bd 2af3 323a
00000010: d6b1 123d 72d3 9d3a 528f 823c d3ad 14bd
00000020: 9f24 8038 9484 c23c
0.012149887 -0.010613782 -0.044246335 0.00068263954 0.03581413 0.0012041165 0.015937481 -0.036298584
6.110337e-05 0.023744859

stds f4 [10]
00000000: 1d5a 643e 1d5a 643e 1d5a 643e 1d5a 643e
00000010: 1d5a 643e 1d5a 643e 1d5a 643e 1d5a 643e
00000020: 1d5a 643e 1d5a 643e
0.223 0.223 0.223 0.223 0.223 0.223 0.223 0.223
0.223 0.223

obs_std f4 [35]
00000000: cdcc 4c3e cdcc 4c3e 0000 803f 0000 803f
00000010: 0000 803f 0000 003f 0000 003f 0000 003f
00000020: 0000 003f 0000 003f 0000 003f 0000 003f
00000030: 0000 003f 0000 003f 0000 003f 0000 8040
00000040: 0000 8040 0000 8040 0000 8040 0000 8040
00000050: 0000 8040 0000 8040 0000 8040 0000 8040
00000060: 0000 8040 0000 803f 0000 803f 0000 803f
00000070: 0000 803f 0000 803f 0000 803f 0000 803f
00000080: 0000 803f 0000 803f 0000 803f
0.2 0.2 1.0 1.0 1.0 0.5 0.5 0.5
0.5 0.5 0.5 0.5 0.5 0.5 0.5 4.0
4.0 4.0 4.0 4.0 4.0 4.0 4.0 4.0
4.0 1.0 1.0 1.0 1.0 1.0 1.0 1.0
1.0 1.0 1.0

obs_mean f4 [35]
00000000: 0000 0000 0000 0000 0000 0000 0000 0000
00000010: 0000 0000 0000 0000 0000 0000 cdcc 4cbe
00000020: 9a99 193f cdcc ccbe 0000 0000 0000 0000
00000030: cdcc 4cbe 9a99 193f cdcc ccbe 0000 0000
00000040: 0000 0000 0000 0000 0000 0000 0000 0000
00000050: 0000 0000 0000 0000 0000 0000 0000 0000
00000060: 0000 0000 0000 003f 0000 003f 0000 0000
00000070: 0000 0000 0000 0000 0000 0000 0000 0000
00000080: 0000 0000 0000 0000 0000 0000
0.0 0.0 0.0 0.0 0.0 0.0 0.0 -0.2
0.6 -0.4 0.0 0.0 -0.2 0.6 -0.4 0.0
0.0 0.0 0.0 0.0 0.0 0.0 0.0 0.0
0.0 0.5 0.5 0.0 0.0 0.0 0.0 0.0
0.0 0.0 0.0
