trained/h1_step/actor_15899.pt (torch, 315889 bytes, 9 tensors)

weight f4 [256, 35]
00000000: 9af4 3cbf e7e1 4bbe db48 d8be c201 e33d
00000010: ff8e c2bc 74fb a73e 4b3d ecbe b0d8 2e3c
00000020: a14d 9bbb 215c 1b3e 9282 98bd 8955 143e
00000030: 01b4 ce3c a34d 9ebe 6ef0 f73b 9769 d93d
00000040: c6a4 8bbe 6253 09be 1979 e8bd 6923 40bc
00000050: cb71 50be 0d1b bbbd f89f f6bd cfa8 1cbe
00000060: 3091 133f 7b48 35b9 3483 533c ca8c 603e
00000070: 3b30 dfbd f285 103d d4ef 2ebe 5d6d 7fbe
00000080: fd1c 7a3d 0138 333e 3c03 99bc efd0 ec3d
00000090: 39bc 0ebd 16e9 9ebb f30a 42be 874d a6bb
000000a0: 83c4 ebbe 480a 343e cb27 78bd 851e b4bd
000000b0: 41b4 9c3e 8b3e 40be 416a f93d 9da7 6f3e
000000c0: 7d42 84bd b551 da3e 1a63 263d d1f5 c9be
000000d0: 6e6b 663d bdf6 88be 4374 553f 8f8e 71be
000000e0: ca5e e1be 61d2 803e d869 aebe 2605 d23e
000000f0: 95da c63c 0fba d0bb a3c5 903e e3be 97be
00000100: 9056 2fbe 7623 e53c 7bf9 72be 0f20 b53c
00000110: 5357 efbe 8a9e aebe 728f c73e 89f6 813e
00000120: 0780 983e 53ab 7e3d 17d8 17bd eea9 b43d
00000130: 28e1 a8bc 00e0 bc3e 9b92 8dbe af47 91bd
00000140: 9910 49be d18d d53e 1bca 2d3e 9433 bdbe
00000150: 2d58 703d 823c 99bd 4687 3a3e 134f aabc
00000160: ec97 d13e 6d09 a7be a653 513e 6399 94be
00000170: 7867 623e 0446 af3d 86da 17bd 7efa 083e
00000180: dfeb bf3d 0042 033e 23eb a23e 2c60 54be
00000190: f681 183e c485 a43e edcd 883e 7bf7 02bd
000001a0: 1002 c43d 0ff6 98be 396c 0f3e 0e8a 13be
000001b0: 7039 42bd 9388 4e3e b9c5 243e 8147 b9be
000001c0: bb9a ea3e ee65 333e 54af 46be 4765 353d
000001d0: cb3d 2bbe d228 363f 7fe3 a03d 3cb5 e3bd
000001e0: 7b30 00be 81e4 99bd 510b 9c3d 8355 283f
000001f0: 2904 313c e737 1cbe 6128 40bd b160 c23e
00000200: 655d c7bd 1dcb 12be 93f2 2e3e befb 8ebe
00000210: e863 c43c 581b 313e 6150 b1bd 7d85 563e
00000220: 57c0 7e3e ec88 74be 00bc d73b 749a 343d
00000230: 54c7 96be 344c 2f3e de12 4dbe 5229 a3be
00000240: c880 a1be d892 84be 3f8e 88be 2e04 933d
00000250: b976 073c aa70 803e d4f9 493e c9e3 f6bd
00000260: 98e5 d23e 0ad7 aabe 15fa 22bd 4c96 dc3e
00000270: 89a9 01be de24 c63e 00e2 5a3e 368c b33d
00000280: 385e 0f3d 892d 8ebe cf61 583d b465 2abe
00000290: 9264 94be 7ce4 b33c 5041 57be bd75 b53d
000002a0: 2193 fcbe 821d 51be bf05 ccbe 7382 873e
000002b0: 6c6d 97bd 74cf 11be 8d7a a9be 46d5 89bd
000002c0: 9fd1 843e b4c1 41be 614f a63d 4cfd a23e
000002d0: 7081 8e3e a3c3 023f 31e1 c83e dc15 89be
000002e0: f4f7 273e c059 d2be 33b8 6ebe 70dd 663e
000002f0: 64fe 62be b734 8a3e 22ba 933e a7dc 783e
00000300: 9099 11be 2c36 79be 6cf4 3a3e b2fe dabe
00000310: e076 e53e 5690 7f3d 1ae6 653e a993 4bbe
00000320: 1349 b6be e170 af3d 60c1 2e3e f1d8 ff3d
00000330: a9c7 183e c6ce cabd 7a8c 31be ac83 d33e
00000340: 7e9e 8abd 9d43 9b3e 063b 65be 95c8 273d
00000350: 46b6 833e d399 14be af89 3c3d d0f3 823e
00000360: ea50 ed3e 99f9 f5be da5e c9bd e86d 23be
00000370: a566 77be 8302 e3be 68a2 8fbe 3e99 3a3d
00000380: 422d 52be 0e47 f43e 6595 683e 6c59 96bd
00000390: 42d3 38be ecea 9abe 94d3 0e3e 9fc2 aabb
000003a0: a9f7 473e 2052 7e3d 1ac0 5cbd d40c ba3d
000003b0: 6701 aa3e 1226 85bd 2450 7cbe 6f51 d73e
000003c0: f80d b53e e31f 07bd 5bbd e23d fd19 183e
000003d0: c50e bf3e fce5 e1bd 928f 23be 1bd8 38bf
000003e0: 457d 3a3e b096 c2bb 7498 8ebe 8d9e 1a3d
000003f0: 46ae 403c bc49 7dbc 7bdf 18bd e35c 5b3e
-0.7381073 -0.19910394 -0.42243084 0.1108432 -0.023749826 0.3280903 -0.46140513 0.0106717795
-0.0047394787 0.15171863 -0.07446779 0.14485754 0.025232317 -0.30918607 0.0075665032 0.10615843
-0.2727415 -0.13410714 -0.113512225 -0.011727192 -0.20355909 -0.09136019 -0.1204223 -0.1529877
0.57643414 -0.00017288506 0.012909699 0.21928707 -0.10897871 0.03528399 -0.17083675 -0.24944063
0.0610628 0.17501833 -0.0186783 0.115632884 -0.034847472 -0.0048495634 -0.1894949 -0.00507516
-0.46048364 0.17582047 -0.060584825 -0.08794884 0.30606273 -0.18773858 0.121784694 0.23403783
-0.06457994 0.42640463 0.040621854 -0.39445356 0.056254797 -0.26750746 0.83380526 -0.23589538
-0.4401763 0.25160506 -0.34065127 0.41019553 0.02427415 -0.006369836 0.28275785 -0.29637823
-0.17122865 0.02797101 -0.23727982 0.022110013 -0.4674631 -0.3410533 0.38976628 0.25383404
0.29785177 0.062175106 -0.037071314 0.08821474 -0.020615175 0.36889648 -0.27650914 -0.07093751
-0.19635238 0.4170976 0.16971628 -0.36953413 0.05867784 -0.07482244 0.18215665 -0.020789659
0.4093622 -0.3262438 0.20442066 -0.29023275 0.22109783 0.08558276 -0.037073635 0.13376805
0.09371161 0.12818146 0.3182002 -0.20739812 0.14893326 0.32133305 0.2671961 -0.031974297
0.09570706 -0.29875228 0.14006127 -0.14408132 -0.047418058 0.20169286 0.1609105 -0.36187366
0.45821175 0.17519352 -0.1940282 0.04428604 -0.16722791 0.71156037 0.078558914 -0.11118552
-0.12518494 -0.07514287 0.07619346 0.6575548 0.0108042145 -0.152557 -0.04691351 0.37964395
-0.097346105 -0.14335294 0.17084722 -0.2792644 0.02397342 0.17295587 -0.08657909 0.20949359
0.2487806 -0.23880357 0.0065836906 0.04409261 -0.2944895 0.17118913 -0.20026729 -0.31867462
-0.31543565 -0.25893283 -0.26671025 0.071785316 0.008268052 0.25085956 0.19724208 -0.12055165
0.4119079 -0.33367187 -0.039789278 0.43083417 -0.12662329 0.38700002 0.21375275 0.087669775
0.035001963 -0.27769116 0.052827653 -0.16640359 -0.2898298 0.021959536 -0.21021008 0.088603474
-0.49331 -0.20421413 -0.39848134 0.26466712 -0.073939174 -0.14239293 -0.3310131 -0.06730132
0.25941178 -0.18921548 0.08120609 0.31833875 0.27833128 0.5107977 0.39234307 -0.2677449
0.1640318 -0.410841 -0.23312454 0.22545409 -0.22167355 0.26993343 0.28852946 0.24302922
-0.14218736 -0.24337071 0.18257302 -0.42772442 0.44817257 0.06239351 0.22451058 -0.19880547
-0.35602626 0.08566452 0.17065954 0.1249255 0.14919914 -0.0990272 -0.17338744 0.41311395
-0.06768511 0.30325022 -0.22385797 0.040962774 0.25725 -0.14511804 0.046029743 0.2557664
0.46350795 -0.4804199 -0.098325446 -0.15959895 -0.2416025 -0.44337854 -0.28053594 0.0455563
-0.20525077 0.4771046 0.2271324 -0.073412746 -0.18049338 -0.30257356 0.13947898 -0.005211189
0.19528069 0.06209004 -0.05389414 0.09084478 0.33204195 -0.06501402 -0.24639946 0.42054316
0.3536222 -0.032989394 0.11071273 0.14853664 0.37315956 -0.11030194 -0.15972736 -0.7220475
0.18211849 -0.0059383735 -0.27850688 0.037748862 0.0117603 -0.015459474 -0.037322503 0.21422152

bias f4 [256]
00000000: 349b 55bd af26 103e 9b89 45be 687b bebd
00000010: 4772 fcbd c4f8 75bd 1e47 debd ec0e 00bd
00000020: a25b b3bd f61a 1abe 2bde ddbd 9417 e0bc
00000030: d228 24be b42c 8dbd 493c 9bbd 9920 5a3d
00000040: 6f72 2d3c 10f0 16be b704 c73d 8b8e e9bc
00000050: 480f a63d 49f8 233e 3def 39bb d8fd 19be
00000060: d452 45bc f96a 04be ec67 d0bd 28e7 6fbe
00000070: 8dc5 8abe d075 8fbe 59f1 7ebd 51b3 92bc
00000080: fed7 01bd a47d bcbb 6ffa 85bd ed5c b33d
00000090: 0099 a0bd fefd ef3c dea5 adbe 3f9f 22be
000000a0: 9e8d c8bd a65b 00bd 9f91 ea3d a3e5 7e3d
000000b0: 3fe9 c4bd 3ce9 8ebd 8bc7 58bd ace3 893b
000000c0: b2bb 0fbe 2e70 b3bd 093a d3bd 81f6 18be
000000d0: 8f15 b0bc 7643 0f3b 2205 1c3e 11c2 83bd
000000e0: f259 41bd 93e7 dabd efeb 263e f79c 27bd
000000f0: 677c dabd 976c 093c e057 82be 7ba1 01be
00000100: 6b34 023c 573d 33bd 65ab f43c 119c a4bd
00000110: 6a69 acbd a113 6a3d b467 4cbc b66a 633d
00000120: ffec c1bd a553 eabd c088 133d 3d53 273e
00000130: a67a 453d ec6b 37be 284a f6bc 3a6f 483e
00000140: a9a2 8ebe c42a f83c b379 1bbe 9ef9 39bd
00000150: 3306 97bd 6e1e 833b 65aa 6cbe 16ff 40bc
00000160: 946d b33d 92dd 14be cb8c 7cbe 4098 883d
00000170: 6b1f 23bd 2dc7 e33c 89c1 233d 73bc b83d
00000180: 72d3 b7bd 2f86 18bd 2730 abbd 3c31 bd3d
00000190: 8667 bf3d 7dd6 513d a1be 22be 1038 1e3d
000001a0: 4d06 d33c e0ed d3bd 063a a7bd 782c 67be
000001b0: 9d18 c23c 83e5 41bd 4fa8 78bd b440 f8bd
000001c0: 74cc 023d d893 b8bd db67 2ebe 4867 bbbd
000001d0: 7205 6b3d e2cb 9cbb 1ebe 123d 3789 9bbe
000001e0: 7d10 c4bd 942e be3d 5f40 613d 3357 f53c
000001f0: f8b8 b63d 58bc 8ebd ca4e cfbd 269a 09be
00000200: 0757 c7bd 6189 a6bc 5832 63be dacd 36bd
00000210: 8cc6 523d d37f 63bd 1038 b7bb a50c 403d
00000220: 50b7 bdbd 269b 19be 6c67 a7bd 0a4e 3bbd
00000230: 9c12 b2be 44b6 153d b559 38be cb60 c83c
00000240: 8b8d d03b 766a 873c 7990 d9bd 96e1 3d3d
00000250: 19f7 4fbd 5d04 7c3d eda2 cb3d 7cf6 72be
00000260: cfa5 a3be 8741 103d 7a6a 093d b002 55be
00000270: 2177 aabd 3aee 01bd 04d9 2dbe 8c7c 3d3d
00000280: 1054 dbbc c451 173d 4fde 3dbe 1a3a 4d3d
00000290: befe e2bd c6b4 07be 2383 d3bd d1e9 adbe
000002a0: 366d 233c 8138 dd3d 857d b9bd 73f8 45bd
000002b0: ff4d 56bd bb36 4dbe 77e8 a0bd 25df 39bd
000002c0: 39d5 0c3e f6d0 c2bb 8ac8 26bd 92fa a43d
000002d0: 6c47 133e d49b e7bd bba8 0a3d b1b9 eabd
000002e0: 070b 0d3e 81e3 9bbd 97d8 5d3d 6d1f fcbc
000002f0: 2ccb 22be 227c 9b3d 601e 5fbe ccfe 0cbe
00000300: 0ae3 e2ba a2a0 f7bc 724a 25be ca47 17be
00000310: b8ef 13bd b240 6f3c edf8 953c f846 25bd
00000320: 6148 6fbd 3fdb a8bd 1b0a 3cbe 05b0 dc3d
00000330: 79a1 27be 887a 0dbd efaf 513c d10e 363d
00000340: 2baf 78bc b95e 843d 16c5 d6bd 0fc0 ddbd
00000350: 3a1f 8e3d a924 22be a4d0 d23c 01e6 ff3d
00000360: 1bdd e03c 0e41 8bbd bf6d 41be b4c7 81bc
00000370: 2d96 fa3b 914f 1cba 27d8 b4bd e619 a2bd
00000380: 5c91 733d 53de 8bbd d32c cebd 3140 a2bd
00000390: abcd b0bd 0e0d 73bc 85c8 b2bc bb75 debd
000003a0: 874a 08be bfaf e63b 5c07 853c 4f4b 0b3e
000003b0: 30b7 f7bd 3163 00be 2662 293c 167c 7cbc
000003c0: 4864 a8bd 7458 fd3c 070b febc 2439 2f3d
000003d0: 03f6 01be e84f b03d 3c5a 13be c8ed d03d
000003e0: f23c 28be 495c 2abe 4e03 64be dc7e c03d
000003f0: 01e2 70bc 9bed b23c aae2 94bd cbef 34be
-0.052149966 0.14077257 -0.19290774 -0.093008816 -0.12326484 -0.060051695 -0.10853408 -0.03126423
-0.08757712 -0.15049347 -0.10833391 -0.027354993 -0.16031197 -0.06893292 -0.07579858 0.053253744
0.010586365 -0.14740014 0.09717696 -0.028510353 0.081083834 0.16012682 -0.0028371357 -0.1503824
-0.012043674 -0.12931432 -0.101760715 -0.23428023 -0.27103844 -0.2801957 -0.062241886 -0.01790777
-0.031700127 -0.005752282 -0.06541907 0.087579586 -0.078416824 0.029295918 -0.3391561 -0.1588106
-0.09792636 -0.031337403 0.11453556 0.062230717 -0.09614801 -0.0697808 -0.052924674 0.004208049
-0.14036444 -0.08761631 -0.10313804 -0.14937784 -0.021494655 0.0021860278 0.15236333 -0.064334996
-0.04720492 -0.106887005 0.16300939 -0.040921178 -0.10668259 0.008387706 -0.25457668 -0.12659256
0.007947068 -0.04375967 0.029866884 -0.0803758 -0.08418544 0.057147626 -0.012475897 0.05552169
-0.094690315 -0.11441735 0.036019087 0.16340347 0.04821267 -0.17912263 -0.030064657 0.1957368
-0.27858475 0.03029383 -0.15183143 -0.04540407 -0.07374229 0.0040014302 -0.23111875 -0.011779567
0.08761135 -0.14537647 -0.24663083 0.066696644 -0.039824884 0.027804935 0.03997949 0.09020319
-0.08975877 -0.037237342 -0.08358794 0.09237906 0.093459174 0.051229943 -0.15893032 0.038627684
0.02575984 -0.103481054 -0.08165364 -0.22575557 0.023693377 -0.04733802 -0.060707387 -0.12121716
0.031933263 -0.09012574 -0.17031805 -0.09150559 0.05737824 -0.004785047 0.03582584 -0.30378124
-0.095734574 0.09286228 0.05499303 0.029948806 0.08921999 -0.069695175 -0.1012245 -0.13437709
-0.09733396 -0.02032918 -0.22187173 -0.04462991 0.05145888 -0.055541825 -0.0055914 0.04688706
-0.0926348 -0.1500059 -0.08174023 -0.04572872 -0.34779823 0.036550775 -0.1800297 0.024460217
0.0063645295 0.016530257 -0.10623259 0.046357714 -0.05077276 0.0615276 0.09943185 -0.23726839
-0.3196244 0.03521874 0.03354881 -0.20801806 -0.08323503 -0.03172133 -0.16977316 0.046261355
-0.026773483 0.036943212 -0.18541835 0.050104238 -0.110837445 -0.13252553 -0.10327747 -0.3396745
0.009974768 0.10801793 -0.09057144 -0.048332643 -0.052320477 -0.2004041 -0.07856839 -0.045378823
0.13753213 -0.0059453202 -0.040718593 0.08055605 0.14382714 -0.11309019 0.03385232 -0.11461199
0.13773738 -0.07611752 0.054161634 -0.030776704 -0.15897816 0.07592036 -0.21788931 -0.13769072
-0.0017310095 -0.030227963 -0.1614168 -0.14773479 -0.036117285 0.014602827 0.018307174 -0.040350884
-0.058418635 -0.08244943 -0.1836323 0.107757606 -0.1637019 -0.034540683 0.0127982935 0.044447724
-0.015178482 0.064633794 -0.1048681 -0.10827648 0.0693955 -0.15834297 0.025734253 0.12495042
0.027449181 -0.067995176 -0.18889521 -0.015842296 0.007647297 -0.0005962784 -0.0883029 -0.07915096
0.059464797 -0.06829514 -0.10067143 -0.079224 -0.08632978 -0.014834655 -0.02182413 -0.10862299
-0.1330968 0.0070399935 0.01623886 0.13602947 -0.12095487 -0.12537839 0.010338342 -0.015410444
-0.08222252 0.030925967 -0.031011118 0.042779103 -0.12691502 0.08608991 -0.1438989 0.10201603
-0.16429499 -0.16636766 -0.22266886 0.093991965 -0.014702321 0.021841815 -0.07269795 -0.17669599

weight f4 [256, 256]
00000000: a4d4 b0b9 a80c 10be d6a9 9cbe 0be3 6abe
00000010: 248d cebd 768b 0fbe 1ea5 05be ad5c 8a3d
00000020: 7f0f 30be 7699 6abe e2f5 403d a9c2 db3e
00000030: 8df5 763d 7234 a43d fed7 9fbd d435 01be
00000040: a83f 82be 34c1 e7be 09be 153e 7f05 0ebe
00000050: 54ef 0ebe f389 50be f7eb dfbd c4dc 8d3e
00000060: 92ef 253e e9c8 d9bd 3c00 63be ff00 41be
00000070: a938 443d 3dfd 01bc b28a b2bb 8111 b03d
00000080: a957 5f3d 4cfc e8bb c25e 383e 2cea 0cbd
00000090: 3d02 adbe aff8 863e a8f9 f93c dae4 94bc
000000a0: 535a cebd 9086 383e 96dc 3dbe 7aec 953e
000000b0: 4abc 4cbe bee9 e3bd ffec 38be 028b 003d
000000c0: cd1c 3a3e f6d5 833d 8052 143e 891c 503c
000000d0: 2c84 173c 2428 91bd 9616 423d 0022 65bd
000000e0: 7a31 82be eea3 23bd 99b2 aebd d66b 8dbd
000000f0: aa17 05be ee5b 373c 5150 433e e800 0c3e
00000100: 358c 0b3c 670b 3dba 83eb a8bd b82c 933c
00000110: 5bd2 93be 5fc4 52be 6c71 f2bd 1b6d d7bc
00000120: 5441 2dbe 3f94 273e b094 18bd abcc 12be
00000130: bf89 93be 65d7 0a3e 22a0 803d f2fa 7cbe
00000140: 8390 88bd a975 593c aa7b edbd 0c54 af3d
00000150: c03e 133e d487 13be 0a56 47be 712f 1fbe
00000160: 2cdc 7abe e69d 19be 7c3a c0be ca78 92be
00000170: bf68 aabd 544a 16be 7da9 dcbd c8bf c63d
00000180: c1ae b4be 1023 91bd 0034 283e f8ca 90be
00000190: c88a 1ebe d8d9 ff3d f812 a1bc a71b f73d
000001a0: 68e2 6bbe 3d73 2ebe 1586 c23d 3c69 a13d
000001b0: 4467 80bd 6273 8abe 5d4d b7be 8f02 4c3b
000001c0: c120 323e aff3 b0be d6a1 14be fdfa 9b3c
000001d0: f8e6 a0bd c61b 62bd e4df dcbe e73c 4f3e
000001e0: e20d 07be afdf 19be 126e 083e 562f 0bbe
000001f0: 724f 793e 4297 02be 9478 9abe 32ef 9c3e
00000200: 59ce c2bd 7a25 b7be 5f02 2c3e c87f b7be
00000210: 78d0 e43d 3cac f53d 41b5 67be 80bc f8bd
00000220: fc1b 3fbe 0439 4d3d 6e69 05be f8c1 253e
00000230: 3f07 93bd ab7c 943d 29f8 e9bc 7847 bd3e
00000240: 03ff 3ebe 24c0 0cbe ab1f 70be 5d31 69be
00000250: 1c09 a1be 3154 063e 3a8c ee3b daf3 7bbe
00000260: 4112 4ebd fceb 4bbe f1f9 76be f919 49be
00000270: d204 e5bb 9afa e3bd 1475 b5be bca0 4cbd
00000280: a2b7 333e 4061 463e 56f3 28be 0252 4a3d
00000290: d5e2 32be 7605 63be 6f00 8fbe 189b 6a3b
000002a0: 7925 873d 9f7c 1ebe 432d f13c 3595 b43d
000002b0: e0a6 913d 6d11 54be 2534 9cbe 599b 1bbe
000002c0: 8050 f9bd e1d1 143d 4e5c 0d3d 48f8 25be
000002d0: 8eae 503d 65b9 7cbe dc09 1e3e bf7f 32be
000002e0: 465a acbd 88ee fd3d 086f 9cbd c779 3bbe
000002f0: 08a2 96bd 17d3 1bbe 5c49 0dbe 08a0 b33d
00000300: af81 d7bd 9ff3 4cbe 8fb0 90be 7e50 803d
00000310: b36f 1a3d 3749 19be cdad 90bd 59d3 15be
00000320: 2a57 52bd 38d5 4abe ccaa 3ebe 7bc3 9a3d
00000330: 9100 2ebd db99 b33d 4618 51be 76ce f4bd
00000340: e19e 80be 50a0 88bd b7fe c63e c716 9d3d
00000350: f74e ccbd 5ecd dd3d da3a 193e d759 abbe
00000360: 114d 3f3e fa56 efbe df3f 133e d79b 153e
00000370: f2e4 56bd 2629 23be dd5c 333d 889f a43d
00000380: 10a6 173d d9b3 95be 036b 60bd 681a 0bbe
00000390: f4a3 913c 9d9a 1fbf 2f04 34bd 1746 5d3e
000003a0: 785f d3bd d561 8ebe 4036 953e 0820 2abe
000003b0: df4f c3be 504f e3ba a2d3 ed3d f8ed ceba
000003c0: d7d5 f0bd a8c1 6fbd 5691 bbbe 5cb9 f9bd
000003d0: 8b52 01be 5bd7 babb 52a4 6d3d 3c7b 17bd
000003e0: 31de 033c cfe0 6ebe 4a46 c6bd c9db 35bd
000003f0: 146d f2bd d98d a53d 3024 eabe 1b5b 623e
-0.00033727766 -0.14067328 -0.30598325 -0.22938173 -0.10085514 -0.14018044 -0.13051268 0.06755958
-0.17193411 -0.22910103 0.047109492 0.4292195 0.06029277 0.08017816 -0.07804869 -0.1261819
-0.2543919 -0.4526459 0.14623274 -0.13869284 -0.13958484 -0.20365123 -0.109336786 0.27707493
0.1620467 -0.10634024 -0.22168058 -0.18848036 0.047905598 -0.007933912 -0.0054486627 0.085970886
0.05452696 -0.0071101543 0.18004897 -0.03440301 -0.3379077 0.26361606 0.030514553 -0.018175531
-0.10075822 0.18020082 -0.18541178 0.2928198 -0.19993702 -0.11128567 -0.18059157 0.03138257
0.18175049 0.06437294 0.14484596 0.012702116 0.009247821 -0.07087734 0.04738482 -0.055940628
-0.25428373 -0.039951257 -0.085301585 -0.06905334 -0.12997308 0.011191351 0.19073607 0.1367222
0.008517315 -0.0007211477 -0.08248045 0.01796566 -0.28871426 -0.20582722 -0.1183804 -0.026297143
-0.16919452 0.16365145 -0.037251174 -0.14335887 -0.2881603 0.13558729 0.06280543 -0.24705103
-0.066681884 0.013272681 -0.11595853 0.085609525 0.14379406 -0.14407283 -0.19466415 -0.15545441
-0.24498051 -0.1500164 -0.3754462 -0.2860778 -0.0832076 -0.14676791 -0.10774515 0.09704548
-0.35289577 -0.07086766 0.16426086 -0.28279853 -0.15482628 0.12492722 -0.019662365 0.12065821
-0.23035586 -0.17036147 0.0949823 0.078814 -0.06269696 -0.27041155 -0.3580121 0.0031129455
0.17395307 -0.34560916 -0.1451486 0.019040579 -0.07856554 -0.055202268 -0.43139565 0.20238076
-0.1318889 -0.15026735 0.13323238 -0.13592276 0.24346712 -0.12753013 -0.3017012 0.30651242
-0.09512014 -0.3577078 0.1679778 -0.35839677 0.11172575 0.11995742 -0.22627737 -0.121453285
-0.18663019 0.050103202 -0.130285 0.16187274 -0.071791165 0.07250341 -0.028560715 0.3696859
-0.18651967 -0.13745171 -0.2344958 -0.22772737 -0.31452262 0.13118054 0.0072799 -0.2460474
-0.050310377 -0.1991424 -0.24118783 -0.19638814 -0.0069891 -0.11131783 -0.35440886 -0.049957976
0.17550519 0.19373035 -0.16499075 0.049394615 -0.17469342 -0.22170052 -0.27930018 0.003579801
0.06598944 -0.15477227 0.029440528 0.088175215 0.07111907 -0.20709772 -0.30508533 -0.15195979
-0.12173557 0.03633297 0.034511857 -0.16207993 0.05094772 -0.24680097 0.15433449 -0.17431544
-0.08415656 0.12399012 -0.07638365 -0.18308173 -0.07355124 -0.15217243 -0.13797516 0.08770758
-0.10522782 -0.20014809 -0.28259704 0.06265353 0.03770418 -0.14969335 -0.070644 -0.14631404
-0.051352657 -0.19807899 -0.18619841 0.07556816 -0.04248101 0.0876958 -0.20419416 -0.11953442
-0.25121215 -0.06671202 0.38866207 0.0767036 -0.09975999 0.10830186 0.14963856 -0.3346698
0.18681742 -0.46746045 0.14379834 0.1461023 -0.052464433 -0.15933666 0.043789733 0.08038241
0.037023604 -0.29238775 -0.054789554 -0.13584292 0.017778374 -0.62345296 -0.043949302 0.21608768
-0.103209436 -0.27809015 0.29142952 -0.16613781 -0.38146874 -0.0017342363 0.116126314 -0.0015787473
-0.11759537 -0.058534294 -0.3663432 -0.121935576 -0.12629144 -0.005701942 0.058018036 -0.03698276
0.00804858 -0.23327945 -0.09681375 -0.044399057 -0.11837211 0.08083696 -0.45730734 0.22105066

bias f4 [256]
00000000: 1a63 25bd 861b dc3d cdd1 e8bc 6835 2e3d
00000010: ec84 7a3d 5d6e 10bd 3f38 7a3e e59a 613e
00000020: d905 c6bc 863e 10be 5753 913d 1e2a 7e3c
00000030: 64c4 373e d32b 00be 0853 113d 2c93 0b3d
00000040: b775 143e cb09 133d d050 813d 7bab 163e
00000050: 69c8 2a3e 2741 ca3d b8fe ad3c 79ca 003d
00000060: 9190 623b d622 42bc f40b c83d 31dd da3d
00000070: 293f 6a3c 78e4 a03d a2dc f93d cc3b ce3b
00000080: 6071 1ebd 121f bebd 8596 f23d 82a9 183e
00000090: 6f77 a6bd 791a 3fbe b9aa 783d 7438 3fbc
000000a0: 2fa0 983d 6dd0 c23d df19 393e b618 06bf
000000b0: e466 113e 05ee e6bd c181 c13d b9ec 9e3c
000000c0: 20df 3fbe fd4e 253e 2039 063e 1b70 9c3d
000000d0: 7826 ea3d 6f1c 2ebd 9a6d b53d 117b dd3d
000000e0: 95e7 1dbd 0bb3 0f3e dbcd 513c c492 083e
000000f0: 43a0 04bc c6fc 253e 842f f93d 89ba 14be
00000100: 720d 76bc 0275 b73d c35d e93c aec6 1ebe
00000110: f210 353d 436e ea3d 9f6e 103d 44fd 623e
00000120: 1e22 67bc d286 0c3e b993 193d aa32 143e
00000130: d6ff 3e3e a25c 033e 433f 3a3d 698e 0b3e
00000140: 61ce 7fbc e72d 913d 993e 1c3e 75f6 cb3d
00000150: a39b 0c3e 2993 7d3e 26b5 6e3c 3314 dabd
00000160: bc96 90bd c74d d63d db95 dfbc 2316 943c
00000170: 99ec e33d e0bb 193e 4eaf 00bd bfad 1f3e
00000180: ba26 9abc 9cda d03d 94c1 8cba 52ec 153d
00000190: 7897 203e 05f8 80bd e1fd 8cbc d028 ab3d
000001a0: 3e6c 50bc 1325 b6bb 9150 ed3d 5df5 4e3d
000001b0: ba2e ac3d d874 b1bc 8f8c d33d 5e71 b2bd
000001c0: df3b d73d 6423 963b 21b1 b2bc a228 6f3d
000001d0: 5cbe 1d3e 5544 d53d 3f00 853e dc66 cd3d
000001e0: 1161 2b3a a79a 943d d314 103e 83cd 253e
000001f0: aafe 8d3e 48f4 29be 5d52 b43e cefe cb3d
00000200: 062a 153c 2b57 df3d f6cc 3e3e b562 c1bc
00000210: 2afe 4c3e 972a fb3d 5a0a 903d 3134 d93d
00000220: c13a 3fbd d6db 2a3c d4eb 303e 4ee8 bfbd
00000230: 6984 ea3d c05d 613d 6691 b83d 976a ac3d
00000240: fa40 79bd 61d4 e63d a2d8 863d 2ab5 f8bc
00000250: 45e0 fb3d 4319 823d c1da 043e 9b84 153e
00000260: 2133 b23c a206 85bd 426a 2c3d 2d90 cf3d
00000270: 493b a33d 56d4 c93d 6d42 60bd 37b3 223e
00000280: 0035 653d cfe0 b33d c064 f53c 67fc 23bd
00000290: 72c3 d43d eecf a1bc f556 e4bc a162 85bb
000002a0: df85 373e 678f 913d 2a6b 333e d7ab 613e
000002b0: 1900 6a3e 3b6c 023e 1e30 33bd 2f66 1c3e
000002c0: b0e4 043c ea3c a3bc 7ebd ca3d feec b13d
000002d0: 0bff 903d 2634 07bd d13a b73c 64e6 b13d
000002e0: 3e7c 073d 3d49 273e 4e75 9a3d bd12 183e
000002f0: d454 37bc 5966 e3bb c49d 32ba caea 2b3e
00000300: fbd8 483d 7715 c53e 7ed1 763e 9f39 e43c
00000310: 3626 e53c 9de1 433d 15e5 a63d eb77 433d
00000320: cb28 433e a398 a1bd c9f9 ca3d 19a2 baba
00000330: 5e06 543e 3475 893d 7b3b 273d 6811 893e
00000340: 7beb b7bd d5f9 a2bd b22f cf3d e60c 0c3d
00000350: 3f60 da3d 8229 133d 10a4 c53d af68 a5bb
00000360: 47f4 abbd 8864 e9bd bde1 773e 083a 8f3d
00000370: 8b38 b43d 9a74 393e a969 36bc 59ec 8b3c
00000380: 8159 ccbd 1892 8fbc e1d4 fe3d 8d75 71bc
00000390: 64ee a33e 0901 11be 7563 df3d 827f 92bd
000003a0: ab97 78bd ddcb 64bc 0e72 843e 67f6 5e3d
000003b0: 6bf8 a33e 0d30 bd3d 00d4 853d 6ce6 983d
000003c0: 258a c83c f129 99bc 5a13 e8bd 901e 193e
000003d0: 2e68 2b3e cabf d43c e3ba 143d 364a 2b3e
000003e0: e4f6 773d 7e26 25bd bb7a ae3d 2691 b23e
000003f0: f530 2fbe 2a4a dc3d e0d3 0f3e 6866 7ebc
-0.040377714 0.10747437 -0.028420353 0.0425314 0.06116192 -0.0352615 0.24435519 0.22031744
-0.02417271 -0.14086351 0.07095974 0.015512971 0.17946011 -0.12516718 0.035479575 0.0340759
0.1449803 0.03589801 0.06314242 0.14713852 0.16678013 0.09875708 0.021239623 0.031443093
0.0034571032 -0.011849126 0.09767905 0.1068672 0.014297285 0.07856077 0.122002855 0.0062937494
-0.03868234 -0.0928327 0.118451156 0.14908412 -0.08128249 -0.18662442 0.06070969 -0.011671174
0.074524276 0.0951241 0.18076275 -0.52381456 0.14199406 -0.112758674 0.09448577 0.019399988
-0.18737459 0.16143413 0.13107729 0.0763857 0.114331186 -0.042507585 0.088587955 0.10814489
-0.038550932 0.14033143 0.012805427 0.13337237 -0.00809485 0.16209707 0.12167266 -0.14524283
-0.015017854 0.08957864 0.028487092 -0.15505478 0.044205613 0.11446812 0.035261746 0.22166926
-0.014107255 0.13723305 0.037494395 0.14472452 0.18652281 0.12828305 0.045470487 0.13628544
-0.015613169 0.07088833 0.15258254 0.09959117 0.13731246 0.24763168 0.014569556 -0.10648384
-0.0706 0.104640536 -0.027293136 0.018076962 0.11129112 0.15013075 -0.031417184 0.15593623
-0.018817294 0.101979464 -0.0010738843 0.036602326 0.1568278 -0.06297306 -0.017210903 0.08357394
-0.012721119 -0.005558619 0.115876324 0.050526965 0.0840735 -0.02166216 0.10329544 -0.08713029
0.105094664 0.0045818556 -0.021812977 0.05838836 0.15404648 0.10413424 0.2597675 0.100293845
0.00065375963 0.0725606 0.14070444 0.16191678 0.27733356 -0.16597092 0.35219088 0.099607095
0.009104257 0.10905298 0.18632874 -0.023606637 0.20018831 0.12263983 0.070332244 0.10605658
-0.04668689 0.01042839 0.17277461 -0.093704805 0.114510365 0.055021048 0.090121076 0.08418768
-0.060852982 0.11270977 0.06584288 -0.030359823 0.122986354 0.063524745 0.12974073 0.14601366
0.021752896 -0.06495406 0.042093523 0.10134921 0.07970292 0.09854953 -0.05475085 0.15888678
0.055958748 0.08783113 0.029955268 -0.04003563 0.10388841 -0.019752469 -0.027873496 -0.0040705954
0.17922162 0.0710743 0.17521349 0.22038208 0.228516 0.12736599 -0.04374706 0.15273355
0.008111164 -0.019926507 0.09899424 0.08687781 0.070798956 -0.033008717 0.022366913 0.08686522
0.03307747 0.16336532 0.07541905 0.14850898 -0.011189658 -0.006939691 -0.000681367 0.16788784
0.049035054 0.3849294 0.24103352 0.027859507 0.027972322 0.047822583 0.08149163 0.047721785
0.1905853 -0.07890441 0.09910924 -0.0014238983 0.20705554 0.06711808 0.04082821 0.26771092
-0.08980461 -0.07957808 0.10116519 0.03419199 0.10662889 0.035928257 0.09650433 -0.0050478796
-0.083962016 -0.11396128 0.24207206 0.069934905 0.08799847 0.18110886 -0.01113359 0.017080473
-0.09978009 -0.017525718 0.12442947 -0.014737499 0.32017815 -0.14160551 0.10907642 -0.071532264
-0.060691517 -0.01396462 0.25868267 0.054434206 0.32025465 0.092376806 0.065345764 0.074658245
0.024479935 -0.018696757 -0.11331816 0.14953065 0.1673896 0.025970358 0.03631104 0.16727528
0.060538188 -0.040319912 0.08519503 0.34876364 -0.1710852 0.10756333 0.14045668 -0.015527345

weight f4 [10, 256]
00000000: 5678 d93e d3df 193e 7cde a83c a83c 443e
00000010: 3ea1 1a3e c279 73be b03b 4bbd ae4e 8b3d
00000020: aa16 283e e2bc d03d 229b af3c 3173 b73d
00000030: fc41 aabd 2919 cf3d 9657 243e cece 87be
00000040: 9967 5bbe 3610 81bd bff9 093c 2547 a43c
00000050: 96cc e83d 8111 b63d 7771 d0bc e87c 153b
00000060: 9f08 bb3e 3784 443e ef65 42be ee82 a33e
00000070: 05af 263e e6fc 98bd c22c 8bbd 7cc7 8fbe
00000080: 161d e13c 9873 443d 6dd4 00bd 76cc 20bc
00000090: 190e 0cbe fab2 943d 605a 0abe 6377 f7bd
000000a0: 76d3 58be 2a5b 1bbe 9b27 55be d4d5 46bd
000000b0: 000c 1c3d 7e2d 843e 29b2 87be f33e 143d
000000c0: f3dc e6be dba1 50bd 727b c3bd ee19 acbd
000000d0: 465d a63d f09f ce3d 8750 933d 4ccd fa3c
000000e0: a4ba 2f3e 11fc 853e c6c1 57be c87a 463e
000000f0: d1c4 84be 6542 0c3d 2749 e7bd 82a1 7f3d
00000100: f639 2d3e dbbc a7be e95f 75bb 8387 a5bc
00000110: c38b 8ebc 6524 1abe 8b62 37bc 2e2a 1cbd
00000120: ccc1 03be cf02 553d f608 0abe af69 893e
00000130: 0ba5 5cbd e032 92bd 67d2 743e 3492 443d
00000140: c169 d3bd ed25 ac3d 7153 543d d239 d63d
00000150: d897 54bd a14b 6cbd 5e54 c6bc 52fe 54be
00000160: c58d 9e3c f503 1a3e 0a16 103f d7e4 d5be
00000170: 1804 c13e 1d20 28be 6258 c33e 2a42 89bc
00000180: 0607 2b3e cf8e 463e 9047 4d3d ee02 7b3d
00000190: b5af 6c3d bdc6 a4bd 198d 08bc da34 3b3e
000001a0: 329e 26bc 7f73 6fbd 93d1 713d bfc1 c33e
000001b0: b0df 7bbd 95d4 863d 85f0 f1bd 4b19 96be
000001c0: 4fa7 bebd 3e1d a73c a012 59bd f041 7c3e
000001d0: 5251 38be 838b f03d c470 f2bd b14e 58bc
000001e0: 8abd e7bd b9fe c7bd ec43 843e 9de2 25be
000001f0: 3bb9 513c be7d 99be 54b0 733c 0920 843c
00000200: 2fbd 383d 1fb6 d5bc ba39 e2be 73b0 b0bd
00000210: afcd e3bc 6198 d2bc 474c 6c3c b52d 223d
00000220: e8cf 7f3e b4f6 53bd 64f3 0f3f d784 14bb
00000230: b433 ab3d 396c 8e3e 4b8a 7f3d 5ebf 673d
00000240: 6184 973e 3ac2 a03e 7639 0ebe 404d 96bd
00000250: 6119 0a3e ce62 073d b123 8a3e 18d0 363d
00000260: c4cf 853e 8a98 66be e13f 10be 30c9 a53b
00000270: 8c10 b73d 5858 9f3c 3e39 a4be 93f0 a6bd
00000280: 491e 753d 174b 023d e536 563d 5d7e 6fbd
00000290: 6e16 443d aef6 283d 69f1 5e3d 883e d8bc
000002a0: 0904 d9bc f8f0 26be 0680 9dbd aca4 6b3c
000002b0: 74a8 283c 5a56 b5bc dbcd 563d 7a6c 0f3f
000002c0: fae6 6e3d e31e 13bc af74 243e 875f c2be
000002d0: 6613 e63c 9e12 99bd 60ce 803e f92a 243d
000002e0: f5d4 3ebd 253c a3bd 2261 97bd 7d98 09bd
000002f0: 3b3b cdbd c7bc b4bc 91d4 56be ef7f b93d
00000300: 78bc d43e 16a3 11bd 7beb 85be 07b6 c6be
00000310: 29ad b5be 6e8b ecbe a0df a93c b26c af3e
00000320: 3b45 8f3d 0d0f ac3a 37d8 643d 04b3 f2bb
00000330: 4d98 3ebd 7857 edbd 0fad d2bd 47ac c3bb
00000340: 0f45 0a3e d65b a4bd 459f 00be ffa2 8d3d
00000350: 4a74 5b3e af24 2fbe 37d8 4a3e 84f7 003d
00000360: 9c20 51be ccc1 043c 7636 00be e5b8 513e
00000370: eb3e 0d3e 4d4d 45bb e15e 51be 0932 8fbd
00000380: a1b8 1bbe 9c3d 383c da57 0fbd 80e5 15bd
00000390: b6e9 323d 0aa2 653d 78fc d2be 37a4 ea3d
000003a0: 5afd cabe fa47 3c3e c739 313d db76 a5bc
000003b0: 54a5 9f3c 20c2 c8bd ab2c e53d ba81 ab3e
000003c0: 3eb2 2e3e f561 833e 4d9d 68be 534a 37bb
000003d0: 8d60 c2bd ffdf 38bd 1db0 49bd f06a 90bd
000003e0: 4194 8e3c 5529 583d 9db0 113c 71b7 15bd
000003f0: 085a 48bd 7a8a 0f3d 6700 f43d 3053 143d
0.42474622 0.15026788 0.020613901 0.19163764 0.15100572 -0.23776916 -0.04961747 0.06802116
0.16414896 0.101922765 0.021436278 0.08957518 -0.08313367 0.10112221 0.16049036 -0.26524967
-0.21426238 -0.0630192 0.0084213605 0.020053456 0.11367147 0.08890057 -0.02544473 0.0022810046
0.36530015 0.19191061 -0.18984197 0.3193583 0.16277702 -0.074701115 -0.06795646 -0.28081882
0.02747969 0.0479618 -0.031452585 -0.009814372 -0.13677253 0.072606996 -0.13511038 -0.12083318
-0.21174416 -0.15171495 -0.2081589 -0.048543766 0.03809738 0.25815958 -0.26503113 0.036192846
-0.45090446 -0.050935607 -0.0954503 -0.08403383 0.08123259 0.100890994 0.07193094 0.030615471
0.17161041 0.26168874 -0.21070012 0.19382775 -0.2593141 0.034243006 -0.112932496 0.062409885
0.16916642 -0.32761273 -0.00374412 -0.020206219 -0.017400628 -0.15052946 -0.011192928 -0.038126163
-0.12866896 0.05200463 -0.13479981 0.26838443 -0.053868335 -0.0713861 0.23908387 0.047990993
-0.10322905 0.08405671 0.05183739 0.10460247 -0.051902622 -0.057689313 -0.024210151 -0.2080014
0.01935471 0.15040572 0.5628363 -0.41776153 0.37698436 -0.164185 0.38153368 -0.016755182
0.16701898 0.19390415 0.050117075 0.06128209 0.057784755 -0.08045719 -0.008334422 0.1828188
-0.010169553 -0.058459755 0.059037756 0.38233754 -0.061492622 0.065835156 -0.118134536 -0.29316172
-0.09309255 0.020399686 -0.052996278 0.24634528 -0.17999771 0.1174536 -0.118379146 -0.013202355
-0.113154486 -0.09765381 0.2583307 -0.16199727 0.01280051 -0.29978746 0.014873583 0.016128557
0.045102295 -0.026087819 -0.44184667 -0.08627405 -0.027808039 -0.025707426 0.014422483 0.03959437
0.24981654 -0.051748946 0.5623076 -0.0022662187 0.08359471 0.27816942 0.062387746 0.056578986
0.29593185 0.31398183 -0.13889107 -0.07338953 0.13486244 0.033053212 0.26980355 0.044632047
0.26135075 -0.22519127 -0.14086868 0.005059384 0.08938703 0.019451305 -0.32074922 -0.08151355
0.059843335 0.031809893 0.052298445 -0.05847012 0.047872953 0.041250877 0.054429445 -0.026397005
-0.026491182 -0.1630286 -0.07690434 0.014382523 0.010294069 -0.022135902 0.052442413 0.560249
0.058325745 -0.008979532 0.16060136 -0.37963507 0.028085422 -0.07474254 0.25157452 0.040080044
-0.04658981 -0.07970456 -0.073915735 -0.03359269 -0.10021063 -0.022062672 -0.20979525 0.090576045
0.4155004 -0.03555592 -0.2615622 -0.3881075 -0.35483673 -0.46200126 0.020736516 0.34262615
0.069956265 0.0013127044 0.05587026 -0.007406594 -0.046531964 -0.11588949 -0.102869146 -0.005971465
0.13502906 -0.08025329 -0.12560757 0.06915855 0.2143108 -0.17103837 0.19809042 0.03148605
-0.20422596 0.008102845 -0.12520775 0.20480688 0.13793533 -0.003010589 -0.2044635 -0.06991965
-0.15207149 0.011245158 -0.03499589 -0.03659582 0.043679915 0.056062736 -0.41208243 0.11457103
-0.39646417 0.18386832 0.04326799 -0.020198276 0.019488014 -0.098026514 0.1119016 0.3349741
0.17060181 0.25660673 -0.22716255 -0.0027967885 -0.09491072 -0.045135494 -0.04924022 -0.07051647
0.017404677 0.052773792 0.008892206 -0.036551896 -0.048913985 0.03504417 0.11914139 0.036212146

bias f4 [10]
00000000: 4b7f 0e3d 853d 68bc 78c2 dbbd e488 9c3d
00000010: 9e04 96bb b654 b33c 7013 643b 1d9b dbbd
00000020: e473 403d 4d3d ba3b
0.034789365 -0.014174824 -0.10730451 0.07643297 -0.004578187 0.02189098 0.0034801625 -0.10722945
0.046985522 0.005683577

stds f4 [10]
00000000: 1d5a 643e 1d5a 643e 1d5a 643e 1d5a 643e
00000010: 1d5a 643e 1d5a 643e 1d5a 643e 1d5a 643e
00000020: 1d5a 643e 1d5a 643e
0.223 0.223 0.223 0.223 0.223 0.223 0.223 0.223
0.223 0.223

obs_std f4 [35]
00000000: cdcc 4c3e cdcc 4c3e 0000 803f 0000 803f
00000010: 0000 803f 0000 003f 0000 003f 0000 003f
00000020: 0000 003f 0000 003f 0000 003f 0000 003f
00000030: 0000 003f 0000 003f 0000 003f 0000 8040
00000040: 0000 8040 0000 8040 0000 8040 0000 8040
00000050: 0000 8040 0000 8040 0000 8040 0000 8040
00000060: 0000 8040 0000 803f 0000 803f 0000 803f
00000070: 0000 803f 0000 803f 0000 803f 0000 803f
00000080: 0000 803f 0000 803f 0000 803f
0.2 0.2 1.0 1.0 1.0 0.5 0.5 0.5
0.5 0.5 0.5 0.5 0.5 0.5 0.5 4.0
4.0 4.0 4.0 4.0 4.0 4.0 4.0 4.0
4.0 1.0 1.0 1.0 1.0 1.0 1.0 1.0
1.0 1.0 1.0

obs_mean f4 [35]
00000000: 0000 0000 0000 0000 0000 0000 0000 0000
00000010: 0000 0000 0000 0000 0000 0000 cdcc 4cbe
00000020: 9a99 193f cdcc ccbe 0000 0000 0000 0000
00000030: cdcc 4cbe 9a99 193f cdcc ccbe 0000 0000
00000040: 0000 0000 0000 0000 0000 0000 0000 0000
00000050: 0000 0000 0000 0000 0000 0000 0000 0000
00000060: 0000 0000 0000 003f 0000 003f 0000 0000
00000070: 0000 0000 0000 0000 0000 0000 0000 0000
00000080: 0000 0000 0000 0000 0000 0000
0.0 0.0 0.0 0.0 0.0 0.0 0.0 -0.2
0.6 -0.4 0.0 0.0 -0.2 0.6 -0.4 0.0
0.0 0.0 0.0 0.0 0.0 0.0 0.0 0.0
0.0 0.5 0.5 0.0 0.0 0.0 0.0 0.0
0.0 0.0 0.0
