trained/h1_step/critic_19299.pt (torch, 306494 bytes, 7 tensors)

weight f4 [256, 35]
0.019226348 0.040707227 -0.043176435 -0.0045141075 0.006511849 -0.18500477 0.14911138 -0.42445028
-0.48039332 0.12831184 -0.013247749 -0.35659584 0.35896242 0.39436632 0.18875158 0.046485744
-0.019012276 0.11817889 -0.008387798 0.07084013 0.00056128495 -0.10173678 -0.10235656 -0.024530781
-0.06861163 0.012250917 0.100313626 0.881663 -1.0337982 -0.60541767 0.65473247 -0.017395364
0.2163699 0.77655566 -0.61995703 -0.15099263 0.08271697 -0.082092084 0.27628475 0.0977135
0.334583 -0.12854862 -0.0025231014 0.20041524 -0.3414484 0.15661184 -0.36498332 0.23406903
0.2597346 0.5903836 0.12034179 0.060924746 1.1508775 0.5727026 -0.016856715 0.04365698
-0.16006882 -0.52542645 -0.294671 0.06508134 0.017464805 0.06678617 0.13097516 -0.24258149
0.0016694297 -0.021267008 -0.005153965 0.09589034 -0.15501912 -0.018634982 -0.133666 0.05441773
-0.03775642 0.030074881 -0.013139331 -0.27647233 0.0015036206 -0.40489942 -0.08783215 -0.21659186
0.08158122 -0.061724003 -0.06566797 -0.19714914 0.22378966 0.0019850181 -0.08531627 0.007844236
0.05109231 -0.101958446 9.618756e-06 -0.06764938 0.07010003 0.09618539 0.020227164 -0.10557182
-0.07161855 -0.2879168 -1.9238143 -0.20902759 -0.050500453 0.19935389 -0.102088585 1.0706542
0.30925736 -0.016747404 -0.05813907 -0.044171292 -0.28427967 -0.05638242 0.026314424 0.68813646
0.10381852 -0.1151926 0.05476811 0.10126989 -0.6918724 -0.08308521 0.2758039 0.28451803
-0.14270297 -0.04363864 -0.40739498 -0.12001601 -0.112084374 -0.030184971 0.13388956 -0.23098418
-0.106278315 -0.018737888 -0.02222694 -0.0052491785 -1.0464357 0.7390125 -0.113132514 0.09333247
-0.122830905 -0.5309388 -0.1306524 -0.106544614 -0.0030088222 -0.018944418 0.22545348 -0.80952036
-0.1391184 -0.19621836 -0.64696133 -0.04238827 0.25438574 -0.08984234 0.341244 0.035565455
-0.016017282 -0.07690721 0.12544303 -0.2000618 0.7899054 -2.0947227 -0.7482323 -0.31729954
-0.032592054 -0.07992544 -0.06732243 0.079190955 -0.20717777 0.3142688 0.09974348 -0.02932581
-0.040298697 -0.0671184 0.02391026 0.20285077 -0.008031254 -0.08634705 0.21280731 0.11001014
0.34018362 -0.2403082 -0.3196839 0.20889638 0.17920285 -1.2910699 0.27369097 -0.99913394
0.44817886 0.23234428 1.0074258 0.7166319 -0.79909086 -0.20922114 0.054043405 -0.9825325
-0.36819947 0.011968985 -0.20208752 0.1682494 -0.017267423 -0.44875565 -0.047824148 -0.044424623
0.51232576 1.7738138 -0.6069969 -0.46992022 0.21005139 -0.6063231 -0.16921836 -0.031531315
-0.35946295 0.2598191 -0.0018299012 -0.007518039 -0.2926828 -0.21275404 0.32311213 -0.6789093
-1.8009932 -0.39458644 -0.0429658 0.23583356 -0.34176436 -0.6159741 0.56132966 0.26029193
0.07938523 0.7479621 0.05426425 -0.41742763 -0.44199753 -0.12401941 0.37125582 -0.1327152
-0.3308595 -0.116328776 -0.033007108 -0.15147117 0.021497043 0.13694201 -0.20924239 -0.020048423
-0.12023297 0.06320439 -0.19280311 -0.1693403 0.039987374 -0.0304691 -0.032247074 0.013578549
-0.0044247587 -0.0020205393 -0.03432638 0.18055123 0.030996958 0.07426976 -0.02246325 -0.026671093
00000000: 9380 9d3c 9fbc 263d c6d9 30bd 14eb 93bb
00000010: 5961 d53b e471 3dbe a7b0 183e 8c51 d9be
00000020: 1df6 f5be 2e64 033e 160d 59bc bb93 b6be
00000030: ecc9 b73e 62ea c93e 1848 413e d667 3e3d
00000040: a2bf 9bbc c607 f23d fa6c 09bc a114 913d
00000050: 3223 133a 5f5b d0bd 51a0 d1bd c7f4 c8bc
00000060: 4184 8cbd 12b8 483c 3b71 cd3d abb4 613f
00000070: 8053 84bf a7fc 1abf 8c9c 273f b980 8ebc
00000080: 1290 5d3e 5acc 463f 81b5 1ebf d09d 1abe
00000090: 8467 a93d e51f a8bd 3275 8d3e 041e c83d
000000a0: 774e ab3e 40a2 03be 9e5a 25bb a739 4d3e
000000b0: 53d2 aebe db5e 203e 18df babe cbaf 6f3e
000000c0: effb 843e 6123 173f c275 f63d 3a8c 793d
000000d0: f44f 933f a39c 123f 1817 8abc a9d1 323d
000000e0: 15e9 23be 5982 06bf 1edf 96be 5e49 853d
000000f0: 5a12 8f3c 30c7 883d 5a1e 063e 4867 78be
00000100: c4d0 da3a 2638 aebc 98e2 a8bb 2862 c43d
00000110: 55bd 1ebe 64a8 98bc bddf 08be 20e5 5e3d
00000120: 7aa6 1abd 995f f63c 5946 57bc c88d 8dbe
00000130: 2315 c53a fa4e cfbe 58e1 b3bd 42ca 5dbe
00000140: 0e14 a73d 4fd2 7cbd ee7c 86bd 77e1 49be
00000150: 1e29 653e 1417 023b 4cba aebd 1c85 003c
00000160: 2c46 513d 97cf d0bd 3e60 2137 c28b 8abd
00000170: 9b90 8f3d d9fc c43d 70b3 a53c 0a36 d8bd
00000180: bfac 92bd d569 93be 8c3f f6bf 540b 56be
00000190: 90d9 4ebd 6d23 4c3e d213 d1bd 320b 893f
000001a0: fb56 9e3e da31 89bc 3c23 6ebd f5ec 34bd
000001b0: 1b8d 91be 41f1 66bd 5991 d73c b629 303f
000001c0: ce9e d43d 19ea ebbd 8754 603d 9766 cf3d
000001d0: 8d1e 31bf 9428 aabd 2b36 8d3e 59ac 913e
000001e0: ba20 12be 6ebe 32bd 1396 d0be f4ca f5bd
000001f0: 7e8c e5bd 7946 f7bc 581a 093e 1e87 6cbe
00000200: 72a8 d9bd 3380 99bc 4615 b6bc 4d01 acbb
00000210: 9bf1 85bf ec2f 3d3f 05b2 e7bd 1825 bf3d
00000220: c58e fbbd 9beb 07bf bec9 05be 1034 dabd
00000230: a92f 45bb 5331 9bbc 47dd 663e ba3c 4fbf
00000240: 0e75 0ebe 77ed 48be 429f 25bf 539f 2dbd
00000250: d93e 823e 43ff b7bd 89b7 ae3e 15ad 113d
00000260: ad36 83bc 8781 9dbd 2374 003e 00dd 4cbe
00000270: 3e37 4a3f f00f 06c0 278c 3fbf 1675 a2be
00000280: 3f7f 05bd f3af a3bd 58e0 89bd de2e a23d
00000290: 6926 54be d7e7 a03e 4f46 cc3d ae3c f0bc
000002a0: 3f10 25bd 5f75 89bd 73df c33c 1db8 4f3e
000002b0: 8595 03bc b9d6 b0bd 29ea 593e ff4c e13d
000002c0: 8c2c ae3e 5a13 76be 9cad a3be efe8 553e
000002d0: f480 373e c741 a5bf 3921 8c3e 3ec7 7fbf
000002e0: b377 e53e a9eb 6d3e 54f3 803f 3075 373f
000002f0: 3891 4cbf 113e 56be 9e5c 5d3d 4087 7bbf
00000300: a484 bcbe 9019 443c 08f0 4ebe 9249 2c3e
00000310: 6974 8dbc 4dc3 e5be 41e3 43bd 98f6 35bd
00000320: c827 033f 550c e33f 2664 1bbf 6299 f0be
00000330: b617 573e fe37 1bbf 9447 2dbe fb26 01bd
00000340: 870b b8be 0207 853e 4cd9 efba e259 f6bb
00000350: 85da 95be 32dc 59be f46e a53e 00cd 2dbf
00000360: f286 e6bf 3c07 cabe e8fc 2fbd 5a7e 713e
00000370: bdfb aebe 7bb0 1dbf 4db3 0f3f fc44 853e
00000380: b994 a23d 727a 3f3f 3144 5e3d 13b9 d5be
00000390: 804d e2be e3fd fdbd 3e15 be3e 7ee6 07be
000003a0: 6b66 a9be c83d eebd 7632 07bd 421b 1bbe
000003b0: 911a b03c 873a 0c3e a343 56be 973c a4bc
000003c0: b43c f6bd 4e71 813d 2e6e 45be 8b67 2dbe
000003d0: cdc9 233d 569a f9bc 8215 04bd 9078 5e3c
000003e0: 91fd 90bb 066b 04bb d199 0cbd 6ce2 383e
000003f0: 55ed fd3c be1a 983d da04 b8bc 567d dabc

bias f4 [256]
-0.038447145 -0.048567407 -0.120789714 0.038983036 -0.030562608 0.38747945 -0.070736066 -0.15675761
-0.312731 -0.10751058 -0.18814738 -0.35184285 0.2430217 -1.1024253 0.12425008 -0.1948574
-0.1917914 -0.4968585 -0.15844803 -0.2214102 0.30499744 -0.021484625 -0.35235637 -0.09428812
-0.2621046 -0.13040581 -0.20473535 0.075306274 0.508018 -0.03944694 -0.66828257 0.24512918
-0.15061666 -0.24055769 -0.25329775 0.049586423 -0.08654072 -0.08347043 0.59348387 -0.19442977
0.17623329 -0.18375608 -0.2846245 -0.27611497 -0.2562487 -0.30466816 -0.19433784 -0.5453871
-0.20366009 -0.011264558 -0.23677444 -0.007212334 -0.22642885 -0.84561485 0.04831139 0.042110093
0.065876454 -0.47982085 -0.44020084 -0.023940876 0.27198943 -0.1604325 -0.34824058 -0.10639042
0.16988868 0.17193556 -0.25650907 0.11833166 -0.10923102 -0.6994761 -0.19906603 -0.2819641
-0.27117863 -0.08673942 0.3594565 -0.20024182 -0.047865357 0.2625539 -0.16466226 -0.25471956
-0.02564757 -0.31504625 0.14145479 -0.21610872 -0.40070215 0.0075458433 -0.19233693 0.12001921
-0.023454314 0.24098635 0.04111931 -0.19442682 -0.021327026 -0.08947389 0.10152432 0.13621253
-0.16632238 -0.053907275 -0.27636838 -0.00956507 0.05510132 0.44502193 -0.16503939 -0.4056982
-0.45282105 -0.5491068 -0.2371819 0.24822669 -0.043411426 -0.08468801 -0.26547378 -0.1368936
-0.25246555 0.0031637105 -0.29515183 -0.24482512 -0.3958672 -0.26683828 -0.35458314 -0.03784276
-0.5307365 -0.32807684 0.6828292 -0.1770047 0.24559504 0.32996348 1.5585569 0.5332892
-0.51929903 -0.37814996 -0.2612331 0.056683924 0.049258273 -0.49108428 -0.018396148 0.05042993
0.5508278 0.076588556 -0.18378691 -0.3497477 0.05755363 -0.4169326 -0.10532995 -0.14198475
-0.42406872 -0.1760795 -0.16065866 -0.14276911 -0.04260076 -0.30649242 0.06794876 -0.28980345
-0.029239852 0.33069688 -0.02700583 0.1679134 -0.24386626 -0.12051217 -0.014942281 -0.018337488
-0.15030985 -0.2784009 -0.16038422 -0.21879925 -0.16243565 -0.22838484 -0.6484668 0.21871293
0.016740171 -0.4144558 -0.33955556 -0.102929816 0.16713512 -0.12106687 -0.18839534 -0.04950212
0.4657032 -0.251051 -0.03564043 0.32462335 -0.18210404 -0.18238865 -0.46168068 -0.2205686
0.05565915 0.15697907 0.033184618 -0.48143974 -0.1717445 -0.22750628 -0.17310949 0.043429412
-0.09906066 0.2268539 0.05429033 -0.1489592 0.16435243 -0.30108005 -0.33991897 -0.19132137
-0.036146317 0.22187963 -0.27401155 0.2528118 -0.2991493 -0.075595625 0.12227926 -0.43170485
-0.15352906 0.6419362 -0.049535684 -0.073699564 -0.18161736 -0.2365305 0.21238741 -0.18940642
-0.60450387 -0.31521583 -0.08858069 0.09587604 0.17057471 -0.15994823 0.18554585 -0.13697995
-0.20212841 -0.01129014 -0.012368176 -0.14926578 -0.045068014 -0.18943593 -0.40212196 -0.30030125
-0.083034776 -0.40848997 0.19352263 -0.21000709 -0.25386298 -0.22099134 -0.1572413 -0.13713324
-0.18736665 0.23745142 -0.058460124 -0.076281734 -0.18665946 -0.44479108 -0.5074774 -0.065785974
-0.24573037 0.1519377 -0.34651497 -0.042307485 -0.08722799 0.021353813 -0.5070156 0.13981536
00000000: c17a 1dbd 9eee 46bd 9960 f7bd adac 1f3d
00000010: 6f5e fabc b563 c63e 12de 90bd 1185 20be
00000020: 471e a0be 822e dcbd b5a9 40be bf24 b4be
00000030: aeda 783e 461c 8dbf d376 fe3d b388 47be
00000040: f764 44be 3d64 febe 3340 22be 5bb9 62be
00000050: a028 9c3e 8600 b0bc 0e68 b4be 211a c1bd
00000060: 9332 86be 1a89 05be 25a6 51be 2d3a 9a3d
00000070: 780d 023f 1d93 21bd 9114 2bbf 2503 7b3e
00000080: 413b 1abe c154 76be 3eb0 81be 221b 4b3d
00000090: 433c b1bd 8bf2 aabd 8fee 173f 9918 47be
000000a0: 8076 343e 8e2a 3cbe 4dba 91be f15e 8dbe
000000b0: 0833 83be 77fd 9bbe 8000 47be 7d9e 0bbf
000000c0: 458c 50be fb8e 38bc 0075 72be 7155 ecbb
000000d0: f7dc 67be 377a 58bf 2ae2 453d a27b 2c3d
000000e0: 3cea 863d 14ab f5be 0162 e1be a81f c4bc
000000f0: 3342 8b3e 6b48 24be 974c b2be 38e3 d9bd
00000100: 4cf7 2d3e e00f 303e 2855 83be df57 f23d
00000110: 83b4 dfbd de10 33bf f7d7 4bbe 995d 90be
00000120: edd7 8abe 70a4 b1bd af0a b83e 310c 4dbe
00000130: 770e 44bd 776d 863e 399d 28be 9a6a 82be
00000140: da1a d2bc be4d a1be 86d9 103e 9b4b 5dbe
00000150: d528 cdbe 1f43 f73b f9f3 44be a2cc f53d
00000160: 4323 c0bc 20c5 763e b96c 283d d317 47be
00000170: 04b6 aebc 163e b7bd fceb cf3d 4c7b 0b3e
00000180: 6a50 2abe e0cd 5cbd 2880 8dbe d0b6 1cbc
00000190: ecb1 613d ead9 e33e 1600 29be adb7 cfbe
000001a0: 29d8 e7be 4392 0cbf d0df 72be 232f 7e3e
000001b0: 2ed0 31bd e870 adbd 2eec 87be d62d 0cbe
000001c0: 2a43 81be 4156 4f3b 241e 97be 70b3 7abe
000001d0: 1baf cabe 079f 88be ec8b b5be 0301 1bbd
000001e0: 59de 07bf b0f9 a7be e5cd 2e3f b840 35be
000001f0: 447d 7b3e f9f0 a83e cb7e c73f a485 083f
00000200: c8f0 04bf df9c c1be 58c0 85be 672d 683d
00000210: 0bc3 493d 666f fbbe 85b3 96bc 9d8f 4e3d
00000220: 0d03 0d3f 76da 9c3d a332 3cbe 2112 b3be
00000230: 5bbd 6b3d 3178 d5be 3bb7 d7bd 7364 11be
00000240: 891f d9be 2f4e 34be b483 24be 1132 12be
00000250: 227e 2ebd 93ec 9cbe b828 8b3d 1e61 94be
00000260: 6a88 efbc 1a51 a93e 553b ddbc 7ef1 2b3e
00000270: 14b8 79be 16cf f6bd 78d0 74bc 8038 96bc
00000280: d3ea 19be 908a 8ebe c33b 24be e90c 60be
00000290: 8855 26be b7dd 69be ec01 26bf 48f6 5f3e
000002a0: af22 893c 8d33 d4be 3ada adbe decc d2bd
000002b0: 7825 2b3e e8f1 f7bd b5ea 40be bcc2 4abd
000002c0: a670 ee3e c289 80be b3fb 11bd 0835 a63e
000002d0: 7b79 3abe 17c4 3abe 6961 ecbe bcdc 61be
000002e0: d9fa 633d 1fbf 203e 98ec 073d 457f f6be
000002f0: cadd 2fbe 68f7 68be 9d43 31be 0ae3 313d
00000300: 51e0 cabd 644c 683e 895f 5e3d c388 18be
00000310: 014c 283e 2a27 9abe dc09 aebe c0e9 43be
00000320: 290e 14bd 6a34 633e 3e4b 8cbe 8c70 813e
00000330: 192a 99be e1d1 9abd 8c6d fa3d 6b08 ddbe
00000340: b936 1dbe ee55 243f eee5 4abd ccef 96bd
00000350: e7f9 39be 0d35 72be 167c 593e c2f3 41be
00000360: c4c0 1abf f863 a1be cb69 b5bd a85a c43d
00000370: 23ab 2e3e 78c9 23be bbff 3d3e 7944 0cbe
00000380: c0fa 4ebe 48fa 38bc e4a3 4abc 21d9 18be
00000390: 3d99 38bd 7efb 41be eee2 cdbe 16c1 99be
000003a0: 230e aabd 9925 d1be cc2a 463e 190c 57be
000003b0: 54fa 81be 8e4b 62be dd03 21be a86c 0cbe
000003c0: 0bdd 3fbe 7726 733e e273 6fbd 9939 9cbd
000003d0: a823 3fbe a8bb e3be 0aea 01bf ccba 86bd
000003e0: bea0 7bbe 8e95 1b3e 696a b1be 9d4a 2dbd
000003f0: 97a4 b2bd 31ee ae3c c6cb 01bf c22b 0f3e

weight f4 [256, 256]
0.17558542 -0.0056277984 -0.14795753 0.18861897 0.11485997 0.14356226 0.004440754 -0.14645703
0.13724631 -0.40520477 -0.18655273 -0.06493763 0.043104935 -0.5326147 0.033551767 -0.24475646
0.24750917 -0.48553818 0.1785437 -0.087381616 0.02445496 -0.45952505 0.010105425 -0.17370857
-0.72701925 0.09321644 0.3694901 -0.16880263 0.088623896 -0.0050584823 -0.08264792 -0.2721398
0.18759876 0.46297058 -0.009645101 0.33610132 -0.027154088 -0.12322039 -0.39835763 0.34724706
0.11073152 0.05364305 -0.13183634 -0.376978 -0.041430436 -0.410826 0.10097303 -0.06002636
-0.15129626 -0.40807393 -0.1460165 -0.5374638 0.031974666 -0.46959716 -0.3347245 0.011791402
-0.007315406 -0.027110461 -0.6700221 0.2911507 -0.0787117 -0.2278959 -0.09716565 -0.18824647
-0.42626187 -0.14064895 0.24250875 0.4356361 -0.10514492 -0.4374727 -0.03735916 -0.12470862
0.28814533 -0.43988687 -0.16562267 0.5268053 0.24243972 -0.24633807 -0.04662741 -0.20239443
-0.4274949 -0.14770567 0.043441214 -0.18418452 0.1930821 -0.014957644 0.04397697 -0.138753
-0.07551476 -0.061219104 0.093472734 -0.17490792 0.055749986 -0.028881177 -0.3255466 0.1229937
0.12113049 -0.15063244 0.4045047 -0.16220826 -0.2696368 -0.14387864 -0.40150556 -0.12032498
-0.28830785 -0.16018295 -0.21347888 0.01359156 -0.30604732 -0.17828697 0.20852348 -0.40298823
0.031968288 -0.14001776 -0.14477336 -0.40929174 -0.043792058 -0.19352609 -0.034749165 -0.15564981
-0.08514532 0.15118305 0.080407865 0.37365407 0.1041708 -0.19569184 -0.98792964 0.466127
-0.10264318 -0.068797 -0.5970223 0.043116555 0.30897054 -0.0033408194 -0.60716176 0.44594324
0.003767245 -0.048407048 -0.06956648 0.09875569 0.13562411 0.40539652 0.021987034 -0.98418176
-0.394532 0.039748058 0.12857562 0.100245625 0.51823974 -0.15869169 -0.04629149 -0.11497899
-0.1408924 -0.15400971 0.18980253 -0.3212517 -0.061354976 -0.06331303 -0.21087149 0.43155587
0.092337914 0.24059269 -0.018164013 -0.074683264 -0.29604313 -0.29482216 -0.022411494 -0.35418448
-0.068050444 -0.027781103 -0.3010399 -0.2291234 -0.062866546 0.05543274 -0.3134837 -0.35108346
-0.16838984 -0.0038789154 -0.20817436 -0.5919317 -0.29958296 0.12698615 -0.31550026 -0.074070565
0.17522803 -0.48660395 0.12699637 -0.11970161 -0.2424141 -0.03223454 -0.29774982 -0.06352147
0.0022134932 -0.013684511 0.13182235 0.060624797 -0.2874008 0.03724608 -0.261206 -0.27262723
-0.20709144 0.09543908 -0.30711523 0.12001834 0.39280063 -0.6873239 0.30130634 0.32664764
-0.08612812 0.07855853 -0.6235246 -0.3205805 -0.2012082 -0.019715417 -0.034268256 0.074355125
-0.34461686 0.017687967 0.14026628 0.042481568 -0.12294778 -0.12188709 0.021483188 -0.10494646
-0.17620325 0.10322576 -0.820334 0.191661 0.11564546 0.11061138 0.017117176 0.451622
-0.077199474 -0.3473607 0.012233897 -0.060473148 0.2748914 -0.020089105 0.11109604 -0.15039627
-0.31287488 -0.03902511 -0.070399515 0.08042491 0.035287224 0.1962993 -0.6688572 -0.1520309
-0.15461403 0.05859175 0.05745217 0.37331367 0.033062834 0.15932047 -0.27861816 -0.06347219
00000000: aacc 333e 6569 b8bb 2e82 17be 5525 413e
00000010: b43b eb3d fc01 133e bf83 913b d5f8 15be
00000020: 4c8a 0c3e 0077 cfbe ae07 3fbe 05fe 84bd
00000030: cd8e 303d 7059 08bf 946d 093d 70a1 7abe
00000040: 0b73 7d3e 7698 f8be 29d4 363e 22f5 b2bd
00000050: c555 c83c de46 ebbe 3991 253c a9e0 31be
00000060: ef1d 3abf 43e8 be3d ce2d bd3e 99da 2cbe
00000070: 7280 b53d a0c1 a5bb 5043 a9bd e855 8bbe
00000080: e419 403e 7b0a ed3e 7c06 1ebc 7915 ac3e
00000090: 4072 debc f95a fcbd 88f5 cbbe 5eca b13e
000000a0: 35c7 e23d d1b8 5b3d 1b00 07be 4303 c1be
000000b0: f6b2 29bd c957 d2be f3ca ce3d 33de 75bd
000000c0: 68ed 1abe 11ef d0be 5985 15be 3a97 09bf
000000d0: def7 023d 0a6f f0be 0261 abbe b930 413c
000000e0: 13b6 efbb c216 debc 9186 2bbf b411 953e
000000f0: 9a33 a1bd 8b5d 69be c9fe c6bd afc3 40be
00000100: ff3e dabe 4706 10be 3754 783e b20b df3e
00000110: 3856 d7bd 6cfc dfbe eb05 19bd 3c67 ffbd
00000120: c987 933e da38 e1be fd98 29be b6dc 063f
00000130: 1e42 783e 0c40 7cbe 62fc 3ebd 7c40 4fbe
00000140: 9de0 dabe 2840 17be 6aef 313d de9a 3cbe
00000150: 50b7 453e e810 75bc 3221 343d 4415 0ebe
00000160: 7ca7 9abd e2c0 7abd a26e bf3d 101b 33be
00000170: 195a 643d 3898 ecbc 0bae a6be 1fe4 fb3d
00000180: 4313 f83d 643f 1abe 3d1b cf3e ec19 26be
00000190: d60d 8abe ec54 13be 2392 cdbe f16c f6bd
000001a0: 169d 93be 0007 24be 359a 5abe 22af 5e3c
000001b0: 3cb2 9cbe dc90 36be 2e87 553e 7954 cebe
000001c0: 2ef1 023d d160 0fbe 783f 14be b08e d1be
000001d0: 4d5f 33bd b42b 46be 2455 0ebd aa62 1fbe
000001e0: ab60 aebd bbcf 1a3e e1ac a43d 964f bf3e
000001f0: 8057 d53d 7163 48be f5e8 7cbf 33a8 ee3e
00000200: 9636 d2bd 71e5 8cbd 74d6 18bf fc9a 303d
00000210: 6331 9e3e a6f1 5abb f46e 1bbf ac52 e43e
00000220: e2e3 763b 7846 46bd df78 8ebd 6c40 ca3d
00000230: 0ce1 0a3e 2290 cf3e 271e b43c 56f3 7bbf
00000240: 1900 cabe dcce 223d 54a9 033e 944d cd3d
00000250: 5cab 043f 1380 22be 259c 3dbd 1b7a ebbd
00000260: 1946 10be b9b4 1dbe 985b 423e 1a7b a4be
00000270: 5b4f 7bbd 43aa 81bd b2ee 57be e4f4 dc3e
00000280: a91b bd3d ee5d 763e b2cc 94bc 8af3 98bd
00000290: f792 97be eef2 96be 4f98 b7bc ab57 b5be
000002a0: 085e 8bbd 3295 e3bc e721 9abe 539f 6abe
000002b0: 2dc0 80bd 710d 633d ef80 a0be 36c1 b3be
000002c0: 636e 2cbe 6735 7ebb a92b 55be d688 17bf
000002d0: f062 99be a808 023e 4089 a1be 4fb2 97bd
000002e0: fa6e 333e 2724 f9be 560b 023e 1e26 f5bd
000002f0: 673b 78be 5d08 04bd aa72 98be 8b17 82bd
00000300: 4110 113b 0035 60bc 70fc 063e b551 783d
00000310: 3326 93be 588f 183d cbbc 85be cc95 8bbe
00000320: c70f 54be 9075 c33d 353e 9dbe 2dcc f53d
00000330: 2a1d c93e 76f4 2fbf d344 9a3e 5c3e a73e
00000340: f163 b0bd 4be3 a03d 4f9f 1fbf 2123 a4be
00000350: 8609 4ebe 3a82 a1bc df5c 0cbd 8047 983d
00000360: 9f71 b0be 5be6 903c f7a1 0f3e 2701 2e3d
00000370: 0ccc fbbd f09f f9bd 83fd af3c 2bee d6bd
00000380: a06e 34be 0768 d33d 6901 52bf c842 443e
00000390: 87d7 ec3d 3888 e23d 5239 8c3c 003b e73e
000003a0: c21a 9ebd 43d9 b1be af70 483c b1b2 77bd
000003b0: 91be 8c3e e891 a4bc 5286 e33d 7b01 1abe
000003c0: 2331 a0be cbd8 1fbd 9f2d 90bd d1b5 a43d
000003d0: 5689 103d af02 493e 3a3a 2bbf fdad 1bbe
000003e0: 2453 1ebe e7fd 6f3d f752 6b3d f822 bf3e
000003f0: e56c 073d e824 233e 0aa7 8ebe b5fd 81bd

bias f4 [256]
0.21722957 0.092999816 -0.00456649 0.09877871 0.45983133 -0.1925053 -0.29577208 0.20163034
0.16485241 0.10736906 0.9547266 0.4283029 0.8960452 -0.2896352 1.0198891 -0.6554119
0.28969884 0.9135095 0.17831789 0.6577486 0.52071255 0.3985396 -0.11952388 0.11330304
0.047915 -0.044941872 0.6242249 -0.68968564 -0.29828835 -0.0019894345 -0.12265657 -0.35072023
0.7501888 1.2793039 -0.3097697 -0.13580838 -0.21154101 0.99263364 0.9761613 1.0245361
0.053544406 0.09313274 0.7658514 -0.18506153 0.48662195 0.7355132 1.0321833 1.1549037
0.16305834 0.23093827 0.47244954 0.96701175 0.86371756 0.4702125 -0.95594555 -0.25917447
0.22787721 1.0927554 0.46094882 -0.14530507 0.13428561 0.41276848 0.06759511 0.36023274
0.14040884 1.0619491 0.54111207 0.6219238 0.14379166 0.17968759 -0.020147625 0.6090006
0.018949296 0.15336801 0.23216683 0.25459054 0.28324783 0.5484157 0.793917 0.010861737
1.0071576 -0.11975607 0.40164763 0.35808918 0.78657395 -0.06955683 0.25743812 -0.23579668
0.9212657 0.30698824 -0.0032620989 0.14413212 0.7109001 -0.08272458 -0.7444738 0.027722182
-0.10187102 0.8564166 0.4331443 0.64149415 0.19300652 -0.36872146 0.9026762 -0.006399178
0.6632615 -0.08127325 -0.031490605 0.8290533 0.3728643 1.0208479 0.2757444 -0.4147497
-0.27258727 0.054144215 1.0268036 0.25592536 0.15791807 -0.010541498 1.0063708 0.15392512
0.26192543 0.20416722 -0.09653799 0.026954263 -0.2357277 -0.23880383 0.5301502 1.1986625
0.47254166 -0.017153647 -0.43116546 0.0181507 0.038979255 0.0059815175 0.82166564 0.7189166
1.0089319 0.49953046 0.104796074 0.7188216 -0.107852034 0.09567344 0.879678 1.0894924
-0.4160658 0.28435403 0.43691105 -0.09048046 -0.0063415742 0.8239858 -0.27533537 -0.32162413
1.0844475 0.58745915 0.7135772 -0.017231576 0.7027363 1.0441264 -0.049023304 0.058844667
-0.052766204 0.90918624 -0.50290155 0.15066777 -0.2238443 0.5131015 -0.07071389 -0.042493694
-0.08583996 0.21733075 0.20395193 0.29689458 -0.05435466 0.4772093 -0.14646915 0.41289455
-0.095461786 -0.27086815 0.028224913 -0.044123735 0.97205716 0.18298817 0.80503017 0.45982674
0.3055951 1.1796438 -0.10524097 0.022242641 -0.021617174 0.09817235 0.98827696 0.22804897
-0.3306235 0.098792635 -0.10397657 0.1724792 0.25229102 0.84808993 0.38275778 -0.01416779
0.4737456 0.060409714 -0.22614545 -0.16213958 0.9372995 0.0670439 0.42006987 0.2530708
-0.12473945 -0.12904693 1.2071258 0.114907295 0.68387765 -0.8861653 -0.06330219 1.1321985
-0.2088912 0.3538274 -0.18896653 0.9752148 1.1497133 0.093459256 0.3400731 0.22185107
0.38371328 0.3690102 0.012361871 -0.50035137 0.20124479 -0.42305988 0.41888723 0.780117
-0.1837842 0.18085124 0.29378048 0.5125763 -0.2364051 0.05832007 0.026914086 -0.016919442
0.57151026 0.27352446 0.72175694 0.31047115 0.35730678 0.97202957 0.25205112 0.21686587
0.09222667 1.2777426 0.012717651 0.21813196 -0.16478515 0.9101727 0.73857284 0.35750687
00000000: 6e71 5e3e b076 be3d 7fa2 95bb 7e4c ca3d
00000010: 036f eb3e 1c20 45be 706f 97be 2f78 4e3e
00000020: 12cf 283e 4fe4 db3d f668 743f 854a db3e
00000030: 3863 653f 114b 94be ba8b 823f 13c9 27bf
00000040: 6853 943e c2db 693f f798 363e 3662 283f
00000050: 6b4d 053f 620d cc3e f0c8 f4bd 6d0b e83d
00000060: 8542 443d f814 38bd 34cd 1f3f 3d8f 30bf
00000070: 40b9 98be 2c61 02bb 5e33 fbbd 9a91 b3be
00000080: 600c 403f 3bc0 a33f 229a 9ebe 5a11 0bbe
00000090: 359e 58be 3d1d 7e3f b5e5 793f 0024 833f
000000a0: 6151 5b3d 61bc be3d d60e 443f c580 3dbe
000000b0: 8326 f93e 984a 3c3f 951e 843f e2d3 933f
000000c0: c4f8 263e 157b 6c3e e8e4 f13e 158e 773f
000000d0: 981c 5d3f b1bf f03e d9b8 74bf 84b2 84be
000000e0: a558 693e 69df 8b3f 7c01 ec3e daca 14be
000000f0: 2b82 093e 6456 d33e 4e6f 8a3d 6d70 b83e
00000100: 56c7 0f3e f3ed 873f 5286 0a3f 6636 1f3f
00000110: 1f3e 133e 0600 383e a20c a5bc 77e7 1b3f
00000120: 8e3b 9b3c 810c 1d3e 24bd 6d3e b159 823e
00000130: dc05 913e f964 0c3f 253e 4b3f 6df5 313c
00000140: 8aea 803f ac42 f5bd c2a4 cd3e 7757 b73e
00000150: e95c 493f d073 8ebd eece 833e af74 71be
00000160: 12d8 6b3f 902d 9d3e f0c8 55bb 5f97 133e
00000170: 8dfd 353f 816b a9bd d695 3ebf a119 e33c
00000180: c1a1 d0bd 1e3e 5b3f 17c5 dd3e f638 243f
00000190: 80a3 453e 0fc9 bcbe ca15 673f 32b0 d1bb
000001a0: 81cb 293f 9772 a6bd 4bfc 00bd d63c 543f
000001b0: 12e8 be3e 25ab 823f 5f2e 8d3e 135a d4be
000001c0: 8f90 8bbe 53c6 5d3d 4d6e 833f a608 833e
000001d0: 46b5 213e 3fb6 2cbc c2d0 803f 8c9e 1d3e
000001e0: 171b 863e 3611 513e b6b5 c5bd 30cf dc3c
000001f0: 9a62 71be fe88 74be ecb7 073f c66d 993f
00000200: fbf0 f13e ce85 8cbc b8c1 dcbe c7b0 943c
00000210: b6a8 1f3d 9b00 c43b ae58 523f eb0a 383f
00000220: ae24 813f 75c2 ff3e 539f d63d b104 383f
00000230: 87e1 dcbd 70f0 c33d 9432 613f 7d74 8b3f
00000240: 9406 d5be da96 913e ceb2 df3e d24d b9bd
00000250: fbcc cfbb bcf0 523f c2f8 8cbe ebab a4be
00000260: 2dcf 8a3f b963 163f ffac 363f 3c29 8dbc
00000270: 87e6 333f efa5 853f a9cc 48bd 1b07 713d
00000280: 6021 58bd 6ec0 683f 28be 00bf a748 1a3e
00000290: 7137 65be 9f5a 033f 72d2 90bd de0d 2ebd
000002a0: dccc afbd f48b 5e3e c6d8 503e 9102 983e
000002b0: fea2 5ebd c754 f43e 02fc 15be ea66 d33e
000002c0: 7881 c3bd 3baf 8abe ef37 e73c 17bb 34bd
000002d0: bdd8 783f 4061 3b3e 7516 4e3f 696e eb3e
000002e0: f676 9c3e 91fe 963f 9488 d7bd 3336 b63c
000002f0: 8016 b1bc 960e c93d b8ff 7c3f ab85 693e
00000300: 7c47 a9be cb53 ca3d abf1 d4bd 639e 303e
00000310: 4a2c 813e 6c1c 593f d4f8 c33e 0520 68bc
00000320: c98e f23e 2d70 773d ac92 67be eb07 26be
00000330: dcf2 6f3f 504e 893d 6613 d73e 7f92 813e
00000340: 6677 ffbd e124 04be 1983 9a3f 8454 eb3d
00000350: 9b12 2f3f bbdb 62bf 94a4 81bd e1eb 903f
00000360: 93e7 55be dd28 b53e 7180 41be ada7 793f
00000370: ce29 933f 9167 bf3d 101e ae3e ed2c 633e
00000380: 1176 c43e e8ee bc3e 7289 4a3c 0717 00bf
00000390: 1d13 4e3e 4e9b d8be 6378 d63e bfb5 473f
000003a0: ed31 3cbe 1131 393e 656a 963e 3338 033f
000003b0: 2e14 72be 07e1 6e3d ee7a dc3c a49a 8abc
000003c0: 7f4e 123f 660b 8c3e 10c5 383f 13f6 9e3e
000003d0: eaf0 b63e eed6 783f d80c 813e 1612 5e3e
000003e0: 56e1 bc3d 128d a33f b25d 503c fc5d 5f3e
000003f0: 70bd 28be 1401 693f 1c13 3d3f 240b b73e

weight f4 [1, 256]
-2.679019 -1.5458505 -0.7489826 -1.3082598 2.1408455 -0.94432133 -0.5192387 0.29068917
-2.1461577 0.33689967 0.5222912 0.69960845 0.8496962 -0.17193416 0.48689842 -0.6519083
-1.4851557 0.579864 0.21009777 0.23020285 0.98519427 0.46614346 -1.8344135 -2.0243955
-1.5598263 -1.3666459 0.81415856 -0.5496029 -1.4541943 0.6250955 -2.7011704 -1.3744484
0.800803 0.37015575 -1.239851 -1.1372786 -0.3763113 1.1353272 1.3183644 0.7915177
-0.5853432 -0.6752921 1.0822709 -0.8727546 1.676828 0.26668605 0.5416399 0.770021
-2.1552658 -0.108811945 -2.5818985 0.7329874 2.702919 0.34536394 -0.7842917 -2.0646205
1.3064752 0.5870968 0.6946879 -0.34909704 0.60321367 0.9963996 -1.3125329 0.5878554
0.6593502 0.84581214 2.0764828 0.5096014 0.63090026 -2.7954304 -2.9495683 2.3111265
-0.47947782 0.7280773 -2.271415 0.6597261 0.84941995 0.62163895 0.41360438 -1.6899685
1.5786595 -1.4539328 0.13500898 1.8587906 2.1173975 -0.68054926 0.38007006 -1.0618382
0.54983556 1.0848832 -0.88279724 0.303288 0.7315796 -0.69599617 -1.6314926 0.5403666
-1.3127755 0.46166438 -3.3265882 0.3001411 0.6652387 -1.475639 2.4286513 -1.3538823
0.2547574 -0.61908704 -1.3990432 0.28609318 0.16516426 0.5278316 0.38760206 -1.6639297
-1.5456312 -0.9098338 0.31159675 0.23697998 -1.5376742 -1.589807 0.34871447 -0.65796196
0.3783842 -1.9539353 -1.4711809 -1.841146 -0.37951097 -1.3149462 1.6482817 0.6933557
0.43597168 -1.2535961 -1.8634688 -1.7561767 -0.85964465 -1.1560243 0.9061354 0.38249213
0.31763914 0.59834695 -1.099568 -3.2902067 -2.1806948 -1.8180829 1.4130156 0.63398117
-1.4745594 0.04075366 0.75287116 -0.76862323 -2.3323052 0.62615335 -1.5857438 -0.7893506
0.89322364 0.14993028 1.3607255 -1.9790897 0.4792197 0.54386747 -2.426587 -2.1038072
-0.60568804 0.50622743 -0.3843699 -2.5616336 -0.6600312 -4.1268673 -0.5459451 -1.669573
-1.093042 0.47824818 0.2546495 0.26280028 -1.756098 0.1460623 -1.0349703 0.5738919
-1.1049178 -0.34446758 -2.63021 -2.1215074 0.5187232 -3.1291988 0.69739634 0.1795333
0.5973743 0.37378764 -0.98518425 -1.7612151 -1.5066736 -1.6165344 0.60373414 0.51483864
-1.937748 -1.7836646 -0.6441275 0.42280534 0.4966856 0.45667255 0.32720938 -1.227631
0.94380873 -1.3816842 -0.4989227 -1.414472 0.6478889 -2.1770248 0.7712336 0.502806
-1.1246152 -0.9710014 0.51973915 -1.1945252 0.7955519 -0.709197 -1.8315438 0.5040765
-1.3652631 -3.301776 -1.3239691 0.6190146 0.98365754 0.5501955 0.48790258 -2.3181
1.0234247 0.4007358 0.98231864 -0.31106752 0.51990515 -1.0875796 -3.0049543 0.7422138
-1.4696844 0.4919086 -2.707054 0.30261245 -1.1129516 -0.6961455 -1.721394 -0.39531764
0.8189167 0.45230484 0.28147948 0.16707945 0.9049542 0.465411 0.6171268 0.51216435
0.19143647 0.6803318 -0.86607444 0.43628615 -1.2478794 0.49229455 -3.7608573 0.35860178
00000000: 0c75 2bc0 6ede c5bf 53bd 3fbf 0f75 a7bf
00000010: 9d03 0940 0bbf 71bf d4ec 04bf 36d5 943e
00000020: a65a 09c0 1d7e ac3e e0b4 053f 8a19 333f
00000030: b185 593f 820f 30be c04a f93e 76e3 26bf
00000040: 9519 bebf f871 143f df23 573e 4cba 6b3e
00000050: b135 7c3f 5baa ee3e 10ce eabf b28f 01c0
00000060: 63a8 c7bf 41ee aebf b26c 503f c7b2 0cbf
00000070: 0a23 babf 4206 203f fadf 2cc0 eded afbf
00000080: 6d01 4d3f 0e85 bd3e 70b3 9ebf 5892 91bf
00000090: e0ab c0be 6752 913f 2ac0 a83f e7a0 4a3f
000000a0: 0dd9 15bf f1df 2cbf da87 8a3f d86c 5fbf
000000b0: 4da2 d63f 138b 883e eaa8 0a3f 1920 453f
000000c0: e0ef 09c0 ccd8 debd d33d 25c0 10a5 3b3f
000000d0: a0fc 2c40 8bd3 b03e 57c7 48bf be22 04c0
000000e0: 943a a73f fa4b 163f 11d7 313f d9bc b2be
000000f0: 366c 1a3f 0b14 7f3f 1401 a8bf b17d 163f
00000100: 2dcb 283f 2587 583f 18e5 0440 3d75 023f
00000110: ae82 213f 55e8 32c0 bac5 3cc0 7fe9 1340
00000120: 1e7e f5be 4663 3a3f dd5e 11c0 cfe3 283f
00000130: 9673 593f bb23 1f3f f4c3 d33e e350 d8bf
00000140: 8411 ca3f 781a babf cb3f 0a3e daec ed3f
00000150: 7183 0740 7a38 2ebf 8b98 c23e 50ea 87bf
00000160: 06c2 0c3f 74dd 8a3f 00ff 61bf 9148 9b3e
00000170: cd48 3b3f ce2c 32bf c0d4 d0bf 7755 0a3f
00000180: 0709 a8bf 465f ec3e d2e6 54c0 18ac 993e
00000190: 154d 2a3f bde1 bcbf 066f 1b40 044c adbf
000001a0: 906f 823e 7d7c 1ebf d913 b3bf ce7a 923e
000001b0: d220 293e f91f 073f c773 c63e a6fb d4bf
000001c0: 3ed7 c5bf deea 68bf 9c89 9f3e e1aa 723e
000001d0: 82d2 c4bf cc7e cbbf b48a b23e 3270 28bf
000001e0: 93bb c13e 8d1a fabf a84f bcbf acaa ebbf
000001f0: 434f c2be 2850 a8bf e5fa d23f c27f 313f
00000200: ae37 df3e d675 a0bf 2586 eebf 66ca e0bf
00000210: ac11 5cbf 9bf8 93bf 7df8 673f 02d6 c33e
00000220: 99a1 a23e 442d 193f a5be 8cbf bf92 52c0
00000230: 8190 0bc0 f1b6 e8bf b2dd b43f 974c 223f
00000240: 5dbe bcbf 4fed 263d 2abc 403f 7ec4 44bf
00000250: 7d44 15c0 964b 203f a7f9 cabf e212 4abf
00000260: 4eaa 643f 5387 193e 412c ae3f d052 fdbf
00000270: 495c f53e e63a 0b3f 344d 1bc0 c7a4 06c0
00000280: 5f0e 1bbf 1f98 013f 22cc c4be cef1 23c0
00000290: cef7 28bf 4c0f 84c0 0fc3 0bbf 91b4 d5bf
000002a0: cde8 8bbf f2dc f43e 6b61 823e c28d 863e
000002b0: d2c7 e0bf 5b91 153e e879 84bf 94ea 123f
000002c0: f26d 8dbf 0e5e b0be 5c55 28c0 c7c6 07c0
000002d0: 0bcb 043f cb44 48c0 9188 323f 94d7 373e
000002e0: 86ed 183f 1861 bf3e 0935 7cbf 7f6f e1bf
000002f0: aeda c0bf 99ea cebf 528e 1a3f 77cc 033f
00000300: 2008 f8bf 1f4f e4bf 8ae5 24bf f179 d83e
00000310: 934d fe3e fcd0 e93e fd87 a73e 0323 9dbf
00000320: 739d 713f 07db b0bf cc72 ffbe 6b0d b5bf
00000330: 0cdc 253f 6054 0bc0 916f 453f e5b7 003f
00000340: 64f3 8fbf 8c93 78bf a00d 053f 34e6 98bf
00000350: 4aa9 4b3f ef8d 35bf 0770 eabf 280b 013f
00000360: f1c0 aebf 4c50 53c0 d277 a9bf be77 1e3f
00000370: fbd0 7b3f 9dd9 0c3f 5ece f93e c05b 14c0
00000380: 95ff 823f 3e2d cd3e 3c79 7b3f 3e44 9fbe
00000390: 8118 053f cf35 8bbf 2c51 40c0 b901 3e3f
000003a0: 9e1e bcbf 72db fb3e 5f40 2dc0 05f0 9a3e
000003b0: 3375 8ebf 9736 32bf a356 dcbf 1367 cabe
000003c0: 86a4 513f 8094 e73e 141e 903e e016 2b3e
000003d0: 14ab 673f 5a4a ee3e 06fc 1d3f 341d 033f
000003e0: ec07 443e 3a2a 2e3f 0eb7 5dbf e660 df3e
000003f0: 83ba 9fbf 080e fc3e e3b1 70c0 a79a b73e

obs_std f4 [35]
0.2 0.2 1.0 1.0 1.0 0.5 0.5 0.5
0.5 0.5 0.5 0.5 0.5 0.5 0.5 4.0
4.0 4.0 4.0 4.0 4.0 4.0 4.0 4.0
4.0 1.0 1.0 1.0 1.0 1.0 1.0 1.0
1.0 1.0 1.0
00000000: cdcc 4c3e cdcc 4c3e 0000 803f 0000 803f
00000010: 0000 803f 0000 003f 0000 003f 0000 003f
00000020: 0000 003f 0000 003f 0000 003f 0000 003f
00000030: 0000 003f 0000 003f 0000 003f 0000 8040
00000040: 0000 8040 0000 8040 0000 8040 0000 8040
00000050: 0000 8040 0000 8040 0000 8040 0000 8040
00000060: 0000 8040 0000 803f 0000 803f 0000 803f
00000070: 0000 803f 0000 803f 0000 803f 0000 803f
00000080: 0000 803f 0000 803f 0000 803f

obs_mean f4 [35]
0.0 0.0 0.0 0.0 0.0 0.0 0.0 -0.2
0.6 -0.4 0.0 0.0 -0.2 0.6 -0.4 0.0
0.0 0.0 0.0 0.0 0.0 0.0 0.0 0.0
0.0 0.5 0.5 0.0 0.0 0.0 0.0 0.0
0.0 0.0 0.0
00000000: 0000 0000 0000 0000 0000 0000 0000 0000
00000010: 0000 0000 0000 0000 0000 0000 cdcc 4cbe
00000020: 9a99 193f cdcc ccbe 0000 0000 0000 0000
00000030: cdcc 4cbe 9a99 193f cdcc ccbe 0000 0000
00000040: 0000 0000 0000 0000 0000 0000 0000 0000
00000050: 0000 0000 0000 0000 0000 0000 0000 0000
00000060: 0000 0000 0000 003f 0000 003f 0000 0000
00000070: 0000 0000 0000 0000 0000 0000 0000 0000
00000080: 0000 0000 0000 0000 0000 0000
