trained/h1_step/critic_6299.pt (torch, 306480 bytes, 7 tensors)

weight f4 [256, 35]
000000 ab bf ea 3d 30 a4 17 3e 2d 09 30 3e 53 07 61 3e
       0.11462339 0.14808726 0.17191 0.2197545
000010 5c 09 b8 bc cf 4d 26 3e 22 2f 75 3e 56 45 9f 3e
       -0.0224654 0.16240619 0.23943761 0.31107587
000020 c3 db 7c be 06 7a d3 3d 47 12 a7 3e 6d de b8 be
       -0.24693207 0.103260085 0.32631132 -0.36107197
000030 fa 50 91 be 09 21 2f 3f 13 b9 77 3e 34 b4 90 3d
       -0.28382093 0.6840978 0.24191694 0.07065621
000040 30 3c 67 3e ac aa 0c 3f 0d 0b 88 3e bb 09 b0 3d
       0.22581553 0.54947925 0.2657093 0.08595606
000050 58 0f fa bd f3 e1 98 3e d9 5f 17 3d 7a ae 56 bd
       -0.12209958 0.29859886 0.03695664 -0.052412488
000060 ac 9b 06 3d 73 41 1a 3e 04 47 85 3d 6c 80 80 3e
       0.032863304 0.1506403 0.06507686 0.25097978
000070 e7 ef 62 bf 3d 9c 86 3e 55 95 6e 3f eb 82 39 3d
       -0.8864731 0.26291075 0.9319661 0.04529087
000080 c4 1c 4b 3e 7f e8 2c 3f b4 70 f2 be 6f 17 fd bd
       0.19835192 0.6754226 -0.4735161 -0.12357985
000090 11 a4 3f 3d 44 26 81 3d 69 e7 86 3e a2 6d 43 3d
       0.046787325 0.06306127 0.26348427 0.047711976
0000a0 28 e7 0c bd a3 fc 18 3e 61 b2 31 3d 90 d4 4e 3e
       -0.034400135 0.14940123 0.043383006 0.20198274
0000b0 97 36 1a be f1 88 f3 3d a7 b2 72 be 36 e0 b6 bd
       -0.15059887 0.11891354 -0.23700963 -0.089294836
0000c0 ad 8c 8c 3e 8c a3 82 3e f5 ca 8d 3e 28 48 be 3e
       0.27451077 0.255154 0.27693906 0.37164426
0000d0 79 ba 9b 3f 9e 2b 50 3f f1 2b fc 3d 20 3d 0d 3e
       1.2166282 0.81316555 0.12313069 0.13792849
0000e0 98 6a d0 bb 9d 0f 03 bf 4f 06 ac be f6 cd e5 ba
       -0.006360363 -0.511957 -0.33598563 -0.0017532695
0000f0 9d bf d4 3e 20 6c 0c 3d 42 74 02 bf f8 41 3b be
       0.4155244 0.034282804 -0.50958645 -0.18286884
000100 af 37 17 3e 43 6d 24 3e f7 d5 fb bc 70 ba 31 3d
       0.14767335 0.16057305 -0.030741675 0.04339069
000110 32 83 ad be ad 4d 1b 3e 5d eb c3 bd b2 b0 1b 3e
       -0.33889157 0.1516635 -0.09566376 0.15204123
000120 2f fd 99 bc b0 fc fd 3b 84 20 cd 3c 3e 28 73 3d
       -0.018797485 0.00775107 0.025039919 0.05936455
000130 f6 df e9 be 66 12 ca be 1a 1c 24 be cc eb a9 3c
       -0.4567868 -0.39467162 -0.16026345 0.02074232
000140 3e 89 8a bc 87 fc bb 3e 1b 69 9a be 3b 06 cf bd
       -0.016911145 0.367161 -0.30158314 -0.1010861
000150 4d b1 83 bc aa 8e 5c bc 31 25 57 bc 41 fd c6 3c
       -0.016075755 -0.013461748 -0.013131426 0.024290683
000160 7e 76 18 bc 96 f8 36 3b c3 e1 5d ba bc 8c 9d 3a
       -0.0093055945 0.0027919165 -0.0008464122 0.0012020092
000170 48 29 d9 3b e4 bd 3e 3c 06 09 dc bc 3a 1b ab 3d
       0.0066272356 0.011641953 -0.026859771 0.083548024
000180 85 22 ea 3c c6 80 19 bf 5c 62 d0 bf c8 4c fc 3c
       0.028580913 -0.5996212 -1.6280017 0.03079833
000190 a9 fb 0f be 40 8c 5b 3e 5e cb 88 bd e3 1a 21 3f
       -0.14060844 0.2144022 -0.06679414 0.6293165
0001a0 d3 25 ae 3e c9 ee 70 3d 05 e8 dd bc eb b6 0d 3e
       0.34013233 0.058821473 -0.027088175 0.13839309
0001b0 6e d8 8e be 06 e6 4b bd e3 ba 09 be 35 2d a6 3f
       -0.27899498 -0.049779914 -0.13450198 1.2982546
0001c0 fb 58 88 3b b8 0a 60 be 33 d8 23 3d 8b 08 42 3d
       0.004160998 -0.21879089 0.040001106 0.04737143
0001d0 cd 51 fd be ed ec 8f be fc e5 71 3e ed f4 b2 3e
       -0.49476472 -0.28110448 0.23622888 0.3495249
0001e0 54 aa 72 be 6c ce ff 3a 7b ed b9 be 42 8c 04 be
       -0.23697788 0.0019516475 -0.36313996 -0.12944129
0001f0 9d a8 15 3a da ac 90 3d 50 46 be 3e 53 cf ca be
       0.0005709024 0.07064219 0.3716302 -0.396113
000200 63 0e 65 be ec 62 b3 3c ea f4 04 bc f3 5a 35 bd
       -0.2236877 0.021897756 -0.008115033 -0.04427619
000210 dd a1 43 bf 81 47 02 3f a8 b7 28 be 77 de 9d be
       -0.7641886 0.50890356 -0.1647631 -0.3083379
000220 cf 3f 78 3d eb 51 20 be 93 97 8b bd f2 83 71 3d
       0.060607728 -0.15656249 -0.0681602 0.058963723
000230 2e fd 9b 3c 4f 80 d7 bd b3 29 92 3c f6 94 48 bf
       0.019041624 -0.1052252 0.01784215 -0.78352296
000240 de e4 37 bd fe 63 d7 3d c4 c2 57 be d0 f7 8e bd
       -0.044896 0.10517119 -0.21070391 -0.0698086
000250 bc cc 1b 3e 62 8b 17 3d a0 ce 12 3e a6 83 57 3e
       0.15214819 0.03699816 0.14336634 0.21046314
000260 04 09 af bd ce 2e e8 3c ad 49 e9 3e 3c c5 52 be
       -0.085466415 0.02834263 0.45564023 -0.20583051
000270 8d 4d b4 3d 39 a0 d5 bf 09 dd 5e bf 9d 0d 4f be
       0.08803854 -1.6689521 -0.8705602 -0.20220037
000280 f6 31 93 3d f6 d2 b7 bd 44 05 06 bf 8d 14 9b be
       0.07187264 -0.089757845 -0.52351785 -0.30289117
000290 9e d9 41 bd 62 40 41 bd 6e ac e0 bb 23 e7 a2 be
       -0.047326677 -0.04718054 -0.0068564927 -0.31816968
0002a0 e6 2c d9 3d 0d c0 5d bd 58 ad 45 3e 5e b5 8e 3d
       0.10604267 -0.054138232 0.19304407 0.06968187
0002b0 1c 48 38 bd fb ae 90 bd aa d8 34 3e c2 0d 56 3e
       -0.044990644 -0.07064625 0.17660776 0.20903686
0002c0 ef d6 42 3d 31 3c 1c bb eb 58 ac be 69 fc e7 3c
       0.047568258 -0.0023839588 -0.3366159 0.0283186
0002d0 7b 8d 08 bd a4 67 4b bf 56 ee 2a 3d 31 ab 5e bf
       -0.03333805 -0.7945502 0.0417312 -0.8697997
0002e0 c2 50 5e 3f d4 4a 3b bd 52 98 74 3d 52 24 3a be
       0.86841977 -0.04572566 0.059715576 -0.18177918
0002f0 bb 04 0d bf 62 70 22 be b6 11 16 bd 7d 97 cf 3c
       -0.55085343 -0.15863183 -0.036637984 0.02534079
000300 b5 72 6c be ec 84 c8 bc 60 7c a6 bd 04 ea 43 3d
       -0.23090632 -0.024477445 -0.081291914 0.047830597
000310 24 3d 82 3e 20 28 7e be 86 8e ad 3c 88 5b a5 3c
       0.25437272 -0.24819994 0.021186125 0.020185247
000320 6b f2 98 3e 14 24 76 3f b2 73 1f be 82 28 0c be
       0.2987245 0.961488 -0.15571478 -0.13687328
000330 57 99 92 3e 37 25 95 be 8b f2 89 be f5 08 01 be
       0.28632614 -0.29129955 -0.26942858 -0.12601073
000340 0e 0a 13 bf 97 59 4c 3e 30 59 c8 3d f8 5c 33 3d
       -0.5743722 0.19956051 0.09782636 0.043789834
000350 b8 04 7f be 28 1e fe be 79 64 93 3e e0 27 35 bf
       -0.24904144 -0.49632382 0.28787592 -0.7076397
000360 3c ea a0 bf 48 74 41 bd 89 8e 52 3d 34 9b 86 3d
       -1.2571483 -0.047230035 0.051405463 0.065725714
000370 4f f7 bb be 14 e7 ff be fe bd a6 3e 8a 15 74 3e
       -0.3671212 -0.49980986 0.32566828 0.23836342
000380 11 09 76 3e 13 a0 30 3f 9f ca ab 3e f9 49 d5 be
       0.24026896 0.68994254 0.33553025 -0.41658
000390 f4 1f 88 be 16 26 d1 bc b3 ce eb 3e 0d fb c0 bd
       -0.26586878 -0.025530856 0.46056136 -0.09422884
0003a0 d4 be 6a bf d9 de 10 bf 49 80 ae bd 95 bc 6c 3b
       -0.9169743 -0.5659004 -0.08520562 0.0036123146
0003b0 2e 7f ed 3c b4 e7 39 be 9e f2 9e bd b6 f4 ed 3c
       0.028991308 -0.18154794 -0.07761119 0.029047351
0003c0 6c 04 61 bd 63 60 0f 3e e4 7d a7 bd 43 ab 00 be
       -0.054935858 0.14001612 -0.081783086 -0.12565331
0003d0 80 f4 ea 3d a7 e5 0c bd 46 55 60 3c 10 5a e8 bb
       0.11472416 -0.0343987 0.013692206 -0.0070908144
0003e0 06 bf 64 3b ba 38 ee bc 10 68 4a 3d 52 62 c8 3d
       0.0034903898 -0.029079784 0.049415648 0.09784378
0003f0 9d b4 48 3d 98 a9 57 3d 94 bb 24 3d 10 ad 26 3d
       0.04900037 0.05265197 0.04021795 0.04069239

bias f4 [256]
000000 4b df 41 3e f5 38 97 3d f2 84 d1 bb 1e 43 75 bd
       0.18932836 0.073839106 -0.006394022 -0.05987846
000010 b2 30 42 3e 68 5a 9d 3e a1 86 4e 3d 89 ac e6 3d
       0.18963888 0.30733037 0.05042136 0.11263377
000020 c8 a2 a9 be 45 86 89 be 3f 12 4c bd 74 80 db bd
       -0.33132005 -0.26860252 -0.04982209 -0.1071786
000030 76 bc 74 3e 89 5c e5 be db 24 83 3e 47 50 17 3e
       0.23900017 -0.4479716 0.25614056 0.14776717
000040 12 65 1f be 0f 6c 86 be 6d ad e6 bd 25 60 2b be
       -0.15565899 -0.26254317 -0.11263547 -0.16735895
000050 e3 9f 52 3d 1c 76 69 3e 17 43 66 be 11 0f bd 3d
       0.05142201 0.22798961 -0.2248653 0.09231389
000060 e3 8d c8 bd e7 48 6e 3d 0f 14 66 bd c4 8a f9 3d
       -0.09792688 0.058174994 -0.056171473 0.121846706
000070 f1 c8 d4 3e 6b 55 a4 bd 5b b3 c8 be b0 c1 05 3e
       0.41559556 -0.08024105 -0.39199337 0.13062167
000080 14 6c ff 3d e7 ce 30 be 4f 7a 5b be 1f ed e4 3d
       0.12471786 -0.17266427 -0.21433376 0.1117804
000090 18 9d 14 be d6 14 66 3e cc 8d e4 3d ef 30 97 bd
       -0.14513052 0.22468886 0.11159858 -0.0738238
0000a0 fc 0d 03 3f 67 8c 3a be 4a 41 74 be a3 59 5a be
       0.51193213 -0.18217622 -0.23853031 -0.21323256
0000b0 de 15 3e be 13 11 ee bd 8a 4f 36 bd 06 44 60 be
       -0.18563029 -0.116243504 -0.044509448 -0.21900949
0000c0 55 7a 11 be 43 d1 a4 bc 2f 29 08 be e6 b4 23 bd
       -0.14206822 -0.020119315 -0.1329696 -0.03996744
0000d0 5f 8a 71 bd 75 9c 0f bf 7a 0a a6 3d 89 4f 35 3b
       -0.05896985 -0.5609811 0.08107467 0.0027665815
0000e0 bc f4 46 bd c1 9e 8e be 60 e9 c9 be 3b da 8e 3d
       -0.04857324 -0.27855495 -0.39435863 0.06975218
0000f0 5a bb 4a 3e 57 df 97 bd 90 bf 97 be cb f1 0c be
       0.19798031 -0.074156456 -0.29638338 -0.13764112
000100 4f 42 00 3e cd 1d 5f 3e 39 89 75 bd 45 ed 55 3e
       0.12525295 0.21788712 -0.05994532 0.20891292
000110 5d aa e2 bd f2 31 0c bf 6c db 15 be 91 6d cc bd
       -0.110676505 -0.5476371 -0.14634484 -0.09981836
000120 ff 1a e8 3e 57 0f c2 bc 5a 3a 98 3e 3b ce 39 bd
       0.45333096 -0.023688955 0.2973202 -0.045362692
000130 8c 83 46 bd a3 b5 c1 3e 22 f0 c2 bd 48 82 ba 3c
       -0.048465297 0.3783389 -0.09518458 0.022767201
000140 58 03 86 bd 84 a2 aa bd ad 70 27 3e 74 eb d8 3b
       -0.065436065 -0.08331779 0.16351576 0.006619865
000150 bd 1b c3 bd 51 99 19 be cf 25 03 be 16 fa 56 3d
       -0.09526775 -0.14999892 -0.12807392 0.052484594
000160 67 68 8c 3e cf f7 65 3e f0 69 57 3d e1 8c ac bd
       0.27423403 0.22457813 0.052591264 -0.08425308
000170 ad e4 8d 3d 7a e3 b1 bc 07 58 69 3e f5 5d 58 3e
       0.06928382 -0.021714915 0.22787486 0.21129592
000180 78 d2 d7 bd 94 5e 9c bc 98 d1 44 be 59 d5 32 3e
       -0.105381906 -0.019088067 -0.19220579 0.17464198
000190 41 63 c6 3e dc 60 9e 3e f2 16 86 be db a9 75 be
       0.387476 0.30933273 -0.2618938 -0.23990576
0001a0 ea a8 0b bf 88 82 c7 bd 2c 10 52 bd 68 ca f8 3d
       -0.5455462 -0.09741694 -0.051284954 0.12147981
0001b0 0e 0a e7 3d 5f 8a c4 bd 6d db ec bb 84 53 95 be
       0.11281215 -0.09596705 -0.007228306 -0.2916528
0001c0 a0 96 a3 bd b7 09 3c be 7b 24 26 be 82 2a 98 be
       -0.07987714 -0.18363081 -0.16224854 -0.2971993
0001d0 b7 a4 85 be 0e 6c 91 be fb 43 39 be 0f 0e 3b 3d
       -0.2610223 -0.28402752 -0.18092339 0.045667704
0001e0 83 5c aa bd 5e eb 23 be 65 20 01 3f a4 66 a8 3d
       -0.083184265 -0.16007754 0.50440055 0.08222702
0001f0 ec bd 63 3d b3 0d c1 bd c7 73 c1 3e 1d c0 6b 3f
       0.055601045 -0.09426441 0.37783644 0.92090017
000200 fd 91 5d be 51 81 9f be 19 d8 e9 bc e9 2d 96 3e
       -0.21637721 -0.31153348 -0.028545426 0.29331902
000210 79 f0 d2 3d 7a fb b6 be 75 54 43 3e a6 b1 d8 3e
       0.10299773 -0.35738736 0.19075187 0.42323035
000220 9c bc 6a 3e 8a 2c 41 bc c9 8e a2 bb 1d 48 4a be
       0.22923511 -0.011790404 -0.004960869 -0.19754072
000230 cf f8 66 3e 25 ae 99 bd 36 9d 89 bd 0b 2d 44 be
       0.2255585 -0.075039186 -0.06719439 -0.19157808
000240 7a 2c cb bd 0f c5 5d bc 2c d2 9b bd 86 85 25 be
       -0.099205926 -0.013535752 -0.076084465 -0.16164216
000250 fe a4 36 3d 29 24 e5 bd 53 fa 69 bc 6c 94 55 3d
       0.044590943 -0.111885376 -0.014280873 0.0521435
000260 a0 9a 78 3e 24 86 86 3e a3 de 06 3d 3f be 7b 3e
       0.24277735 0.26274216 0.032927167 0.24584292
000270 90 34 80 3b 5c 08 bd 3d 04 98 4e 3d 3b 3a ed 3d
       0.003912516 0.0923011 0.050437942 0.11583372
000280 a3 7e 2b 3e 45 26 52 bc 8e 96 80 bd 15 bc b0 bd
       0.16747527 -0.012826507 -0.06278716 -0.08629624
000290 42 f7 4f bc 82 77 90 3c 5d ed 87 be 0a 36 80 3e
       -0.012693228 0.01763511 -0.2654828 0.2504123
0002a0 d2 b2 63 3e 6f c0 22 be f8 1a 39 be 67 c3 6e 3d
       0.22236183 -0.1589372 -0.18076694 0.05829182
0002b0 16 10 5f 3e 1d f4 48 3e 62 3b 12 be 33 b6 14 3e
       0.2178348 0.19624372 -0.14280465 0.14522628
0002c0 2e 79 04 3f af e5 d0 bd a8 be 99 3e 5c 6a 81 3e
       0.51747406 -0.10200059 0.30028272 0.25276458
0002d0 72 14 12 be d9 f5 a1 bd dd 87 97 be 56 55 f9 bd
       -0.14265612 -0.0790822 -0.29595843 -0.1217448
0002e0 4d 5e c9 3d 62 a6 a4 bd bf e3 76 3e 1c a9 a2 be
       0.098324396 -0.080395475 0.24110316 -0.31769645
0002f0 10 a7 43 be 86 3e 34 be 7e 0b 67 3c e9 45 dd bb
       -0.19106698 -0.17601976 0.014101861 -0.0067527187
000300 f4 a5 2c bb f6 55 5c 3e 70 a4 ab 3d 17 81 f2 3c
       -0.0026344033 0.21517166 0.08380973 0.02960257
000310 2e 9f cc 3e 61 7b 25 be b8 bc 2b be cd 81 c8 bc
       0.39965194 -0.16160347 -0.16771209 -0.024475956
000320 4b ad 20 be e5 30 8d 3d e3 e8 39 bd 61 6d 41 3c
       -0.15691106 0.068940915 -0.045388114 0.011805863
000330 29 81 31 be 7b 7d 85 bb e5 c4 40 3e a8 5d c8 bd
       -0.17334427 -0.0040737963 0.1882511 -0.097834885
000340 2c e5 6a 3d e1 eb 28 3f 88 50 d6 bc 0b 0b 77 bd
       0.05734746 0.6598492 -0.026161447 -0.060313266
000350 ff 2c 0d be 68 ac 49 bd b0 6d f4 3d 8d 6e 18 bd
       -0.13786696 -0.049236685 0.11934984 -0.037214804
000360 97 d3 d6 be 24 af 3d be 4e 59 22 3e 74 34 ad 3e
       -0.41958305 -0.18523842 0.1585438 0.3382908
000370 ae 72 15 bd b2 bb 09 be 70 25 32 3e f7 bf 76 bd
       -0.03648632 -0.13450506 0.17397094 -0.060241666
000380 d7 97 b4 bd b9 97 90 3e 49 8a 13 be 19 56 1d bd
       -0.08818024 0.28240755 -0.1440822 -0.038412187
000390 d2 1b f3 3d 5e 5d b5 bd 2c 99 41 be b0 12 81 be
       0.11870541 -0.08855699 -0.18906087 -0.2520957
0003a0 f0 d6 bb 3d e3 79 25 be dd 65 57 3e 9c 99 10 bc
       0.091718554 -0.16159777 0.21034952 -0.008825686
0003b0 14 35 d0 bd 63 a1 9d bd ae e7 7f bd fd 2d aa bd
       -0.10166374 -0.07696798 -0.062476806 -0.08309553
0003c0 a4 54 37 be c8 25 0f 3f d6 e7 05 3c f2 68 1f bc
       -0.17903382 0.55917025 0.00817295 -0.009729611
0003d0 5f 1a 34 3b 27 71 1c be a0 33 d9 be b2 4e e7 3d
       0.0027481539 -0.15277539 -0.424222 0.11294307
0003e0 47 f1 33 be a3 2b 8d 3e 39 50 7e be 96 d4 42 3d
       -0.17572509 0.27572355 -0.2483529 0.04756602
0003f0 b8 c3 5b 3e c3 8d 22 be 4b 7d 8a be 07 58 23 3d
       0.2146138 -0.1587439 -0.27048716 0.03987887

weight f4 [256, 256]
000000 49 19 38 3e 8b 4a 68 3d f2 dc 78 bd c4 d1 fc 3d
       0.17978396 0.056711715 -0.060757585 0.12344697
000010 83 19 ce 3c d1 2f e4 bd 60 a3 e7 bd 7d 63 0e be
       0.02515865 -0.11141933 -0.11310458 -0.1390514
000020 0d 2a 84 3e f6 fc c1 be e6 f5 0d be a3 67 c8 3d
       0.25813332 -0.37888306 -0.13863334 0.09785392
000030 a4 44 94 bd df ce 0f bf 9b d3 a3 3d f7 4b 84 be
       -0.07239655 -0.56175035 0.07999345 -0.25839207
000040 95 df 81 3e b7 69 ff bd 0e 55 fd 3c ff 67 3e 3e
       0.25365892 -0.124713354 0.030924346 0.18594359
000050 05 7b 54 3e 2d ad 5c be cd 5f d7 bd 26 c1 4d bd
       0.20750053 -0.21550436 -0.105163194 -0.05023303
000060 a5 32 e9 be 16 ae 47 3e 0d d3 78 3e d6 4e 95 be
       -0.4554645 0.19500002 0.2429926 -0.2916171
000070 da 05 da bd ff 77 85 3d 9f cd 9c bd 9e db bc be
       -0.10645647 0.06517028 -0.076564066 -0.36886305
000080 a4 9c d3 3d bd 8c 9e 3e 00 74 f1 3b cf f7 1d 3e
       0.10332611 0.3096675 0.0073685646 0.15426563
000090 6d 3f a0 3d 20 8d ed 3c 31 f1 84 bd 84 00 95 3e
       0.078245975 0.028997958 -0.06491316 0.29101956
0000a0 5b 20 d8 3d af 60 1c bc c8 06 8a be a3 2e 8d be
       0.10553046 -0.009544536 -0.269583 -0.27574643
0000b0 86 17 93 3c cc 00 0a 3e 1c 59 c0 3d 44 c0 6b be
       0.017955553 0.13476866 0.09391996 -0.23022562
0000c0 01 bf 51 3e 1b ca ac be c1 31 b7 3d 2e d1 0f bf
       0.20483018 -0.33747944 0.08945037 -0.5617856
0000d0 28 ae 3e 3e 78 47 16 bf 08 56 be be 71 a3 68 bd
       0.18621123 -0.587028 -0.37175012 -0.056796495
0000e0 87 6c 76 3d 25 3b 44 bd 9d 47 1e bf 47 1b dd 3d
       0.060162093 -0.047907967 -0.61828023 0.10796218
0000f0 c5 9f 8c 3c 1e 4e 1e be 90 99 f2 3c 70 93 f7 bd
       0.017166028 -0.15459487 0.02961424 -0.12088668
000100 47 75 9d be 38 cd d1 bd 0f 59 80 bd f3 57 61 3e
       -0.30753538 -0.102442205 -0.062669866 0.22006206
000110 bb 80 c1 bc e3 03 83 be d7 76 f0 3b 5c b9 b1 bd
       -0.023620954 -0.25588903 0.0073383856 -0.086779326
000120 e0 3f 2b 3e d2 7f 0a be de ad 89 bd 0c 36 fb 3e
       0.16723585 -0.13525322 -0.06722616 0.49064672
000130 88 e5 47 3e 95 0b 62 be e0 30 90 3d f2 f1 f5 bd
       0.19521153 -0.2207473 0.07040572 -0.12009038
000140 81 e5 44 be 87 e3 81 be 0a b9 90 3d 5a 8b 8c bd
       -0.19228174 -0.25368902 0.070665434 -0.06862517
000150 08 43 a3 3e 92 03 86 3d 9c e7 34 3e 42 2d 5d bc
       0.31887078 0.0654365 0.17666477 -0.01349956
000160 72 aa 12 3e 55 c0 0e 3c c1 22 e9 3d b2 4a 7d be
       0.14322832 0.008712848 0.11383582 -0.24735525
000170 f3 6d 14 3e 46 6a 0a 3e 15 ee 2f be 78 db 50 3e
       0.14495067 0.13517103 -0.17180665 0.2039622
000180 70 60 1c 3e 2c d9 2a bb b7 e6 a4 3e 6a d4 35 3d
       0.15271163 -0.0026069386 0.3220727 0.044392027
000190 a1 c4 c8 be 8b 53 79 3a c8 5c 57 be d8 d3 e6 bd
       -0.39212516 0.0009511045 -0.21031487 -0.11270875
0001a0 cc 13 90 be 47 93 7b bd 84 f3 26 3b 58 3e 4e be
       -0.28140104 -0.06141975 0.0025474736 -0.2014097
0001b0 4a 69 ad be 2b 93 02 be 09 e5 2d 3e a9 9b 32 be
       -0.33869392 -0.12751453 0.16981901 -0.17442192
0001c0 9e 76 b4 3d 7a a4 90 bd 9a c1 df bd ad e5 25 be
       0.08811687 -0.070626214 -0.109255984 -0.16200896
0001d0 f7 d3 d4 bd 8e 6d 97 be 88 fe 0d bb 65 15 d3 3c
       -0.103919916 -0.2957577 -0.0021666605 0.025767038
0001e0 a2 ce 2e be 3a 9f 86 3e 83 6b 42 3e 0c 4e a3 3e
       -0.17071012 0.26293355 0.18986325 0.31895483
0001f0 48 7d fd bc b3 df 9b 3c 58 89 05 bf cb 7e 3f 3e
       -0.030943528 0.019027567 -0.52162695 0.18700711
000200 8e 57 4c 3d 80 2a 0e be 92 78 e5 be ad fc 8b bd
       0.049888186 -0.138834 -0.4481855 -0.068353035
000210 c1 0f 8d 3e 07 65 07 be a7 68 e8 be 7a e8 57 3e
       0.27551082 -0.13222133 -0.45392343 0.21084777
000220 52 d8 f7 3d 4c 1c 0f 3e 25 6f c4 bd 0e 90 df 3d
       0.12101807 0.13975638 -0.09591512 0.10916148
000230 d2 87 5c bc e5 37 d0 3e c6 c7 20 bc 39 a5 ef be
       -0.013460116 0.40667644 -0.009813255 -0.46805742
000240 57 69 5d be ce 46 ae bd d7 9e 5f 3e 9b a5 03 3e
       -0.21622215 -0.08509599 0.21837936 0.12856142
000250 bd 85 92 3e 5a 63 92 bd 6b 1d 90 3c 84 9c 95 bd
       0.2861766 -0.07147856 0.017592153 -0.073052436
000260 22 8a 90 3c b9 1c 02 bd db 24 cb b9 5d 6b a4 be
       0.017643992 -0.031765673 -0.00038746637 -0.32113162
000270 3c 9d 81 bd 12 a7 9b bd c3 6c 85 bd 3e a1 85 3e
       -0.06328818 -0.076002255 -0.06514885 0.2609958
000280 51 88 34 be 77 b6 25 3e a5 a5 eb 3c 4b d6 8f be
       -0.17630126 0.16182886 0.028765509 -0.2809318
000290 16 98 8d 3d 92 95 bb bd 2f 24 83 3d 9e 63 a7 bc
       0.06913774 -0.09159388 0.06403386 -0.020433243
0002a0 16 9f 0e be 66 6d 96 3c 2e 39 20 be 57 84 5b 3d
       -0.13927874 0.018362712 -0.15646812 0.053593006
0002b0 5b 38 0f 3e f1 10 19 3e 91 1d 1f be c4 be 92 be
       0.13986342 0.14947869 -0.15538622 -0.28661168
0002c0 54 7b 86 be 9f f7 92 3c 0d e6 80 3d d2 bb 89 be
       -0.26265967 0.01794034 0.06293879 -0.26901108
0002d0 db 13 4d be a9 40 e1 3a 3b 2b 8c be b6 5c 62 bc
       -0.20027106 0.0017185408 -0.27376732 -0.013816049
0002e0 e0 5f 64 3e 1d 05 a8 bb 0f 24 82 bc a9 43 d3 3d
       0.22302198 -0.0051275627 -0.015886335 0.103156395
0002f0 f4 aa 93 bd cd ff ef bd 46 35 91 be 7c 4d 32 be
       -0.07210341 -0.11718712 -0.28360957 -0.1741237
000300 14 5b 5b be bc 95 8b bd 84 19 23 3e 31 4c 6a 3e
       -0.21421462 -0.06815669 0.15927702 0.22880627
000310 31 d3 03 be f9 38 12 be 18 bb bd be 75 e3 5f bd
       -0.12873532 -0.14279546 -0.37056804 -0.05466028
000320 41 a6 3b bd 89 52 d7 3c fb b4 dd be 5e 3b a4 3e
       -0.04581285 0.026284473 -0.4330214 0.32076544
000330 d4 dd 64 3e fa 24 9c be c9 64 d8 3e 7d 83 11 3e
       0.22350246 -0.3049696 0.42264393 0.14210315
000340 3c f6 98 be c5 62 8e be 96 39 07 bf 10 79 70 be
       -0.29875362 -0.2780973 -0.52822244 -0.23483682
000350 46 9b 16 3e 84 8b dc 3d fb 0d 95 be 81 d5 c5 3d
       0.1470767 0.10768798 -0.2911223 0.09659863
000360 94 d9 35 bd 8e 0f 93 bd 5f 35 0d 3e 88 b0 fb ba
       -0.04439695 -0.07180701 0.1378989 -0.0019202391
000370 b6 bd 33 be 5c d5 e2 bc 4b ca 99 bd f0 61 4c be
       -0.17552838 -0.027689628 -0.075092874 -0.19959235
000380 70 6b fb bd cc 8c a5 3d b5 8f d7 be e5 03 8c 3e
       -0.122763515 0.080834955 -0.42101827 0.2734672
000390 4e 1b f3 3d f8 ce 88 3b 27 dd fd 3d 7c 06 73 3e
       0.11870442 0.004175063 0.12395697 0.23732942
0003a0 8e 13 37 be a6 6e 8f be 90 3d c2 3d fd 15 45 bb
       -0.17878553 -0.28014106 0.09484398 -0.003007292
0003b0 14 9d be 3d ff 6d aa b9 76 00 5a 3e ca c8 24 be
       0.09307304 -0.0003250688 0.21289238 -0.1609222
0003c0 28 5a 29 be 77 6b 02 be 9f 26 86 bd 52 8d 2f 3e
       -0.16538298 -0.12736307 -0.06550335 0.17143753
0003d0 64 0a 60 bc ea a0 ae 3e 9e 52 09 bf 7f ce c2 bc
       -0.013674352 0.34107143 -0.5364169 -0.023780106
0003e0 e2 fe 16 3e 81 a4 ed bd 7f 9a 07 bd a7 3d 55 3e
       0.14745668 -0.11603642 -0.033106323 0.208243
0003f0 88 34 48 3e c5 29 40 3e a8 e5 24 bc 2e da 35 bd
       0.19551289 0.18765934 -0.01006452 -0.044397525

bias f4 [256]
000000 9d fb 89 3c 22 aa 08 3d 16 fc 9f bd dd 75 86 bd
       0.016843611 0.033365376 -0.078117535 -0.065654494
000010 e1 45 11 3e 3b 04 f3 bd 77 d5 88 bd d8 16 4b 3e
       0.14186813 -0.11866041 -0.0668134 0.19832933
000020 07 48 88 3d c0 f8 73 3e 1d f6 0a 3f 2c ca 85 3e
       0.06654363 0.2382536 0.5428179 0.26130807
000030 9d c1 01 3f 57 28 22 be 57 53 0b 3f 61 21 17 be
       0.50686055 -0.15835701 0.5442404 -0.14758827
000040 e7 21 7d 3e 68 20 ea 3e 60 0a 97 3e de 17 6e 3e
       0.24719964 0.4572785 0.29500103 0.23251292
000050 b1 e5 41 3e 30 3f 18 3e b3 13 d9 bd ca b6 c8 bc
       0.18935277 0.14867854 -0.105994605 -0.024501223
000060 19 e9 a0 bd f8 14 38 bd 0e a6 1c 3e 72 57 63 be
       -0.0785696 -0.044941872 0.1529772 -0.22201326
000070 92 7d b8 bd 03 cc 2a 3e f5 d9 90 bd 53 60 34 be
       -0.09008326 0.16679387 -0.07072822 -0.1761487
000080 15 e7 db 3e 4e 11 1d 3f cd 7b 53 be 19 fd 95 bd
       0.4294974 0.6135453 -0.20652695 -0.07323665
000090 e5 56 36 be fc 20 f4 3e 1d 4f 0f 3f 02 a6 20 3f
       -0.17806585 0.47681415 0.5598009 0.6275331
0000a0 ca a5 85 3e 5c 6d 7c 3e 7a f2 c5 3e 48 ac 17 be
       0.2610305 0.24651092 0.38661557 -0.14811814
0000b0 37 16 83 3e 17 f4 9c 3e 24 65 16 3f 13 52 18 3f
       0.25602886 0.30654976 0.5874808 0.59500235
0000c0 5f b3 60 3a e6 bf a3 3e 04 6a 8f bd 5a eb 1b 3f
       0.000857165 0.31982344 -0.07002643 0.60905993
0000d0 1c d7 8e 3e 1a ac cb 3e 0b e2 a6 be 12 ed 27 be
       0.2789849 0.3977974 -0.32594332 -0.16399029
0000e0 a5 58 69 3e 97 30 12 3f 94 ad 8a 3e 59 a1 1e be
       0.22787721 0.5710539 0.27085555 -0.15491237
0000f0 f2 22 36 3e bd 38 73 3e 33 99 7a bb 10 2f 59 3e
       0.17786768 0.23752113 -0.0038238287 0.21209359
000100 0d 45 4f 3e 03 eb f6 3e 07 a8 cc 3e 9a a0 a1 3e
       0.20241185 0.48226175 0.39971945 0.31567842
000110 7a 08 2b 3e 4d 14 79 bc b6 04 e3 3b c0 42 e1 3e
       0.16702452 -0.015202594 0.006928052 0.4399624
000120 77 7a 83 3e 69 b2 78 3e f0 d4 f7 bc d7 99 8c 3e
       0.2567937 0.24286808 -0.030252904 0.2746112
000130 16 b1 96 3e 3d 2f 10 3f e4 5c da 3e a7 75 5e 3c
       0.2943198 0.5632208 0.42648995 0.013577855
000140 f2 74 d3 3e 7a f6 2e be 4f c2 91 3e 5b 12 e6 3d
       0.4130016 -0.17086211 0.28468558 0.1123397
000150 f7 bd fb 3e d0 73 8e bd b5 92 5c 3e 2a 0a da bd
       0.4916837 -0.06955683 0.2154034 -0.1064647
000160 58 da 0c 3f 2d f6 88 3e ec 81 9f bd d6 6a 96 3e
       0.55020666 0.26750317 -0.077884525 0.29378384
000170 15 d9 c4 3e b0 e1 e2 3c e6 85 8c be f1 9c 21 3e
       0.3844687 0.027695507 -0.27445906 0.15782525
000180 d4 8e 3f be e5 97 bd 3e 1f b7 59 3e 76 41 84 3e
       -0.18706828 0.3702995 0.21261261 0.25831193
000190 7f 48 cd 3d c4 6c 36 be 84 ef bf 3e ee 2f 38 be
       0.10023593 -0.17814928 0.37487423 -0.17987034
0001a0 35 27 9e 3e 7d 7c 2a 3d 38 5c 2c bd 91 b6 b8 3e
       0.30889288 0.041622628 -0.042080134 0.36076787
0001b0 e1 f0 96 3e 97 8a 0f 3f 53 84 9a 3e dc 4a c6 be
       0.2948065 0.56070846 0.3017908 -0.38728988
0001c0 93 2e 92 3d 8c 5f 36 3d 90 0f 21 3f 6a 27 99 3e
       0.071377896 0.044524714 0.6291437 0.29912883
0001d0 e9 13 fd 3c bf d9 cb ba 45 96 1c 3f 91 09 74 3e
       0.030893283 -0.0015552564 0.61166793 0.23831774
0001e0 1c 83 95 3e 48 7e 7a 3b 47 be 81 3e d3 11 ea 3c
       0.2920159 0.0038222242 0.25340483 0.028572952
0001f0 5c 5d 26 be dc b8 45 3c d5 a2 ce 3d 48 fe 17 3f
       -0.16246551 0.012068 0.100896515 0.5937238
000200 4a 9c 84 3e 3c 84 89 3c 54 b2 b9 bd 1b 3e 6b 3c
       0.2590049 0.016786687 -0.090672165 0.014358069
000210 c3 58 93 3e 2f 59 18 bd eb cd f7 3e aa b0 f8 3d
       0.28778657 -0.037194427 0.4839929 0.12143071
000220 66 81 0e 3f 04 a7 39 3e a4 a1 5c bd 1a d0 29 3d
       0.55666196 0.18130118 -0.05386509 0.041458227
000230 4b 33 72 bd 0b c2 fe bd a7 61 b3 3e 66 51 2a 3f
       -0.059130948 -0.124393545 0.3503544 0.66530454
000240 d1 7f d3 bd d9 d1 a9 3e fa 26 58 3e d0 c6 1f be
       -0.103271134 0.33167914 0.21108618 -0.15603185
000250 3c d9 82 3a ba 14 0b 3f 27 6d b9 be ba 63 e5 bd
       0.0009982954 0.543285 -0.3621609 -0.11200662
000260 57 1d 32 3f 3a cf 8f 3e ac a4 bb 3e 19 1d 7b bb
       0.6957602 0.2808779 0.36649072 -0.0038316904
000270 68 f6 4b 3e 53 00 1f 3f 3a 61 d1 bd 11 8b 53 bd
       0.19918215 0.6210987 -0.102236226 -0.051646296
000280 91 e7 b2 bd 25 43 0a 3f 4b 13 be be 65 6f c9 3b
       -0.08735574 0.54008704 -0.37124094 0.0061473125
000290 25 84 de bc 65 b8 9c 3d f3 21 90 bd 4f 95 a0 bd
       -0.02716262 0.07652358 -0.07037725 -0.07840978
0002a0 dc cc af bd 82 d4 6a 3e 3a 92 8d 3e 9d 9a 9d 3e
       -0.08583996 0.22932628 0.27650625 0.30782023
0002b0 03 7b a3 3b c5 42 5d 3e 9c 8f 19 bc 8f ac 74 3e
       0.0049890294 0.21607502 -0.009372618 0.23893951
0002c0 fb 1f b7 bd 43 e8 6e bd dd ee 40 bd ed 99 bf bd
       -0.08941647 -0.05832697 -0.047102798 -0.09355531
0002d0 19 db 20 3f 22 c2 8c be 71 58 f0 3e 5d 6c 59 3e
       0.62834316 -0.27491862 0.46942475 0.21232744
0002e0 af da 5f 3e d1 f8 14 3f 94 88 d7 bd 03 0a 79 3d
       0.21860765 0.58192164 -0.10524097 0.060800564
0002f0 93 10 34 3e e7 17 89 bd d9 c8 13 3f 2a 82 55 3e
       0.17584448 -0.06694012 0.57728344 0.20850435
000300 0b f1 29 be f6 00 0f 3e 50 81 ad bd 41 e7 83 3e
       -0.16595857 0.1396521 -0.0847193 0.2576237
000310 da 55 68 3e 6c 5e d0 3e 11 aa 92 3e 76 7b fe bb
       0.22689 0.40697038 0.28645375 -0.0077661825
000320 8a 61 5c 3e 6d 42 11 bd b9 f2 54 3d 53 f9 84 be
       0.21521583 -0.03546374 0.05198929 -0.2597147
000330 e7 2a 02 3f 50 4e 89 3d c2 76 8c 3e 72 58 82 3e
       0.50846714 0.0670439 0.27434355 0.25458103
000340 73 ca 78 be ab 30 77 bd 5f 63 1c 3f a9 87 89 3e
       -0.24295978 -0.060349148 0.6108913 0.26861313
000350 cc 7f f4 3e f2 61 41 be 4b d9 f7 bb 47 2f 12 3f
       0.4775375 -0.1888502 -0.007563745 0.5710339
000360 6f a6 55 3c 5d e1 be bb bb 0e 0c be 3e d7 14 3f
       0.013040169 -0.0058252052 -0.13677494 0.58140934
000370 3e 61 1c 3f d1 22 8b 3e d3 8c 69 3e 0f 5c d5 bc
       0.6108588 0.27175 0.22807626 -0.026044874
000380 ac c3 c1 3e 91 4d 29 3e 0c 70 30 3e e1 1e 8b be
       0.37844598 0.16533495 0.17230242 -0.27171996
000390 e8 97 9c 3e 6c e1 a0 bc de 88 89 3e 80 98 c3 3e
       0.30584645 -0.01963874 0.26862234 0.38202286
0003a0 90 f4 d7 bd ae 33 32 3e e8 c5 1c bc 6a 1f 8a 3e
       -0.105446935 0.17402527 -0.009568669 0.26977092
0003b0 57 83 06 be e1 c2 83 3e a6 a3 c1 3c b1 94 9e bd
       -0.1313604 0.25734618 0.023637604 -0.077432044
0003c0 58 02 55 3e 6f 66 37 3e 61 00 fc 3e 01 6c 92 3e
       0.20801675 0.17910169 0.4921904 0.28598025
0003d0 ca c9 85 3e a8 1d 20 3f 9d d5 79 3d 35 b5 62 3e
       0.26130515 0.6254525 0.060994733 0.22139437
0003e0 0c e1 91 3e f8 21 26 3f 38 fd af bc 6f 8b 9a 3e
       0.2849201 0.6489558 -0.021483049 0.30184504
0003f0 f4 cd 76 bd 7c db 3f 3f 22 20 25 3e 08 a8 71 3e
       -0.060255006 0.7494428 0.16125539 0.23599255

weight f4 [1, 256]
000000 54 80 e2 bf b0 dd c8 bf 47 a1 60 bf 97 2d 90 bf
       -1.7695413 -1.5692654 -0.8774609 -1.1263913
000010 8a 6d ea 3f 5d c4 61 bf 00 7f 74 bf d1 ad b9 3e
       1.8314679 -0.8819025 -0.95506287 0.36265424
000020 da 1c d2 bf c8 6d 1c 3d 0a 59 0f 3f 9b 51 34 3d
       -1.6415055 0.038190633 0.5599524 0.044023138
000030 5b 33 1d 3f 72 35 1e bf a1 fa 22 3f be 19 68 bf
       0.6140649 -0.618003 0.6366368 -0.9066428
000040 00 f1 07 c0 7f 2b 8c 3f 9d 86 e5 3d 78 19 54 3f
       -2.1240845 1.0950774 0.11207316 0.8285136
000050 a5 86 49 3d 4a b1 95 3e ba db 81 bf a5 b0 f8 bf
       0.049200673 0.29236823 -1.014518 -1.9428908
000060 cc 59 45 bf 41 ee ae bf d6 35 5c 3f c4 6b 4f bf
       -0.77090144 -1.3666459 0.8601965 -0.8102381
000070 a0 dc c0 bf c4 60 15 3f d8 2d 8c bf 8b d0 c5 bf
       -1.506733 0.5835078 -1.095149 -1.5454267
000080 a6 62 af 3f 8d 15 20 3f 0e 3b d8 bf 66 0f 24 bf
       1.370198 0.62532884 -1.6893022 -0.64085996
000090 b9 b6 4a bf c7 ae b1 3f 89 89 76 3f 4f d8 87 3f
       -0.7918506 1.3881463 0.9630361 1.0612887
0000a0 0d 11 27 3d ef e0 22 3d e4 ac 90 3f e4 cc 00 bf
       0.040787745 0.039765295 1.1302762 -0.5031264
0000b0 98 62 a6 3f ac 4c 14 3f a8 25 5c 3f 65 6b 3e 3f
       1.2998838 0.5792949 0.8599496 0.7438262
0000c0 2d b3 ec bf e6 31 3d 3e ff 6e 1f c0 68 87 a7 3f
       -1.849218 0.18476066 -2.4911497 1.3088198
0000d0 78 b7 47 3f fd 5d ef 3e ed e6 b1 bf b0 6f bc bf
       0.78014326 0.46751395 -1.3898598 -1.4721584
0000e0 94 3a a7 3f b8 33 20 3f 0e b9 8c 3d 2f 95 20 bf
       1.3064752 0.62578917 0.06871234 -0.62727636
0000f0 b8 95 dd 3d 61 f1 90 3f 86 76 ec bf 75 64 34 3d
       0.10819572 1.1323663 -1.847367 0.044041116
000100 52 54 a0 3c b0 aa 8d 3f ef bb c4 3f 07 51 31 3f
       0.019571457 1.1067715 1.5369853 0.6926426
000110 d0 60 92 3d ea 64 bf bf b7 86 ed bf 1b 6e c7 3f
       0.07147372 -1.4952672 -1.8556737 1.5580477
000120 79 88 42 3d d4 19 fc 3c c5 a5 8b bf 4d 98 98 3d
       0.04749343 0.030774035 -1.0909964 0.07450924
000130 57 00 b9 3d 7c 74 05 3f 98 a0 0d 3f 23 59 d8 bf
       0.09033268 0.52130866 0.5532317 -1.6902202
000140 aa 0c e5 3f 32 96 0e bf f5 f0 99 3d c1 52 0f 3f
       1.789449 -0.5569793 0.07516662 0.5598565
000150 de af e0 3f 7a 38 2e bf 64 2d ab 3c 13 c6 7a bf
       1.755367 -0.68054926 0.020895667 -0.9795849
000160 a5 99 04 3f 8a 1a 67 3d 7f 20 cf bd 2d 73 d5 3d
       0.5179694 0.056421794 -0.1011362 0.10422359
000170 d7 3c a5 3f f8 07 71 bf a5 ad 2b c0 d7 a5 8d 3e
       1.2909192 -0.94152784 -2.6824734 0.27665588
000180 1d 09 56 bf f4 1e d4 3e c2 a8 1c c0 a2 f9 18 3f
       -0.83607656 0.41429865 -2.4478002 0.5975591
000190 be 60 65 3f 9f 46 52 c0 c1 de d9 3f 95 0a 47 bf
       0.8960074 -3.2855604 1.7021104 -0.7775052
0001a0 5d cf 15 3f 28 8c a0 bf ff 45 dd bf fe 39 b8 3e
       0.58519536 -1.2542772 -1.7286986 0.35981745
0001b0 de e1 d4 3d 32 6f 31 3f 91 f5 f4 3d 3c bc e4 bf
       0.10394643 0.69310296 0.119609006 -1.7869945
0001c0 e0 fd 07 c0 24 8e ae bf 2a ee 16 3f 0a ef c9 3d
       -2.1248703 -1.3637128 0.5895716 0.09860046
0001d0 f2 6b 5f bf 61 ee b0 bf c5 cb 81 3f 67 ad ec 3c
       -0.87274086 -1.3822747 1.014031 0.028891278
0001e0 72 c9 b9 3d 17 bc b2 bf bd d1 58 3d 40 4c e1 bf
       0.09071626 -1.396365 0.052934397 -1.7601395
0001f0 6e bd 19 bf 75 85 bb bf 8e c0 b7 3f 4e 8a 41 3f
       -0.6005467 -1.4650103 1.4355638 0.7560166
000200 44 73 49 3d 09 c8 b3 be 82 9e c5 bf 6a a4 d9 bf
       0.04918219 -0.35113552 -1.5438998 -1.70033
000210 45 83 b2 3d a6 04 fa be 37 2b b1 3f a3 f8 e9 3e
       0.08716444 -0.4883167 1.3841313 0.45697507
000220 94 5a bb 3e fe 7f 23 3e 19 db 50 bf b0 d4 ea bf
       0.36592543 0.15966794 -0.81584316 -1.8346157
000230 eb c6 af bf 2c d8 e3 bf 53 83 ea 3f b1 e4 6c 3f
       -1.373258 -1.7800345 1.8321327 0.92536455
000240 10 c9 cc bf 79 81 60 3e e5 1a 60 3d 19 a6 c5 be
       -1.599886 0.2192439 0.05471315 -0.38603285
000250 e6 fb 12 c0 dd bb 61 3f 6c e5 81 bf 60 0d bb bf
       -2.2966247 0.8817728 -1.0148139 -1.4613457
000260 27 56 99 3f fc 29 e3 3e 19 b1 e5 3f fd 77 58 bf
       1.1979417 0.4436797 1.7944671 -0.8455809
000270 5b 27 8c 3c b9 e6 8e 3f 25 4f 9a bf 05 6e 7c bf
       0.01710861 1.1164161 -1.2055403 -0.98605376
000280 30 6c 5c bf 37 82 e7 3e dc 82 7b bf 07 e1 ca bf
       -0.8610258 0.45216534 -0.9824655 -1.5849923
000290 13 f8 69 bf 89 6a 15 c0 90 c3 0b bf 06 c4 9c bf
       -0.91394156 -2.3346274 -0.5459528 -1.2247322
0002a0 cd e8 8b bf 05 6c 20 3d 76 86 9f 3d cf f3 0e 3e
       -1.093042 0.039165515 0.07789318 0.13960193
0002b0 18 2c b6 bf 8c 50 ae 3d b9 bf 18 bf 1e c2 ae 3c
       -1.4232206 0.08511457 -0.59667546 0.021332797
0002c0 26 df 04 bf 54 37 07 bf 14 8e ee bf 8e 1f a0 be
       -0.51903 -0.528188 -1.8637109 -0.31274074
0002d0 4c be 73 3f fa fb 99 bf b5 3a 8e 3f db cb 13 3f
       0.95212245 -1.2030022 1.1111666 0.57732934
0002e0 c6 96 83 3c 09 4b 3b 3f 09 35 7c bf f8 5e c1 bf
       0.016063105 0.7316137 -0.98518425 -1.5107107
0002f0 3a d9 14 c0 66 65 bc bf c5 f4 77 3f 3c 43 0a 3e
       -2.3257585 -1.4718444 0.96857864 0.1350221
000300 61 c0 e3 bf f7 c4 05 c0 94 a9 a5 be de 71 55 3d
       -1.7793084 -2.0901468 -0.3235594 0.052110545
000310 eb 2b 0a 3d f3 26 7b 3f 5b 0e 99 3d e4 fa 92 bf
       0.03373329 0.98106307 0.07473441 -1.1482816
000320 05 9b d2 3c d0 e1 a7 bf 77 e0 59 bf fe 51 51 bf
       0.025708685 -1.3115788 -0.8510813 -0.81765735
000330 69 6c 91 3f 60 54 0b c0 98 7c 74 3d 96 0d a7 3e
       1.1361209 -2.1770248 0.059689134 0.32627553
000340 13 bc 36 bf a5 cc a4 bf 86 34 14 3f 64 2b 69 3d
       -0.7138073 -1.2874953 0.57892644 0.056926146
000350 90 a3 99 3f b6 2e 90 bf 2f 92 d7 bf 7c 40 36 3f
       1.200304 -1.1264255 -1.6841487 0.71192145
000360 02 94 de bf f9 ba ae bf cc 3c d1 be 30 97 1f 3f
       -1.7388918 -1.365081 -0.40866697 0.6234007
000370 c2 0e 5a 3f 70 38 7b 3d e2 13 d9 3c 51 43 0a c0
       0.8517877 0.06133312 0.026498739 -2.1603587
000380 ee 85 af 3f 97 81 1d 3e cd 15 ea 3e 8a 53 71 bf
       1.3712747 0.15381466 0.45719758 -0.94268095
000390 a3 69 d9 3d f9 8f 0d c0 3b 23 2a c0 f5 ec 5e 3f
       0.10615852 -2.2119124 -2.6584003 0.8708032
0003a0 99 b1 d2 bf 24 1a ec 3d 56 23 d4 bf c5 c0 77 3d
       -1.6460449 0.115284234 -1.6573284 0.060486574
0003b0 33 97 d7 be 24 fd 62 3d 9a df 88 bf 9a 61 2c bf
       -0.42107543 0.055417195 -1.0693238 -0.6733643
0003c0 42 a3 be 3c 19 64 62 3f 36 ab 3e 3f 4d e7 a6 3d
       0.023271207 0.88433987 0.7448 0.08149586
0003d0 18 db 4e 3d 43 8c 62 3f fb ce ab 3c 5c 01 98 3e
       0.050501913 0.8849527 0.02097272 0.29688537
0003e0 4a 11 b8 3d 69 51 60 3f 7d f2 3e bf bc 46 de 3d
       0.089876726 0.8762422 -0.7458876 0.10853335
0003f0 ee f0 76 bf 71 63 88 3f 3b 50 cf bf 83 5f d9 3c
       -0.9646138 1.0655347 -1.6196359 0.026534801

obs_std f4 [35]
000000 cd cc 4c 3e cd cc 4c 3e 00 00 80 3f 00 00 80 3f
       0.2 0.2 1.0 1.0
000010 00 00 80 3f 00 00 00 3f 00 00 00 3f 00 00 00 3f
       1.0 0.5 0.5 0.5
000020 00 00 00 3f 00 00 00 3f 00 00 00 3f 00 00 00 3f
       0.5 0.5 0.5 0.5
000030 00 00 00 3f 00 00 00 3f 00 00 00 3f 00 00 80 40
       0.5 0.5 0.5 4.0
000040 00 00 80 40 00 00 80 40 00 00 80 40 00 00 80 40
       4.0 4.0 4.0 4.0
000050 00 00 80 40 00 00 80 40 00 00 80 40 00 00 80 40
       4.0 4.0 4.0 4.0
000060 00 00 80 40 00 00 80 3f 00 00 80 3f 00 00 80 3f
       4.0 1.0 1.0 1.0
000070 00 00 80 3f 00 00 80 3f 00 00 80 3f 00 00 80 3f
       1.0 1.0 1.0 1.0
000080 00 00 80 3f 00 00 80 3f 00 00 80 3f
       1.0 1.0 1.0

obs_mean f4 [35]
000000 00 00 00 00 00 00 00 00 00 00 00 00 00 00 00 00
       0.0 0.0 0.0 0.0
000010 00 00 00 00 00 00 00 00 00 00 00 00 cd cc 4c be
       0.0 0.0 0.0 -0.2
000020 9a 99 19 3f cd cc cc be 00 00 00 00 00 00 00 00
       0.6 -0.4 0.0 0.0
000030 cd cc 4c be 9a 99 19 3f cd cc cc be 00 00 00 00
       -0.2 0.6 -0.4 0.0
000040 00 00 00 00 00 00 00 00 00 00 00 00 00 00 00 00
       0.0 0.0 0.0 0.0
000050 00 00 00 00 00 00 00 00 00 00 00 00 00 00 00 00
       0.0 0.0 0.0 0.0
000060 00 00 00 00 00 00 00 3f 00 00 00 3f 00 00 00 00
       0.0 0.5 0.5 0.0
000070 00 00 00 00 00 00 00 00 00 00 00 00 00 00 00 00
       0.0 0.0 0.0 0.0
000080 00 00 00 00 00 00 00 00 00 00 00 00
       0.0 0.0 0.0
