trained/h1_step/critic_4499.pt (torch, 306480 bytes, 7 tensors)

weight f4 [256, 35]
0.115011014 0.13561967 0.22167547 0.22805852 -0.02450818 0.1863155 0.33960938 0.50044113
-0.21736653 0.061604846 0.34541035 0.0022029476 -0.035456568 0.6508815 0.22488862 0.0697633
0.20899498 0.6006488 0.2726854 0.11903376 -0.09850456 0.26823586 0.031055609 -0.0059597753
0.10039545 0.08018381 0.086720146 0.11066756 -0.6449931 0.087521 0.9012068 0.059198365
0.19472164 0.42235008 -0.6774861 -0.048580177 0.12973519 0.105737045 0.20183243 0.08403678
-0.15823774 0.025384283 -0.022208493 0.17930858 -0.115032405 0.104591995 -0.14000402 -0.014733532
0.20076269 0.29051316 0.17899407 0.28842783 1.1392074 0.67211413 0.10096389 0.133351
0.024909735 -0.517439 -0.30374163 -0.025719192 0.5059465 0.10600309 -0.4973492 -0.08096811
-0.009624129 0.035818614 -0.023877047 0.0390909 -0.34803662 0.11397036 -0.08242283 0.044448726
-0.013949775 0.020912599 -0.04726384 -0.20767048 -0.36350375 -0.48778242 -0.1667642 0.09131644
0.0667606 0.37415197 -0.1806717 -0.16332294 0.043920636 -0.046325125 -0.08086353 0.016829314
0.04772714 -0.005791083 -0.031429254 0.030532967 0.036780458 -0.018338967 0.00030401474 -0.064230256
0.02886357 -0.58377326 -1.3844019 0.2876942 -0.2840339 0.23480274 -0.049360625 0.4941295
0.056753818 0.032799102 -0.06944182 0.1256895 -0.25633302 -0.048127376 -0.051552948 1.3654637
0.09688483 -0.21038513 0.052234285 -0.075225666 -0.3674322 -0.07158789 0.24769595 0.3811749
-0.32385498 -0.012805902 -0.33563995 -0.1430674 -0.0025599643 0.06236161 0.33927885 -0.42867523
-0.28808686 0.047729407 0.06863989 0.0051664044 -0.899679 0.48658568 -0.21604626 -0.30542105
0.14798327 -0.029919265 -0.28458142 0.010678931 0.0010821738 -0.15527657 0.006752572 -0.7118218
-0.05294759 0.07694001 -0.32818845 -0.030193416 0.2024142 0.016961006 0.014241079 0.12858893
-0.10651492 0.064797305 0.61932945 -0.13040642 0.030708507 -1.5418781 -0.88794315 -0.22705881
0.10345121 -0.112564355 -0.54931575 -0.28772503 -0.13370445 -0.013204563 -0.0038516466 -0.08750626
0.2741723 -0.024788955 0.0962875 0.013870734 -0.081101805 -0.13082045 0.08059009 0.07766603
-0.060500097 0.075394854 -0.24472336 0.052239597 -0.3179802 -0.43454024 0.2582764 -0.73001534
0.7574117 -0.07152098 0.4294152 0.13821548 -0.47843704 -0.23469247 0.06594076 0.051199738
-0.31061536 0.0031297433 -0.03200581 0.08392684 0.11222895 -0.11155063 0.016050879 0.05910911
0.28992495 0.87431985 -0.004562136 -0.0390953 0.08873986 -0.2588627 -0.2596667 -0.113065794
-0.47815797 0.16124617 0.14662929 0.023325287 -0.2573916 -0.44110042 0.24640968 -0.59892225
-1.0064787 -0.15219462 0.0500117 0.030559137 -0.3796202 -0.43414763 0.33073777 0.21566944
0.23622832 0.60369825 0.22524208 -0.4760877 -0.30917642 -0.09638893 0.48383486 -0.13873541
-0.8937425 -0.5154252 -0.06893459 -0.052769084 -0.019574422 -0.12556368 0.06391198 0.12017933
-0.0774769 0.15849747 -0.040616237 -0.20573449 0.12382583 -0.09471841 0.000802532 -0.025820909
-0.01533233 0.00023303628 0.09377087 0.17612419 0.016067859 -0.0012315302 0.104561254 0.045594808
00000000: e58a eb3d e2df 0a3e e5fe 623e 2c88 693e
00000010: 61c5 c8bc 7ec9 3e3e 48e1 ad3e e91c 003f
00000020: 5595 5ebe 5d55 7c3d a0d9 b03e 545f 103b
00000030: e83a 11bd 2ca0 263f 3449 663e 10e0 8e3d
00000040: c802 563e 1fc4 193f 6c9d 8b3e f9c7 f33d
00000050: c2bc c9bd 3656 893e 5568 fe3c 384a c3bb
00000060: 219c cd3d 6937 a43d 559a b13d aca5 e23d
00000070: 451e 25bf 363e b33d 7db5 663f fc79 723d
00000080: 1c65 473e 453e d83e bb6f 2dbf 02fc 46bd
00000090: 4dd9 043e aa8c d83d 29ad 4e3e 7a1b ac3d
000000a0: 1309 22be b3f2 cf3c 96ee b5bc ab9c 373e
000000b0: 1c96 ebbd 5434 d63d 375d 0fbe ea64 71bc
000000c0: bc94 4d3e 24be 943e 394a 373e d0ac 933e
000000d0: 8cd1 913f ac0f 2c3f 28c6 ce3d 2a8d 083e
000000e0: 800f cc3c e276 04bf 0684 9bbe 0eb1 d2bc
000000f0: b685 013f 2618 d93d 8ea4 febe 9cd2 a5bd
00000100: 86ae 1dbc 8ab6 123d cc99 c3bc c81d 203d
00000110: db31 b2be 4b69 e93d 4dcd a8bd de0f 363d
00000120: 998d 64bc e650 ab3c ba97 41bd 92a7 54be
00000130: 2a1d babe 9ebe f9be 3cc4 2abe 1d04 bb3d
00000140: c8b9 883d d990 bf3e 0102 39be 213e 27be
00000150: 20e6 333d 6abf 3dbd c79b a5bd a1dd 893c
00000160: 897d 433d 20c3 bdbb f6bb 00bd 4620 fa3c
00000170: 1ba7 163d 9a3b 96bc 2b64 9f39 278b 83bd
00000180: 4b73 ec3c 2a72 15bf 1534 b1bf a74c 933e
00000190: e46c 91be 2170 703e 5e2e 4abd 8bfe fc3e
000001a0: b176 683d 5a58 063d 8337 8ebd c0b4 003e
000001b0: 153e 83be 3621 45bd 2f29 53bd 84c7 ae3f
000001c0: 8e6b c63d 336f 57be 9ef3 553d ea0f 9abd
000001d0: 1320 bcbe ac9c 92bd 02a4 7d3e 5b29 c33e
000001e0: 52d0 a5be d9cf 51bc 00d9 abbe 4380 12be
000001f0: 13c5 27bb e36e 7f3d f5b5 ad3e 527b dbbe
00000200: 1f80 93be e97f 433d 1293 8c3d f14a a93b
00000210: 5d51 66bf c221 f93e 3b3b 5dbe 2660 9cbe
00000220: ed88 173e 3f19 f5bc a8b4 91be aff6 2e3c
00000230: bad7 8d3a d200 1fbe ae44 dd3b f439 36bf
00000240: 92df 58bd b992 9d3d 5108 a8be 2f58 f7bc
00000250: ab45 4f3e cff1 8a3c 6a53 693c d1ac 033e
00000260: 7f24 dabd 73b4 843d 608c 1e3f 4389 05be
00000270: 6890 fb3c 435c c5bf 3e50 63bf 1b82 68be
00000280: 3ade d33d 2488 e6bd f59f 0cbf b250 93be
00000290: d2e9 08be f457 58bc e86b 7cbb 7b36 b3bd
000002a0: 5060 8c3e 3512 cbbc 6132 c53d 1342 633c
000002b0: b418 a6bd ccf5 05be 6b0c a53d 5e0f 9f3d
000002c0: f3ce 77bd 9e68 9a3d c398 7abe 30f9 553d
000002d0: 4dce a2be 0f7c debe ce3c 843e 49e2 3abf
000002e0: bce5 413f 9779 92bd 4fdc db3e 5c88 0d3e
000002f0: b3f5 f4be 3953 70be f30b 873d d1b6 513d
00000300: fa08 9fbe 611c 4d3b 8618 03bd d6e1 ab3d
00000310: 4bd8 e53d a874 e4bd 227d 833c 651c 723d
00000320: 0b71 943e 6dd3 5f3f f87d 95bb 6522 20bd
00000330: 3ebd b53d a789 84be 09f3 84be 0a8f e7bd
00000340: 1fd1 f4be b71d 253e fd25 163e ac14 bf3c
00000350: d5c8 83be ead7 e1be d252 7c3e f852 19bf
00000360: 4bd4 80bf e8d8 1bbe 11d9 4c3d 2857 fa3c
00000370: 945d c2be 9948 debe 7656 a93e 73d8 5c3e
00000380: d6e5 713e f88b 1a3f dca5 663e c4c1 f3be
00000390: 5f4c 9ebe 8f67 c5bd 34b9 f73e a810 0ebe
000003a0: 4fcc 64bf e8f2 03bf 942d 8dbd 6524 58bd
000003b0: 8a5a a0bc c493 00be 49e4 823d 9520 f63d
000003c0: 35ac 9ebd 294d 223e 365d 26bd 10ac 52be
000003d0: 6698 fd3d bafb c1bd 0361 523a 5f86 d3bc
000003e0: 7434 7bbc 335b 7439 f10a c03d e659 343e
000003f0: bea0 833c 4c6b a1ba 3624 d63d 9fc1 3a3d

bias f4 [256]
0.18965353 0.043035 -0.018388432 -0.10032044 0.185781 0.288482 0.028736055 0.15072627
-0.29316399 -0.27667812 -0.0050850464 -0.074485734 0.1789163 -0.40098724 0.1216041 0.21286125
-0.036211707 -0.18228044 -0.17050268 -0.10092006 0.046499982 0.21136831 -0.19208315 0.09169068
0.047218967 0.15976883 -0.0716354 0.07950372 0.39251882 -0.0599121 -0.27656373 -0.0018877243
0.24153385 -0.15428577 -0.17005216 0.077390574 -0.13647115 0.21565725 0.08153851 -0.04171754
0.52933365 -0.15924919 -0.21586372 -0.18312007 -0.113192946 -0.07102047 -0.027236575 -0.26787773
-0.07491654 -0.064511366 -0.07382695 -0.011025605 0.018305147 -0.45199627 0.17572945 0.010754655
0.0029461288 -0.19974165 -0.35274532 0.19053921 0.2528326 0.0722789 -0.27327418 -0.21018614
0.11788119 0.27197805 -0.03467252 0.20489873 -0.109415464 -0.42200756 -0.12169311 -0.03800092
0.6909324 0.049332354 0.29624835 -0.0485428 -0.049582317 0.37363485 0.02268306 -0.08417501
-0.05285337 -0.043422177 0.12639783 -0.15488453 -0.05530599 -0.16931406 -0.021519354 0.08933652
0.30400574 0.10344131 0.07504334 0.04559408 0.047847733 0.091690324 0.1329609 0.2254817
-0.044198982 -0.0031237109 -0.13073091 0.17449568 0.32394788 0.22540486 -0.08623328 -0.11387413
-0.286783 -0.018740745 -0.043656673 0.070064 0.07626931 -0.07081929 0.053043902 -0.26864582
-0.044532053 -0.08306919 -0.13220073 -0.37420347 -0.21555014 -0.22899991 -0.06314949 0.09315786
-0.056238487 -0.1448714 0.5180209 0.09806076 0.05497592 -0.2173665 0.2606029 0.6060859
-0.1554275 -0.29476976 -0.07994478 0.373943 0.2609886 -0.25829116 0.22503479 0.1611408
0.17294168 0.037080012 0.086685725 -0.076511286 0.22479473 -0.087631345 0.0059303264 -0.13585643
-0.09723658 0.017351465 -0.037685577 -0.11110231 0.00964712 -0.005026145 -0.0061348225 0.11844519
0.24369118 0.23192476 0.12227514 0.07157483 0.07629437 0.09551082 0.19264801 0.07993586
0.07533862 -0.07491168 -0.031210186 -0.10282952 0.053205878 0.039740458 -0.23306549 0.34575954
0.12874708 -0.033056695 -0.1196792 -0.001643349 0.13769569 0.24158716 -0.10633561 0.04929541
0.40252882 -0.029873537 0.35868546 0.24497783 -0.094840385 -0.059533317 -0.31060654 -0.03341353
0.07254175 0.011890231 0.21424936 -0.26588202 -0.11483737 -0.040733337 0.10639195 -0.03558654
0.053145748 0.20084175 0.0637669 -0.020446803 0.39057308 -0.14143042 -0.09169734 0.023028836
-0.19706489 0.0029786443 -0.03779922 0.04025769 -0.11279499 0.006827846 0.1588629 -0.027631767
-0.025902493 0.32621786 0.054315984 0.046142794 -0.08919424 -0.019079946 0.060928114 -0.024139464
-0.28055575 -0.22255303 0.19825968 0.41834065 -0.07892877 -0.12995785 0.13111594 -0.032725267
-0.041475404 0.34335858 -0.13653402 0.016938379 0.12558757 -0.060726516 -0.15200979 -0.23734573
0.019731991 -0.055439573 0.16754423 0.010869272 -0.121077724 -0.01353578 -0.012578395 0.015182881
-0.1524709 0.6867306 0.040860914 0.06328618 -0.102046676 -0.09216461 -0.28167218 0.15285696
-0.16440979 0.37421507 -0.29603142 0.06326044 0.19849975 -0.07277711 -0.20217952 0.020039536
00000000: 8934 423e 7845 303d 56a3 96bc ce74 cdbd
00000010: 603d 3e3e eab3 933e e067 eb3c fd57 1a3e
00000020: 9719 96be c1a8 8dbe 76a0 a6bb fa8b 98bd
00000030: d635 373e 334e cdbe 920b f93d 4df8 593e
00000040: ba52 14bd b9a7 3abe 4198 2ebe 2daf cebd
00000050: c476 3e3d ef70 583e 72b1 44be 53c8 bb3d
00000060: ad68 413d 719a 233e 95b5 92bd d9d2 a23d
00000070: 3af8 c83e 6466 75bd c399 8dbe 846d f7ba
00000080: a654 773e 17fd 1dbe 2722 2ebe f37e 9e3d
00000090: 18bf 0bbe 41d5 5c3e aafd a63d 03e0 2abd
000000a0: 6982 073f 3812 23be 610b 5dbe d483 3bbe
000000b0: b4d1 e7bd 2e73 91bd 3d1f dfbc 4527 89be
000000c0: d86d 99bd 891e 84bd 9532 97bd bda4 34bc
000000d0: adf4 953c 0e6c e7be 6cf2 333e 4b34 303c
000000e0: d713 413b 1389 4cbe 099b b4be b61c 433e
000000f0: 4673 813e f606 943d 98ea 8bbe 093b 57be
00000100: b16b f13d b540 8b3e c604 0ebd f9d0 513e
00000110: 3715 e0bd 6011 d8be 3d3a f9bd daa6 1bbd
00000120: f2e0 303f b910 4a3d ddad 973e d1d4 46bd
00000130: d416 4bbd 114d bf3e d3d1 b93c f363 acbd
00000140: c67c 58bd 74db 31bd 6f6e 013e 0d9a 1ebe
00000150: 8988 62bd aa60 2dbe 5b49 b0bc 11f6 b63d
00000160: a4a6 9b3e 0ad9 d33d 53b0 993d dcc0 3a3d
00000170: fcfb 433d 23c8 bb3d e726 083e ade4 663e
00000180: fe09 35bd 2cb7 4cbb 53de 05be ffae 323e
00000190: 7fdc a53e 88d0 663e 139b b0bd d736 e9bd
000001a0: 39d5 92be 3186 99bc 57d1 32bd b77d 8f3d
000001b0: 1633 9c3d b409 91bd 9044 593d f28b 89be
000001c0: 3e67 36bd 2e20 aabd a15f 07be 9997 bfbe
000001d0: 2db9 5cbe f47e 6abe 8554 81bd 8cc9 be3d
000001e0: 545a 66bd 2b59 14be 059d 043f 14d4 c83d
000001f0: 6e2e 613d 5395 5ebe be6d 853e 7228 1b3f
00000200: 6328 1fbe 10ec 96be 17ba a3bd 7575 bf3e
00000210: 4ca0 853e bd3e 84be 856f 663e 1802 253e
00000220: a017 313e 36e1 173d 4988 b13d f3b1 9cbd
00000230: 9730 663e 1078 b3bd 2f53 c23b f31d 0bbe
00000240: f923 c7bd a924 8e3c 315c 1abd 9c89 e3bd
00000250: f40e 1e3c 5cb2 a4bb 9f06 c9bb 6493 f23d
00000260: 2e8a 793e af7d 6d3e 636b fa3d d395 923d
00000270: 3940 9c3d 2d9b c33d 8545 453e 6ab5 a33d
00000280: 224b 9a3d 4b6b 99bd 81ac ffbc 4998 d2bd
00000290: 68ee 593d e4c6 223d b8a8 6ebe 6507 b13e
000002a0: 46d6 033e 7566 07bd 5e1a f5bd a465 d7ba
000002b0: 1900 0d3e a062 773e 7cc6 d9bd fce9 493d
000002c0: 4218 ce3e 59b9 f4bc 9fa5 b73e 78db 7a3e
000002d0: ad3b c2bd 35d9 73bd d207 9fbe a0dc 08bd
000002e0: c590 943d 3ecf 423c 2f64 5b3e b021 88be
000002f0: db2f ebbd 00d8 26bd 06e4 d93d 31c3 11bd
00000300: 5baf 593d 76a9 4d3e 3898 823d 0e80 a7bc
00000310: 32f9 c73e 23d3 10be d1cb bbbd f8a6 bc3c
00000320: 61cb 49be 5c35 433b 5bd3 1abd 3fe5 243d
00000330: 0f01 e7bd 20bc df3b f5ac 223e 045c e2bc
00000340: 7731 d4bc 0706 a73e 707a 5e3d 3a00 3d3d
00000350: 78ab b6bd 8c4d 9cbc c28f 793d 20c0 c5bc
00000360: 01a5 8fbe f1e4 63be 9604 4b3e bf30 d63e
00000370: 68a5 a1bd ac13 05be 4243 063e ee0a 06bd
00000380: 1de2 29bd b2cc af3e 93cf 0bbe 5bc2 8a3c
00000390: 079a 003e 5ebc 78bd 74a8 1bbe c20a 73be
000003a0: fca4 a13c 9b14 63bd b790 2b3e 0815 323c
000003b0: 99f7 f7bd 2dc5 5dbc 9d15 4ebc 9ec1 783c
000003c0: 5521 1cbe 94cd 2f3f c65d 273d 2f9c 813d
000003d0: d9fd d0bd cdc0 bcbd 5637 90be 8986 1c3e
000003e0: 0a5b 28be 1e99 bf3e 6e91 97be b18e 813d
000003f0: 8543 4b3e 2a0c 95bd 2608 4fbe f429 a43c

weight f4 [256, 256]
0.12356065 0.06331863 -0.0024842958 -0.07687832 -0.016128965 -0.17826097 -0.06356779 -0.03160051
0.27636272 -0.0025477451 -0.15608837 0.11720279 -0.084500425 -0.5552446 0.025881952 -0.2534311
0.21629861 -0.05318716 0.028203268 0.114371076 0.3737551 -0.17899972 -0.11286867 -0.09956904
-0.1103579 0.14352824 0.19587024 -0.109814 -0.08046995 0.005481934 -0.31625566 -0.43370044
-0.04668417 0.30581683 -0.07822612 0.21907176 0.25300944 -0.031893253 -0.059184417 0.15925209
0.034259595 0.08728793 -0.18017538 -0.26251566 -0.028367719 -0.04116144 0.07510101 -0.2553615
0.15645939 -0.23270097 0.06387679 -0.34993887 0.1603887 -0.6525792 -0.35735887 -0.0033766541
0.14982145 -0.06522525 -0.39055145 0.061660368 -0.03989335 -0.11957228 -0.010416878 -0.01802891
-0.22922261 0.046912916 0.007348708 0.25138664 0.062332585 -0.16789547 0.13120367 -0.028720945
0.0876669 -0.34529975 -0.11758375 0.4190687 0.16708577 -0.38782075 0.12968728 0.09877138
-0.20349944 -0.24253312 0.11794569 0.07655117 0.32021847 0.20307235 0.14174907 0.080699384
-0.007970192 0.06298476 0.13383898 0.026751684 0.07569924 0.22424297 -0.20674233 0.15953106
0.08676238 -0.09728582 0.22201405 0.04936094 -0.33813593 0.032870784 -0.19184169 -0.10147812
-0.20862795 -0.034899212 0.022543048 -0.06672402 -0.3810155 0.119331814 0.064349145 -0.14240652
0.14813462 -0.094252035 -0.11057958 -0.08676323 0.029769365 -0.13284074 0.054971267 -0.032490253
-0.21923432 0.2244712 0.14866838 0.2984175 -0.06605955 0.05345638 -0.39354867 0.1197278
0.2121569 -0.2030399 -0.47374117 -0.1167707 0.290053 -0.101427436 -0.30545858 0.1601196
0.24762774 0.06021972 -0.07165384 0.11724075 0.0053072115 0.5513342 0.049454276 -0.36229384
-0.3475458 -0.057287008 0.19417198 -0.053374656 0.2901288 0.034181964 0.047999695 -0.21003388
-0.00816255 -0.06317489 0.056496434 -0.43111452 -0.041981313 -0.0377909 -0.018730788 0.3172679
-0.21097402 0.06662602 0.092733145 -0.056809757 0.104130186 -0.14966725 0.18755391 -0.14365642
-0.12204239 -0.007392786 0.09884886 0.011029805 -0.06292172 0.12043728 -0.21132469 -0.19522297
-0.25729313 0.09957956 -0.15434234 -0.080922425 -0.16901654 0.020701095 -0.4038052 -0.14861342
0.13140583 0.08671088 0.09656409 0.16380745 0.039368052 0.099113524 -0.2600598 0.095408864
-0.20904756 0.13580023 0.11924705 0.1754291 -0.14923936 -0.12746775 -0.14557739 -0.103514716
-0.068257965 0.17382392 -0.41922137 0.16322373 0.15650986 -0.105613224 0.32603562 0.20288572
-0.083074 -0.15097056 -0.43717748 -0.18391235 0.12065652 0.12589864 0.052502755 0.1660623
-0.03463236 0.010504915 0.08710336 0.03619434 0.049146548 -0.1770893 -0.028698288 -0.025272092
-0.04160369 -0.030716887 -0.15554062 0.046770915 0.05258941 0.07720337 0.09585193 0.11575871
-0.126499 -0.15721878 0.15840772 0.043509956 0.030869355 -0.09164351 0.24060005 -0.1506354
-0.11798421 -0.19254474 -0.008746187 0.11038938 0.1519003 0.42982686 -0.30487683 -0.06068529
0.14420791 -0.129264 0.028313465 0.2741799 0.1873853 0.124458365 0.08491526 0.015410099
00000000: 5e0d fd3d 33ad 813d 91cf 22bb 6172 9dbd
00000010: e420 84bc 0b8a 36be d42f 82bd 896f 01bd
00000020: 6a7f 8d3e 12f8 26bb a1d5 1fbe 0408 f03d
00000030: 8f0e adbd 8324 0ebf 6306 d43c b9c1 81be
00000040: 627d 5d3e c8da 59bd 8a0a e73c 623b ea3d
00000050: d45c bf3e b44b 37be b027 e7bd daea cbbd
00000060: 5303 e2bd 11f9 123e 3592 483e 2ae6 e0bd
00000070: 6ecd a4bd cca1 b33b 43ec a1be fc0d debe
00000080: e637 3fbd 0694 9c3e 0435 a0bd 5954 603e
00000090: 748a 813e 80a2 02bd 5c6b 72bd fb12 233e
000000a0: ca53 0c3d 04c4 b23d e57f 38be 7468 86be
000000b0: 6b63 e8bc e698 28bd 8fce 993d bebe 82be
000000c0: e436 203e 2a49 6ebe d6d1 823d 302b b3be
000000d0: ef3c 243e 6e0f 27bf bef7 b6be db4a 5dbb
000000e0: cb6a 193e d194 85bd 5cf6 c7be 958f 7c3d
000000f0: 3667 23bd 50e2 f4bd 8eab 2abc 5db1 93bc
00000100: 55b9 6abe c227 403d 6ecd f03b c0b5 803e
00000110: 7450 7f3d caec 2bbe 415a 063e 3048 ebbc
00000120: b48a b33d 21cb b0be c0cf f0bd 2c90 d63e
00000130: 8818 2b3e 7190 c6be becc 043e a648 ca3d
00000140: 2862 50be 9a5a 78be 838d f13d dcc6 9c3d
00000150: adf3 a33e 33f2 4f3e ab26 113e b845 a53d
00000160: 6895 02bc 27fe 803d 160d 093e 5926 db3c
00000170: 3408 9b3d f39f 653e 43b4 53be 1c5c 233e
00000180: 7ab0 b13d ca3d c7bd a757 633e b22e 4a3d
00000190: 2720 adbe 84a3 063d 2672 44be c3d3 cfbd
000001a0: 91a2 55be 7af2 0ebd 33ac b83c 9aa6 88bd
000001b0: 7714 c3be 3d64 f43d 7cc9 833d 04d3 11be
000001c0: 9ab0 173e 3607 c1bd 8c77 e2bd ecb0 b1bd
000001d0: e2de f33c 6707 08be 8d29 613d 8014 05bd
000001e0: f67e 60be c7db 653e 863c 183e 2eca 983e
000001f0: 3b4a 87bd 14f5 5a3d 367f c9be d933 f53d
00000200: a93f 593e b1e9 4fbe 348e f2be 7a25 efbd
00000210: d481 943e 30b9 cfbd 1165 9cbe 64f6 233e
00000220: 2092 7d3e f4a8 763d 40bf 92bd eb1b f03d
00000230: 1ee8 ad3b 3d24 0d3f 9190 4a3d 947e b9be
00000240: 86f1 b1be c8a5 6abd 05d5 463e 629f 5abd
00000250: c38b 943e 6302 0c3d 549b 443d 1f13 57be
00000260: 37bc 05bc d661 81bd ce68 673d 0bbb dcbe
00000270: 99f4 2bbd a1ca 1abd 4f71 99bc f070 a23e
00000280: 9309 58be 3973 883d e0ea bd3d 59b1 68bd
00000290: 3542 d53d 5f42 19be 220e 403e ab1a 13be
000002a0: 5cf1 f9bd 2f3f f2bb 4571 ca3d 5bb6 343c
000002b0: 1add 80bd d2a7 f63d 8065 58be 88e8 47be
000002c0: edbb 83be 5ef0 cb3d eb0b 1ebe a8ba a5bd
000002d0: ac12 2dbe 5895 a93c 8ebf cebe 1e2e 18be
000002e0: 408f 063e 7995 b13d 65c3 c53d 24bd 273e
000002f0: 6540 213d 08fc ca3d 8f26 85be b965 c33d
00000300: 9010 56be 370f 0b3e cc37 f43d b0a3 333e
00000310: 34d2 18be e886 02be 3d12 15be 86ff d3bd
00000320: d5ca 8bbd e6fe 313e 2fa4 d6be 1f24 273e
00000330: 1f44 203e bf4b d8bd 24ee a63e 46c1 4f3e
00000340: b422 aabd 0798 1abe bad5 dfbe 8553 3cbe
00000350: c41a f73d 93eb 003e 210d 573d 3c0c 2a3e
00000360: a9da 0dbd cf1c 2c3c 3f63 b23d 8440 143d
00000370: e44d 493d e656 35be ac18 ebbc 6b07 cfbc
00000380: a168 2abd fba1 fbbc 0a46 1fbe dc92 3f3d
00000390: fe67 573d cd1c 9e3d 044e c43d e712 ed3d
000003a0: f488 01be f6fd 20be a235 223e 7f37 323d
000003b0: bbe1 fc3c 98af bbbd dc5f 763e 2b40 1abe
000003c0: b5a1 f1bd 732a 45be 2b4c 0fbc d413 e23d
000003d0: c18b 1b3e 4412 dc3e d118 9cbe 2391 78bd
000003e0: 3dab 133e c85d 04be a4f1 e73c 4f61 8c3e
000003f0: efe1 3f3e 07e4 fe3d 0de8 ad3d a47a 7c3c

bias f4 [256]
-0.02800039 -0.023320528 -0.13002998 -0.065654494 0.14186813 -0.12983064 -0.05187996 0.1457025
-0.041017838 0.2426385 0.46771607 0.26318285 0.43557146 -0.21920498 0.45961735 -0.09990392
0.18316615 0.3739361 0.28140265 0.16426368 0.20403087 0.18690555 -0.103134364 -0.09268227
-0.13004178 -0.044941872 0.15701921 -0.14167278 -0.110538885 0.23410265 -0.07072822 -0.12202419
0.33225498 0.5179697 -0.16660409 -0.09951406 -0.13369896 0.42072067 0.50285524 0.5509722
0.26229838 0.2507193 0.34042674 -0.14735338 0.35621157 0.22720686 0.48983762 0.5061111
-0.06541416 0.29988453 -0.15457633 0.50486124 0.2789849 0.36124724 -0.27759054 -0.15707122
0.22787721 0.48804626 0.266737 -0.13706023 0.16247578 0.288612 -0.04641332 0.21183996
0.22240378 0.41343024 0.3627103 0.22193004 0.19791096 -0.02417703 -0.119619936 0.3063035
0.25651667 0.24932444 -0.040004868 0.2674334 0.28317633 0.45329896 0.3741026 -0.0040523945
0.34938908 -0.16562456 0.27788317 0.18324797 0.4091321 -0.06955683 0.23872899 -0.12806779
0.47982186 0.2641257 -0.07757431 0.28124973 0.32641238 -0.026148409 -0.24948917 0.19055569
-0.14867188 0.32140282 0.0882529 0.23610124 0.15999494 -0.12782067 0.29002166 -0.20429784
0.23517866 0.008495821 -0.04454171 0.26383302 0.28202444 0.48784837 0.28720197 -0.32708305
0.05205012 -0.06455791 0.53468555 0.28682566 0.018571623 -0.05206284 0.45713198 0.24809784
0.28064945 0.0038222242 0.2533537 0.11030896 -0.09572524 -0.04296844 0.100896515 0.5070273
0.25807247 0.043286666 -0.066816494 -0.0070593064 0.2771831 -0.07620104 0.48976794 0.058466565
0.43495718 0.20544389 -0.094723895 0.039822005 -0.059130948 -0.124393545 0.28898546 0.57201076
-0.033279996 0.31003183 0.2077384 -0.15603185 0.006213384 0.5114084 -0.25574046 -0.10479845
0.6142183 0.24377136 0.31399065 0.010786542 0.21749388 0.5538856 -0.060829513 -0.051564083
-0.085021846 0.46251807 -0.3708036 -0.011543639 -0.022584464 0.06690279 -0.07037725 -0.07838846
-0.08583996 0.23561852 0.26885405 0.2912114 0.016389638 0.20325021 0.022475863 0.24907574
-0.08941647 -0.02696675 0.044444226 -0.095070794 0.5664378 -0.25709906 0.37006387 0.19197863
0.2370066 0.47369346 -0.10524097 0.036049735 0.12906155 -0.062371258 0.5016652 0.21435827
-0.16041023 0.095046625 -0.08060145 0.25579336 0.23566736 0.27921435 0.2783336 0.047685064
0.2327664 -0.078754835 0.040867608 -0.29463443 0.42464784 0.06620565 0.26999566 0.21557824
-0.07981253 -0.060349148 0.5074084 0.26631942 0.42917556 -0.08695693 -0.09996349 0.4778406
0.008734363 0.02497711 -0.13691863 0.5050203 0.50392884 0.2673586 0.2400314 -0.026044874
0.29741862 0.19874972 0.15591705 -0.1657586 0.29219788 -0.0026055037 0.20664589 0.34360573
-0.1050842 0.21131326 -0.031089189 0.26808462 -0.10178431 0.25606176 -0.0031289887 -0.037498884
0.23356217 0.113413624 0.42184108 0.2770603 0.2590941 0.51320934 0.07342745 0.2149384
0.27415794 0.53732747 0.045588296 0.28859997 0.023307286 0.62635803 0.056834944 0.24424276
00000000: 1361 e5bc b10a bfbc 9426 05be dd75 86bd
00000010: e145 113e 53f2 04be 1580 54bd 0933 153e
00000020: 5202 28bd 3a76 783e 7b78 ef3e e7bf 863e
00000030: 3903 df3e 4577 60be f752 eb3e 6d9a ccbd
00000040: e88f 3b3e 8d74 bf3e 0214 903e bd34 283e
00000050: 78ed 503e 2b64 3f3e 1c38 d3bd 34d0 bdbd
00000060: ac29 05be f814 38bd a5c9 203e ab12 11be
00000070: 3662 e2bd 9bb8 6f3e f5d9 90bd d2e7 f9bd
00000080: 531d aa3e aa99 043f 439a 2abe 07ce cbbd
00000090: 61e8 08be b368 d73e 1fbb 003f 840c 0d3f
000000a0: f94b 863e 485e 803e 6a4c ae3e cee3 16be
000000b0: 5d61 b63e eaa8 683e ffcb fa3e 7f90 013f
000000c0: dcf7 85bd 778a 993e 4249 1ebe 963e 013f
000000d0: 1cd7 8e3e 66f5 b83e 5920 8ebe 47d7 20be
000000e0: a558 693e 33e1 f93e c191 883e 8459 0cbe
000000f0: 0d60 263e f4c4 933e e51b 3ebd 93ec 583e
00000100: d1bd 633e 21ad d33e 2ab5 b93e a141 633e
00000110: 2ca9 4a3e e80e c6bc 4cfb f4bd d0d3 9c3e
00000120: 2756 833e e84e 7f3e 25dc 23bd 08ed 883e
00000130: 7dfc 903e cd16 e83e 608a bf3e f3c9 84bb
00000140: 20e3 b23e 7c99 29be b446 8e3e 5ba5 3b3e
00000150: c379 d13e d073 8ebd 5f75 743e 3424 03be
00000160: 36ab f53e 7c3b 873e 48df 9ebd f7ff 8f3e
00000170: 861f a73e 3035 d6bc 177a 7fbe 0821 433e
00000180: 713d 18be e98e a43e f0bd b43d 86c4 713e
00000190: b7d5 233e 6ce3 02be b87d 943e 7433 51be
000001a0: add2 703e 0e32 0b3c 5e71 36bd 1f15 873e
000001b0: 8265 903e 43c7 f93e 230c 933e 6e77 a7be
000001c0: 8232 553d f036 84bd 27e1 083f d0da 923e
000001d0: 8423 983c d83f 55bd 340d ea3e 5c0d 7e3e
000001e0: 49b1 8f3e 487e 7a3b 93b7 813e aae9 e13d
000001f0: 980b c4bd adff 2fbd d5a2 ce3d 8bcc 013f
00000200: 1322 843e 5c4d 313d 16d7 88bd c151 e7bb
00000210: f1ea 8d3e 4a0f 9cbd ddc2 fa3e a37a 6f3d
00000220: b5b2 de3e e25f 523e 9afe c1bd 661c 233d
00000230: 4b33 72bd 0bc2 febd e7f5 933e 4c6f 123f
00000240: 9b50 08bd 7ebc 9e3e 60b9 543e d0c6 1fbe
00000250: a599 cb3b a9eb 023f 6af0 82be 92a0 d6bd
00000260: 693d 1d3f 339f 793e 62c3 a03e 09ba 303c
00000270: b7b6 5e3e 72cb 0d3f 5e28 79bd dc34 53bd
00000280: ef1f aebd 2bcf ec3e f8d9 bdbe 8821 3dbc
00000290: 0e03 b9bc 5404 893d f321 90bd 218a a0bd
000002a0: dccc afbd fb45 713e 3da7 893e a919 953e
000002b0: 9043 863c d320 503e 4d1f b83c b60d 7f3e
000002c0: fb1f b7bd 60e9 dcbc 260b 363d 7ab4 c2bd
000002d0: 1102 113f 7da2 83be 0379 bd3e 0c96 443e
000002e0: dcb1 723e f387 f23e 9488 d7bd e3a8 133d
000002f0: b628 043e 0179 7fbd 216d 003f bc80 5b3e
00000300: 9442 24be cea7 c23d 5f12 a5bd 59f7 823e
00000310: c952 713e 2ff5 8e3e be81 8e3e 6a51 433d
00000320: 515a 6e3e 374a a1bd cb64 273d 53da 96be
00000330: 716b d93e d496 873d df3c 8a3e 8bc0 5c3e
00000340: c074 a3bd ab30 77bd 84e5 013f 055b 883e
00000350: e6bc db3e 7a16 b2bd a9b9 ccbd 86a7 f43e
00000360: 931a 0f3c cc9c cc3c 6634 0cbe 0349 013f
00000370: 7b01 013f 3ae3 883e cbca 753e 0f5c d5bc
00000380: 4147 983e 0c85 4b3e b8a8 1f3e 9fbc 29be
00000390: f69a 953e 19c1 2abb fb9a 533e 17ed af3e
000003a0: 6336 d7bd 8162 583e c1ae febc 6342 893e
000003b0: 4b74 d0bd 871a 833e b80f 4dbb 6e98 19bd
000003c0: ec2a 6f3e 6745 e83d 8efb d73e d9da 8d3e
000003d0: fba7 843e b061 033f 2261 963d d018 5c3e
000003e0: 6e5e 8c3e 4b8e 093f cbba 3a3d 60c3 933e
000003f0: ecee be3c 0059 203f c2cb 683d c61a 7a3e

weight f4 [1, 256]
-1.4975041 -1.4367498 -0.82009786 -1.1263913 1.8314679 -0.8289561 -1.0813706 0.40273666
-1.3582593 0.0621491 0.5322656 0.07121652 0.5811685 -0.6612227 0.59155554 -0.97020483
-1.9416822 1.1997454 0.13235717 0.95021206 0.028097149 0.008821146 -0.92906076 -1.8592948
-0.5945059 -1.3666459 0.86128455 -0.84572864 -1.2777817 0.5379366 -1.095149 -1.4094752
1.62692 0.60583436 -1.4020896 -0.66974026 -0.74938 1.3701138 0.9730014 1.0431894
0.06905114 0.0663448 1.1171067 -0.5031339 1.0870247 0.5534503 0.83774334 0.6306065
-1.4729062 0.20858768 -2.2250006 1.3385055 0.78014326 0.5303821 -1.3993621 -1.4769647
1.3064752 0.58854735 0.08257175 -0.76124036 0.028645106 0.9878747 -1.8192489 0.02088094
0.036047455 1.1272699 1.5653731 0.69891256 0.022623405 -1.3231812 -1.8109224 1.4949406
0.07507752 0.061123535 -0.7435015 0.096321225 0.12002102 0.4554068 0.54992664 -1.4671129
1.6630112 -0.5584693 0.091256104 0.27436548 1.5443549 -0.68054926 0.04292065 -0.612831
0.50472385 0.07932197 -0.10258258 0.12322826 1.1907635 -0.8842584 -2.204109 0.021165067
-0.89942 0.39852098 -2.5652611 0.65112555 0.82025653 -2.8270662 1.4752183 -0.7970942
0.66537094 -1.3745127 -1.7355958 0.32360393 0.127336 0.5951669 0.14320776 -1.7840927
-1.6796685 -1.2045083 0.49232703 0.12222252 -0.8553836 -1.3040652 0.9839016 0.053302955
0.11919098 -1.396365 0.07572008 -1.5309577 -0.6237306 -1.2338313 1.4355638 0.67883706
0.07729468 -0.4744994 -1.4679855 -1.5604769 0.11628726 -0.44139034 1.2667671 0.39230224
0.26722494 0.018590273 -0.7454119 -1.6059133 -1.373258 -1.7800345 1.698447 0.71915764
-1.4454255 0.23805834 0.027594239 -0.38603285 -2.2922525 0.90767205 -0.59685636 -1.1714319
1.0823654 0.51028776 1.6557174 -0.8842436 0.04091155 1.1255827 -1.0999935 -0.98591727
-0.8623512 0.44529578 -1.0085641 -1.5790143 -0.8696502 -1.8488919 -0.5459528 -1.224886
-1.093042 0.05408046 0.099774584 0.16240412 -1.3041983 0.02207956 -0.6810412 0.057424117
-0.51903 -0.63495374 -1.7783086 -0.31342417 0.99915075 -0.98535764 1.0154132 0.65493035
0.03930013 0.68433094 -0.98518425 -1.1547312 -2.1007721 -1.4724821 0.9590555 0.030302
-1.4659317 -2.076587 -0.32411605 0.076585196 0.042245716 0.9347436 0.09962685 -1.0426143
0.03387543 -1.134947 -0.9302079 -0.6605812 1.256529 -2.1769614 0.09085378 0.16696712
-0.5328568 -1.2874953 0.52064043 0.07890501 1.1380746 -1.1433915 -1.2663087 0.57627124
-1.4612012 -1.1625423 -0.4086627 0.59526175 0.72791934 0.088306814 0.05235471 -2.1603587
1.1898254 0.025501395 0.21738257 -0.9428991 0.13077801 -2.356162 -2.2661636 0.64018834
-1.5319301 0.025123896 -1.3762002 0.082360215 -0.5031562 0.07741575 -0.7497298 -0.67859364
0.034335215 0.88721925 0.7675901 0.107166834 0.082958385 0.8999536 0.046483316 0.020937905
0.10958436 0.7781805 -0.75244284 0.13323756 -0.9024247 1.181689 -1.2140883 0.05883079
00000000: 37ae bfbf 6be7 b7bf eff1 51bf 972d 90bf
00000010: 8a6d ea3f 7836 54bf 5a6a 8abf 8033 ce3e
00000020: 71db adbf 0e90 7e3d 8f42 083f f8d9 913d
00000030: 75c7 143f e445 29bf 2f70 173f 585f 78bf
00000040: 0b89 f8bf 4291 993f a388 073e 1941 733f
00000050: fe2b e63c 9186 103c edd6 6dbf 5ffd edbf
00000060: 8a31 18bf 41ee aebf 257d 5c3f ac81 58bf
00000070: 5a8e a3bf 37b6 093f d82d 8cbf af69 b4bf
00000080: ea3e d03f f617 1b3f ac77 b3bf 1974 2bbf
00000090: 5ed7 3fbf e45f af3f 9f16 793f 3b87 853f
000000a0: af6a 8d3d c8df 873d 5afd 8e3f 62cd 00bf
000000b0: a023 8b3f ebae 0d3f 5976 563f 6d6f 213f
000000c0: 3188 bcbf 0298 553e 6966 0ec0 2654 ab3f
000000d0: 78b7 473f 1fc7 073f 4c1e b3bf 2e0d bdbf
000000e0: 943a a73f 0aab 163f 611b a93d a6e0 42bf
000000f0: 24a9 ea3c 5be5 7c3f 26dd e8bf 810e ab3c
00000100: 7fa6 133d 614a 903f 255e c83f efeb 323f
00000110: b854 b93c 005e a9bf 4ecc e7bf 375a bf3f
00000120: 3ec2 993d ac5c 7a3d 1d56 3ebf 1044 c53d
00000130: 95cd f53d 152b e93e fec7 0c3f 5bca bbbf
00000140: 8ddd d43f d8f7 0ebf 7be4 ba3d a279 8c3e
00000150: 6cad c53f 7a38 2ebf 90cd 2f3d 7ee2 1cbf
00000160: 9535 013f 8f73 a23d d116 d2bd 195f fc3d
00000170: f06a 983f c25e 62bf 1f10 0dc0 5d62 ad3c
00000180: 6440 66bf f10a cc3e 3d2d 24c0 2ab0 263f
00000190: 55fc 513f a7ee 34c0 f4d3 bc3f 5e0e 4cbf
000001a0: c055 2a3f 08f0 afbf 0128 debf 6aaf a53e
000001b0: 5e64 023e dc5c 183f 0ea5 123e 265d e4bf
000001c0: 61ff d6bf 542d 9abf 4a12 fc3e cd4f fa3d
000001d0: 6bfa 5abf 9ceb a6bf fae0 7b3f 3354 5a3d
000001e0: 671a f43d 17bc b2bf 2113 9b3d 6cf6 c3bf
000001f0: cfac 1fbf 2fee 9dbf 8ec0 b73f 44c8 2d3f
00000200: ac4c 9e3d 96f1 f2be f3e6 bbbf b5bd c7bf
00000210: 0428 ee3d eafd e1be 6d25 a23f d7db c83e
00000220: b5d1 883e a14a 983c 50d3 3ebf 918e cdbf
00000230: ebc6 afbf 2cd8 e3bf b666 d93f b71a 383f
00000240: b403 b9bf 91c5 733e 500d e23c 19a6 c5be
00000250: 44b4 12c0 325d 683f 94cb 18bf 7bf1 95bf
00000260: f38a 8a3f 38a2 023f 8cee d33f ca5d 62bf
00000270: df92 273d 1813 903f 96cc 8cbf 1365 7cbf
00000280: 0cc3 5cbf cffd e33e a118 81bf 241d cabf
00000290: 65a1 5ebf 7da8 ecbf 90c3 0bbf 10c9 9cbf
000002a0: cde8 8bbf 7983 5d3d 9e56 cc3d 444d 263e
000002b0: f8ef a6bf 32e0 b43c b758 2ebf 8d35 6b3d
000002c0: 26df 04bf 548c 22bf 9e9f e3bf 2279 a0be
000002d0: 58c8 7f3f 6640 7cbf 0ff9 813f 84a9 273f
000002e0: 2cf9 203d 5030 2f3f 0935 7cbf 3bce 93bf
000002f0: 0d73 06c0 4b7a bcbf a984 753f e63b f83c
00000300: a6a3 bbbf cde6 04c0 8af2 a5be b3d8 9c3d
00000310: d809 2d3d 5b4b 6f3f 2909 cc3d 6374 85bf
00000320: f6c0 0a3d f145 91bf 1b22 6ebf d91b 29bf
00000330: f1d5 a03f 5653 0bc0 8c11 ba3d 6ef9 2a3e
00000340: 4e69 08bf a5cc a4bf b148 053f f398 a13d
00000350: 6eac 913f a75a 92bf 6716 a2bf 8386 133f
00000360: a408 bbbf 30ce 94bf 3d3c d1be 1363 183f
00000370: ec58 3a3f 34da b43d e471 563d 5143 0ac0
00000380: 334c 983f 4de8 d03c 8999 5e3e d661 71bf
00000390: acea 053e 5ccb 16c0 d308 11c0 62e3 233f
000003a0: 4916 c4bf a1d0 cd3c 5427 b0bf 79ac a83d
000003b0: d8ce 00bf 268c 9e3d 4bee 3fbf 50b8 2dbf
000003c0: 15a3 0c3d cd20 633f c980 443f 497a db3d
000003d0: 16e6 a93d 5c63 663f 4a65 3e3d f885 ab3c
000003e0: c46d e03d d636 473f 18a0 40bf 6d6f 083e
000003f0: 4e05 67bf 9641 973f 3f67 9bbf 8ef8 703d

obs_std f4 [35]
0.2 0.2 1.0 1.0 1.0 0.5 0.5 0.5
0.5 0.5 0.5 0.5 0.5 0.5 0.5 4.0
4.0 4.0 4.0 4.0 4.0 4.0 4.0 4.0
4.0 1.0 1.0 1.0 1.0 1.0 1.0 1.0
1.0 1.0 1.0
00000000: cdcc 4c3e cdcc 4c3e 0000 803f 0000 803f
00000010: 0000 803f 0000 003f 0000 003f 0000 003f
00000020: 0000 003f 0000 003f 0000 003f 0000 003f
00000030: 0000 003f 0000 003f 0000 003f 0000 8040
00000040: 0000 8040 0000 8040 0000 8040 0000 8040
00000050: 0000 8040 0000 8040 0000 8040 0000 8040
00000060: 0000 8040 0000 803f 0000 803f 0000 803f
00000070: 0000 803f 0000 803f 0000 803f 0000 803f
00000080: 0000 803f 0000 803f 0000 803f

obs_mean f4 [35]
0.0 0.0 0.0 0.0 0.0 0.0 0.0 -0.2
0.6 -0.4 0.0 0.0 -0.2 0.6 -0.4 0.0
0.0 0.0 0.0 0.0 0.0 0.0 0.0 0.0
0.0 0.5 0.5 0.0 0.0 0.0 0.0 0.0
0.0 0.0 0.0
00000000: 0000 0000 0000 0000 0000 0000 0000 0000
00000010: 0000 0000 0000 0000 0000 0000 cdcc 4cbe
00000020: 9a99 193f cdcc ccbe 0000 0000 0000 0000
00000030: cdcc 4cbe 9a99 193f cdcc ccbe 0000 0000
00000040: 0000 0000 0000 0000 0000 0000 0000 0000
00000050: 0000 0000 0000 0000 0000 0000 0000 0000
00000060: 0000 0000 0000 003f 0000 003f 0000 0000
00000070: 0000 0000 0000 0000 0000 0000 0000 0000
00000080: 0000 0000 0000 0000 0000 0000
