trained/h1_step/critic_5699.pt (torch, 306480 bytes, 7 tensors)

weight f4 [256, 35]
0	0x3e0cdbeb	0.13755767
1	0x3e3e5702	0.18587878
2	0x3e59982f	0.2124946
3	0x3e809a16	0.25117558
4	0x3c0e70fd	0.008693931
5	0x3e66c2d0	0.22535253
6	0x3eb5020a	0.35353118
7	0x3e9f0ef1	0.31066087
8	0xbe5c6115	-0.21521409
9	0x3da4928c	0.08035764
10	0x3ec608bd	0.38678542
11	0xbe77b703	-0.24190907
12	0xbe64a28f	-0.22327636
13	0x3f2fa01d	0.6860369
14	0x3e5c65e9	0.2152325
15	0x3d4e6f98	0.050399393
16	0x3e650682	0.22365764
17	0x3f120901	0.5704499
18	0x3e871045	0.263796
19	0x3dc35a16	0.09538667
20	0xbded38db	-0.1158311
21	0x3e941b25	0.2892696
22	0x3d3f7406	0.046741508
23	0xbdd554ca	-0.10416563
24	0x3d06087f	0.032722946
25	0x3e10f1cb	0.14154737
26	0x3c680dd3	0.014163452
27	0x3e3f0394	0.18653709
28	0xbf47e2c5	-0.780804
29	0x3e8d4d3f	0.27597997
30	0x3f5b2890	0.8560877
31	0x3da49866	0.0803688
32	0x3e6778cb	0.22604673
33	0x3f0f1873	0.5589668
34	0xbf15c874	-0.5850899
35	0xbda54578	-0.08069891
36	0x3d687006	0.05674746
37	0x3de929b1	0.11384905
38	0x3e82de76	0.2556035
39	0x3d8ab920	0.06773591
40	0xbe03f653	-0.12886934
41	0x3e202c4c	0.15641898
42	0x3c034f31	0.008014486
43	0x3e465699	0.19368972
44	0xbe1cf3e4	-0.15327412
45	0x3d688ce0	0.056774974
46	0xbe4f905f	-0.20269917
47	0xbd1d2881	-0.038368706
48	0x3e815be6	0.25265425
49	0x3e72908b	0.23687951
50	0x3e84cfb9	0.2593973
51	0x3e9a3298	0.30116725
52	0x3f970e35	1.1801211
53	0x3f44abb1	0.7682448
54	0x3e0ad4d8	0.13557756
55	0x3ded5423	0.115883134
56	0x3d8244cf	0.063607804
57	0xbf0fb3d6	-0.5613378
58	0xbea929a6	-0.33039588
59	0x3d104511	0.035222117
60	0x3ef4ea8a	0.4783519
61	0x3c68449c	0.014176514
62	0xbf0fe867	-0.5621399
63	0xbe0f5fec	-0.14001435
64	0x3df8ea34	0.12154046
65	0x3dd8105f	0.105499975
66	0xbd1afed2	-0.03784067
67	0x3d05aab1	0.032633487
68	0xbed53cc6	-0.4164793
69	0x3dacefca	0.08444174
70	0xbd3129f2	-0.043252893
71	0x3ded8e86	0.1159945
72	0xbbef8502	-0.007309557
73	0x3b67e95c	0.0035386896
74	0xbbf9c161	-0.0076219295
75	0xbd364b7f	-0.044505592
76	0xbf08b993	-0.53408164
77	0xbf004977	-0.501121
78	0xbe07c8dc	-0.13260216
79	0x3c4abd2f	0.012374206
80	0x3d082107	0.033234622
81	0x3edca310	0.43093157
82	0xbe8541ae	-0.26026672
83	0xbdb52ce5	-0.088464536
84	0xbcc6d4ab	-0.02427133
85	0xbbb2c2d0	-0.0054553524
86	0xbc0a467f	-0.008439659
87	0x3cd46bb3	0.025930261
88	0xb9a38311	-0.00031187435
89	0xbcc0b4d6	-0.02352373
90	0xbc056edc	-0.008144107
91	0x3d220bd5	0.039562065
92	0x3c282f05	0.010265117
93	0xba5e5365	-0.00084810547
94	0xbd6752f8	-0.05647561
95	0x3946b294	0.00018949277
96	0x3c99a55e	0.018755611
97	0xbf2a4cbe	-0.6652335
98	0xbfceac9b	-1.6146425
99	0x3d680591	0.056645934
100	0xbe18852e	-0.14894554
101	0x3e25d8e5	0.1619602
102	0xbded754c	-0.11594638
103	0x3f12f824	0.5740988
104	0x3e653cec	0.22386521
105	0x3c1b64fc	0.009484526
106	0xbb5fac94	-0.0034129964
107	0x3e08ca47	0.13358413
108	0xbe8f22c9	-0.27956226
109	0xbd28a2d5	-0.041170914
110	0xbcf7bcb4	-0.030241348
111	0x3fa0357d	1.2516323
112	0xbd142f3e	-0.036177866
113	0xbe4696d0	-0.19393468
114	0x3d9ab0e3	0.0755327
115	0xbb6bf681	-0.0036005082
116	0xbee4b045	-0.44665733
117	0xbe50d4f4	-0.20393735
118	0x3e7efd6b	0.24901359
119	0x3ec6997a	0.38788968
120	0xbe4ab495	-0.19795449
121	0x3c432d82	0.011912705
122	0xbeb41d25	-0.35178486
123	0xbddb6267	-0.10712128
124	0xbd499fc7	-0.04922464
125	0x3d82591d	0.06364653
126	0x3ebc7afd	0.36812583
127	0xbecbbd65	-0.39792934
128	0xbe6f2213	-0.23352842
129	0x3d92d7fe	0.071701035
130	0x3d709205	0.058733005
131	0x3c163dfb	0.009170051
132	0xbf63cdd3	-0.8898594
133	0x3ece7d6d	0.40330067
134	0xbca0caa9	-0.019627886
135	0xbe618845	-0.22024639
136	0x3de4b8a5	0.11168031
137	0xbdbf2610	-0.09333432
138	0x3baa8606	0.005203965
139	0x3e0b5ed4	0.13610393
140	0xbbbd012a	-0.005767961
141	0xbe0bd58e	-0.13655683
142	0x3d272d7a	0.040814854
143	0xbf417b4a	-0.7557875
144	0xbd3dbd10	-0.046322882
145	0x3dfa2521	0.12214113
146	0xbe4a477e	-0.19753835
147	0xbceb800e	-0.028747585
148	0x3e252ba8	0.16129935
149	0x3d10a0cb	0.035309594
150	0x3d916b16	0.07100503
151	0x3e357629	0.17720856
152	0xbdc004e6	-0.09375934
153	0x3d0676d2	0.03282816
154	0x3f09c982	0.538231
155	0xbe320df4	-0.17388135
156	0x3dada41d	0.08478568
157	0xbfd38f40	-1.6528091
158	0xbf5d1b49	-0.8636976
159	0xbe5f343e	-0.21797273
160	0x3d9a220c	0.07526025
161	0xbdc94f88	-0.098296225
162	0xbf08bf02	-0.53416455
163	0xbe99be5e	-0.3002805
164	0xbd921ec6	-0.07134776
165	0xbd060c73	-0.032726716
166	0xbd6595b4	-0.05605097
167	0xbdde7ccf	-0.10863649
168	0x3e52b8a1	0.20578243
169	0xbd850fa4	-0.06497124
170	0x3e129ee9	0.14318432
171	0x3d94f024	0.07272366
172	0xbd0dc539	-0.034611914
173	0xbdcd0bee	-0.10012041
174	0x3dd2a276	0.10284893
175	0x3dc30384	0.09522155
176	0x3d852ca2	0.06502654
177	0x3dbbe538	0.091745794
178	0xbea439b6	-0.3207528
179	0x3d9426d1	0.07233966
180	0xbda45903	-0.0802479
181	0xbf1509c6	-0.5821804
182	0x3d3f3616	0.04668244
183	0xbf5528a5	-0.83265144
184	0x3f5e00a2	0.86719716
185	0xbd1030ab	-0.035202663
186	0x3e198adb	0.14994375
187	0xbde6858f	-0.11255943
188	0xbf0b79dc	-0.5448282
189	0xbe63b8d8	-0.22238481
190	0xbc855acb	-0.016278645
191	0xbc9c61f8	-0.019089684
192	0xbe7427a6	-0.2384325
193	0x3b869538	0.0041071437
194	0xbd3c5e5a	-0.04598842
195	0x3e1c8c76	0.15287957
196	0x3e5bd9d0	0.21469808
197	0xbe4a0918	-0.19730031
198	0x3cd3dbaa	0.02586158
199	0x3d143b23	0.03618921
200	0x3edb3be3	0.42819127
201	0x3f5d3409	0.86407524
202	0xbdcc71f5	-0.09982673
203	0xbd775f61	-0.060393695
204	0x3e09f466	0.13472137
205	0xbe584f6a	-0.21124044
206	0xbe6b2ba3	-0.22965865
207	0xbdae7422	-0.08518244
208	0xbf218d2f	-0.63106054
209	0x3e0025ab	0.12514369
210	0x3dc34efa	0.09536548
211	0x3d5b6031	0.053558532
212	0xbe8490cd	-0.25891724
213	0xbf01ea64	-0.50748277
214	0x3e8dcd39	0.27695635
215	0xbf26d834	-0.6517365
216	0xbf9585fd	-1.1681515
217	0xbdb700a8	-0.08935672
218	0x3d796214	0.06088455
219	0x3d7905aa	0.060796417
220	0xbed9b2f1	-0.42519334
221	0xbee53989	-0.44770458
222	0x3e498cc0	0.19682598
223	0x3e850cea	0.25986415
224	0x3e71f818	0.23629797
225	0x3f2804a2	0.6563207
226	0x3e9835e1	0.29728606
227	0xbee5e7bc	-0.44903362
228	0xbe871e12	-0.2639013
229	0x3bf8aaef	0.0075887362
230	0x3eec94a1	0.46207145
231	0xbd72e0e9	-0.059296522
232	0xbf619805	-0.8812259
233	0xbf0f002e	-0.5585965
234	0xbde76f7e	-0.11300562
235	0xbc94a99b	-0.01814728
236	0x3c62aabd	0.0138346525
237	0xbe52c493	-0.205828
238	0xbe0cd6c4	-0.13753802
239	0x3d620b87	0.055186775
240	0xbddc0edf	-0.10745024
241	0x3def89f6	0.11696236
242	0xbdbe38aa	-0.092881516
243	0xbe25d8ad	-0.16195937
244	0x3da3bf84	0.07995513
245	0xbd968722	-0.07349993
246	0xbbc6afa4	-0.0060634185
247	0x3bb9baeb	0.0056680343
248	0xbb0680df	-0.002052359
249	0xbcc73096	-0.02431516
250	0x3d93fbac	0.07225737
251	0x3e1feca4	0.15617615
252	0x3d1af9d2	0.037835903
253	0x3cedd56a	0.029032428
254	0x3cc03547	0.023462905
255	0x3df6c77d	0.12049768

bias f4 [256]
0	0x3e4f4004	0.20239264
1	0x3d4bd462	0.04976309
2	0x3d10454b	0.035222333
3	0xbdb15517	-0.08658808
4	0x3e323fb0	0.17407107
5	0x3e9085e4	0.2822715
6	0x3d765fa2	0.060149796
7	0x3e26e979	0.163
8	0xbea08084	-0.3134805
9	0xbe949fcf	-0.29028174
10	0xbc472943	-0.012155834
11	0xbe0adafa	-0.13560095
12	0x3e648970	0.22318053
13	0xbedbdbfb	-0.4294127
14	0x3e52e7f7	0.205963
15	0x3e1b9721	0.1519437
16	0xbd65c10f	-0.05609232
17	0xbe63604f	-0.22204708
18	0xbe20c1aa	-0.15698877
19	0xbe64ad8f	-0.22331832
20	0x3da42142	0.08014156
21	0x3e62470f	0.22097419
22	0xbe43628b	-0.1908056
23	0x3de95947	0.113939814
24	0xbd9b6ed1	-0.07589496
25	0x3dcf808d	0.10131941
26	0xbde47f3c	-0.111570805
27	0x3db35eec	0.08758339
28	0x3ec86eb3	0.39146957
29	0xbd65be2c	-0.056089565
30	0xbeb28119	-0.3486412
31	0x3d615fd8	0.055023044
32	0x3e257b40	0.16160297
33	0xbe057ff7	-0.13037096
34	0xbe192dd3	-0.14958887
35	0x3da05bc7	0.07830005
36	0xbe02cdd5	-0.12773831
37	0x3e7295b6	0.23689923
38	0x3e061eaa	0.13097635
39	0xbd7437b4	-0.059623435
40	0x3f0b101a	0.54321444
41	0xbe1b8f82	-0.15191463
42	0xbe745a22	-0.23862508
43	0xbe2bca29	-0.16776337
44	0xbe22917e	-0.15875813
45	0xbe17650b	-0.14784639
46	0xbcb684ef	-0.022280185
47	0xbe7d6982	-0.2474728
48	0xbe18d1ef	-0.14923833
49	0xbdb71a2d	-0.089405395
50	0xbdce9792	-0.100875035
51	0xbd6006be	-0.05469393
52	0xbc306b07	-0.010767705
53	0xbf06514a	-0.5246779
54	0x3e2af759	0.16695918
55	0xba9162d3	-0.0011092074
56	0xbddc7a8b	-0.10765561
57	0xbe4cdd9e	-0.20006415
58	0xbec0a9b7	-0.37629482
59	0x3dcfb8b4	0.10142651
60	0x3e4ace2c	0.19805211
61	0xbd085ea1	-0.03329337
62	0xbe8f9a8c	-0.28047597
63	0xbe2a806b	-0.1665055
64	0x3ddc2dde	0.10750936
65	0x3e4631c8	0.19354928
66	0xbe37e6ba	-0.17959109
67	0x3e62b381	0.22138788
68	0xbdb29493	-0.087197445
69	0xbf01c414	-0.50689816
70	0xbe1f63b1	-0.15565373
71	0xbdac66e8	-0.08418065
72	0x3f0c4e19	0.5480667
73	0xbd5c61ca	-0.053804196
74	0x3e93e54d	0.2888588
75	0xbcec70fd	-0.02886247
76	0xbd435175	-0.047685105
77	0x3eaeb888	0.3412516
78	0xbc893d82	-0.016752962
79	0xbb928e34	-0.0044725183
80	0xbdea228d	-0.11432371
81	0xbd4c7973	-0.04992051
82	0x3e17d5b7	0.1482762
83	0xbd59919d	-0.053117383
84	0xbd451c12	-0.048122473
85	0xbe02bbfe	-0.12767026
86	0xbdd87fb4	-0.105712324
87	0x3dd0bfd3	0.101928376
88	0x3e930917	0.28717873
89	0x3e3fb04d	0.18719597
90	0x3da629ab	0.08113416
91	0xbd22fd70	-0.039792478
92	0x3daf192c	0.08549723
93	0xbc55f605	-0.013059144
94	0x3e662491	0.22474886
95	0x3e60027c	0.21875948
96	0xbdd6c006	-0.10485844
97	0xbd1ec61b	-0.038763147
98	0xbe386458	-0.18007028
99	0x3e1a4991	0.15067126
100	0x3ebccb65	0.36873928
101	0x3e8dee4f	0.27720878
102	0xbe6e5e6d	-0.23278208
103	0xbe3189d4	-0.17337734
104	0xbeebd4ef	-0.46060893
105	0xbda14622	-0.07874705
106	0xbb610136	-0.0034332997
107	0x3d5d53cc	0.054034993
108	0x3ddf7c3c	0.10912368
109	0xbd939393	-0.07205882
110	0x3cd69df0	0.026198357
111	0xbe969b0a	-0.2941516
112	0xbdbcda1b	-0.09221288
113	0xbe1ee53d	-0.15517135
114	0xbe0d9086	-0.13824663
115	0xbeb31476	-0.34976548
116	0xbe8207a5	-0.25396457
117	0xbe817c48	-0.25290132
118	0xbe08e1a9	-0.13367333
119	0x3d391929	0.04519001
120	0xbdc67e85	-0.096921004
121	0xbe40a523	-0.18812995
122	0x3f089c4b	0.53363484
123	0x3d9b0101	0.07568551
124	0x3d6f9df9	0.058500264
125	0xbe36ffbe	-0.17870995
126	0x3e98d790	0.2985196
127	0x3f58c794	0.8467953
128	0xbe2eb0c2	-0.17059615
129	0xbe8e21d2	-0.27760178
130	0xbd5bebc7	-0.05369165
131	0x3e99ba1a	0.30024797
132	0x3e70ba4a	0.23508564
133	0xbe9898a6	-0.29803962
134	0x3e4e1ee2	0.20128968
135	0x3eb3f13d	0.35144988
136	0x3e675ae0	0.2259326
137	0x3b459b84	0.003015251
138	0x3bb8103e	0.0056171706
139	0xbe1ae9d7	-0.15128265
140	0x3e6b4878	0.22976863
141	0xbe0f1193	-0.13971548
142	0xbcd28486	-0.025697958
143	0xbe2e8936	-0.1704453
144	0xbe198575	-0.14992316
145	0x3ce1c079	0.027557598
146	0xbd0b20be	-0.033966772
147	0xbe1af490	-0.15132356
148	0x3d010099	0.03149471
149	0xbda02fc9	-0.07821614
150	0xbbdd9145	-0.0067617022
151	0x3d4d36ae	0.050100975
152	0x3e920119	0.28516462
153	0x3e6c1dbc	0.23058218
154	0x3d745840	0.059654474
155	0x3e3d6f8c	0.18499583
156	0x3d243a21	0.0400945
157	0x3da87692	0.082257405
158	0x3d1d19f6	0.038354836
159	0x3d7e3c89	0.06206945
160	0x3e2e8a30	0.17044902
161	0x3cfb01fa	0.030640591
162	0xbd812bf9	-0.06307215
163	0xbd9b114c	-0.075716585
164	0x3c0dee3a	0.008662755
165	0x3cf4b824	0.029872961
166	0xbe827be4	-0.25485146
167	0x3ea81951	0.32831815
168	0x3e47e41b	0.19520609
169	0xbded5603	-0.11588671
170	0xbe165cb8	-0.14683807
171	0x3d11ade7	0.035566237
172	0x3e2251c1	0.15851499
173	0x3e483995	0.19553216
174	0xbde6c99e	-0.11268924
175	0x3e0ae453	0.13563661
176	0x3f008918	0.5020919
177	0xbdbfcb55	-0.093649544
178	0x3ea4f848	0.32220674
179	0x3e75371b	0.23946802
180	0xbda6a348	-0.08136612
181	0xbdc73b93	-0.0972816
182	0xbe9dba3c	-0.30806148
183	0xbd904c33	-0.07045784
184	0x3db22989	0.086993285
185	0xbc73b9a2	-0.014875801
186	0x3e3c1140	0.18365955
187	0xbe95cd06	-0.29257983
188	0xbdfb5df2	-0.12273778
189	0xbdfde914	-0.12397972
190	0x3d8bbd99	0.06823272
191	0xbdc47743	-0.0959306
192	0xbd0f0b74	-0.034923032
193	0x3e53d8cf	0.20688175
194	0x3d9dfe1c	0.07714483
195	0x3adbce41	0.0016769842
196	0x3ecac4b0	0.39603186
197	0xbe28ad96	-0.16472468
198	0xbd85b9fd	-0.06529615
199	0x3d0a8143	0.03381468
200	0xbe665049	-0.22491564
201	0x3cf69554	0.030100502
202	0xbcb15d7f	-0.021651028
203	0x3d62bade	0.05535399
204	0xbe1e7b35	-0.15476687
205	0xbbfaab72	-0.0076498324
206	0x3e4a5277	0.1975802
207	0xbb9d2a32	-0.00479629
208	0x3d10f540	0.03539014
209	0x3edbdc0d	0.42941323
210	0x398e9c58	0.00027200836
211	0xbe07f51d	-0.13277097
212	0xbdbf7c4c	-0.093498796
213	0xbd1337f9	-0.03594205
214	0x3de257d6	0.110519096
215	0xbc44248e	-0.011971606
216	0xbebdc6fa	-0.3706587
217	0xbe5dade4	-0.21648365
218	0x3e354fa7	0.17706166
219	0x3eaf4185	0.34229675
220	0xbd1e900c	-0.038711593
221	0xbe23a955	-0.15982564
222	0x3e11642f	0.14198373
223	0xbd62b1a2	-0.055345185
224	0xbdc9f512	-0.098611966
225	0x3e9a50d5	0.30139795
226	0xbe200df8	-0.15630329
227	0xbc576c0d	-0.01314832
228	0x3ddac463	0.10681989
229	0xbdcc3961	-0.09971882
230	0xbe1eecce	-0.15520021
231	0xbe98f51e	-0.2987451
232	0x3da00e99	0.07815284
233	0xbdcdfcad	-0.1005796
234	0x3e2729fa	0.16324607
235	0xbd308461	-0.043094996
236	0xbdfaa5ec	-0.12238678
237	0xbd3c76db	-0.046011787
238	0xbdbc597e	-0.09196757
239	0xbd1f29c3	-0.038858186
240	0xbe4aa556	-0.19789633
241	0x3f2fc442	0.6865884
242	0x3d15da62	0.03658522
243	0xbd3fc017	-0.04681405
244	0xbd73beb8	-0.059508055
245	0xbd882e16	-0.06649415
246	0xbea01bdb	-0.31271252
247	0x3e1c14a0	0.15242243
248	0xbe34a996	-0.17642817
249	0x3ea79eac	0.32738245
250	0xbe889db0	-0.26682806
251	0x3d8e9616	0.0696222
252	0x3e520a57	0.20511757
253	0xbe0e75b2	-0.13912085
254	0xbe91a63d	-0.28447142
255	0xbc4be068	-0.012443639

weight f4 [256, 256]
0	0x3dbd4240	0.09241152
1	0x3c6a970b	0.014318238
2	0xbdb7ba99	-0.089711376
3	0x3d4ba913	0.04972179
4	0x3cd154db	0.025553158
5	0xbdd18721	-0.10230852
6	0xbdbfc517	-0.09363764
7	0xbd73d3c1	-0.059528116
8	0x3e56af16	0.20965227
9	0xbe5d49b8	-0.21610153
10	0xbe2b0e4d	-0.16704674
11	0x3d6f6da5	0.058454175
12	0xbd7f93be	-0.062396757
13	0xbf04d2ab	-0.51883954
14	0x3dad0ed2	0.084500924
15	0xbeb85296	-0.36000508
16	0x3e81b91e	0.25336546
17	0xbdc79d3b	-0.09746786
18	0x3d988e82	0.07449056
19	0x3e3e8340	0.18604755
20	0x3eb57e79	0.35448053
21	0xbe503e3c	-0.2033624
22	0xbdb29003	-0.08718874
23	0xbd1e2611	-0.03861052
24	0xbe9ea0f5	-0.30982175
25	0x3e2b1c3a	0.16709986
26	0x3e814fb1	0.25256112
27	0xbeb89e93	-0.36058483
28	0xbe00b977	-0.12570749
29	0x3cfdfb3a	0.031003583
30	0xbd732fc2	-0.059371717
31	0xbf085107	-0.5324864
32	0x3dbe3402	0.092872635
33	0x3e72500b	0.23663346
34	0xbda96204	-0.08270648
35	0x3e0ab39a	0.13545075
36	0x3e0ff5cd	0.1405861
37	0xbd130895	-0.035896856
38	0xbd0a0e8f	-0.03370529
39	0x3e8e1f1a	0.27758104
40	0x3df49d95	0.11944119
41	0x3d11bc89	0.03558019
42	0xbe7275ed	-0.23677798
43	0xbe9e253a	-0.30887777
44	0xbd0f317f	-0.034959313
45	0x3cfe99c6	0.031079184
46	0x3d566f4a	0.052352227
47	0xbe6e3a4e	-0.23264429
48	0x3e0aa678	0.13540065
49	0xbea4d456	-0.3219325
50	0x3e1865b0	0.1488254
51	0xbedddec8	-0.4333403
52	0x3e8b34b8	0.2718866
53	0xbf014f34	-0.5051148
54	0xbebd3efe	-0.36962122
55	0xbd8f5250	-0.06998122
56	0x3e49e3d1	0.19715811
57	0xbd78591d	-0.06063186
58	0xbf1cc202	-0.6123353
59	0x3da78305	0.08179287
60	0xbcebd08d	-0.028785968
61	0xbd3b7d31	-0.04577369
62	0x3e14f47a	0.14546385
63	0xbd0b2bd3	-0.03397734
64	0xbe6d1d5f	-0.23155735
65	0xbd90e6da	-0.070752814
66	0x3caa401d	0.020782525
67	0x3e4c96cd	0.19979401
68	0x3b810fa0	0.00393863
69	0xbe6436a1	-0.22286464
70	0x3d5eb471	0.0543713
71	0xbd828cc5	-0.06374506
72	0x3e3488ac	0.17630261
73	0xbe268de9	-0.16265072
74	0xbdef2dc0	-0.11678648
75	0x3eefc106	0.46826953
76	0x3e190afd	0.14945598
77	0xbe87cacb	-0.26521906
78	0x3d89ae19	0.067226596
79	0x3c2f0c76	0.010684123
80	0xbe4267c1	-0.18984891
81	0xbe6beb67	-0.23039018
82	0x3dba2102	0.09088327
83	0xbddf62d0	-0.10907519
84	0x3ea7d36d	0.32778493
85	0x3d76474e	0.060126595
86	0x3e783cc5	0.24241932
87	0xbc81bdf6	-0.01583765
88	0x3dcb6bf4	0.099327
89	0x3b85c43b	0.0040822304
90	0x3e36e411	0.17860438
91	0xbe0da446	-0.13832197
92	0x3e326888	0.17422688
93	0x3e373f4c	0.1789524
94	0xbe45974e	-0.19296
95	0x3e60b3bf	0.21943568
96	0x3d93f75f	0.07224917
97	0xbd1199d5	-0.035547096
98	0x3e8f01ed	0.27931157
99	0xbbd3b1c9	-0.0064604026
100	0xbea53104	-0.32263958
101	0x3d082f8f	0.03324848
102	0xbdc858dc	-0.097825736
103	0xbdb07851	-0.086166985
104	0xbe8ff3b4	-0.28115618
105	0xbd991f05	-0.0747662
106	0xbc3281b1	-0.010895179
107	0xbd9d0365	-0.07666663
108	0xbe8f52c0	-0.2799282
109	0xbca98bd1	-0.020696552
110	0x3e005e43	0.12535958
111	0xbe5454b7	-0.20735441
112	0x3deb9572	0.11503114
113	0xbdaa0fb5	-0.08303777
114	0xbe3900e2	-0.18066743
115	0xba7c298d	-0.00096192287
116	0xbc996ff1	-0.018730136
117	0xbe836d68	-0.25669408
118	0x3c53f657	0.01293715
119	0x3d0fe2b8	0.035128325
120	0xbe29800a	-0.1655275
121	0x3e89c8da	0.2691105
122	0x3e5111aa	0.20416895
123	0x3e8f1caa	0.27951556
124	0xbd29300c	-0.041305587
125	0x3c66066a	0.014039615
126	0xbee35b69	-0.44405678
127	0x3e4b21d3	0.19837122
128	0x3e62d566	0.22151718
129	0xbe05c7c6	-0.13064489
130	0xbf08c5da	-0.534269
131	0xbde8e003	-0.11370852
132	0x3e82d599	0.25553587
133	0xbdc8ce7f	-0.09805011
134	0xbeb7d363	-0.35903463
135	0x3e6b9090	0.23004365
136	0x3e4536a7	0.1925913
137	0x3d73464d	0.059393216
138	0x3d05bea2	0.032652505
139	0x3dd725ca	0.105052546
140	0x3d5b1aa2	0.053492196
141	0x3f044317	0.5166487
142	0x3d75e729	0.060034905
143	0xbea5875f	-0.32329842
144	0xbe8d1f3b	-0.2756289
145	0xbdd439ae	-0.10362564
146	0x3e3323eb	0.1749417
147	0x3bf5f489	0.0075059575
148	0x3ea51b1d	0.32247248
149	0x3d1d826c	0.038454458
150	0x3db68d47	0.08913665
151	0xbddf0532	-0.10889663
152	0x3d701027	0.058609154
153	0x3cd55423	0.026041096
154	0x3cf1a57f	0.02949786
155	0xbe932b7e	-0.2874412
156	0xbce4d031	-0.027931305
157	0x3c4dd10c	0.012562048
158	0xbd5bbb15	-0.053645212
159	0x3e9e022d	0.30861035
160	0xbe2983e1	-0.16554214
161	0x3e2971b2	0.16547278
162	0x3db69d89	0.08916766
163	0xbe333cae	-0.17503616
164	0x3dd410d5	0.10354773
165	0xbdb62a51	-0.0889479
166	0x3e1601c2	0.14649108
167	0xbd984fe3	-0.07437112
168	0xbe193e15	-0.14965089
169	0xbd2c31d8	-0.042039722
170	0xbc463545	-0.012097661
171	0x3d3b8712	0.04578311
172	0x3df3a5ff	0.118968956
173	0x3dce4388	0.10071474
174	0xbe1e2831	-0.1544502
175	0xbe74c263	-0.23902278
176	0xbe38b769	-0.18038715
177	0x3b6641e9	0.00351345
178	0x3d49465d	0.04913937
179	0xbe15cd1f	-0.14629029
180	0xbe126b3f	-0.14298724
181	0xbd9f3711	-0.07774175
182	0xbea2c042	-0.31787306
183	0xbd58fe40	-0.052976847
184	0x3e67720a	0.22602096
185	0x3d0028d5	0.03128894
186	0x3d730c9a	0.05933819
187	0x3e10d310	0.14143014
188	0xbdfe8265	-0.124272145
189	0x3c074674	0.008256543
190	0xbe8c9491	-0.27457097
191	0x3d8decb8	0.06929916
192	0xbe4443ce	-0.1916649
193	0x3cdfb588	0.02730824
194	0x3dbb475b	0.09144469
195	0x3e64adac	0.22331876
196	0xbde0f0ad	-0.10983405
197	0xbe4cc64c	-0.19997519
198	0xbeaa2644	-0.3323232
199	0xbd0190b2	-0.031632133
200	0xbd84875c	-0.0647113
201	0x3e14c045	0.1452647
202	0xbeb92997	-0.36164543
203	0x3e854bdf	0.26034448
204	0x3e12d6d4	0.14339763
205	0xbe1fa630	-0.15590739
206	0x3ec54686	0.38530368
207	0x3e154a86	0.1457921
208	0xbe96d2f9	-0.29457834
209	0xbe618510	-0.22023416
210	0xbedbef55	-0.42956033
211	0xbe64a0e5	-0.22327001
212	0x3e26c04a	0.1628429
213	0x3e074ffb	0.13214104
214	0xbe3cd9dd	-0.18442483
215	0x3d8b1276	0.067906305
216	0xbcaa9b53	-0.020826017
217	0xbdc3c90d	-0.09559832
218	0x3d4bf3a4	0.0497929
219	0xbc1bcf3e	-0.00950986
220	0xbe5284c2	-0.20558456
221	0xbd5475d6	-0.05187019
222	0xbe0d1522	-0.13777593
223	0xbe09f243	-0.13471322
224	0xbd9349a5	-0.07191781
225	0x3b84c03f	0.004051238
226	0xbe91f3a8	-0.28506207
227	0x3e6a13df	0.22859143
228	0x3ddfb21a	0.10922642
229	0xbcc77b67	-0.024350835
230	0x3de9305c	0.11386177
231	0x3e48b51c	0.19600338
232	0xbe2f5bd7	-0.17124878
233	0xbe278a43	-0.16361336
234	0x3db4d6a3	0.08830001
235	0x3beaecf4	0.0071693603
236	0x3cc77045	0.024345526
237	0x3ace2dea	0.0015730236
238	0x3e6ab786	0.22921571
239	0xbe1f208c	-0.1553976
240	0xbdbd2ead	-0.09237418
241	0xbdc32f6d	-0.0953053
242	0xbd909246	-0.070591494
243	0x3e31715d	0.17328401
244	0xbc7eb573	-0.015546191
245	0x3ee93c3f	0.45553777
246	0xbeaa3c0f	-0.33248946
247	0xbc135650	-0.0089927465
248	0x3e45a878	0.19302547
249	0xbe1149c3	-0.14188294
250	0xbd509d98	-0.050931543
251	0x3e4cea9c	0.20011371
252	0x3e4bfee4	0.19921452
253	0x3e5cb9fb	0.21555321
254	0xbc940fea	-0.018073995
255	0xbdaa880d	-0.08326731

bias f4 [256]
0	0x3ccdc209	0.025116937
1	0x3d655fa9	0.05599943
2	0xbdb24401	-0.08704377
3	0xbd8675dd	-0.065654494
4	0x3e1145e1	0.14186813
5	0xbdb4ea26	-0.08833723
6	0xbda0fcde	-0.078607306
7	0x3e3c0489	0.18361105
8	0x3d97c2c1	0.07410193
9	0x3e716b48	0.23576081
10	0x3f03ca20	0.51480293
11	0x3e83daad	0.25752774
12	0x3ef5c4e7	0.48001787
13	0xbe16239d	-0.14662023
14	0x3f03c7ba	0.51476634
15	0xbe0758d6	-0.13217482
16	0x3e6e996e	0.23300716
17	0x3edf439c	0.4360627
18	0x3e91c7ff	0.28472897
19	0x3e548f4c	0.20757788
20	0x3e36ffb3	0.17870979
21	0x3e1204b4	0.14259607
22	0xbe10db36	-0.14146122
23	0x3bd290d5	0.0064259567
24	0xbdccb0cf	-0.09994661
25	0xbd3814f8	-0.044941872
26	0x3e1f077d	0.155302
27	0xbe5ca8f7	-0.2154883
28	0xbd8f45a4	-0.06995705
29	0x3e19d843	0.15023904
30	0xbd90d9f5	-0.07072822
31	0xbe1e2ed6	-0.15447554
32	0x3ea6fc70	0.3261447
33	0x3f11848d	0.5684288
34	0xbdd7337d	-0.105078675
35	0xbd96a436	-0.073555395
36	0xbe0d1555	-0.13777669
37	0x3ee25d1c	0.44211662
38	0x3f0dfe0e	0.5546578
39	0x3f20e8b9	0.62855107
40	0x3e83aaf9	0.2571638
41	0x3e79aef0	0.2438314
42	0x3ed62ffa	0.41833478
43	0xbe17ac48	-0.14811814
44	0x3e9a352f	0.301187
45	0x3e81e4fc	0.25370014
46	0x3f0c5f83	0.5483324
47	0x3f0e23a1	0.55523115
48	0x3c0777f4	0.008268345
49	0x3e9d24c8	0.30692124
50	0xbdd80b84	-0.105490714
51	0x3f15ae1e	0.58468807
52	0x3e8ed71c	0.2789849
53	0x3ec0a0a7	0.37622568
54	0xbe98c60c	-0.29838598
55	0xbe27ed12	-0.16399029
56	0x3e6958a5	0.22787721
57	0x3f08bb58	0.53410864
58	0x3e877313	0.26454982
59	0xbe2da70c	-0.16958255
60	0x3e2e0711	0.16994883
61	0x3e96f4f6	0.29483765
62	0xbc5adb32	-0.013357924
63	0x3e4bb518	0.198933
64	0x3e535891	0.20639254
65	0x3edfdd6e	0.43723625
66	0x3ec6c1a3	0.38819608
67	0x3e88a41d	0.26687708
68	0x3e349d27	0.17638074
69	0x3d0f00c9	0.03491286
70	0xbdf4fb4c	-0.119619936
71	0x3ecc35be	0.39884752
72	0x3e813b1c	0.2524041
73	0x3e77bcd8	0.24193132
74	0xbd7c193f	-0.061547514
75	0x3e88b69a	0.26701814
76	0x3e9206a3	0.28520688
77	0x3f076df4	0.5290215
78	0x3ecb7122	0.3973475
79	0xbc5f52ea	-0.013630608
80	0x3ed543b8	0.41653228
81	0xbe2c2a75	-0.16813071
82	0x3e8de469	0.27713326
83	0x3e3b1c17	0.18272434
84	0x3ef7fd29	0.48435333
85	0xbd8e73d0	-0.06955683
86	0x3e62b060	0.22137594
87	0xbdf127b0	-0.11775148
88	0x3f076814	0.52893186
89	0x3e860b1c	0.2618035
90	0xbd9fa9d1	-0.07796062
91	0x3e915b65	0.2839004
92	0x3ed93a9b	0.42427525
93	0x3d168740	0.03675008
94	0xbe842aff	-0.25814053
95	0x3e2907e7	0.16506921
96	0xbe00b171	-0.12567689
97	0x3eb170c0	0.34656334
98	0x3e29787e	0.1654987
99	0x3e85d453	0.26138553
100	0x3dc2ca48	0.09511238
101	0xbe20cf89	-0.15704168
102	0x3ea89adc	0.32930648
103	0xbe4ed974	-0.2020014
104	0x3e93cdcd	0.2886795
105	0x3d0a150e	0.033711486
106	0xbd0c0369	-0.03418294
107	0x3ea441ea	0.32081538
108	0x3e91da3e	0.28486818
109	0x3f079905	0.52967864
110	0x3e95124c	0.29115522
111	0xbec64adc	-0.38728988
112	0x3d3a1404	0.045429245
113	0xbd0269f4	-0.031839326
114	0x3f18fc6a	0.59760153
115	0x3e9441e6	0.28956527
116	0x3d3e628d	0.046480704
117	0xbc60f9e5	-0.0137314545
118	0x3f109eee	0.5649251
119	0x3e73d715	0.23812516
120	0x3e90d1d1	0.28285077
121	0x3b7a7e48	0.0038222242
122	0x3e7f0adb	0.24906485
123	0x3d4eb50d	0.050465632
124	0xbdd59273	-0.104283236
125	0x3cd48438	0.025941953
126	0x3dcea2d5	0.100896515
127	0x3f0f0ba8	0.5587716
128	0x3e8234c8	0.25430894
129	0x3d312826	0.04325118
130	0xbd97fa89	-0.07420833
131	0x3cbdd198	0.023171231
132	0x3e8ecf53	0.2789255
133	0x39f033e1	0.0004581502
134	0x3f01717d	0.50563794
135	0x3d89ef58	0.06735104
136	0x3f00969c	0.5022981
137	0x3e39908b	0.18121545
138	0xbdb6f12f	-0.08932721
139	0x3d5ae27d	0.053438652
140	0xbd72334b	-0.059130948
141	0xbdfec20b	-0.124393545
142	0x3eb9da6b	0.36299452
143	0x3f1f2564	0.6216643
144	0xbda651fb	-0.08121105
145	0x3ea2df15	0.31810823
146	0x3e4f244c	0.2022869
147	0xbe1fc6d0	-0.15603185
148	0x3a82d93c	0.0009982954
149	0x3f0a952e	0.5413388
150	0xbea63961	-0.32465652
151	0xbe0e53cc	-0.13899153
152	0x3f2d1cbc	0.6762197
153	0x3e819131	0.25306085
154	0x3eac189a	0.3361252
155	0xbd183ba5	-0.037166256
156	0x3e4eff35	0.20214541
157	0x3f1a2cb9	0.6022449
158	0xbdd1613a	-0.102236226
159	0xbd598aeb	-0.053110998
160	0xbdb2e791	-0.08735574
161	0x3f013f2c	0.5048702
162	0xbec47568	-0.38370824
163	0x3c2c00ad	0.010498208
164	0x3a9dab0b	0.0012029124
165	0x3dadc357	0.08484524
166	0xbd9021f3	-0.07037725
167	0xbd99a1b0	-0.075015426
168	0xbdafccdc	-0.08583996
169	0x3e68f426	0.22749385
170	0x3e898ebf	0.2686672
171	0x3e97b7b4	0.29632342
172	0x3d06cba5	0.032909054
173	0x3e420d60	0.18950415
174	0xbd169460	-0.036762595
175	0x3e756f56	0.23968253
176	0xbdb71ffb	-0.08941647
177	0xbd1cfa00	-0.038324356
178	0xbd40eedd	-0.047102798
179	0xbdbe177b	-0.09281822
180	0x3f1dd6a4	0.6165564
181	0xbe8aa91e	-0.2708215
182	0x3ed88f9b	0.42297062
183	0x3e434df5	0.19072707
184	0x3e636612	0.22206905
185	0x3f0a1b2b	0.53947705
186	0xbdd78894	-0.10524097
187	0x3d84238a	0.06452091
188	0x3e181869	0.14853062
189	0xbd82bed7	-0.06384056
190	0x3f0ba67c	0.5455091
191	0x3e3f91c7	0.18707953
192	0xbe370531	-0.17873074
193	0x3e036f25	0.12835367
194	0xbdad8150	-0.0847193
195	0x3e816aea	0.2527688
196	0x3e6641fe	0.22486112
197	0x3eafb3b0	0.34316778
198	0x3e8e9f9f	0.27856156
199	0x3c112687	0.008859283
200	0x3e5cbf38	0.21557319
201	0xbbb3677a	-0.005474982
202	0x3d50871b	0.050910097
203	0xbe963190	-0.29334688
204	0x3f0213d1	0.5081149
205	0x3d894e50	0.0670439
206	0x3e896070	0.26831388
207	0x3e6f4d07	0.23369227
208	0xbde8c9fd	-0.11366651
209	0xbd7730ab	-0.060349148
210	0x3f113808	0.5672612
211	0x3e869a4f	0.26289603
212	0x3eec4b85	0.46151367
213	0xbe1bb7cd	-0.15206833
214	0xbd06152c	-0.032735035
215	0x3f080b42	0.5314218
216	0xbcaf0d94	-0.02136878
217	0xbd1806fa	-0.03711603
218	0xbe0c3466	-0.13691863
219	0x3f0c75ae	0.54867065
220	0x3f12377c	0.5711591
221	0x3e87e11f	0.2653894
222	0x3e6a26e2	0.22866395
223	0xbcd55c0f	-0.026044874
224	0x3ebe9168	0.3722031
225	0x3e354075	0.1770037
226	0x3e19d7b0	0.15023685
227	0xbe3a59ea	-0.18198362
228	0x3e975782	0.2955895
229	0xbc62e89f	-0.0138494065
230	0x3e6b3a9d	0.22971578
231	0x3ec8fe85	0.39256683
232	0xbdb6abc6	-0.08919482
233	0x3e3eef51	0.1864598
234	0xbbbf2c84	-0.005834164
235	0x3e8761b0	0.26441717
236	0xbdeabb84	-0.11461547
237	0x3e81577b	0.25262055
238	0x3cbad861	0.022808256
239	0xbd883bb5	-0.06652013
240	0x3e59bd27	0.21263562
241	0x3e0b1a16	0.1358417
242	0x3ee9a480	0.45633316
243	0x3e8e3439	0.27774218
244	0x3e835b07	0.25655386
245	0x3f151edf	0.5825023
246	0x3d64db98	0.055873483
247	0x3e4900aa	0.1962916
248	0x3e8d35fd	0.27580252
249	0x3f1897c4	0.59606576
250	0xbd0cc48d	-0.034367133
251	0x3e955d9d	0.29172984
252	0x3c365939	0.011129671
253	0x3f2a8be1	0.6661969
254	0x3e29e536	0.16591343
255	0x3e71808c	0.23584193

weight f4 [1, 256]
0	0xbfd2edaa	-1.6478779
1	0xbfc88534	-1.566565
2	0xbf5e4fa0	-0.8684025
3	0xbf902d97	-1.1263913
4	0x3fea6d8a	1.8314679
5	0xbf5fd5ae	-0.87435424
6	0xbf809794	-1.0046258
7	0x3ec41458	0.3829677
8	0xbfdf74b8	-1.7457495
9	0x3d313801	0.0432663
10	0x3f0c6852	0.5484668
11	0x3d55b6bb	0.05217622
12	0x3f1a91d5	0.6037877
13	0xbf27431d	-0.6533678
14	0x3f1ee3f1	0.6206656
15	0xbf6ce177	-0.9253153
16	0xc00a5ffe	-2.162109
17	0x3f8f55e1	1.1198083
18	0x3dee52f9	0.116369195
19	0x3f6683b7	0.9004473
20	0x3c2510de	0.010074822
21	0x3e8c30a8	0.27380872
22	0xbf6e4e72	-0.9308845
23	0xbfe95c5f	-1.8231314
24	0xbf37cfbb	-0.71801347
25	0xbfaeee41	-1.3666459
26	0x3f5c85f0	0.8614187
27	0xbf549f9f	-0.8305606
28	0xbfb765cc	-1.4327941
29	0x3f141910	0.5785074
30	0xbf8c2dd8	-1.095149
31	0xbfbfcdc7	-1.4984673
32	0x3fbc16d5	1.4694468
33	0x3f1c7c42	0.611271
34	0xbfcb9466	-1.5904663
35	0xbf2df9e2	-0.67959416
36	0xbf38841a	-0.7207657
37	0x3fa5eef5	1.2963549
38	0x3f7a89f5	0.97866756
39	0x3f8ca99b	1.098926
40	0x3d563ffd	0.052307118
41	0x3d3c5066	0.04597511
42	0x3f9073d5	1.1285349
43	0xbf00cce4	-0.5031264
44	0x3fa8d3f2	1.318968
45	0x3f10c57a	0.56551325
46	0x3f59c90e	0.8507241
47	0x3f3429f8	0.7037654
48	0xbfde6f5b	-1.7377733
49	0x3e40df75	0.18835242
50	0xc01b793d	-2.4292748
51	0x3fae4ca6	1.3617141
52	0x3f47b778	0.78014326
53	0x3ef69c5d	0.4816617
54	0xbfb17b28	-1.3865709
55	0xbfbc6fb0	-1.4721584
56	0x3fa73a94	1.3064752
57	0x3f1bf031	0.6091338
58	0x3d8d5818	0.06901568
59	0xbf29354b	-0.66096944
60	0x3d278fd3	0.040908646
61	0x3f8ad897	1.0847348
62	0xbfe8363d	-1.8141552
63	0x3c2ffdd0	0.010741666
64	0x3cc7a976	0.024372797
65	0x3f8d3566	1.1031921
66	0x3fc0a9c6	1.5051811
67	0x3f2ffcc8	0.6874509
68	0x3ce462e4	0.027879186
69	0xbfb10c43	-1.3831867
70	0xbfe7cc4e	-1.8109224
71	0x3fcc4470	1.5958385
72	0x3d65ab4f	0.056071576
73	0x3d1a9a5a	0.037744857
74	0xbf6492de	-0.892866
75	0x3da3ed8d	0.080042936
76	0x3dca3c1b	0.098747455
77	0x3f019170	0.50612545
78	0x3f0d4fdd	0.55199987
79	0xbfcbb226	-1.5913742
80	0x3fd5b55e	1.6695974
81	0xbf0ec848	-0.55774355
82	0x3d9fa247	0.07794624
83	0x3ef60eaa	0.48058063
84	0x3fcf4a48	1.6194544
85	0xbf2e387a	-0.68054926
86	0x3c8493ef	0.016183821
87	0xbf58e009	-0.8471685
88	0x3f02690a	0.50941527
89	0x3d73e02e	0.059539966
90	0xbdcf05a1	-0.101084955
91	0x3ddefa57	0.10887592
92	0x3f980666	1.1876953
93	0xbf7f268e	-0.99668205
94	0xc0202f59	-2.5028899
95	0x3e1e0c0a	0.1543428
96	0xbf6338a7	-0.8875832
97	0x3eca8996	0.39558095
98	0xc0188037	-2.3828256
99	0x3f1cb20b	0.6120917
100	0x3f5a7527	0.8533501
101	0xc041c4c0	-3.0276337
102	0x3fd0cc78	1.6312399
103	0xbf3e11e3	-0.7424604
104	0x3f200e85	0.62522155
105	0xbfab8ceb	-1.340238
106	0xbfde4232	-1.7363951
107	0x3ead0bd8	0.337981
108	0x3ddfa588	0.109202445
109	0x3f2596d8	0.64683294
110	0x3dfbaa32	0.122883216
111	0xbfe4bc3c	-1.7869945
112	0xbfea6e68	-1.8314943
113	0xbfad0946	-1.3518455
114	0x3f0d6505	0.5523227
115	0x3dd7c0d1	0.10534824
116	0xbf6b7a1c	-0.919832
117	0xbfab2110	-1.3369465
118	0x3f827d04	1.0194402
119	0x3d078787	0.033088233
120	0x3dc9814e	0.09839116
121	0xbfb2bc17	-1.396365
122	0x3d66cd5f	0.0563482
123	0xbfe7602f	-1.8076228
124	0xbf28b121	-0.6589528
125	0xbfbe0ab9	-1.4847022
126	0x3fb7c08e	1.4355638
127	0x3f3a9d26	0.7289604
128	0x3d5d5b5b	0.0540422
129	0xbec63a7b	-0.38716492
130	0xbfc2dc3a	-1.5223458
131	0xbfd18691	-1.6369191
132	0x3dc60aac	0.09670004
133	0xbf061efc	-0.5239103
134	0x3f966d84	1.1752172
135	0x3eda22f9	0.42604807
136	0x3ea0b74a	0.31389838
137	0x3d6db8ba	0.058037497
138	0xbf546fa8	-0.82982874
139	0xbfd0bf02	-1.6308291
140	0xbfafc6eb	-1.373258
141	0xbfe3d82c	-1.7800345
142	0x3fe89d67	1.8173035
143	0x3f47c622	0.780367
144	0xbfc70441	-1.5548173
145	0x3e642641	0.22280218
146	0x3d849b13	0.064748906
147	0xbec5a619	-0.38603285
148	0xc012fbe6	-2.2966247
149	0x3f6756be	0.90366733
150	0xbf2ee25b	-0.6831414
151	0xbfaff72a	-1.3747303
152	0x3f982809	1.1887218
153	0x3eebc7b4	0.460508
154	0x3fddf0ef	1.7339152
155	0xbf653fee	-0.89550674
156	0x3cdc7900	0.026913166
157	0x3f8e0e9a	1.1098206
158	0xbf9a4f25	-1.2055403
159	0xbf7c5a9f	-0.98575777
160	0xbf5c6c30	-0.8610258
161	0x3ee3729b	0.44423375
162	0xbf821027	-1.0161179
163	0xbfcafcca	-1.5858395
164	0xbf719361	-0.9436551
165	0xc00be93a	-2.18611
166	0xbf0bc390	-0.5459528
167	0xbf9cdc19	-1.2254668
168	0xbf8be8cd	-1.093042
169	0x3d2dff2d	0.042479683
170	0x3da7e2ed	0.081975795
171	0x3e148e0e	0.14507315
172	0xbfa3d3bd	-1.2798992
173	0x3de69272	0.11258401
174	0xbf1a8345	-0.6035655
175	0x3ce66b28	0.028127268
176	0xbf04df26	-0.51903
177	0xbf0dde62	-0.55417454
178	0xbfee8e14	-1.8637109
179	0xbea0ff44	-0.31444752
180	0x3f81db32	1.0145018
181	0xbf8fda33	-1.1238464
182	0x3f8cc3d2	1.099726
183	0x3f17363c	0.5906713
184	0x3cb774c0	0.022394538
185	0x3f33d7f6	0.70251405
186	0xbf7c3509	-0.98518425
187	0xbfb3cba3	-1.404652
188	0xc00df7ce	-2.2182498
189	0xbfbc756d	-1.4723336
190	0x3f7b1dd1	0.9809237
191	0x3d9efb56	0.07762782
192	0xbfd7d51f	-1.6861914
193	0xbfffafa9	-1.9975482
194	0xbea5a994	-0.3235594
195	0x3d7362f3	0.059420537
196	0x3d15913f	0.03651547
197	0x3f6c4274	0.922889
198	0x3da4d487	0.08048349
199	0xbf943199	-1.1577636
200	0x3c742df5	0.014903535
201	0xbfa048f4	-1.2522264
202	0xbf6bdeb0	-0.9213667
203	0xbf4b42eb	-0.79398984
204	0x3f9ac5ab	1.2091573
205	0xc00b5460	-2.1770248
206	0x3d90791b	0.07054349
207	0x3eb0f713	0.34563503
208	0xbef31743	-0.47478685
209	0xbfa4cca5	-1.2874953
210	0x3f0ebd1c	0.5575731
211	0x3d797ec2	0.0609119
212	0x3f9ab485	1.208634
213	0xbf8f0901	-1.1174623
214	0xbfcc8dcb	-1.5980772
215	0x3f289e65	0.6586669
216	0xbfdd03d0	-1.7266788
217	0xbfa0c4a3	-1.2560009
218	0xbed13c3d	-0.4086627
219	0x3f1cf259	0.61307293
220	0x3f4f6349	0.8101087
221	0x3d8a7b67	0.067618184
222	0x3cf7eae5	0.030263374
223	0xc00a4351	-2.1603587
224	0x3fa61cc3	1.2977527
225	0xbb982d4d	-0.004644072
226	0x3ece7097	0.40320274
227	0xbf6e8424	-0.9317038
228	0x3dea6a44	0.1144605
229	0xc013fa4b	-2.3121517
230	0xc01ea16e	-2.478603
231	0x3f4f067f	0.8086929
232	0xbfcf4ce0	-1.6195335
233	0x3cd6786b	0.026180467
234	0xbfc1f9ad	-1.515432
235	0x3d7c4a0a	0.061594047
236	0xbee69284	-0.45033658
237	0x3d77aacf	0.06046563
238	0xbf7cf5f3	-0.9881279
239	0xbf2c49f8	-0.6730037
240	0x3ca229db	0.019795349
241	0x3f65f9a1	0.8983403
242	0x3f4251e0	0.7590618
243	0x3db1ff9f	0.08691334
244	0x3d76967c	0.060202107
245	0x3f6add21	0.91743666
246	0x3c00f7f2	0.007871615
247	0x3e88ff63	0.26757345
248	0x3dbee89b	0.0932171
249	0x3f594764	0.8487456
250	0xbf4d649b	-0.80231637
251	0x3dec337b	0.115332566
252	0xbf821c54	-1.0164895
253	0x3f8a1fef	1.0790995
254	0xbfb597f2	-1.4186995
255	0x3d08fa53	0.033441853

obs_std f4 [35]
0	0x3e4ccccd	0.2
1	0x3e4ccccd	0.2
2	0x3f800000	1.0
3	0x3f800000	1.0
4	0x3f800000	1.0
5	0x3f000000	0.5
6	0x3f000000	0.5
7	0x3f000000	0.5
8	0x3f000000	0.5
9	0x3f000000	0.5
10	0x3f000000	0.5
11	0x3f000000	0.5
12	0x3f000000	0.5
13	0x3f000000	0.5
14	0x3f000000	0.5
15	0x40800000	4.0
16	0x40800000	4.0
17	0x40800000	4.0
18	0x40800000	4.0
19	0x40800000	4.0
20	0x40800000	4.0
21	0x40800000	4.0
22	0x40800000	4.0
23	0x40800000	4.0
24	0x40800000	4.0
25	0x3f800000	1.0
26	0x3f800000	1.0
27	0x3f800000	1.0
28	0x3f800000	1.0
29	0x3f800000	1.0
30	0x3f800000	1.0
31	0x3f800000	1.0
32	0x3f800000	1.0
33	0x3f800000	1.0
34	0x3f800000	1.0

obs_mean f4 [35]
0	0x00000000	0.0
1	0x00000000	0.0
2	0x00000000	0.0
3	0x00000000	0.0
4	0x00000000	0.0
5	0x00000000	0.0
6	0x00000000	0.0
7	0xbe4ccccd	-0.2
8	0x3f19999a	0.6
9	0xbecccccd	-0.4
10	0x00000000	0.0
11	0x00000000	0.0
12	0xbe4ccccd	-0.2
13	0x3f19999a	0.6
14	0xbecccccd	-0.4
15	0x00000000	0.0
16	0x00000000	0.0
17	0x00000000	0.0
18	0x00000000	0.0
19	0x00000000	0.0
20	0x00000000	0.0
21	0x00000000	0.0
22	0x00000000	0.0
23	0x00000000	0.0
24	0x00000000	0.0
25	0x3f000000	0.5
26	0x3f000000	0.5
27	0x00000000	0.0
28	0x00000000	0.0
29	0x00000000	0.0
30	0x00000000	0.0
31	0x00000000	0.0
32	0x00000000	0.0
33	0x00000000	0.0
34	0x00000000	0.0
